run_2/weights/weights-g-200.pth (torch, 418811 bytes, 12 tensors)

chords_tempNet.convT_in.weight f4 [32, 1024, 2, 1]
00000000: d8d3 8abc 22e6 9abc 9418 bbbb b06e 053d
00000010: d2f3 8dbc eeaf 92bc 4a20 5c3c 18a9 33bc
00000020: f05c ea3b cd92 a6bc 1856 a5bc f063 bcbc
00000030: c854 2fbc 7691 e03b 84a4 81bc 5500 a33b
00000040: 45ca 20bc 63ce adbb b389 c2ba f24b 063c
00000050: b2ea 99bb b93d 393c 4956 bd3c da12 9f3b
00000060: f918 cbbb a494 013d af56 a73b 89db ef3b
00000070: 7c49 0fbd d01c e3bc 37e0 353c cd7e 5dbc
00000080: 787d a13b 0e00 f4bc ca94 793c 03ad 2f3c
00000090: 2855 95bc 4e25 51bc 068d f13b 4bf8 c2bc
000000a0: afc1 c33c 823b be3c a573 14bb f8fd 953c
000000b0: 3f24 b0bc 821e d637 4a72 533c 8b71 43bc
000000c0: 3156 3ebb 5184 9f3b 458c 7b3c 8a99 77bc
000000d0: aae0 85ba d9bc 43bd 4634 463c 463d 90bc
000000e0: e19c f4bc 5e85 433c 8c0c 833c 161b e63c
000000f0: 3bae d53c 5fc9 98bc db1c 7dba 3e4a 1abd
00000100: 925b 08bd 9cd9 ba3c 85a8 e43c c463 c03c
00000110: acb8 a1bb edf9 1a3d 464c c03b bb54 87bb
00000120: 219a c4bb 46ba 12bb c2d9 913c c212 1f3c
00000130: 88bc 22bd 293c 0d3b f82f ca3a f032 2e3b
00000140: e252 593c a4d2 1d3b d54d 953c 38e6 35bc
00000150: 28b2 73bb 21a9 4a3c b22a 34bc 9f24 f23b
00000160: 675d fe3c ffcc d4bb df0f 17bc b0f9 89bc
00000170: 5f8b aebc 2253 173c 03d3 8c3a 3277 913b
00000180: e771 c8bb f744 083c 05a5 a63a d28b 0a3c
00000190: 615b 53bc b558 1c3d eb52 9dba c665 5dbc
000001a0: 36e7 b73a 4f52 61bb d3f2 04bd 2bd3 7a3c
000001b0: 18f2 363d 6e6e ffbc 8632 87bb e6d3 af3c
000001c0: fd05 753d 6f2e 2bbc c223 3bbd c592 c23c
000001d0: 27f1 b33c 4f93 f3bb dd03 4cbb ed44 603c
000001e0: cf3c 0abd d691 843a ee28 a63c 571b 153c
000001f0: ed70 763c 9270 453c d99f 0bbd cb61 b63c
00000200: f64d 4e3c a36d b13b 349f a13a 9289 db3c
00000210: df81 a13c d44f 963c 5d96 a4bc bb09 313b
00000220: 2619 933c d22f 4dbc 32ae 133c d1c3 8b3b
00000230: 3750 eabc b065 30bc b89b 30bc b7dd 1cbc
00000240: 4c82 993c 059a 373c 17be 233b 4394 963a
00000250: 6eb3 4a3c 31fc 14bd cacb 02bd 0350 13bd
00000260: 7f55 06bc 55c7 cabc 7595 073b 788e d63c
00000270: 3088 06bd a5ef 8e3c 3175 693c dcde 3a3c
00000280: e013 3dbc b32a f0bc 14db b3bc ecb1 db3c
00000290: c4c8 b1bb a4b8 4b3c 6255 7ebc 3059 2ebb
000002a0: dd65 673d 61a0 2fbc 8e7a 983c 3a38 0b3d
000002b0: 8957 933b 3e8a d63c b62a aeb9 6156 703c
000002c0: 6bf4 b7bc 2584 bbbb 8104 bf3c 3ee7 f83c
000002d0: e0f2 32bd 776c 883c 2d0b afbb a387 3f3c
000002e0: 0aa1 7fba 8ded ee3b 6f24 82bc 6d9c 6a3c
000002f0: 7aff 1e3c 46ac 1b3c 0ce6 1dbc 4ef2 063d
00000300: 6ffe 51bc 9f4c e63c 934b 4e3c 8778 23bc
00000310: d3c4 8abb 47e3 d33b bf7e eeba d953 10bc
00000320: f348 d1bb 27c3 71bc bcd1 f6bb b065 27ba
00000330: c765 bdbc 2ffd b83a e3f4 33bc 8a5f 7dbb
00000340: ef2f 2abd 5626 833b 2cf3 35bc 6962 45bd
00000350: db92 763c af0f 78bc 925d 803b 7e08 823c
00000360: 7d17 eb3c e413 cc3c 9283 06bd ec1f 773c
00000370: 0048 da3c 9b87 6ebd 6cd5 bd3c 1469 45bc
00000380: a3af 1dbc 7fa3 28bd ddf6 1e3d f0ac 8b3c
00000390: ac47 bebc 2a7d 03bc c8a3 99bc 7039 553c
000003a0: ef61 b1bc 7d91 6a3c 5bcf 453c 290a 113c
000003b0: 6edf 053d 64cd 803c 0bcc f13c 16c5 633c
000003c0: 9134 543c e47f 73bb 4a66 973c 33d2 23bb
000003d0: 1ac5 cb3a 0480 353c bb58 82bc c04c 7eba
000003e0: d5f5 afbc 83e7 abbb 8b9e 323d 133c 143d
000003f0: 20fb 3e3c 0c41 a8bb fd16 793c e0b4 98ba
-0.016946718 -0.018908564 -0.005709717 0.032576263 -0.017328177 -0.017906155 0.013435433 -0.010965608
0.0071521923 -0.020333672 -0.020182654 -0.022996873 -0.010701366 0.006853278 -0.015825517 0.004974405
-0.00981385 -0.005304144 -0.0014842063 0.008196818 -0.0046971673 0.01130622 0.023112433 0.004854542
-0.0061980453 0.031635895 0.005106769 0.007319872 -0.03498219 -0.0277237 0.01110082 -0.013519001
0.004928287 -0.029785182 0.015233228 0.010722402 -0.018229082 -0.012765242 0.0073715476 -0.023800036
0.023896066 0.023221735 -0.0022651937 0.018309578 -0.021501658 2.5524994e-05 0.012905667 -0.011928926
-0.0029043073 0.0048680683 0.015353267 -0.01511229 -0.001021405 -0.04778752 0.012097424 -0.017607342
-0.029859962 0.011933653 0.015997194 0.028089087 0.026084056 -0.018650709 -0.0009655484 -0.03766846
-0.033290453 0.022808842 0.027912388 0.023485072 -0.0049353447 0.037836004 0.0058684675 -0.0041299737
-0.005999819 -0.002238886 0.01780403 0.009709062 -0.03973058 0.002155075 0.0015425673 0.0026580654
0.01326439 0.002408185 0.01822559 -0.011102252 -0.0037185047 0.012369425 -0.0109965075 0.0073896195
0.031050397 -0.006494164 -0.009220093 -0.016842693 -0.021306692 0.009236129 0.0010744039 0.004439258
-0.006117094 0.008317224 0.0012713975 0.008456187 -0.012900204 0.038170535 -0.0012002861 -0.013513034
0.0014030698 -0.0034381335 -0.032458138 0.015309135 0.044664472 -0.031180587 -0.004125896 0.021463346
0.059820164 -0.010448082 -0.0456884 0.023751626 0.021965576 -0.007433332 -0.0031130232 0.013688308
-0.033749398 0.0010114263 0.020283189 0.009100757 0.015041572 0.012050765 -0.03408799 0.022263428
0.0125918295 0.005414681 0.0012330771 0.026798997 0.019715248 0.018348612 -0.02009123 0.0027013856
0.017956328 -0.012523608 0.009013699 0.0042652865 -0.028602703 -0.010766432 -0.010779314 -0.009574345
0.018738888 0.011206155 0.0024985129 0.0011488277 0.012371881 -0.03637332 -0.03193263 -0.035964977
-0.008199095 -0.024753252 0.0020688449 0.026190981 -0.032844722 0.017448256 0.014249132 0.011405673
-0.011540383 -0.029317236 -0.02195505 0.026818238 -0.0054255445 0.0124341585 -0.015523287 -0.0026603453
0.05649363 -0.01071939 0.018613126 0.03398917 0.004496519 0.026188966 -0.00033219688 0.014669032
-0.022455415 -0.00572254 0.023317577 0.030383702 -0.043688655 0.016653283 -0.0053419084 0.011690053
-0.0009751475 0.007291502 -0.015886514 0.014319521 0.009704465 0.009501522 -0.009637367 0.032945924
-0.012817009 0.028112708 0.0125912605 -0.009977466 -0.004234889 0.0064663026 -0.0018195732 -0.008809053
-0.00638687 -0.014756001 -0.0075323265 -0.0006385697 -0.02311982 0.001411354 -0.0109836785 -0.0038661682
-0.04154962 0.0040023727 -0.01110534 -0.048189554 0.0150496615 -0.015140458 0.0039174045 0.01587319
0.028697724 0.024911828 -0.03284032 0.015083294 0.02664566 -0.058234792 0.023173057 -0.012048978
-0.009624395 -0.041171547 0.038809646 0.017050236 -0.023227535 -0.008025447 -0.018754855 0.013014182
-0.021653144 0.014316914 0.012073363 0.00885252 0.032683782 0.015722938 0.02951624 0.013901969
0.012951986 -0.0037155086 0.018481392 -0.0024997115 0.0015546412 0.011077885 -0.01591145 -0.00097007677
-0.021479527 -0.005246104 0.04360823 0.036190104 0.011656553 -0.0051347073 0.015203235 -0.0011650585

chords_tempNet.convT_in.bias f4 [1024]
00000000: c58b b73a d58d 403c c18b a1bb 87b7 853c
00000010: 3790 5c3c e0f7 323c 35e7 b03a a2a1 0f3c
00000020: 2d1b 01bc 981c 08bc 124b 13bc 5510 0cbb
00000030: 1bc1 5fbb 5d16 16bc 9fe9 60bb 790c b4bc
00000040: d1f2 83bc c3a7 8cbc 9d0d 05bc 2faf 18bc
00000050: 67d9 b3b9 1e5a 843c e12a a7bc 498f 9ebb
00000060: 8ab5 c1bb 65d0 c6ba 3a91 3abc 2065 a33c
00000070: 0c9c 693c 7d5b b23c 1839 ea3b d4d3 3a3c
00000080: f216 88bc 37a2 46bb c131 0b3b ed89 133c
00000090: 7781 403c 34fa 6e3c c723 83bc 6f2c 89bc
000000a0: 11d4 2e3c 3a36 44bc 8568 b2bc ecf7 ad3c
000000b0: 2306 ba3b 320c 0b3c 3105 f339 c8ac 66bc
000000c0: 2f6c 87bc c1fb 483c 3fb6 983c 59e0 373b
000000d0: f952 92bc 2234 303c 8365 1d3c f76b 4a3c
000000e0: 35cc 13bb e8fb a2bb 9c76 313c 30e6 793b
000000f0: 12d4 9c3c 32cc 9e3c 0f26 4d3c 387b 06bc
00000100: cfa6 3ebc 962c a03c 762f 38bb d5a3 713b
00000110: df3c ecbb 4762 06bb 21c1 643b e3db 80bc
00000120: 76da b4bc 0aa0 e6bb 477b 983b f3e3 9cbb
00000130: 6c2e b4bc ef2a 77bc 8795 733c 353b 2cbb
00000140: 2735 743c 136d 54bc 5f1b 74bc be26 ddbb
00000150: d0c2 343c 2892 1ebc 4ae4 98bc 0687 933c
00000160: e402 31bc 4c74 75bc d9af b1bc 09b4 f83b
00000170: 4562 85bc 605c 843c 9b7d 963c 97a4 85bc
00000180: f85e 823c fba2 93bc 2628 a63c 1812 273c
00000190: 972e 103c fc97 c3bb 4363 3d3c 5dac 9ebc
000001a0: 58f8 ce3b e30e aabb 195c 7e3c 625e 6dbc
000001b0: 7b65 9ebc 3d20 ef3b 5461 f23a 03a2 a13c
000001c0: 29e9 9d3b 9997 483c d534 423c 995f 733c
000001d0: 5e7c 133b 76ab 1ebc 3d81 463b aafe 723c
000001e0: c763 373c a81d 48bc 82d0 6b3a 35ee 2a39
000001f0: a6d5 973b 941c 20bc b2a0 273b 1c54 9c3c
00000200: 460c df3b 1717 2b3c 6f57 54bc 9ce9 2abb
00000210: 6c43 8b3c eb43 09bc 306f 4fbc 002d 943b
00000220: 9067 b4ba 1c68 9b3c 6f5f 163c 807b 923c
00000230: 06df 2e3c 5719 9f3c 0ef2 3dbc 4072 003c
00000240: 151a 3ebc 6880 1abc f785 a63c edac ca3b
00000250: b0d5 993c 5747 4d3c e3dd 4abb dffc 4abc
00000260: f40e 9b3c e340 12bc 4c20 433c 2745 80bc
00000270: e304 31bc b001 a1bc fa9d 64bc d2c3 81bc
00000280: addd 233c 3fcf 2abb f4b5 8ebc d904 963c
00000290: f521 3ebc 3911 a23c f3c7 f53b b559 8ebc
000002a0: fad7 5dbc f311 cc3a ab8d 04bc f753 cfbb
000002b0: ebd0 b9b9 009c 29bc 025b 293c bfe1 04bb
000002c0: d098 e0bb d11d 8c3c 024c 59bc a9cf a93b
000002d0: 4300 5a3c d957 5d3c b179 5a3c ba47 ccbb
000002e0: 954f 17bc 31d9 f43b 499b 6cbc af4e 0e3c
000002f0: 0b8b a3bb 05d6 9e3c f9b1 8e3c 4c06 e3ba
00000300: a569 08bc 313b b2bc d6fb 923b 4c7d a43c
00000310: 379b 84bb 537c 98bb d431 62bc 4dd4 843b
00000320: 013a ae3c 846a b23c af8b 2b3c 632c 92ba
00000330: 6f16 5c3c 21f8 b73b 990f 29bb df50 963c
00000340: 8b8b 0c3c 8a6e d3ba 975f 943c 5f32 503c
00000350: a90b 6bbc 1817 063b 04db 1abc db5f a5bc
00000360: 6fcc 16bc 2fab 803c c163 17bc bdec 8b3c
00000370: 449f 7ebb ed2c 67bc 50df 5b3c 53df b4bc
00000380: fd2c 503c 7784 5ebc d42f 1938 983e b73b
00000390: a012 66bc db2d 70bc 32cd 91bb 730d 65bc
000003a0: 2047 033c 5099 1abc 04a6 373c 92ad 2c3b
000003b0: bbe2 fb39 d2ec a0bc 202d 273c bade 9bbc
000003c0: 375a 6c3c 3d05 b13c 7e3a 9d3b 1ceb 93ba
000003d0: 304d 76bc 3603 5c3c 181b 373b b9ef 56bc
000003e0: a2de 9e3c 45a9 d43a 5ef9 afbc 3688 2ebb
000003f0: 312f 19bc 506f 513c 6a86 083a f4a9 873c
0.0014003447 0.011752565 -0.00492999 0.016322864 0.013462118 0.010923356 0.001349664 0.008766564
-0.007880014 -0.0083075985 -0.008990066 -0.002137204 -0.00341422 -0.009160605 -0.0034318937 -0.021978604
-0.016106995 -0.017169839 -0.008120921 -0.009319111 -0.00034303518 0.016156252 -0.020406188 -0.0048388583
-0.0059115337 -0.0015168308 -0.011387164 0.019945681 0.014258396 0.02177214 0.0071479194 0.011403043
-0.016612504 -0.003030909 0.0021239372 0.009005052 0.011749617 0.01458602 -0.01600827 -0.01674482
0.010670678 -0.011975819 -0.021778354 0.021236382 0.005677001 0.008486794 0.0004635244 -0.01407928
-0.016531078 0.012267054 0.01864159 0.0028057306 -0.01786183 0.010754617 0.009606722 0.012354842
-0.0022552137 -0.004973877 0.010831501 0.0038131587 0.019144092 0.019384477 0.012521281 -0.008208089
-0.01163645 0.01955251 -0.002810446 0.0036871333 -0.007209405 -0.0020505355 0.0034905153 -0.01572985
-0.022076827 -0.007038121 0.0046533677 -0.004787916 -0.021994792 -0.01508592 0.014867193 -0.0026280407
0.014905251 -0.012965458 -0.014899104 -0.006749003 0.011032775 -0.009678401 -0.018663544 0.01800872
-0.010803912 -0.014981341 -0.021690296 0.0075898212 -0.01628221 0.01615733 0.01837044 -0.016313834
0.015914425 -0.018022051 0.020282816 0.010197185 0.00880017 -0.0059690457 0.01155931 -0.019369299
0.006316226 -0.005189763 0.0155248875 -0.014487835 -0.019335499 0.0072975443 0.0018492141 0.019730574
0.0048190546 0.012243175 0.011853416 0.014854335 0.0022504549 -0.009684434 0.0030289434 0.014831224
0.011193222 -0.012214102 0.00089956087 0.00016301202 0.004633623 -0.009772439 0.002557796 0.019083075
0.006806883 0.010442517 -0.012960299 -0.0026079183 0.016999923 -0.008378009 -0.0126607865 0.004521966
-0.0013763774 0.018970542 0.009178027 0.017881155 0.01067329 0.019421263 -0.011593355 0.007839739
-0.011602898 -0.0094300285 0.020327551 0.006185165 0.018778652 0.012529216 -0.0030955009 -0.012389391
0.018928029 -0.008926603 0.011909556 -0.015657974 -0.010804388 -0.019654125 -0.01395368 -0.015840445
0.010001582 -0.002606347 -0.017420746 0.018312858 -0.011604776 0.019783603 0.0075006424 -0.01737676
-0.013540262 0.0015569314 -0.008090417 -0.006327148 -0.00035441606 -0.010352135 0.010336639 -0.0020276157
-0.006854154 0.017104061 -0.013262751 0.0051822257 0.013305726 0.013509714 0.013334678 -0.0062341364
-0.009235282 0.0074721803 -0.01444132 0.008685752 -0.0049909404 0.019389162 0.017418848 -0.0017320602
-0.008325969 -0.02175674 0.0044855876 0.020079277 -0.0040468234 -0.0046534925 -0.013805825 0.0040536285
0.021267893 0.021779306 0.010470315 -0.0011152144 0.013433083 0.005614296 -0.002579665 0.01834911
0.0085781915 -0.0016130966 0.018111987 0.012707322 -0.014346042 0.0020460542 -0.009451631 -0.020187309
-0.009204014 0.015706627 -0.009240092 0.017080659 -0.0038852254 -0.014109832 0.013419941 -0.022079146
0.012706039 -0.013581387 3.6522586e-05 0.0055921786 -0.0140425265 -0.01465937 -0.00444951 -0.013980257
0.008012563 -0.009435967 0.011209015 0.0026348573 0.00048043378 -0.019644175 0.01020363 -0.019027103
0.014425806 0.021608943 0.0047982326 -0.0011285278 -0.015033051 0.0134285 0.0027939733 -0.013118678
0.019393269 0.0016224763 -0.021481212 -0.002663148 -0.00934963 0.012782887 0.00052080175 0.016560532

chords_tempNet.convT_out.weight f4 [1024, 32, 1, 1]
00000000: 12e9 b13a 5f0e 573c 109f 81bc 3786 e5bc
00000010: e9db 95bb bb7a 0d3c a401 213c 7bb5 533d
00000020: 7897 8b3b 352b 22bc 148c 19bc bd15 a4bc
00000030: 34c1 81ba 4684 d0bb 15e3 2cbd f3ba c1bc
00000040: 1868 943c 2b12 693c 4dd8 10bd 425e f83c
00000050: 62d7 84bc ecfd 03bd 7ef6 553c 7638 f03b
00000060: 241b 1c3d 289c 7b3b 3e0c 953c 8a6e 833c
00000070: 7422 e2bc 9159 cb3b c259 9d3a 99f8 48bc
00000080: b9d7 053d 3fe9 ea3a 8ab4 fabc 7fb1 db3c
00000090: 1511 753d c45c 2f3b d0a4 4f38 d4bf 25bc
000000a0: d621 1bbd 3b35 c1bb 0c59 233c ea9e 1cba
000000b0: 41bf 443c 5489 b73b fc3f f03c 9426 38bc
000000c0: 47e9 a63a 2316 97bb bcdb f8bc 039a 3bbd
000000d0: 0709 fb3a 7895 9d3c 0078 093c 999f 80bc
000000e0: dc9d 8fbb d894 b83c 9c85 fc3b 048c debb
000000f0: a7af 933c c802 863c b035 503b 377f 7aba
00000100: a034 043c 2f08 61bc ee77 67bc a847 66bc
00000110: bf00 d93c 9341 e9bc a063 d63c 1afa ea3c
00000120: a5e7 113c 00d7 413c 5cfc 193c d1d7 17bc
00000130: 0bce 5c3c bfda e03c 677c 93bc 6266 a63c
00000140: 6f9c ce3b b5f1 19bb 2131 e53c 732b 703c
00000150: 74e5 2b3d adbb 8e3c aa6c de3c fb1c ac3c
00000160: 3299 7e3c e0eb 7dbb 6b3b 65bc 1feb 9cbb
00000170: d204 1c3c 3ea7 f73c 368e 5fbc fd34 1e3c
00000180: e6cb bfbc 4a9b 8a3c ba31 483d 199b 19bc
00000190: 8a78 9cbb f5fd 6e3c a8f8 943c a419 c7bc
000001a0: 8417 df3b 84c3 f33c 46f3 fbbc d454 98bb
000001b0: 46ed d0bb 6d2e 01bd e23f 933a 777a abbc
000001c0: e7b4 4ebd 13a2 113c 7530 ed3b d46c a63c
000001d0: bca7 0fbd f0f0 64bb 0d21 4bbc e509 b03c
000001e0: 93ab 443b 3c0b 863c 4335 adbc a819 643c
000001f0: 630c 2cbc bb28 1b3c 793a 08bd f0b6 6f3c
00000200: 780e 1ebc bf8d d13b 9851 823c 0275 033b
00000210: a5f9 05bc 357a 903c aeba 0e3c 8f0c ce3c
00000220: 343e f2bc b7b8 0a3c 1d08 a93a 9b80 4d3d
00000230: 3ae8 1f3d 6ec3 87bc 23a1 803c 67ac 2fbb
00000240: a3b9 963b 8d26 9abb 1333 bebc 3ac6 a53c
00000250: 8312 35bc 682a 093c 898f 06bc 4f02 cc3c
00000260: d3c6 f73b 083b 0dbb 4bb6 bcbc 2244 35bd
00000270: d95c ccbc 3ee7 26bc 516b 423b 17d6 e1ba
00000280: b0d6 9a3c 370f e7ba 1209 81bc 495e 4fbd
00000290: 9543 0fbd 578f dbbb 15db 053c 28a6 77bc
000002a0: b337 c93c 55f1 3a3c 0d06 d0bc f20b d13c
000002b0: f1c8 67bc 3ec2 0e3d 3202 763c cf9f 04bc
000002c0: f05f 8c3c 87f4 e9bc d258 f13b 7f3f 8b3b
000002d0: 1cec c0bb dfc8 a9bc 5986 aebc 1d58 d03a
000002e0: c426 503c e8a4 b4bc 28be 9e3c 9924 2f3d
000002f0: 1de9 08ba b874 633b ac95 e13b 60da 09bd
00000300: 97fe 46bc 6059 183b fbdc 9d3b 3389 653d
00000310: a552 4a3b 647c 12bd 0e14 ac3c ddb8 713c
00000320: 7c78 e4bb ee41 d23b 9c0c 413d 7bca af3c
00000330: ec45 36bc 4bbc 12bb f9aa 8b3c 2790 bc3b
00000340: 2329 39bc 32c6 abbc 90e1 a93c 5252 523c
00000350: 28d6 633a 45c8 2cbd cd8c 12bd 5a06 253c
00000360: 3bfd 273c dd9c 893b 4123 cbbc 6074 0cbd
00000370: 3450 023d 6930 003c 27f3 0fbd 41e4 0b3c
00000380: a5cf a4bc e795 01bd 5da3 813c 8263 303c
00000390: 66d8 b83c 4edb 1cbc 9440 f8bc 4a71 ea3c
000003a0: 39c0 debc 9265 e1bc c5c9 0d3b 06b3 c1bc
000003b0: 36d1 e23a 0fc3 3d3c 6669 9cbc b3f3 8ebb
000003c0: 01ea 383c 970d eabc 5e5c 843c 5c47 493c
000003d0: 86e9 773c 9a63 243c 90dc 7cbc aaef ae3c
000003e0: a4bb d53b 1710 cf3a 9afd ec3b 4368 d73c
000003f0: 3121 363d ca1c 9dbc 0f35 6eb9 7397 b9bc
0.0013573489 0.013125985 -0.015822917 -0.0280181 -0.0045733345 0.008635218 0.009827051 0.051686745
0.00426 -0.009897997 -0.009371776 -0.020029897 -0.0009899498 -0.0063634245 -0.04220875 -0.023648715
0.018116042 0.014225523 -0.03536253 0.030318383 -0.016215984 -0.03222458 0.013059257 0.0073309494
0.03811182 0.0038392637 0.018194314 0.01604392 -0.02760432 0.0062057455 0.0012004899 -0.012266302
0.032676432 0.0017922296 -0.030603666 0.026818035 0.059830744 0.0026758173 4.950614e-05 -0.010116536
-0.037874065 -0.005896238 0.009969961 -0.0005974608 0.012008489 0.0056010876 0.029327385 -0.0112396665
0.0012734317 -0.004610793 -0.030378215 -0.045801174 0.0019152471 0.019236311 0.008390427 -0.015701102
-0.004382832 0.022531912 0.007706357 -0.0067915935 0.018028094 0.016358748 0.0031770281 -0.00095556997
0.008069187 -0.013734861 -0.014127715 -0.01405517 0.026489614 -0.028473651 0.026170552 0.02868371
0.008905326 0.011831045 0.009398546 -0.009267763 0.013476859 0.027448056 -0.018003656 0.020312492
0.0063052694 -0.0023490016 0.027977528 0.014658797 0.04196687 0.017423475 0.027151424 0.021009913
0.015539454 -0.0038745329 -0.013991217 -0.004788771 0.009522634 0.030231114 -0.013644746 0.009656188
-0.023412656 0.01691975 0.048875548 -0.009375357 -0.0047751116 0.014586915 0.018184975 -0.024304219
0.006808223 0.029756315 -0.03075565 -0.004648784 -0.0063759414 -0.031538416 0.0011234249 -0.02093242
-0.05046549 0.008888739 0.0072384425 0.020315565 -0.035072073 -0.003493365 -0.012398017 0.021489093
0.0030009493 0.016362779 -0.021143561 0.013922133 -0.010501 0.00947016 -0.03325889 0.014631018
-0.009647004 0.0063950713 0.015908048 0.0020058756 -0.008177196 0.017636398 0.0087115 0.025152473
-0.029570676 0.008466891 0.0012896095 0.050171476 0.039039828 -0.01657268 0.015701836 -0.002680564
0.0045997663 -0.0047043026 -0.023217713 0.020236123 -0.011051777 0.008371927 -0.008212932 0.024903445
0.0075615435 -0.0021550078 -0.023036143 -0.04425443 -0.024946617 -0.010186968 0.0029666016 -0.0017229941
0.0189012 -0.0017628436 -0.015751395 -0.050627027 -0.03497656 -0.006700437 0.008169909 -0.015115298
0.024562692 0.011410077 -0.02539351 0.025518391 -0.014147029 0.034853213 0.015015172 -0.008094742
0.01713559 -0.028558983 0.0073653245 0.0042495127 -0.0058875214 -0.020725666 -0.021304296 0.00158954
0.012704555 -0.02205129 0.019377783 0.04275951 -0.0005222725 0.003470702 0.0068842974 -0.033655524
-0.01214566 0.002324663 0.0048176027 0.056039046 0.0030872014 -0.03576316 0.021005657 0.0147535475
-0.0069723707 0.006416551 0.047131166 0.021458855 -0.011125069 -0.0022390063 0.0170493 0.005754489
-0.011301312 -0.02096853 0.02073744 0.0128370095 0.00086912746 -0.04218318 -0.03577881 0.010072315
0.010253246 0.0041996078 -0.024797084 -0.03429067 0.03181477 0.007824042 -0.035143998 0.008538307
-0.020118544 -0.0316371 0.015824968 0.010765912 0.022564124 -0.009573771 -0.03030423 0.028618474
-0.027191268 -0.027514253 0.0021635157 -0.023644935 0.0017304781 0.01158215 -0.019093227 -0.0043625473
0.01128626 -0.028570933 0.016157325 0.01228508 0.01513136 0.0100335125 -0.015433446 0.021354515
0.0065226126 0.0015797642 0.00723238 0.026294833 0.044465248 -0.019178767 -0.00022717215 -0.022655224

chords_tempNet.convT_out.bias f4 [32]
00000000: 862f 2b3e 1ace f5bd a43a 5cbc 311a dabd
00000010: 0f63 13be f0d7 97bb 76e3 17bd e90a 1c3e
00000020: e29d 7b3c 8974 d4bd 33f5 0fbe f67d 73bd
00000030: 8921 84bd 8306 ccbd fd79 033e f1e0 193e
00000040: 614c 08bd 7bb4 b13d 552d 923c e97c 1bbd
00000050: 0721 bfbd d844 0dbe 3088 2fbe 0e82 a739
00000060: c19d 00be 2053 423a f7e1 023e 0506 d73d
00000070: a99d 7ebd 769d 0dbe aab5 19bc 148e ce3d
0.16717348 -0.120022014 -0.013441715 -0.10649527 -0.14393257 -0.004633896 -0.037082158 0.15238537
0.015357466 -0.1037379 -0.1405838 -0.059446298 -0.06451709 -0.099621795 0.12839504 0.15027215
-0.033275966 0.08677002 0.017843882 -0.03796092 -0.09332471 -0.13795793 -0.17141795 0.0003194962
-0.12560178 0.0007412899 0.12781511 0.10499195 -0.062162075 -0.13829598 -0.009381691 0.10085693

chords_tempNet.batchnorm_1.weight f4 [1024]
00000000: f6c0 5fbb ba39 f1bb 8a37 69bd 7f32 3a3b
00000010: 8360 cd3c f851 65bc 66bc 013d 72cc 78bc
00000020: d858 8abc 9b5b 4a3c 31e2 00bd e356 adbb
00000030: faf7 2e38 cc85 46bc 013c 673c f121 13bc
00000040: 809c 773c cd7a 50bc 64bd 4dba e844 50bb
00000050: 7469 04bd d474 03bd bc33 dfbc 8555 7435
00000060: 96a0 03bd 2ef7 b2bb 989e 2d3c 4789 16bc
00000070: 156a 883c 4690 05bd ab85 76bc 7c3f eabc
00000080: 43f9 c8bc ca85 15bd 76aa 91bc 6106 9ebc
00000090: ad2c 7d3c 9f81 c5bb 8290 ad3c 6b4d 04bc
000000a0: 6d07 663b 76dd e3bc f562 f1bc 03af c1bb
000000b0: 5321 d4b8 1a0e 1139 eb43 c13b b9c2 12bd
000000c0: ca07 4bbb a0ab 09bd 0783 ccbc 47f5 c7bc
000000d0: af4e 0cbd a759 2b3c 4911 5b3d f7b4 28bc
000000e0: 6f81 223c a089 8f3c 5d0f 1a3c dee2 02bc
000000f0: 4a18 99bb 50e4 b93c 47f6 4abc ebad bb3c
00000100: 6f0e c339 fe1a 633c aed5 eb3b dfff a03c
00000110: 6694 7339 5704 9ebc 9f4f f0bb 65b7 0639
00000120: de3b cf3c 435c 18bc c880 8abc 9383 d53c
00000130: dff5 3fbc bd0f 97bb 9846 1bbb 083b b0bc
00000140: 9560 39bb b779 3c3c a22d ca3c 87eb 4c39
00000150: 8f41 c2bc 2505 32bd b29d aabc 6a3d 9f3c
00000160: 895b a8bc 8895 9f3b 36e0 96bb d222 27bc
00000170: b9f8 be3c cb25 81bc c3d8 b4bb 6c69 553b
00000180: daf0 c8bb bb1b c8bc 54bf a3bb 8bd4 2dbc
00000190: d68e 27b9 9046 ab3c 2778 c93b 9403 243c
000001a0: 78e5 bebc 9613 4f3c e1a6 a43c 857a 6e3c
000001b0: c2a5 533c 1e7c 9f3b 2230 96bc 7d33 bc3c
000001c0: 6fc6 93bc c317 0f3c 2f80 e5bc 15ca 41b9
000001d0: 7185 27bc 7c7d 363d 0345 503d 944f cc3b
000001e0: 0373 e1bc 1207 d7bb d45c 243b f2b7 38bb
000001f0: e113 483c 5324 81bc 0e8f 993c 5130 6ebb
00000200: e8d7 ad3c 4c9d 18bd a3dc e7bc 70da 11bd
00000210: 1928 d33c 9297 723c bf7b d1b7 ff08 fcbc
00000220: 3062 ae3b f1a3 c03b 2b54 063d 6acd 253d
00000230: d64e 533c b3e4 b9bb 123a 683c abd4 183d
00000240: 4af9 ecbc cccc a5bc 402f 123d 4a8c fe3c
00000250: cd0e a5bc 188b 3e3c e672 85bc 4808 febb
00000260: c8d2 4e3c c6bc 9a3c 541d 9c39 a0c9 3cbc
00000270: 3d0b ca3c aa72 383c 93ad ae3c b011 f9bb
00000280: 2db9 9e3c d142 433c bcbc ee3c 2ed5 0a3c
00000290: 3191 59bd 2dd2 95bc 56e0 473c aa07 0b3c
000002a0: cfd9 a5bb ba9b c1ba e6db 943c 3f53 1b3d
000002b0: a14d 95b8 7e83 e4bc d38c 36bd 94dd 3bbc
000002c0: 04ae 433c 1b7d 0b3c 632f 8a3a 52e2 21bb
000002d0: d540 e6bc 79b9 89bc 6fb8 c4bc 74a9 8bbc
000002e0: f9e2 0bbb 71cb af3b 7032 2a3c d12d 69bc
000002f0: 3fd2 3c3c 395c 4abc da4a 703c b833 29bc
00000300: bf8d adbc e448 5bb9 f55a 223d 21a7 98bc
00000310: 3c2c b03c 1674 c9bc 60fd 6338 3264 87bc
00000320: ad86 45bc 19fb ad3c 754f 5fbc 2c20 1fba
00000330: d629 59bc 830a d03c 6cb6 903c 356c 28bc
00000340: ed52 ae39 66ea 233c e5fb 033c 20ea 1cbc
00000350: 0ebe 3d3c de61 d33c ec59 61bc 27db 89bb
00000360: 0c8a b13c fc80 093d 8c7b 70bc 561e dcbc
00000370: 174d 9f3c ee58 7f3b 1c14 9d3c 774d 88bc
00000380: 04e3 25bd eb58 d3bb 5bc8 3f3d de49 61bc
00000390: 0887 bbbc 74cb 0dbd 5bdc ab3b d664 c43b
000003a0: 7c02 4ebd 69d2 74bc d15a c53b 9c5f 04bd
000003b0: 82ab 993c c199 bfbb 86a5 173d 5722 b5bc
000003c0: fdbe dc3c bab5 153a 423d c0ba a78f f3bc
000003d0: 99e9 26bd 75ab f1b9 ed1f bf3c 3a65 9bbc
000003e0: 4aa7 0ab9 1617 62bc ab78 cf3b cf37 e33c
000003f0: 3803 02bc a13d 2abb 5a28 cabc 4198 ba3c
-0.0034142113 -0.007361618 -0.05693773 0.0028411446 0.025070434 -0.013996594 0.03167381 -0.015185462
-0.016888067 0.012350942 -0.031465713 -0.0052898987 4.171578e-05 -0.012116861 0.014113427 -0.00898026
0.015112996 -0.0127245905 -0.0007848351 -0.0031779353 -0.03232713 -0.032093838 -0.027246349 9.102153e-07
-0.03213557 -0.005461595 0.010596894 -0.009188003 0.016652146 -0.032608293 -0.015046517 -0.028594725
-0.02453292 -0.036504544 -0.017781477 -0.019290151 0.015452546 -0.006027415 0.02118707 -0.0080750985
0.003509964 -0.027815562 -0.029466132 -0.0059107556 -0.00010115155 0.00013833531 0.005897989 -0.035830233
-0.0030979984 -0.03361094 -0.024964822 -0.02440895 -0.034254726 0.0104583865 0.05348328 -0.010297052
0.009918555 0.01752168 0.009403077 -0.00798866 -0.004672085 0.022691876 -0.012387819 0.022910079
0.00037204052 0.013861416 0.0071971035 0.019653259 0.00023229569 -0.019289179 -0.0073337103 0.00012847556
0.025297102 -0.009299341 -0.01690711 0.026063716 -0.011716335 -0.0046100304 -0.00236932 -0.021512523
-0.0028286327 0.011503628 0.024679963 0.00019542697 -0.023712901 -0.043461937 -0.020827148 0.019438464
-0.02055146 0.0048701204 -0.0046043647 -0.010201173 0.02331196 -0.015765091 -0.005519004 0.0032564057
-0.0061322274 -0.024427285 -0.0049971733 -0.010609756 -0.00015979572 0.02090767 0.0061483565 0.010010619
-0.023302779 0.012638947 0.020099105 0.014555578 0.012917938 0.004867091 -0.018333498 0.02297377
-0.018038956 0.008733693 -0.028015224 -0.00018481196 -0.010224686 0.044553265 0.050847065 0.0062350724
-0.027520662 -0.006562122 0.0025079744 -0.0028185812 0.012211771 -0.015764391 0.018744972 -0.0036344717
0.021221116 -0.037259385 -0.02830345 -0.03560871 0.025775956 0.014806645 -2.4972365e-05 -0.030766008
0.0053217635 0.0058789183 0.032795113 0.0404791 0.012897214 -0.005673015 0.014174001 0.03731219
-0.028927464 -0.020239256 0.035689592 0.031072754 -0.02014866 0.011629842 -0.01629014 -0.007752452
0.012623496 0.018888842 0.0002977649 -0.0115226805 0.024663562 0.011257807 0.021323001 -0.0076009855
0.019375408 0.011917786 0.02914273 0.008473678 -0.05311698 -0.018288696 0.012199482 0.008485714
-0.005061365 -0.0014771142 0.018171262 0.037921187 -7.119333e-05 -0.027894732 -0.044567894 -0.011466403
0.011943344 0.008513714 0.0010542687 -0.0024701548 -0.028107086 -0.016812073 -0.024013726 -0.017048575
-0.0021345003 0.0053648283 0.010388002 -0.014232115 0.011524736 -0.012351089 0.0146662835 -0.010327272
-0.021185754 -0.00020912621 0.039637525 -0.01863438 0.021505468 -0.024591487 5.435699e-05 -0.016527269
-0.012056035 0.021237897 -0.013629784 -0.00060701626 -0.013254603 0.025395637 0.01766511 -0.010279705
0.0003324965 0.010004615 0.008055662 -0.009577304 0.011580957 0.025803503 -0.013754349 -0.004207033
0.021672271 0.033570275 -0.014677893 -0.026869934 0.019445939 0.0038962918 0.019174628 -0.0166385
-0.040499702 -0.006449809 0.046821933 -0.0137505215 -0.022891536 -0.034617856 0.0052447743 0.005993466
-0.050295338 -0.014942744 0.006022789 -0.032317743 0.01875854 -0.0058471863 0.03702309 -0.022111101
0.026946539 0.00057109783 -0.0014666694 -0.029731585 -0.04075012 -0.00046094847 0.023330653 -0.018969167
-0.00013223026 -0.013799449 0.0063315234 0.027736573 -0.007935338 -0.0025976675 -0.024677444 0.022777678

chords_tempNet.batchnorm_1.bias f4 [1024]
00000000: 1a65 de3a 8ed5 a63b 592f 383b 20ad 5dba
00000010: 58d4 36ba 2e65 8bba 52a0 9a3a 1895 1fbb
00000020: 35ce 5d3a 6a9a c639 47d6 bf39 71b9 813a
00000030: 81e5 8fb9 b256 ce3b bb11 2038 1541 91bb
00000040: 8618 e138 0acf 403b b23e 74bb bf63 6b3a
00000050: b7a5 90ba 3e4a 6c37 1eec 0c3c c094 35b9
00000060: f728 aeba 8b68 54bb 6342 ea39 0761 a03b
00000070: e2a8 37bb ce42 f73a 33bc 2bbb 4d08 a13b
00000080: 5393 6cb9 ae10 abba a1e7 84ba 251f 233a
00000090: 4ea6 16bb 0907 34bb 55cf 9bbb c751 61bb
000000a0: 7b42 18bb 8d17 6239 e483 8939 3ffc e6b9
000000b0: 0498 48ba 2976 45ba a573 9dbb 0db3 603a
000000c0: a8ee 273a 895e ff3a 60db 883a 49b6 4ebb
000000d0: 5e3b 873b 252e eb3a 5951 4c3b 7886 1ab7
000000e0: a10c 82ba 2860 bab6 d90b bfbb 4e09 523b
000000f0: 6290 aeba f063 0b3a d1a9 93ba 9872 a2bb
00000100: ccd2 00bb 6f0e 0b3b 97ca c3ba 6585 fdb9
00000110: 14dc 78ba a77c bfb9 373a 513b f89a 2aba
00000120: 3473 25ba d295 923a 0c0c 1aba b530 67ba
00000130: 1a43 f1ba 82ea 7439 0508 5dbb 17d6 013b
00000140: e391 e639 9501 d83a 320d f03a 7e2d 86ba
00000150: df48 d9bb f3ad 06bb 096f a53a 75ea 95b9
00000160: 47e6 61ba 0e10 d4ba 0afc 983a aa02 103b
00000170: b6e9 873a 99fe 76ba 6536 e8ba 0a47 093b
00000180: e895 47bb 5bf5 f4ba 932f aabb 3c99 bc3a
00000190: bd5b 15bb 0f51 8dba 1f2d 423b 4ce8 7139
000001a0: 48bd ddba def1 d73a 4249 a43a cc36 1439
000001b0: dccd c4ba 65c3 893b 5747 f0b9 b4f8 ab3a
000001c0: 8502 70ba 0752 23bb b124 933b f4d6 75ba
000001d0: 2b36 2dbb 7c80 9e3b 5b49 973b 68f6 d2ba
000001e0: 5c6d 04ba 44db d43a 5c2c 153b a208 a6bb
000001f0: 1086 6f3a 096c bbb9 81cb 493b 8d11 5ebb
00000200: 5947 fe3a 8618 0fba c9d3 abba 34f0 cc3a
00000210: 7a4f 9b3b a313 0a3a 02c4 5cba 3a00 ed3a
00000220: 5115 8937 6d12 9939 1c74 c33a eafe 113a
00000230: 20b2 e9ba 9d15 fc36 1a51 833a dc45 54bb
00000240: 369f acb9 ec48 a4bb e646 353a 5bd3 7d3a
00000250: 7e72 42ba ad6e 1bba bf97 7ab9 4370 0cbb
00000260: 9852 2bbb e392 f7ba aea0 2cbb 414f 83bb
00000270: 1596 df3a a74e 053a a02d 59ba ab5f 073b
00000280: 7451 113b 7bd2 3d3a 9057 513a fd0c a5b9
00000290: 236d 833b 3ba1 603a 2966 a33a 4de8 2fbb
000002a0: 72af 26b8 bd3e 5bb8 bb31 8dbb 5794 8dba
000002b0: da07 c2b9 e668 33ba 4744 1a3b 1892 f1ba
000002c0: 9880 ebba a55d c339 6e65 f83a a993 2a3a
000002d0: 5b96 36bb 1df1 9cba 9fb6 1ebb 96f8 783b
000002e0: 8cc2 17bb 35de 1c3b 9c91 7eba fa39 9a3b
000002f0: 4151 07bb bcc6 a0bb 2e02 a439 45eb 02ba
00000300: dd02 8539 0ec2 74ba 37d6 3c38 4532 333a
00000310: c25e 68bb be95 2b3a 04d7 ceb9 25ae eaba
00000320: 7283 4c39 3e46 763a 9e98 e139 5e5e 2fbb
00000330: 6e61 093b 3a06 84bb 3c13 2bbb 8491 2ebb
00000340: 20fd 363b e38e 4bbb 7098 a5ba b927 b33a
00000350: 1819 c23b 0608 b93a a00a b53a 9fe4 67b9
00000360: 9b02 223b 82bf b5b9 5c8a 9cbb 79d2 b3ba
00000370: f7f0 3938 8c5a 16bb 3052 9cba 5e37 f93a
00000380: 2f97 93bb 31b3 23bb 6681 2dba b46d bcbb
00000390: aecd b23a 5745 be3a 1c98 59ba b344 99ba
000003a0: ce56 3ebb 373f 1c3b 7be4 f3ba c042 0539
000003b0: 0653 a3ba 308f 1dbb 0899 2b3b e540 6abb
000003c0: 7b53 f339 5298 2bbb bb6c c1bb 0117 80ba
000003d0: 5b97 a1b9 05d0 10bb 3ab1 983a fa3a 82bb
000003e0: fa2b 51ba c6a4 cfba 00d6 ab39 8b78 073b
000003f0: bc0b d2ba 26a9 bf3a 058e 15ba 75ef 2d3b
0.0016967386 0.0050913757 0.0028104393 -0.00084562786 -0.00069743907 -0.0010635012 0.0011797047 -0.0024350341
0.0008461208 0.0003788055 0.00036590008 0.0009897185 -0.0002744608 0.006296956 3.8163485e-05 -0.004432807
0.00010733404 0.002942028 -0.0037268815 0.0008979402 -0.0011035715 1.4083982e-05 0.008601217 -0.00017316919
-0.0013287355 -0.0032410945 0.0004468142 0.004894379 -0.0028024246 0.0018864514 -0.0026204705 0.0049143196
-0.00022561596 -0.0013051236 -0.0010139832 0.00062225974 -0.002298731 -0.0027470014 -0.0047549405 -0.0034381018
-0.0023232985 0.00021561813 0.00026228942 -0.00044056957 -0.00076520466 -0.0007532561 -0.0048050457 0.00085716025
0.0006406107 0.001948313 0.0010441355 -0.0031541756 0.00412695 0.0017942829 0.0031176417 -9.210424e-06
-0.0009921977 -5.554426e-06 -0.00583027 0.0032049003 -0.0013318176 0.0005317321 -0.0011265819 -0.0049575083
-0.0019656895 0.002121832 -0.0014937696 -0.00048355307 -0.00094932434 -0.00036523232 0.0031925568 -0.00065080775
-0.0006311417 0.0011183566 -0.0005876429 -0.00088192086 -0.0018406839 0.00023357014 -0.0033726704 0.0019811445
0.00043977713 0.0016479964 0.0018314479 -0.0010236946 -0.0066310014 -0.002055046 0.0012621592 -0.0002859418
-0.0008617383 -0.0016179101 0.0011671793 0.0021974244 0.0010369334 -0.0009422093 -0.0017716406 0.0020946884
-0.0030454341 -0.0018688844 -0.0051936596 0.0014388929 -0.0022790276 -0.0010781604 0.0029628945 0.00023070088
-0.0016917372 0.001647528 0.001253404 0.00014134793 -0.0015014964 0.004204201 -0.0004582952 0.0013120384
-0.0009155649 -0.0024920718 0.004490458 -0.0009378039 -0.0026429992 0.004837094 0.004616899 -0.0016095163
-0.0005051696 0.0016239663 0.0022762036 -0.005066947 0.00091371033 -0.00035747912 0.0030791464 -0.0033884973
0.0019399925 -0.00054586714 -0.0013109382 0.0015635551 0.004739699 0.00052672083 -0.00084215414 0.0018081733
1.6341599e-05 0.00029196162 0.0014911923 0.0005569296 -0.0017829575 7.5127014e-06 0.0010018677 -0.0032390272
-0.00032925018 -0.005013576 0.0006915167 0.00096826785 -0.00074175734 -0.0005929273 -0.00023898388 -0.0021429218
-0.002614176 -0.001888838 -0.002634089 -0.0040072505 0.0017058278 0.00050852675 -0.0008284692 0.0020656388
0.0022173794 0.0007241142 0.0007985765 -0.0003148093 0.004010813 0.0008568947 0.0012466359 -0.0026841343
-3.974088e-05 -5.22721e-05 -0.004308907 -0.0010801655 -0.00037008413 -0.0006843939 0.0023539232 -0.001843038
-0.0017967401 0.0003726307 0.0018951127 0.00065069884 -0.0027860615 -0.0011973713 -0.0024217737 0.0037989966
-0.002315673 0.0023936157 -0.00097110285 0.0047066184 -0.0020647796 -0.0049065035 0.00031282142 -0.00049941643
0.0002536987 -0.0009336778 4.5022196e-05 0.0006835799 -0.003545687 0.00065454456 -0.0003945158 -0.0017904682
0.00019503923 0.0009394622 0.00043029053 -0.0026759128 0.0020962614 -0.0040290626 -0.0026103994 -0.0026637027
0.002792187 -0.003106051 -0.0012633931 0.0013668454 0.0059234016 0.0014116771 0.0013812371 -0.00022115045
0.0024720791 -0.00034665695 -0.004777236 -0.0013719342 4.4331853e-05 -0.0022942154 -0.0011926349 0.0019013693
-0.0045041065 -0.0024978633 -0.0006618708 -0.0057503823 0.001364162 0.0014516514 -0.0008300559 -0.0011693448
-0.002904344 0.002384139 -0.0018607521 0.00012708735 -0.0012460656 -0.0024041645 0.0026183743 -0.0035744247
0.0004641077 -0.002618332 -0.0059028543 -0.0009772481 -0.00030821082 -0.0022096646 0.0011649497 -0.0039743157
-0.00079792703 -0.0015841953 0.00032775104 0.0020671214 -0.0016025226 0.0014622554 -0.00057050615 0.0026540433

chords_tempNet.batchnorm_1.running_mean f4 [1024]
00000000: efcb 143d 3e6c b83c e82b 613c dcb1 5d3c
00000010: f03b 3b3d 7f27 183c 08ac 5abc 96e7 363d
00000020: f6c3 2e3c ad1a 803c 118e c93c 3a2d 283d
00000030: d45d 253d c2f6 493d ad16 e6bc 6de9 583c
00000040: 86b8 0bbd a461 4dbc c174 343d abb8 bd3c
00000050: e959 df3b 6a39 25bc eb5d a4bb 0aec d9bc
00000060: 5201 17bd d391 1b3c 333d 25bd c37d 4f3d
00000070: 8170 253c 1540 26bb 7bb9 a4bb 0f2d 943c
00000080: 700a 33bd 8c18 053c b228 c5b9 6d24 c5bb
00000090: ba5c a23c d4fb a53c 441e c9bc 8c81 17bd
000000a0: ac4a 2b3d 6a51 c6bc 72b0 fabb 5e87 8e3d
000000b0: e432 803d 2045 bd3c 3f5e 783a 9578 39bd
000000c0: 2947 41bb 94b3 673c dc80 983d 95c5 64bd
000000d0: 17a5 9dbc 1b96 1d3c efef 0abb 5ada 2a3c
000000e0: 8707 49bd c92a 15bd f836 ee3c 082c d23c
000000f0: c262 933d bdde dabb 1111 b939 9450 a5bd
00000100: 93e7 aa3c 8baa f13a 8323 a2bc e237 94bb
00000110: d640 17bd 0a7c 0dbd 0d5e 203c 09e7 3cbc
00000120: 20db 57bd 58ba 26bc 1860 7a3c 7048 323c
00000130: 9016 c23c 0ca8 0cbd 8ab6 ac3b f45f fdbc
00000140: e52e 62bc e002 23bc 9980 b43c b6fa 0cbd
00000150: b466 733d da0c 83bd e0e7 d5bc 26b8 2d3d
00000160: 9505 6439 5fef 603d 0161 c93c 74c3 3c3c
00000170: ebce 3c3c 383e b93c af23 f53d 671b b2bc
00000180: 59ab 4fbb 1ee7 d6bc 1f3e 2b3d 9853 1fbc
00000190: 90ee ba3c d382 bebc eeda 65bd 0959 e13b
000001a0: 62b8 2dbb f51f 8ebd 4ff2 bd3c 42c6 dbbc
000001b0: 1e7f 0ebd ba5c 98bb 3022 a53c d103 35bb
000001c0: fb0a 62bc 2b2d f63c 6d08 e53c f5b8 d73c
000001d0: 0a88 70bd d7d2 03bd 0dd1 9fbc 3f28 7abc
000001e0: 309b 48bc cb24 4cbd 8caa da3c b7a4 393d
000001f0: be88 1c3d 971a 20bd de0d 8d3d 13c5 02bd
00000200: 8345 1cbd 18b5 ed3c 03ec 84bc 7079 013b
00000210: 01b3 a6bc 6d29 8fbd 48f3 8abb 5bbe 013c
00000220: 3857 89bc 7a00 343c 9fab 643c f9c2 4dbc
00000230: 018b b23b 8f77 523c bf05 7ebc 8a88 043d
00000240: 8f5c f6bc 51a1 ccbb de1b ea3c fcbf e5bc
00000250: bb86 babb dbd8 1bbd e812 f03c 7b7f 90bc
00000260: 8ae8 213d d94e 93bd c70b 083d a440 01bb
00000270: cd1a 02bc 8222 35bd 7afc c33d 3f95 41bd
00000280: 6478 413b 21b8 5bbd 9ec5 85bd a8b2 54bc
00000290: a4af a2bb 3b3f 063d 81b4 f13b 4e43 30bd
000002a0: fb18 dc3c d14f 40bc 290c 873c ef97 b2bd
000002b0: 23b1 08bb e349 e53c 1800 793a 283c 8e3b
000002c0: a432 0f3d c073 15bc d1f5 c63b a735 dabc
000002d0: 2ff2 64bd dd99 313d 6a6e 0e3d 23b0 da3b
000002e0: 444f eb3c 080b 5abc 0d29 50bc 5e9a 993b
000002f0: 2383 a63c 1a98 b93d 6a15 ad38 0788 96bc
00000300: e94b 2f3d 0c47 debb 7d74 b6bc 1384 123d
00000310: 1487 7e3c 16e0 03bd 0c37 3abd 211f 833c
00000320: b19c 1d3d 5ea4 223d b798 28bc 5613 853c
00000330: d6da 893d 7288 f13c 7988 8abb c624 063d
00000340: 548f 0b3c a08a 11bd 2061 ff3c 01fc 65bc
00000350: 7543 dc3b 953f a53c ad19 58bd 4c79 6bbd
00000360: 97b4 313d 813f 433d 7d19 98bd 7a97 4f3c
00000370: 347a 043d 8742 85bd 25c2 8c3c 65af cdbc
00000380: bd6e 853c c2b9 04bd 7c2b 6f3c 2bfb c53c
00000390: afcc ac3c 4282 01bd 8a63 c73b 682e 94bd
000003a0: ba96 a83c 4f5b acbb 0072 db3c e176 a03c
000003b0: 91ea 96bc 4fd7 2ebd 726e db3c 2b35 9fbc
000003c0: 5289 e73a 1ab1 dabb 2537 aabc dba7 af3c
000003d0: 8b6d b8bb 28ab 943b abd2 cfbc e59d 793d
000003e0: 448d 323c 2f12 d43c 7b11 6f3c c0bc cbbc
000003f0: 65b1 d2ba a8f2 d5bb 086d 063d 9fd1 f83c
0.0363273 0.022512551 0.013743378 0.0135311745 0.045711458 0.00928676 -0.0133466795 0.04465445
0.010666838 0.01563772 0.024603875 0.041058756 0.040372685 0.049307592 -0.028086985 0.013239247
-0.034111522 -0.012535486 0.044056658 0.023159346 0.006816138 -0.010084489 -0.0050160787 -0.02660181
-0.036866494 0.009495216 -0.040341567 0.050657045 0.010097624 -0.0025367786 -0.005026994 0.018087892
-0.043711126 0.008123528 -0.00037605088 -0.006016305 0.019819606 0.020261683 -0.024550565 -0.03698878
0.04181926 -0.024208743 -0.0076504285 0.06959413 0.062597066 0.02310425 0.0009474493 -0.04528101
-0.0029491878 0.014141936 0.07446453 -0.05585249 -0.01924376 0.009618307 -0.002120014 0.010428036
-0.049079444 -0.036417756 0.029078946 0.025655761 0.07196571 -0.0066793845 0.00035298665 -0.0807201
0.020862376 0.0018437667 -0.019792324 -0.0045232633 -0.036927067 -0.03454212 0.009788048 -0.011529692
-0.05269921 -0.010176264 0.0152817 0.010881528 0.0236924 -0.03433995 0.005270784 -0.030929543
-0.013805126 -0.009949416 0.022033976 -0.034418784 0.059424117 -0.063989356 -0.026111543 0.042411946
0.00021745854 0.054915782 0.024582388 0.011521209 0.011523942 0.022612676 0.11969697 -0.021741582
-0.0031687825 -0.026233252 0.04180729 -0.00972452 0.022818834 -0.023255741 -0.05611699 0.006877069
-0.0026507606 -0.06939689 0.02318683 -0.026827935 -0.034789197 -0.0046497257 0.020157903 -0.0027620683
-0.013796563 0.030050835 0.02795812 0.026333312 -0.058723487 -0.032183494 -0.019508863 -0.0152683845
-0.012244031 -0.049839776 0.026692651 0.0453231 0.038216345 -0.039087858 0.068874106 -0.031926226
-0.03815223 0.029017016 -0.01622582 0.001975622 -0.020349028 -0.06990323 -0.004240427 0.007918919
-0.016765222 0.010986442 0.013956933 -0.012558692 0.0054486995 0.012845888 -0.0155043 0.032356776
-0.030073432 -0.0062448164 0.028577741 -0.028045647 -0.0056923307 -0.038048606 0.02930589 -0.017638912
0.039528407 -0.07192773 0.033214357 -0.0019722367 -0.00794096 -0.044222362 0.095696405 -0.047261473
0.0029521221 -0.053642396 -0.06531833 -0.012982048 -0.0049647857 0.032775145 0.007376254 -0.043032937
0.02686738 -0.01173778 0.01648529 -0.08720385 -0.0020857535 0.027989333 0.000949861 0.0043406673
0.034960404 -0.009121835 0.006071784 -0.026636912 -0.055895027 0.043359626 0.034773268 0.006673829
0.02872432 -0.013308294 -0.0127051 0.0046875915 0.020326203 0.09062214 8.2532715e-05 -0.01837541
0.042797003 -0.006783372 -0.022272343 0.035770487 0.015535135 -0.032196127 -0.045462653 0.016006054
0.03847951 0.039707534 -0.010290316 0.016244572 0.06731193 0.029484008 -0.0042276946 0.032749914
0.008518059 -0.035532594 0.031174242 -0.014037133 0.0067219087 0.02017192 -0.05275886 -0.057488725
0.043385115 0.047667984 -0.074267365 0.012670392 0.032343104 -0.0650683 0.01718242 -0.025108049
0.016288156 -0.032403715 0.01459777 0.024167618 0.021093694 -0.031618364 0.006084864 -0.07235414
0.020579685 -0.0052599083 0.026787758 0.019587936 -0.018422397 -0.042685803 0.026786063 -0.019434532
0.0017664826 -0.006673944 -0.020778248 0.021442344 -0.005628293 0.004537005 -0.025369009 0.060941596
0.010897938 0.025887577 0.01459157 -0.024870276 -0.0016074596 -0.006529171 0.032818824 0.030373393

chords_tempNet.batchnorm_1.running_var f4 [1024]
00000000: 6e0a fb3b 340b 173d ecf2 083c 52f1 593c
00000010: 4d58 633c 7e48 933c 2027 933c 1db2 803c
00000020: 83af 593c 2538 883c b9de 1b3c 8151 1d3d
00000030: 62af 723b dbf7 7d3c e73e a93c e212 5a3c
00000040: 0f51 9b3c ce2b fd3b c252 b33c 5b86 453c
00000050: f25a a73c 4224 2b3c 1e19 6d3c 7f47 de3c
00000060: c144 963c a005 763c 917b f63c 567c 103c
00000070: 038b 713c e5c6 863c c9a5 0f3c 4a0b b23c
00000080: d618 f53b b616 8d3b 2965 513c b2a4 3f3c
00000090: 526e 683c a7bd f53b 8c95 883c 3d2d 293c
000000a0: 54ad b63b dd23 573c 8bd5 be3b 5ca5 c03c
000000b0: bf17 be3c edd4 9c3b e3b0 183c f87a 2e3c
000000c0: 51dd 783c 40b4 1a3c 3c7d 823c 4aa1 a93b
000000d0: 5f7f 233c 4e65 843c 9be0 d53c 1be4 5d3c
000000e0: dd40 683c fe55 983c 9946 343c 09fa f23b
000000f0: b77a 953c 4e6b 643c 37d1 943c aa8a 6c3c
00000100: 88d8 3e3c 634d 003c 7d79 ee3b 4eb8 293c
00000110: 7a1a 783c a0b1 393c 50e3 433c eae0 0b3c
00000120: 90b7 a03c 8267 9a3c 8d85 7b3c f5d8 0e3c
00000130: 0f9c 493c 8e94 dc3b 3693 063c 0501 a33c
00000140: 8de1 6a3c e495 343c 2dac b03c 006b 273c
00000150: ca84 323c 8ad7 6e3c 6897 003c 102b 8d3c
00000160: de3c 7b3c 728d 6e3c ba45 843c 0ea3 563c
00000170: 872d 0e3c 29ee 543c b4bb 953c b8e7 8f3b
00000180: ffe9 f73b 4903 223c 94e7 033c 4ba5 963c
00000190: bb9b 153c a41b 623c 9c02 773c a152 b43c
000001a0: 5b66 913c 2380 133d 4186 933c 0a74 203c
000001b0: 9cd4 063c d086 683c 6364 ce3c 47b2 2b3c
000001c0: 6ef3 443c 983d 223c 9da8 503c 942d a93c
000001d0: c3f1 0c3c bf57 a33c 9d33 073c e2bf 7c3c
000001e0: 3569 e73b 62e6 273c 5cca 213c d528 6a3c
000001f0: d580 c53c 6c1a f13c 8549 3e3c 0e0b 213c
00000200: 8f8e 4f3c c69f 573c bd7f 483c 4ba4 983c
00000210: 0957 693c 004a 1c3c 243e 9d3c 9e25 1b3c
00000220: 21c3 433c ae58 8a3c 6eae 353c 8c72 6f3c
00000230: b429 8a3c b646 d53c 7add 373c ed56 073c
00000240: eb25 8a3c 373e d63b 499e 053c 5c4a f43b
00000250: 4286 733c 5665 233b 7e8e 493c 441a e43b
00000260: 23b4 c13c 5c48 f73b e82a 043c 7429 623c
00000270: 0e9f 2f3c f777 253c cb2f 423c 7362 3c3c
00000280: 2a09 363c 599d 363c a2d3 bc3c 755c 643c
00000290: 3d24 563c f958 1f3c 4bd1 3b3c d071 003c
000002a0: 1006 933c 995b 1b3c 1849 b63c cd3c 0a3c
000002b0: 90b8 ae3c 856a 963c 2193 843c a889 0c3c
000002c0: 4c4f c33c afcb ad3c 3862 423c d253 643c
000002d0: d87a 9e3c 123f 773c 91e5 4a3c 54a5 6d3c
000002e0: deaa 123c 5283 f23b f8ea e63b 5870 133d
000002f0: 95c0 153c a9c2 723c 3c55 2d3c 9944 453c
00000300: 7293 583c aae4 173c 149c 863c 812b 613c
00000310: 652b e33c c904 ff3c 8eb5 483c 0e13 5a3c
00000320: 94e0 483c d252 a53c 694c 6c3c ae49 d13c
00000330: d9a2 bc3b 072a 3b3c 79a2 a93b fbfb 8e3b
00000340: b7fd 253c 3c05 9c3c 057c 4f3c 948c 6f3c
00000350: fa77 593c 2d24 973c 7755 b73b c03b 4c3c
00000360: e444 3a3c 2107 f43b d29b 1b3c 5ecd 793c
00000370: b537 573c d9d3 6f3c a352 c73b 7b06 953c
00000380: dacc e83b 802a dc3c 455f cc3b d9ab d63c
00000390: 6c1e 9b3c a86b 113c 508e d23b f22b 583c
000003a0: 2329 853c a8dc 5f3c b56f 5e3c ca03 833c
000003b0: ba96 013c 3afd 7c3c f990 943c 4b2a 923c
000003c0: 5b1e 0d3d 72c8 613c 1b40 193c 98de 3e3c
000003d0: cb40 503c 6675 933c d17f 463c 0f45 933c
000003e0: 6965 5a3c 96a3 c63c e0e5 d03b 757d 143c
000003f0: 1fe9 053d f559 9f3c f3e1 c23c db19 173c
0.0076611554 0.03687592 0.008358698 0.013302164 0.013876033 0.017978903 0.017962992 0.015709931
0.013286474 0.016628334 0.00951355 0.038407806 0.0037030806 0.015500988 0.020659877 0.013310166
0.01895955 0.007726169 0.021890048 0.012055959 0.020429108 0.010445656 0.01447132 0.027133701
0.018343331 0.01501599 0.030088218 0.0088187065 0.014742616 0.016452262 0.008767554 0.021733899
0.0074797673 0.004305686 0.012780466 0.011696981 0.014186459 0.007499415 0.016672872 0.010325727
0.0055748615 0.013131109 0.005823796 0.02351635 0.023204682 0.004786125 0.009319517 0.010649435
0.015189485 0.009442389 0.015928857 0.005176698 0.009979098 0.016161587 0.026108077 0.013543154
0.014175621 0.018595692 0.01100316 0.0074150604 0.018246992 0.013941599 0.018166168 0.014437357
0.011648305 0.00783095 0.007277666 0.010358883 0.015143031 0.011333853 0.011956051 0.00853751
0.01961878 0.018848184 0.015351665 0.008718719 0.012305274 0.0067315763 0.008213809 0.019897947
0.014336002 0.011022065 0.021566475 0.010218382 0.010895917 0.014577756 0.007848598 0.017232448
0.015334336 0.01456009 0.01614653 0.013100399 0.008677847 0.012996235 0.01827798 0.0043916367
0.0075657363 0.009888479 0.008050818 0.018389365 0.009131367 0.013800535 0.015076306 0.022012057
0.017749002 0.036010873 0.018008353 0.009793291 0.008229401 0.014192298 0.025194352 0.010479516
0.012020929 0.00990238 0.012735513 0.020651616 0.008602562 0.019939302 0.008252052 0.015426608
0.007062102 0.010247799 0.009874906 0.014291962 0.024109283 0.029431544 0.011614208 0.009829296
0.012668266 0.013160652 0.012237486 0.018633028 0.014241942 0.009539127 0.01919467 0.009469418
0.011948378 0.016887989 0.011088951 0.014614712 0.016865589 0.026034694 0.011222238 0.008260471
0.016863784 0.0065381783 0.008155414 0.0074551534 0.0148635525 0.0024932227 0.012302039 0.006961139
0.023645466 0.0075464677 0.00806687 0.0138038285 0.010719074 0.010099403 0.011852215 0.0114980815
0.011110583 0.011145913 0.023050133 0.013938059 0.013070163 0.009725803 0.011463474 0.007839635
0.017947227 0.009482288 0.02225165 0.008437348 0.02132824 0.01836134 0.016183438 0.008577742
0.023841523 0.021215288 0.0118642375 0.013936 0.019345686 0.015090721 0.012383834 0.014504749
0.008951871 0.0074009085 0.0070470534 0.03599581 0.009140153 0.014816918 0.0105794035 0.012040281
0.013218747 0.009270826 0.016431846 0.013743282 0.027730653 0.031130211 0.012250317 0.013310207
0.012260575 0.020181093 0.0144225145 0.025547829 0.0057567176 0.011423594 0.005176839 0.0043635345
0.010131291 0.019045465 0.012663846 0.014620919 0.013273234 0.018449867 0.005594905 0.012465417
0.011368964 0.007447139 0.0094976 0.015246717 0.01313584 0.014637911 0.006082849 0.018191567
0.0071044983 0.026875734 0.006236943 0.02620499 0.018935405 0.008875765 0.0064256564 0.013194071
0.016254967 0.013663448 0.013576438 0.015993018 0.007909471 0.015441233 0.018135535 0.017842432
0.034452777 0.0137807 0.009353663 0.01164975 0.01271076 0.018000316 0.012115435 0.017977266
0.013329842 0.024247926 0.0063750595 0.009063114 0.032693025 0.019452075 0.023789382 0.009222473

chords_tempNet.batchnorm_2.weight f4 [32]
00000000: f961 5b3d 068d 233b 4d86 25bd a66f 32bd
00000010: cc9c 903b 7c5e b2bc 0a74 513c d126 943c
00000020: cc6e 453c 2e43 333c 49c8 69bd 63e2 c9bb
00000030: 3af5 d03c 06a4 073b 3f4e 023b 9bdc 053d
00000040: 0b86 823c d26b 723c 6b22 6cbc 7bf5 93bc
00000050: 5707 043d 1c1a 65bc 195c afbc 04fa c33a
00000060: b470 c03c 7fd0 0fbd 33e5 8ebc ca4f bcbc
00000070: 32f0 0c3d 7e40 1e3c 1507 06bc 5e3e 23bd
0.05356023 0.0024955883 -0.040411282 -0.043563507 0.004413223 -0.02177357 0.0127840135 0.018084915
0.012050342 0.01094131 -0.057075772 -0.0061610206 0.025507558 0.002069713 0.0019883064 0.03268109
0.015933057 0.014796214 -0.014412503 -0.01806139 0.032233562 -0.013983276 -0.02140622 0.001495183
0.023491241 -0.035110947 -0.017443275 -0.022987265 0.034408756 0.009658931 -0.008180399 -0.0398544

chords_tempNet.batchnorm_2.bias f4 [32]
00000000: 1ff8 053c 8896 85bb 6cb4 973b f1de c23b
00000010: b965 f7b9 28d0 903b a226 183b 931b 983a
00000020: e795 083b 3928 a239 0822 c13b cd01 393b
00000030: 3011 c13a 995d 9c3a af59 803b 8724 9e39
00000040: 4728 663b 7e76 ef3b 0642 e33b 03ab eb3a
00000050: 0dea 843b b5de df39 3f69 c33b d4dc 2cbb
00000060: 1e5c 443b cdeb 453b 059c 073b b46d cd3a
00000070: d2e9 8a39 54b9 1e3b 8e29 cb38 010c 863b
0.008176832 -0.0040767826 0.0046296623 0.005946987 -0.000471873 0.0044193454 0.0023216386 0.0011604897
0.0020841302 0.00030929016 0.0058939494 0.0028229833 0.0014729854 0.001192975 0.003916941 0.00030163323
0.0035119222 0.0073078265 0.006935361 0.0017980043 0.0040562213 0.00042699804 0.005963474 -0.002637674
0.0029962133 0.0030200363 0.002069236 0.0015672953 0.0002649562 0.002421935 9.6875345e-05 0.0040907864

chords_tempNet.batchnorm_2.running_mean f4 [32]
00000000: eeda 283e d826 03be fa5b 75bc 8f7c dfbd
00000010: f325 0dbe 9a89 84bc 9b74 1fbd 07e5 193e
00000020: 2179 603c ecaa c9bd a41c 10be 7a11 63bd
00000030: b11e 77bd 2c51 cebd b19e f63d f553 203e
00000040: 341a ebbc 074f bb3d 6796 a63c 72df 26bd
00000050: d501 b5bd 98a4 18be 16dd 30be 86ef 8d3b
00000060: e49c 0bbe 2ca5 51ba ac12 fd3d b9d1 d83d
00000070: 1f6b 85bd 28b4 fdbd 7aae 19bc 7fdc c63d
0.16489765 -0.12807786 -0.014975542 -0.109124295 -0.13784008 -0.016178895 -0.038929563 0.15028773
0.013700754 -0.09847054 -0.14073426 -0.05543659 -0.060332004 -0.10074076 0.12041987 0.15657027
-0.028699018 0.09145933 0.02033539 -0.040740438 -0.0883824 -0.14906538 -0.17271838 0.004331532
-0.13634068 -0.000799733 0.12357077 0.105868764 -0.06514572 -0.12387878 -0.009379977 0.09710025

chords_tempNet.batchnorm_2.running_var f4 [32]
00000000: bd65 c138 0ee4 1c38 2cec 1239 9096 3b39
00000010: c59f 0938 a7de 0639 5448 9738 fa57 b538
00000020: c3b2 4f38 66ef 5938 0ff0 2e39 84aa ad38
00000030: 3804 6539 9ab8 b638 968e 9838 791c d438
00000040: aaa8 bc37 a334 0239 cde8 7138 b686 d738
00000050: f75b c038 4fe0 c138 fdb3 8638 8eee 9938
00000060: 0c4d 0e39 b5d1 bd38 6d00 b638 4bbf 1639
00000070: 1a97 0739 f2ee 9038 b850 2338 028d d838
9.2219074e-05 3.740569e-05 0.00014011626 0.00017889799 3.2812142e-05 0.0001286218 7.213713e-05 8.6471395e-05
4.951913e-05 5.195979e-05 0.00016683362 8.281044e-05 0.00021840713 8.712821e-05 7.2744835e-05 0.00010114251
2.2489887e-05 0.00012417375 5.767569e-05 0.00010277091 9.172403e-05 9.244738e-05 6.423143e-05 7.340043e-05
0.00013570877 9.051283e-05 8.6785156e-05 0.00014376377 0.00012930893 6.910962e-05 3.8937404e-05 0.000103259474
