run_2/weights/weights-g-400.pth (torch, 418811 bytes, 12 tensors)

chords_tempNet.convT_in.weight f4 [32, 1024, 2, 1]
-0.01612616 -0.020826863 -0.005867365 0.0324003 -0.015319613 -0.01277828 0.015154162 -0.0046028346
0.006464813 -0.019834273 -0.017417032 -0.024320778 -0.011473534 0.0062432815 -0.016810447 0.0035973315
-0.006231144 -0.009087547 -0.0036708224 0.0101062255 -0.008940785 0.010546983 0.021241577 0.0025254872
-0.0061980453 0.031635895 0.006218561 0.0053108134 -0.033439286 -0.029948395 0.01004234 -0.012604814
0.005845625 -0.029627774 0.015943388 0.010151281 -0.018229082 -0.012765242 0.007024331 -0.02427242
0.024336642 0.019467289 0.001095626 0.015035447 -0.01916758 -0.0008267608 0.012905667 -0.011928926
-0.0019752458 0.00094061915 0.016821412 -0.01429059 -0.001098548 -0.04709928 0.013188711 -0.018929638
-0.030620378 0.007990749 0.018393772 0.025195219 0.027793203 -0.018172571 -0.0006459632 -0.039039336
-0.033026945 0.02163764 0.024345413 0.025124786 -0.001884581 0.037139863 0.0062284446 -0.0033121794
-0.005070892 -0.005354066 0.015590245 0.008148085 -0.03940014 -0.0013881412 0.00021008933 0.0015732795
0.015925335 0.0011875406 0.018537354 -0.011638902 -0.006438116 0.011399423 -0.012423617 0.0067570177
0.031050397 -0.006494164 -0.009220093 -0.016842693 -0.020721028 0.005991488 0.0007086847 0.0020069722
-0.0060422122 0.01153799 -0.0024321168 0.011632277 -0.012629947 0.03651292 -0.0022640803 -0.011907772
0.0047701113 -0.006126965 -0.034191135 0.014777317 0.04539155 -0.02803148 -0.0014081459 0.022378089
0.06193453 -0.007458147 -0.04359534 0.023475228 0.024383092 -0.008074157 -0.003887424 0.01122774
-0.03693143 0.0034078532 0.018944636 0.013801433 0.0153055005 0.013433886 -0.03264541 0.023000438
0.0125918295 0.005414681 0.0024166328 0.027425047 0.023396457 0.018828712 -0.024443608 0.004806215
0.018285746 -0.012853265 0.009978514 0.004567293 -0.024395304 -0.012840951 -0.010779314 -0.009574345
0.017391223 0.012727795 0.0027735506 -0.0003950838 0.014622344 -0.037970226 -0.032250736 -0.036228932
-0.011928248 -0.024118848 0.004083902 0.026508797 -0.032245293 0.022397919 0.011715815 0.009168825
-0.010582821 -0.028945325 -0.019760443 0.025467014 -0.006243641 0.01101429 -0.015523287 -0.0026603453
0.05832622 -0.013624567 0.016594674 0.035851922 0.003929339 0.026448304 -0.0018375202 0.015100644
-0.018147007 -0.008931933 0.020822043 0.026228318 -0.044345647 0.01789978 -0.0029881862 0.013278836
0.0033279657 0.012057172 -0.015947634 0.01382115 0.0097836545 0.009750511 -0.0075137517 0.03371099
-0.010789812 0.025027111 0.012374509 -0.008339868 -0.0021209954 0.007157336 -0.0018410212 -0.010493834
-0.00638687 -0.014756001 -0.010040111 0.003967879 -0.024369234 -0.0010660877 -0.014073549 -0.008903475
-0.041328646 0.0041066096 -0.014393979 -0.050276276 0.012868594 -0.01943418 -0.0031817555 0.013778849
0.028843688 0.026497882 -0.033275936 0.015326588 0.027812857 -0.05926898 0.02407206 -0.009204725
-0.010185209 -0.038673077 0.037643872 0.016416878 -0.021056926 -0.0053803385 -0.018754855 0.013014182
-0.022419157 0.012204473 0.011113698 0.0066578994 0.033281986 0.019107632 0.031185325 0.014909193
0.014814954 -0.0042400644 0.016429761 -0.003954287 0.0060031326 0.008670956 -0.014015659 -0.0011987113
-0.024931083 -0.0046410384 0.040858537 0.032698628 0.013623426 -0.0069003673 0.015767286 -0.001298821
00000000: 021b 84bc 199d aabc 0643 c0bb 2db6 043d
00000010: 1dff 7abc fe5b 51bc 2a49 783c 60d3 96bb
00000020: c8d6 d33b 7c7b a2bc 2aae 8ebc 5e3c c7bc
00000030: 7dfb 3bbc 7194 cc3b 10b6 89bc 35c1 6b3b
00000040: a02e ccbb efe3 14bc 2e92 70bb 9594 253c
00000050: 5f7c 12bc 41cd 2c3c d102 ae3c a582 253b
00000060: f918 cbbb a494 013d 12c5 cb3b 5506 ae3b
00000070: a2f7 08bd 5656 f5bc a088 243c 6c84 4ebc
00000080: a88c bf3b f2b5 f2bc b59b 823c 8f51 263c
00000090: 2855 95bc 4e25 51bc 5c2c e63b f4d6 c6bc
000000a0: a35d c73c dd79 9f3c 1c9b 8f3a 3c57 763c
000000b0: 5405 9dbc faba 58ba 4a72 533c 8b71 43bc
000000c0: 2073 01bb e293 763a 0fcd 893c 1423 6abc
000000d0: 27fd 8fba 2deb 40bd 7715 583c 5412 9bbc
000000e0: 96d7 fabc a1eb 023c 89ae 963c 3466 ce3c
000000f0: 92ae e33c a5de 94bc db55 29ba b6e7 1fbd
00000100: 4347 07bd 6c41 b13c 0870 c73c 7fd2 cd3c
00000110: 0c04 f7ba f81f 183d fb17 cc3b 2611 59bb
00000120: ba29 a6bb 2971 afbb 3a6e 7f3c 8c7f 053c
00000130: 0b62 21bd 4af2 b5ba 6d4b 5c39 8036 ce3a
00000140: d975 823c 40a7 9b3a a6db 973c 18b1 3ebc
00000150: d5f6 d2bb a5c4 3a3c 6d8c 4bbc f969 dd3b
00000160: 675d fe3c ffcc d4bb df0f 17bc b0f9 89bc
00000170: 25bf a9bc 3f54 c43b 06c7 393a 6887 033b
00000180: c0fd c5bb d609 3d3c 2664 1fbb 4e95 3e3c
00000190: d6ed 4ebc 928e 153d f760 14bb d118 43bc
000001a0: 984e 9c3b b5c4 c8bb 010c 0cbd 8f1c 723c
000001b0: 7dec 393d 46a2 e5bc 8991 b8ba 4152 b73c
000001c0: 10af 7d3d 7963 f4bb 0791 32bd 1f4f c03c
000001d0: 0dbf c73c 7849 04bc 27c4 7ebb 8ef4 373c
000001e0: 6945 17bd 4a56 5f3b c831 9b3c 681f 623c
000001f0: ecc3 7a3c cd19 5c3c 32b7 05bd 6a6b bc3c
00000200: f64d 4e3c a36d b13b 5f60 1e3b 7eaa e03c
00000210: eda9 bf3c ac3e 9a3c f63d c8bc 747d 9d3b
00000220: fdcb 953c 8096 52bc ec7c 233c 3ba9 953b
00000230: a9d8 c7bc da62 52bc b89b 30bc b7dd 1cbc
00000240: 0a78 8e3c 3e88 503c 75c4 353b 4023 cfb9
00000250: 8e92 6f3c ab86 1bbd 5919 04bd ca64 14bd
00000260: b36e 43bc e494 c5bc 41d2 853b fa28 d93c
00000270: a413 04bd d77b b73c b1f3 3f3c d738 163c
00000280: 9263 2dbc bf1e edbc a7e0 a1bc 33a0 d03c
00000290: 7597 ccbb 4875 343c 6255 7ebc 3059 2ebb
000002a0: 79e7 6e3d 9339 5fbc 8ef1 873c 77d9 123d
000002b0: afc1 803b 1daa d83c f2d8 f0ba b168 773c
000002c0: 08a9 94bc 3e57 12bc fd92 aa3c c5dc d63c
000002d0: c8a3 35bd 8fa2 923c 72d5 43bb 7a8f 593c
000002e0: 001a 5a3b 728b 453c 9da4 82bc 1b72 623c
000002f0: 9f4b 203c 9bc0 1f3c eb35 f6bb 8914 0a3d
00000300: c0c7 30bc a805 cd3c 74be 4a3c f1a3 08bc
00000310: 6600 0bbb 1688 ea3b 6c4e f1ba 54ee 2bbc
00000320: f348 d1bb 27c3 71bc 477f 24bc fb04 823b
00000330: fda1 c7bc f8bb 8bba be94 66bc e1df 11bc
00000340: 3a48 29bd bd90 863b b9d4 6bbc 7fee 4dbd
00000350: ccd6 523c 6e34 9fbc 0085 50bb aec0 613c
00000360: 9949 ec3c 1612 d93c 594c 08bd 5f1c 7b3c
00000370: cad7 e33c 08c4 72bd c532 c53c 6acf 16bc
00000380: dddf 26bc a967 1ebd 7630 1a3d b07c 863c
00000390: 937f acbc 8d4d b0bb c8a3 99bc 7039 553c
000003a0: 61a8 b7bc 45f5 473c 3a16 363c 822a da3b
000003b0: b152 083d 9c87 9c3c 5e78 ff3c b045 743c
000003c0: 6cba 723c 3df0 8abb b597 863c f792 81bb
000003d0: edb5 c43b a010 0e3c efa1 65bc 141e 9dba
000003e0: 453c ccbc da13 98bb 485b 273d ffee 053d
000003f0: ca34 5f3c 7a1c e2bb 652a 813c 333d aaba

chords_tempNet.convT_in.bias f4 [1024]
0.0014238618 0.011742843 -0.005038887 0.016347323 0.013433707 0.010942461 0.0014528439 0.008792262
-0.007877459 -0.008278993 -0.009024747 -0.0021299105 -0.00341422 -0.0091799665 -0.0034530947 -0.022000698
-0.016089715 -0.017169096 -0.008120921 -0.009300628 -0.00033909 0.01620666 -0.020472607 -0.0048388583
-0.006030309 -0.0015337983 -0.0114495745 0.019952523 0.014225689 0.021799095 0.007145236 0.011459449
-0.016736688 -0.0029582812 0.0021190657 0.0089381365 0.011730068 0.014586455 -0.015999688 -0.016741425
0.010668492 -0.011988605 -0.021729825 0.021192826 0.005677001 0.008486794 0.00045934189 -0.014170875
-0.01652608 0.012463251 0.018628584 0.0028240653 -0.01785649 0.01077361 0.009844919 0.012301615
-0.0023404835 -0.0050248434 0.010844173 0.00383277 0.019156607 0.019298123 0.012527673 -0.008318587
-0.01163645 0.019441359 -0.0028232397 0.0038498626 -0.0072094016 -0.0020470077 0.003531992 -0.01572985
-0.022109851 -0.0069870027 0.0046465974 -0.00462543 -0.021992667 -0.015094884 0.014866527 -0.0027058115
0.0148941595 -0.012989433 -0.014926427 -0.006749003 0.010984031 -0.009664913 -0.018678604 0.017971283
-0.010617194 -0.014986246 -0.021692393 0.0075263074 -0.016285779 0.016203877 0.018369716 -0.016292147
0.015913852 -0.01812734 0.020282876 0.010141101 0.00880017 -0.0057657813 0.011545193 -0.019368777
0.006494387 -0.0051677725 0.01557887 -0.014495995 -0.01941353 0.0073150718 0.0017392201 0.01962001
0.004779035 0.012254322 0.011919369 0.014854335 0.0022568866 -0.00972507 0.0029065541 0.014813774
0.011088867 -0.012231795 0.0009029382 0.00016701523 0.0046849065 -0.009685293 0.0026011728 0.019085212
0.006812936 0.010624695 -0.013001499 -0.0025496192 0.01701202 -0.008382652 -0.0126607865 0.004468433
-0.001382523 0.018997803 0.0091377115 0.017832963 0.010668825 0.019510798 -0.011592394 0.0080390535
-0.011386659 -0.0093983365 0.020347474 0.0062149614 0.018663157 0.012539401 -0.0031444987 -0.012388359
0.018928235 -0.009042873 0.011909556 -0.015662035 -0.010996392 -0.019616358 -0.013919744 -0.015864013
0.009958592 -0.0026592975 -0.017585294 0.018342607 -0.011669226 0.019716399 0.0074648303 -0.017373297
-0.013564164 0.0015581129 -0.008028463 -0.006277816 -0.00035441606 -0.010299411 0.01064705 -0.0020766996
-0.0067785233 0.017105123 -0.013250443 0.005171356 0.013361593 0.013454298 0.013324687 -0.0061883666
-0.009235729 0.0074463873 -0.014463806 0.008660743 -0.005005809 0.019435015 0.017517399 -0.0017464809
-0.008391766 -0.02175674 0.0046349927 0.0200545 -0.0040675374 -0.0046865596 -0.013805825 0.0040414273
0.0212456 0.021873621 0.010554412 -0.0011152144 0.013425997 0.005642393 -0.0026152215 0.01835207
0.008581278 -0.0016099655 0.018127322 0.012709734 -0.014353389 0.0022502632 -0.009542666 -0.020181645
-0.009275526 0.01571227 -0.00927131 0.016860867 -0.0038839888 -0.014092148 0.013386066 -0.022091024
0.012766413 -0.013585717 0.00013962438 0.0056665055 -0.013950107 -0.0149482405 -0.0044320524 -0.013983202
0.007939242 -0.009329076 0.011187168 0.0026428371 0.00037713235 -0.019636953 0.010095992 -0.01891768
0.014246346 0.021608943 0.004798287 -0.0010915084 -0.015257461 0.0134285 0.0028318383 -0.013120333
0.019393269 0.0016578953 -0.021490956 -0.0025340405 -0.0093276845 0.012783609 0.0005142367 0.016379906
00000000: e0a0 ba3a 0e65 403c 3f1d a5bb d2ea 853c
00000010: 0d19 5c3c 0248 333c 5a6d be3a 6b0d 103c
00000020: 7510 01bc 9da4 07bc 88dc 13bc f895 0bbb
00000030: 1bc1 5fbb 9267 16bc 514d 62bb cf3a b4bc
00000040: 94ce 83bc 34a6 8cbc 9d0d 05bc a961 18bc
00000050: e4c7 b1b9 d4c3 843c 2bb6 a7bc 498f 9ebb
00000060: e699 c5bb bb09 c9ba ff96 3bbc 7973 a33c
00000070: dd12 693c 0494 b23c 9522 ea3b 6ac0 3b3c
00000080: 611b 89bc b9df 41bb 06e0 0a3b 4371 123c
00000090: 792f 403c 07fc 6e3c c711 83bc 5025 89bc
000000a0: e6ca 2e3c db6b 44bc bf02 b2bc 949c ad3c
000000b0: 2306 ba3b 320c 0b3c d3d3 f039 f52c 68bc
000000c0: b461 87bc aa32 4c3c f99a 983c f413 393b
000000d0: c647 92bc cc83 303c 954c 213c b78c 493c
000000e0: cc62 19bb 71a7 a4bb c2ab 313c 362f 7b3b
000000f0: 51ee 9c3c 1917 9e3c de40 4d3c af4a 08bc
00000100: cfa6 3ebc 7c43 9f3c 1a06 39bb fa4d 7c3b
00000110: d83c ecbb 1727 06bb fe78 673b e3db 80bc
00000120: b81f b5bc 3af3 e4bb 7c42 983b eb90 97bb
00000130: f729 b4bc 8850 77bc bc92 733c fc53 31bb
00000140: a206 743c a1d1 54bc f98d 74bc be26 ddbb
00000150: 5df6 333c 9559 1ebc df03 99bc 8338 933c
00000160: bdf3 2dbc df88 75bc 3fb4 b1bc 3e9f f63b
00000170: c169 85bc febd 843c 167c 963c 1c77 85bc
00000180: c45d 823c ca7f 94bc 4628 a63c dc26 263c
00000190: 972e 103c e1ee bcbb 0d28 3d3c 45ab 9ebc
000001a0: dece d43b 6b56 a9bb 843e 7f3c 9c80 6dbc
000001b0: 2009 9fbc 45b3 ef3b 8bf6 e33a 25ba a03c
000001c0: 7499 9c3b 5ac6 483c 7549 433c 995f 733c
000001d0: 46e8 133b e655 1fbc e37b 3e3b 79b5 723c
000001e0: 14ae 353c de67 48bc 28b3 6c3a cf20 2f39
000001f0: d883 993b 10af 1ebc 7078 2a3b 9758 9c3c
00000200: 0d3f df3b 3313 2e3c 3d04 55bc 8317 27bb
00000210: cb5c 8b3c 6457 09bc 306f 4fbc ef6b 923b
00000220: c635 b5ba 48a1 9b3c 57b6 153c 6f16 923c
00000230: 4ccc 2e3c 1cd5 9f3c 06ee 3dbc 3cb6 033c
00000240: 1c8f 3abc 7bfb 19bc bfaf a63c e0a6 cb3b
00000250: 7ae3 983c 0f72 4d3c ef13 4ebb 8bf8 4abc
00000260: 630f 9b3c 8f28 14bc 4c20 433c ab4d 80bc
00000270: 362a 34bc 7cb2 a0bc a30f 64bc 3ff5 81bc
00000280: 5d29 233c 9c47 2ebb 090f 90bc 3c43 963c
00000290: 4830 3fbc 4984 a13c 899b f43b 7252 8ebc
000002a0: 3a3c 5ebc 9839 cc3a d189 03bc 23b6 cdbb
000002b0: ebd0 b9b9 dcbe 28bc f770 2e3c 3d19 08bb
000002c0: 601e debb 0b20 8c3c 6318 59bc 7a74 a93b
000002d0: 95ea 5a3c 6a6f 5c3c ca4f 5a3c c8c7 cabb
000002e0: 7551 17bc d300 f43b 99f9 6cbc cae5 0d3c
000002f0: c507 a4bb 2e36 9f3c a680 8f3c 2dea e4ba
00000300: 9e7d 09bc 313b b2bc 23e1 973b 5649 a43c
00000310: fa48 85bb b691 99bb d431 62bc f36d 843b
00000320: 410b ae3c 4f30 b33c 6aec 2c3c 632c 92ba
00000330: b7f8 5b3c d3e3 b83b 2364 2bbb 1557 963c
00000340: 7d98 0c3c 7a05 d3ba c07f 943c 7d3c 503c
00000350: 7a2a 6bbc 2779 133b d858 1cbc fa53 a5bc
00000360: 60f8 17bc 05b7 803c b1e6 17bc cd1f 8a3c
00000370: 858a 7ebb c1e2 66bc 3b51 5b3c 3cf8 b4bc
00000380: 382a 513c a196 5ebc 2268 1239 18ae b93b
00000390: fd8e 64bc 77e9 74bc c03a 91bb cd19 65bc
000003a0: 9813 023c fbd8 18bc 624a 373c 7333 2d3b
000003b0: d9b9 c539 addd a0bc a969 253c 40f9 9abc
000003c0: 8269 693c 3d05 b13c f33a 9d3b f210 8fba
000003d0: 6efa 79bc 3603 5c3c 5d96 393b aaf6 56bc
000003e0: a2de 9e3c bc4d d93a cd0d b0bc 2512 26bb
000003f0: 25d3 18bc 5872 513c d7cd 063a 272f 863c

chords_tempNet.convT_out.weight f4 [1024, 32, 1, 1]
0.0045156064 0.012887461 -0.012688626 -0.03202 -0.005815361 0.009075227 0.008958614 0.052213516
0.0034259693 -0.014419305 -0.010793134 -0.019686002 0.0007013086 -0.006056865 -0.04047994 -0.02621462
0.019170808 0.009693657 -0.033197723 0.030536214 -0.016792823 -0.032824274 0.009476122 0.0072740633
0.041244406 0.0019559206 0.013521345 0.017970745 -0.02837265 0.010808196 -0.0011688456 -0.014141062
0.03247458 -0.0023107964 -0.03425664 0.028797543 0.06452285 0.00063985435 0.00026208142 -0.01197349
-0.038197 -0.0015497084 0.008600949 0.0020429192 0.012153533 0.0057898834 0.03039789 -0.011695767
0.003089825 -0.005574887 -0.03208656 -0.04960884 0.0022187927 0.015673714 0.008261809 -0.021211147
-0.0048959353 0.024990289 0.006484129 -0.007464786 0.019071808 0.014959141 0.0032381937 -0.0019024746
0.0071236263 -0.010764099 -0.0146485 -0.013431065 0.018858442 -0.03154869 0.028166918 0.031507757
0.008902273 0.011578977 0.012717144 -0.011263891 0.01227444 0.025963115 -0.01992793 0.023676861
0.0051185526 -0.00084759516 0.027833767 0.016779296 0.040921457 0.017587861 0.029944278 0.016958192
0.018129893 -0.005359576 -0.019172017 -0.004717164 0.00983405 0.031982746 -0.013857226 0.013184077
-0.020675048 0.018032702 0.045900024 -0.006753146 -0.0051751174 0.015212686 0.0138658555 -0.021518135
0.0072994805 0.032471992 -0.031301152 -0.0015916658 -0.0014423947 -0.029412441 -0.0031710693 -0.01754769
-0.054988112 0.011732319 0.008669079 0.02437699 -0.035476476 -0.0045224135 -0.011851699 0.021385329
0.00070103386 0.018786428 -0.024184853 0.012169337 -0.009848358 0.012046417 -0.031812206 0.016831763
-0.006620252 0.00585335 0.019264685 0.0020280345 -0.008906623 0.020270875 0.008151663 0.027942842
-0.028032044 0.0103452075 0.0009678768 0.045962956 0.041813433 -0.021519337 0.016392423 -0.004318213
0.008995308 -0.005409729 -0.024826054 0.019291751 -0.009310024 0.008951696 -0.005530714 0.020576717
0.0035580364 -0.00534457 -0.026695738 -0.04390833 -0.02840152 -0.013611407 0.0022334403 0.0012700268
0.019244699 -0.00012970601 -0.015379324 -0.053282436 -0.032502566 -0.006852285 0.011659002 -0.013973277
0.021897264 0.0074768993 -0.023635939 0.027036551 -0.011258542 0.036503445 0.01597683 -0.01353114
0.016710768 -0.030298365 0.005069759 0.00096467155 -0.009334003 -0.01690407 -0.02240241 -0.0020560105
0.019158704 -0.019612525 0.020673018 0.04221822 -0.0009868926 0.011123392 0.0031186298 -0.036862016
-0.013099307 0.008521047 0.003927902 0.0509169 0.004886793 -0.033789437 0.018727535 0.014859628
-0.005198445 0.0051232153 0.051209345 0.021649633 -0.0088105695 -0.004839045 0.01324651 0.008736901
-0.01646533 -0.022104774 0.017634178 0.012559236 -0.00052982627 -0.042974338 -0.03676434 0.007384238
0.009386487 0.0070812334 -0.028485 -0.03576799 0.031414445 0.006380067 -0.03865231 0.008947127
-0.021838237 -0.030644191 0.014857391 0.013466867 0.02340957 -0.009917077 -0.03185833 0.026731525
-0.02531188 -0.029403811 0.0010060588 -0.025155874 0.0020387436 0.011830079 -0.020377796 -0.0051719425
0.007103588 -0.026502755 0.011801097 0.013520803 0.017980821 0.009094023 -0.017306427 0.021432841
0.0035443946 0.0020702009 0.0041839913 0.026431518 0.04275724 -0.013865357 0.0023066595 -0.021129565
00000000: a7f7 933b ee25 533c f4e3 4fbc 6727 03bd
00000010: c98e bebb 43b0 143c 27c7 123c d7dd 553d
00000020: 3a86 603b f33e 6cbc afd5 30bc 8a44 a1bc
00000030: 06d8 373a ab78 c6bb 4bce 25bd 0bc0 d6bc
00000040: 190c 9d3c 25d2 1e3c 56fa 07bd 1527 fa3c
00000050: 1a91 89bc bf72 06bd bd41 1b3c 445b ee3b
00000060: e5ef 283d e72e 003b a288 5d3c 6237 933c
00000070: c26d e8bc dc14 313c f333 99ba eaaf 67bc
00000080: 1104 053d bb70 17bb b150 0cbd d3e8 eb3c
00000090: 8e24 843d e6bb 273a f967 8939 752c 44bc
000000a0: 7574 1cbd 961f cbba ffea 0c3c 7fe2 053b
000000b0: 9d1f 473c 10b9 bd3b ff04 f93c 9a9f 3fbc
000000c0: a97e 4a3b 8bad b6bb 326d 03bd a432 4bbd
000000d0: 2a69 113b 2966 803c 8a5c 073c 00c3 adbc
000000e0: 156e a0bb 6fb8 cc3c d178 d43b 2a9b f4bb
000000f0: 7b3c 9c3c 2f17 753c e037 543b 745c f9ba
00000100: 4f6d e93b e75b 30bc 4300 70bc f80d 5cbc
00000110: 057d 9a3c 3339 01bd 4fbe e63c 470e 013d
00000120: d7da 113c c0b5 3d3c 915b 503c 2f8c 38bc
00000130: bc1a 493c 99b0 d43c e63f a3bc faf5 c13c
00000140: 88b9 a73b 2631 5eba a403 e43c bc74 893c
00000150: 429d 273d 6b14 903c b44d f53c e8eb 8a3c
00000160: 2485 943c 629f afbb a20e 9dbc 7192 9abb
00000170: ff1e 213c 5700 033d 6b09 63bc 0702 583c
00000180: b85e a9bc 51b9 933c aa01 3c3d 7f49 ddbb
00000190: 0894 a9bb a13e 793c 9d2d 633c cd46 b0bc
000001a0: 7b30 ef3b 5a01 053d a335 00bd 719f d0ba
000001b0: bc0e bdba 5cf2 f0bc b7d1 4fbb 2cc0 8fbc
000001c0: 373b 61bd ea38 403c c108 0e3c 41b2 c73c
000001d0: c84f 11bd c130 94bb a12d 42bc 4930 af3c
000001e0: 96c5 373a ffe5 993c 501f c6bc e661 473c
000001f0: 025b 21bc 565e 453c 844d 02bd c4e2 893c
00000200: b3ee d8bb 75cd bf3b f9d0 9d3c c6e8 043b
00000210: 16ed 11bc 1b0f a63c 8d8e 053c 63e8 e43c
00000220: 75a3 e5bc f27e 293c 1db9 7d3a a743 3c3d
00000230: 9044 2b3d 5249 b0bc 6749 863c cc7f 8dbb
00000240: 0e61 133c 1944 b1bb 0260 cbbc bc09 9e3c
00000250: 1289 18bc 22aa 123c fe3a b5bb 8190 a83c
00000260: f22d 693b 8121 afbb 05b1 dabc 39d9 33bd
00000270: 4eaa e8bc 6102 5fbc e95e 123b 0777 a63a
00000280: 0fa7 9d3c b101 08b9 8ff9 7bbc af3e 5abd
00000290: 6921 05bd 2289 e0bb 6605 3f3c 2cf0 64bc
000002a0: e461 b33c c700 f53b 28a0 c1bc c27b dd3c
000002b0: bf75 38bc a384 153d d7e1 823c b7b1 5dbc
000002c0: 05e5 883c 4734 f8bc 3920 a63b 03e2 7c3a
000002d0: a5ed 18bc 677a 8abc 4285 b7bc 22be 06bb
000002e0: b7f2 9c3c 72aa a0bc 765a a93c 03ed 2c3d
000002f0: 9f5a 81ba e33e 363c ed61 4c3b a0fc 16bd
00000300: 7a9e 56bc dd9b 0b3c a1b5 803b 3d8e 503d
00000310: 6421 a03b cb66 0abd 7d6a 993c cc75 733c
00000320: b857 aabb a5e0 a73b e4c0 513d 925a b13c
00000330: 355a 10bc da90 9ebb e407 593c 3825 0f3c
00000340: 4de2 86bc 1215 b5bc 8d75 903c 41c5 4d3c
00000350: 0ae4 0aba dc05 30bd 3496 16bd 7af7 f13b
00000360: c8c9 193c b109 e83b 6059 e9bc 7581 12bd
00000370: 6fac 003d e20f d13b e251 1ebd f896 123c
00000380: 1ae6 b2bc 8709 fbbc 6a6c 733c 22a4 5c3c
00000390: 6dc5 bf3c 3c7b 22bc e17d 02bd 12fc da3c
000003a0: dc5a cfbc 43e0 f0bc bbdd 833a b113 cebc
000003b0: 719c 053b f3d2 413c 56ef a6bc 6679 a9bb
000003c0: 37c5 e83b 4e1c d9bc 6359 413c 5c86 5d3c
000003d0: 844c 933c 19ff 143c 35c6 8dbc ed93 af3c
000003e0: 1349 683b 35ac 073b dd19 893b e986 d83c
000003f0: 3722 2f3d 862b 63bc 532b 173b e917 adbc

chords_tempNet.convT_out.bias f4 [32]
0.16507763 -0.11983508 -0.012278774 -0.10719363 -0.14533745 -0.0025819882 -0.038582508 0.15549178
0.0160408 -0.09954216 -0.14000216 -0.061263625 -0.06420569 -0.10010885 0.12981239 0.14854428
-0.033343855 0.08867367 0.015150479 -0.03787045 -0.092400305 -0.13555284 -0.17406835 -3.7646434e-05
-0.12723456 0.0033375013 0.12661083 0.105326295 -0.062222876 -0.1376965 -0.009951681 0.10062428
00000000: 1c0a 293e 186c f5bd e92c 49bc 5588 dbbd
00000010: 57d3 14be 9336 29bb b108 1ebd 3d39 1f3e
00000020: ff67 833c c3dc cbbd ba5c 0fbe 91ef 7abd
00000030: 467e 83bd de05 cdbd 8aed 043e fe1b 183e
00000040: 9193 08bd 8b9a b53d b739 783c 0c1e 1bbd
00000050: 5f3c bdbd 5dce 0abe f93e 32be 8de6 1db8
00000060: c749 02be fbb9 5a3b 45a6 013e 50b5 d73d
00000070: 6add 7ebd 5000 0dbe 600c 23bc 1a14 ce3d

chords_tempNet.batchnorm_1.weight f4 [1024]
-0.0051395483 -0.01113425 -0.061976824 0.0017846859 0.027813759 -0.01563541 0.03266243 -0.013248947
-0.018331785 0.011974108 -0.03352965 -0.0033370247 4.171578e-05 -0.015870681 0.01688751 -0.0071677025
0.0166539 -0.0133062 -0.0007848351 -0.0042979065 -0.032123506 -0.030771561 -0.025349697 9.102153e-07
-0.032449253 -0.0056471643 0.010517623 -0.013398212 0.013216909 -0.03255073 -0.0166754 -0.027908055
-0.023376344 -0.038969763 -0.02129821 -0.01860694 0.009131773 -0.0054371883 0.018476166 -0.0076096733
0.0049559562 -0.025529105 -0.026710242 -0.0063117063 -0.00010115155 0.00013833531 0.0022216418 -0.040102728
0.0020277316 -0.03185295 -0.024867387 -0.022866381 -0.031477753 0.006923339 0.055072334 -0.010934998
0.010613721 0.018703531 0.0048366827 -0.007764421 -0.0011402159 0.02300522 -0.010503224 0.027820451
0.00037204052 0.016218267 0.009570995 0.022180019 -0.00010201482 -0.01809845 -0.006807536 0.00012847556
0.02322836 -0.0038728444 -0.015587544 0.023867266 -0.012954258 -0.005737995 -0.0008436647 -0.021267744
-0.0029459214 0.01010898 0.023366876 0.00019542697 -0.027250927 -0.04351255 -0.019790651 0.01822046
-0.01912368 0.0038628306 -0.004070955 -0.0062679164 0.019771231 -0.017539507 -0.0035523768 0.0065893508
-0.0038398574 -0.02641857 -0.0020296895 -0.006474358 -0.00015979572 0.018734274 0.005880414 0.007547013
-0.026089163 0.014250876 0.021785937 0.012887753 0.013269627 0.003514318 -0.01999859 0.021996731
-0.017763201 0.0049105207 -0.029168116 -0.00018481196 -0.00730373 0.043422986 0.053976383 0.0026733289
-0.026843766 -0.009813837 0.0027511565 -0.0065999455 0.014089268 -0.017529696 0.021203233 -0.0011015328
0.020748602 -0.03897551 -0.022590777 -0.0336904 0.026582018 0.016841132 -2.4972365e-05 -0.034880433
0.0071205567 0.004811729 0.029173106 0.042486362 0.010836572 -0.0050922344 0.015340772 0.037052777
-0.027227275 -0.020238515 0.039807636 0.029395606 -0.019274455 0.014073638 -0.010857324 -0.008999421
0.011016256 0.020200407 0.0002977649 -0.015077699 0.02440123 0.012972602 0.023859387 -0.008172318
0.017841253 0.0138771515 0.030910239 0.004944022 -0.052405942 -0.013898173 0.011510893 0.0057204757
-0.008057067 -0.00036563785 0.020515373 0.034536645 -7.119333e-05 -0.031185461 -0.04432505 -0.010832924
0.010984049 0.009820292 0.0033610174 -0.0030184817 -0.027043417 -0.016307246 -0.02120206 -0.018275093
-0.0046727625 0.0044941227 0.007540458 -0.01505674 0.008320384 -0.012056715 0.019786948 -0.012716771
-0.019899005 -0.00020912621 0.04138143 -0.017515268 0.021280708 -0.022087839 5.435699e-05 -0.013326388
-0.01284199 0.020505391 -0.015093721 -0.00060701626 -0.014318685 0.027477492 0.019869484 -0.014856573
0.00031693777 0.0064450717 0.006945445 -0.010959379 0.01185344 0.027796114 -0.016854214 -0.006068422
0.019768227 0.0365197 -0.012740235 -0.030469432 0.023482384 0.006201908 0.019033592 -0.017422227
-0.035828717 -0.001795322 0.045578476 -0.01605766 -0.02784461 -0.03909414 0.0064301617 0.0066302647
-0.04880754 -0.016110955 0.008710822 -0.031515304 0.014860785 -0.0041586165 0.037166864 -0.0246492
0.026268017 0.00057109783 -0.0011323588 -0.030492164 -0.03970063 -0.00046094847 0.026250204 -0.016205262
-0.00013223026 -0.012012436 0.007942229 0.024540886 -0.007307424 -0.007363894 -0.023875847 0.025658403
00000000: a869 a8bb 6e6c 36bc 69db 7dbd 1fec e93a
00000010: aed9 e33c d515 80bc 0ac9 053d 1d12 59bc
00000020: 8a2c 96bc 0d2f 443c 6356 09bd fcb1 5abb
00000030: faf7 2e38 3b03 82bc ad57 8a3c 0cdf eabb
00000040: c26d 883c 3f02 5abc 64bd 4dba 74d5 8cbb
00000050: f093 03bd a414 fcbc 2baa cfbc 8555 7435
00000060: 82e9 04bd d90b b9bb 1c52 2c3c 2d84 5bbc
00000070: bc8b 583c ea53 05bd d99a 88bc 6f9f e4bc
00000080: bf7f bfbc c29e 1fbd 9579 aebc 956d 98bc
00000090: 6f9d 153c 712a b2bb 545b 973c 915a f9bb
000000a0: 9365 a23b 6a22 d1bc 70cf dabc 6ed2 cebb
000000b0: 5321 d4b8 1a0e 1139 f798 113b c242 24bd
000000c0: b1e3 043b 3d78 02bd b1b6 cbbc 4752 bbbc
000000d0: d1ee 00bd 2ddd e23b 8793 613d b528 33bc
000000e0: 2ce5 2d3c 2638 993c 097d 9e3b af6c febb
000000f0: 4c73 95ba 7175 bc3c b715 2cbc b7e7 e33c
00000100: 6f0e c339 2cdc 843c aacf 1c3c dfb2 b53c
00000110: caf0 d5b8 3343 94bc c011 dfbb 65b7 0639
00000120: 6749 be3c 8ccf 7dbb e662 7fbc 4985 c33c
00000130: 193e 54bc ca05 bcbb 6129 5dba b139 aebc
00000140: 5c10 41bb 23a0 253c e46b bf3c 87eb 4c39
00000150: 563d dfbc 373a 32bd 0120 a2bc 1343 953c
00000160: 44a9 9cbc 8b27 7d3b a565 85bb 1863 cdbb
00000170: 47f7 a13c 03af 8fbc fece 68bb 7beb d73b
00000180: 1ea6 7bbb c26b d8bc 8a04 05bb da26 d4bb
00000190: d68e 27b9 9f78 993c 7db0 c03b ef4c f73b
000001a0: f1b8 d5bc 827c 693c 6c78 b23c 2727 533c
000001b0: d968 593c 7950 663b 15d4 a3bc 7d32 b43c
000001c0: 2284 91bc 6fe8 a03b f9f1 eebc 15ca 41b9
000001d0: 2154 efbb 4ddc 313d 5716 5d3d 0433 2f3b
000001e0: 75e7 dbbc 37ca 20bc bf4c 343b 5b44 d8bb
000001f0: acd6 663c 709a 8fbc 67b2 ad3c 4f61 90ba
00000200: f9f8 a93c c9a4 1fbd 4b10 b9bc f2fe 09bd
00000210: 88c2 d93c 6af6 893c bf7b d1b7 c9de 0ebd
00000220: 8f53 e93b b5ab 9d3b 70fc ee3c 2e06 2e3d
00000230: e18b 313c c2dc a6bb dd57 7b3c a7c4 173d
00000240: bc0b dfbc 3ecb a5bc 550d 233d 0ecf f03c
00000250: 76e5 9dbc 1e95 663c ebe2 31bc 4f72 13bc
00000260: 877d 343c 537b a53c 541d 9c39 7408 77bc
00000270: 17e5 c73c 098b 543c c374 c33c 30e5 05bc
00000280: d227 923c fe5c 633c 7837 fd3c 7601 a23b
00000290: 9da7 56bd 2ab5 63bc 2f98 3c3c d472 bb3b
000002a0: ca01 04bc 15b3 bfb9 db0f a83c 4c76 0d3d
000002b0: a14d 95b8 a778 ffbc 2f8e 35bd 947c 31bc
000002c0: 71f6 333c 4ae5 203c 8444 5c3b b8d1 45bb
000002d0: 288a ddbc c696 85bc f1af adbc a6b5 95bc
000002e0: f91d 99bb 6f43 933b f215 f73b 8bb0 76bc
000002f0: 3852 083c 8789 45bc 3d18 a23c 015a 50bc
00000300: 3d03 a3bc e448 5bb9 937f 293d 2e7c 8fbc
00000310: e154 ae3c 8ef1 b4bc 60fd 6338 ec56 5abc
00000320: 3667 52bc ecfa a73c a84b 77bc 2c20 1fba
00000330: eb98 6abc 7a18 e13c 54c5 a23c fc68 73bc
00000340: ab2a a639 2e31 d33b 9e96 e33b f88e 33bc
00000350: ee34 423c adb4 e33c d911 8abc 9dd9 c6bb
00000360: faf0 a13c ae95 153d 6bbc 50bc 089b f9bc
00000370: 215e c03c 6039 cb3b 56ec 9b3c 0fb9 8ebc
00000380: 22c1 12bd 0351 ebba 7fb0 3a3d 5b8b 83bc
00000390: 611a e4bc 2d21 20bd 1bb4 d23b b142 d93b
000003a0: 6aea 47bd 1ffb 83bc d6b7 0e3c 3116 01bd
000003b0: a67a 733c 0145 88bb 483c 183d 1eed c9bc
000003c0: 0630 d73c bab5 153a a86b 94ba b4ca f9bc
000003d0: 219d 22bd 75ab f1b9 ab0a d73c e6c0 84bc
000003e0: 4aa7 0ab9 cfcf 44bc 1f20 023c f809 c93c
000003f0: 1e73 efbb d24c f1bb 4897 c3bc 9231 d23c

chords_tempNet.batchnorm_1.bias f4 [1024]
0.0032143714 0.008798276 0.005539753 0.0015338464 0.00087980286 -0.002688473 0.0006905237 -0.0053710705
0.002509933 0.00094588124 -0.0006812119 5.2624633e-05 -0.0002744608 0.002301529 0.0061725057 -0.0038317412
-0.0021234446 -0.0006699697 -0.0037268815 0.00067447685 0.00020652408 -0.002429274 0.0059776134 -0.00017316919
-0.00328286 -0.0012756328 0.0015665583 0.0037811238 -0.0041817985 0.002377256 -0.0020958516 0.0043181255
-0.0026114252 0.00018141799 0.0031802075 -0.0036361108 -0.006296077 -0.001928864 -0.005948701 -0.002629777
0.0013488121 -0.0024137576 -0.00078268483 0.0003285405 -0.00076520466 -0.0007532561 -0.008426723 0.0024258343
0.001134799 0.0034256005 0.003920619 -0.0012636585 0.0014921739 -0.0020256883 0.0062107258 0.0045916084
-0.0021227861 -0.0008389683 -0.011005207 -0.0026809117 -0.005539769 -0.0011105642 -0.005074668 -0.0011091729
-0.0019656895 0.005931018 0.0001038822 -0.0004968046 -0.0012836313 -0.0029830658 -0.0017537673 -0.00065080775
-0.00011132103 0.004670227 -0.0031624087 -0.00091162993 0.0002362245 0.00013651953 -0.0045610345 0.0013272212
0.0011635302 0.00067573134 0.0014872561 -0.0010236946 -0.0036488725 -0.0019917255 -0.0008246057 0.001499615
-0.0025292432 -0.0038356853 0.00204979 -0.00046926952 -0.0029672522 0.00013084288 -0.0039440994 0.00707643
-0.0051496523 -0.0036149411 -0.007963821 0.00017971522 -0.0022790276 -0.004178822 -0.00056972896 -0.003016296
-0.0021679034 0.0037121489 0.00145625 -0.00048301596 -0.00084248174 0.0036388736 0.0022238544 0.0014456846
0.00037476554 -0.0054786936 0.0065703867 -0.0009378039 -0.0052998913 0.0058686477 0.0066621155 -0.002612222
-0.002614688 0.000617913 0.0001322224 -0.0014416218 0.002938425 0.00072657724 0.0016616957 -0.0057841493
0.0009605747 0.0001293284 -0.0035178768 0.0002244907 0.0032947883 0.00037080166 -0.00084215414 0.0036963732
-0.0024286425 0.0022460725 -0.002281007 0.0049535003 -0.001845124 -0.00056522 0.0014844394 -0.004471697
-0.0014819971 -0.0050834515 0.00037738678 -0.002802676 -0.00013895621 0.0012860169 -0.005546564 -0.0030919977
-0.0041986257 -0.0023650124 -0.002634089 0.00096552423 -0.00017033624 0.003070644 0.0013593672 0.0017650737
0.0020887258 0.00014045142 0.0021807274 -0.0014506191 0.0045920517 -0.0019104208 0.0018169448 -0.0049788314
0.0057483935 -0.0014179597 -0.0046318816 -0.0038539101 -0.00037008413 -0.001015034 0.0014067369 -0.0008508233
-0.0019553667 0.0016548198 0.004851356 -4.4648037e-05 -0.005698779 -0.0018032792 -0.0024001661 0.0011088789
-0.00036026526 0.0032336293 -0.0034859232 0.003128489 -0.0040387344 -0.005129747 0.0022595343 0.0008547551
-0.0015169935 -0.0009336778 0.0023427964 -6.911605e-05 -0.0039232606 -0.0023832335 -0.0003945158 -0.003345647
0.0002270517 0.0021063355 0.0016560913 -0.0026759128 0.002204832 -0.0022770343 -0.0017271471 -0.0025065285
-0.001397641 -0.0070488583 -0.0022064308 -0.00024877183 0.0057434966 0.0038583484 0.0050049904 0.0014588248
0.0013204049 0.0026892326 -0.0059577962 0.003758772 0.0019666639 -0.0013334656 -0.003461797 0.0023041896
-0.008102719 -0.006852947 -0.00037394767 -0.0016279827 -0.0005504321 0.007804637 0.00011136293 -0.0017512423
-0.0042575835 0.0014469876 0.00089150446 0.0005221374 -0.005368328 -0.0033423807 0.0033897583 -4.2122403e-05
-0.0020760528 -0.002618332 -0.0062371613 -0.0017498522 -0.003555267 -0.0022096646 0.007148477 -0.0047786185
-0.00079792703 -0.0030953942 0.0029627113 -0.0026579704 -0.0031827907 0.0042754505 -0.0035939147 0.004303018
00000000: 34a8 523b a526 103c d186 b53b 580b c93a
00000010: 92a2 663a 1831 30bb 4304 353a ceff afbb
00000020: b07d 243b 04f5 773a 5b93 32ba 45b9 5c38
00000030: 81e5 8fb9 40d5 163b bb42 ca3b f31d 7bbb
00000040: 7d29 0bbb e8a0 2fba b23e 74bb 60cf 303a
00000050: 638e 5839 7434 1fbb dbdf c33b c094 35b9
00000060: 4025 57bb 2233 a7ba f954 cd3a bbcc 773b
00000070: 7807 89bb bdcb 1b3b 8e5a 09bb 107f 8d3b
00000080: 7224 2bbb 053b 3e39 076b 503b d14b 6ebb
00000090: 524f cebb f0d1 fcba 52ed c2bb 5658 2cbb
000000a0: a0ca b03a 2230 1ebb 172d 4dba f63f ac39
000000b0: 0498 48ba 2976 45ba 3d10 0abc bffa 1e3b
000000c0: 89bd 943a 0a80 603b 8978 803b 58a1 a5ba
000000d0: 0c95 c33a 69c1 04bb 5883 cb3b 3475 963b
000000e0: 711e 0bbb 36ee 5bba 2f4f 34bc 3cb2 2fbb
000000f0: f386 b5bb 5a90 91ba 6749 a6bb ab61 91ba
00000100: ccd2 00bb fc58 c23b 55db d938 fe3b 02ba
00000110: 853f a8ba 8a7f 43bb aade e5ba f89a 2aba
00000120: 0675 e9b8 b408 993b 6a40 4fbb 73fa 6eba
00000130: 08b3 7739 af26 0f39 bb74 95bb 27f6 ad3a
00000140: 9881 983a 9023 313a 09f0 c23a 7e2d 86ba
00000150: ec21 6fbb 9c87 02bb 5a2a 58ba bb8e c43a
00000160: a9c1 25bb 1f60 7bbb c555 063b 4a08 f6b9
00000170: 3b76 42bb de32 0939 813d 81bb 66e1 e73b
00000180: 6abe a8bb a6e8 6cbb b07a 02bc f071 3c39
00000190: bd5b 15bb 80ee 88bb dd59 15ba 0dad 45bb
000001a0: 6213 0ebb 8647 733b a4df be3a 4e3d fdb9
000001b0: fed9 5cba 2b7a 6e3b 16be 113b 207d bd3a
000001c0: 2e7c c439 9d86 b3bb 664c d73b f4d6 75ba
000001d0: b6aa adbb c94d c03b e04d da3b d031 2bbb
000001e0: 2f5b 2bbb 71fb 213a 2ea5 0a39 cdf4 bcba
000001f0: 9792 403b c677 3e3a 41cd d93a f688 bdbb
00000200: 14cf 7b3a 549c 0739 2e8c 66bb 4365 6b39
00000210: 60ed 573b 2868 c239 02c4 5cba da3e 723b
00000220: dc29 1fbb d832 133b f27c 15bb f950 a23b
00000230: 16d8 f1ba 462b 14ba 8591 c23a 5087 92bb
00000240: 923f c2ba 1593 a6bb ffdb c539 1aad 37bb
00000250: c6b4 11b9 918f a83a f3bf b5bb 1da3 4abb
00000260: a094 89bb 53fe 1abb aea0 2cbb 3c1b 7d3a
00000270: 499c 32b9 dc3c 493b cb2c b23a 0c5a e73a
00000280: 01e3 083b 2446 1339 89ea 0e3b b322 beba
00000290: ec78 963b 1667 faba 8d26 ee3a 7725 a3bb
000002a0: 055d bc3b d5da b9ba 0ac7 97bb e291 7cbb
000002b0: da07 c2b9 e40a 85ba 4262 b83a c909 5fba
000002c0: 9c25 00bb 8ae6 d83a 20f8 9e3b 7744 3bb8
000002d0: d3bc babb 025c ecba 1b4c 1dbb cd57 913a
000002e0: fce1 bcb9 4ceb 533b 1674 64bb 5607 4d3b
000002f0: 5c57 84bb 7017 a8bb b214 143b a511 603a
00000300: dbd5 c6ba 0ec2 74ba 9a89 193b 66f2 90b8
00000310: b28e 80bb 0630 1cbb 04d7 ceb9 a442 5bbb
00000320: ba14 6e39 720a 0a3b 3411 d93a 5e5e 2fbb
00000330: f17e 103b 4c3a 15bb 7161 e2ba 9244 24bb
00000340: 0d31 b7ba 1cfa e6bb c499 10bb 976d 82b9
00000350: f133 bc3b 58dc 7c3b e700 a43b 0a36 bf3a
00000360: 7011 ad3a d63d 303b 9e39 c3bb bb55 763b
00000370: 25e3 003b aec7 aeba 51df 62bb e301 173b
00000380: 44c1 04bc b08e e0bb 680e c4b9 0962 d5ba
00000390: df4a 10ba 0abe ff3b 858b e938 f189 e5ba
000003a0: 3383 8bbb d9a8 bd3a dab3 693a 0ce0 083a
000003b0: cde8 afbb d80b 5bbb b526 5e3b 96ac 30b8
000003c0: 630e 08bb 5298 2bbb 1a61 ccbb 4c5b e5ba
000003d0: 7bff 68bb 05d0 10bb c53d ea3b f595 9cbb
000003e0: fa2b 51ba 19dc 4abb 0c2a 423b 5831 2ebb
000003f0: 5e96 50bb 1419 8c3b e287 6bbb 5500 8d3b

chords_tempNet.batchnorm_1.running_mean f4 [1024]
0.040333174 0.024562744 -0.008431372 -0.025534617 0.014328876 0.021831458 -0.033948284 0.008415429
-0.012953403 0.08502867 0.012346545 -0.029162435 0.014348686 -0.06313965 -0.040451866 0.0054129404
-0.027696708 -0.015447976 0.05381439 -0.062346272 0.044798132 0.028055342 -0.0015569933 0.00029588552
-0.007693928 -0.04991251 0.015234565 0.05537516 -0.01710547 -0.005298061 0.077105835 0.004833087
-0.021093376 -0.0022945087 0.024097657 -0.015029781 0.0015915739 -0.0068034017 -0.041236542 0.053761266
0.02807361 -0.011164661 0.004399599 -0.0034824642 0.052516136 0.035377197 0.030893127 -0.031457525
-0.04662194 0.019620866 0.013366446 0.03997839 -0.041956253 0.013890186 -0.030668788 -0.033966113
-0.020698452 -0.010959524 -0.045930464 0.0017832567 -0.027156187 0.018676555 0.01007391 0.05663969
-0.00773898 0.025554055 0.03322604 -0.019778218 -0.056632474 0.011539642 -0.021308212 -0.009481563
-0.04156675 -0.027901731 -0.024501333 0.03756686 0.0062796334 -0.025010847 -0.022824604 0.011557074
0.005708789 -0.021701949 -0.10760926 0.03963184 -0.03475798 -0.0037877453 -0.038495813 0.012130132
-0.032986768 0.0022208653 -0.058419377 -0.010505389 0.003277431 0.0030209685 0.03264195 -0.04841651
-0.057399515 0.046625856 -0.04464259 -0.03421204 0.0064262636 -0.0068301912 0.028042115 -0.030567944
0.033199053 0.05703922 0.074714854 -0.024812507 0.0045588566 -0.010659662 0.0030556754 -0.060045965
0.009694906 -0.016338443 0.08357216 0.011826497 -0.017089436 0.013896065 0.0067653935 -0.0038715785
-0.036059286 -0.008527143 0.01539708 0.027329609 -0.02796336 -0.056723747 0.02915256 0.028759733
-0.026576553 0.050158817 0.030839792 0.028252251 -0.00940955 -0.008927841 0.021687472 -0.0026825445
0.02391719 0.007560292 0.02527191 -0.028048223 0.0065620393 0.046987742 0.06561076 0.03775194
-0.008161159 -0.005892545 0.087277845 0.01007009 0.029754598 0.016261559 -0.030976927 0.009272471
0.022129906 -0.05671965 0.052555643 -0.00032443358 0.015830763 -0.058710173 0.0008900014 0.016879627
0.04261235 0.0063059228 0.02258647 0.07421426 0.012588366 0.024728648 0.05102146 0.012865343
0.009091124 0.015636913 0.054056894 -0.039797243 0.023021989 -0.005069201 0.0036426452 -0.0104019735
-0.031182861 -0.020923784 0.013081895 0.012572021 0.028572073 0.012147483 0.0032753218 -0.06893153
-0.04586618 0.07058128 0.04757616 4.127534e-05 0.01107117 8.634666e-05 0.023730956 -0.035509728
0.0077562225 -0.05383405 0.04589967 0.03717925 -0.00085850153 0.024116168 -0.049339365 0.054834563
0.0074071516 0.040730182 -0.0033092515 -0.03513808 0.0589851 0.054597463 -0.023416499 -0.027991822
0.04786988 -0.024088573 0.046922058 0.043153405 -0.047800723 0.012627319 -0.03222603 -0.038510516
-0.016280726 0.10129902 0.0061992076 0.054145005 -0.008379311 -0.011518076 0.04928348 -0.042440195
0.03187955 -0.059821256 -0.0077807624 0.0031857123 -0.006818954 -0.03270755 -0.022576397 0.01552302
0.053978723 -0.013668208 -0.008264574 -0.010359975 0.0063441345 -0.021253206 0.018007206 -0.01123507
0.09375298 0.033655673 -0.01500658 -0.017647669 0.0053530843 0.03745148 0.02618936 -0.042049244
-0.020238664 -0.0018720045 -0.018629527 0.0013163635 -0.018204272 0.04074499 0.048228674 -0.010491412
00000000: 6634 253d cf37 c93c bd23 0abc f92d d1bc
00000010: a9c3 6a3c e3d7 b23c 5b0d 0bbd dee0 093c
00000020: 833a 54bc 8323 ae3d 2a49 4a3c 0fe6 eebc
00000030: c016 6b3c 5c4f 81bd dbb0 25bd 095f b13b
00000040: 35e4 e2bc 8219 7dbc 7a6c 5c3d ce5e 7fbd
00000050: 3f7e 373d 51d4 e53c 0714 ccba 1521 9b39
00000060: 591d fcbb 0f71 4cbd 669a 793c 10d1 623d
00000070: c520 8cbc 5b9b adbb aae9 9d3d df5e 9e3b
00000080: 04cc acbc 785f 16bb 7368 c53c 783f 76bc
00000090: 5c9c d03a 12ef debb a6e7 28bd c634 5c3d
000000a0: a1fa e53c fbeb 36bc 832a 903b 0e3a 64bb
000000b0: 291b 573d aee7 103d 9513 fd3c 9bd9 00bd
000000c0: a6f6 3ebd f0bb a03c f0fe 5a3c 61c0 233d
000000d0: 52da 2bbd aa93 633c 1c3d fbbc 0d20 0bbd
000000e0: cd8f a9bc 938f 33bc 9521 3cbd 2abc e93a
000000f0: a776 debc 93ff 983c 0a0d 253c 05ff 673d
00000100: 4597 fdbb bd56 d13c 0718 083d ee05 a2bc
00000110: 74f7 67bd c410 3d3c 8f8e aebc 8f58 1bbc
00000120: e541 2abd 2c92 e4bc 05b7 c8bc b5df 193d
00000130: 62c5 cd3b 8ce3 ccbc aafa babc e259 3d3c
00000140: cb10 bb3b 49c8 b1bc 3e62 dcbd ff54 223d
00000150: 625e 0ebd d23b 78bb c9ad 1dbd 76bd 463c
00000160: 221d 07bd f08b 113b 2849 6fbd cc1e 2cbc
00000170: 2bca 563b 71fb 453b 91b3 053d 6450 46bd
00000180: c11b 6bbd c1fa 3e3d 26db 36bd ed21 0cbd
00000190: 6893 d23b cccf dfbb 94b8 e53c a069 fabc
000001a0: bbfb 073d f5a1 693d 1a04 993d 9943 cbbc
000001b0: 7662 953b dda5 2ebc ba41 483b c2f2 75bd
000001c0: 62d7 1e3c 33d8 85bc e127 ab3d ecc3 413c
000001d0: 25ff 8bbc 52ac 633c 3cb0 dd3b 4fba 7dbb
000001e0: e7b2 13bd 6eb5 0bbc 0944 7c3c 58e2 df3c
000001f0: 6b13 e5bc 2957 68bd 59d1 ee3c 8899 eb3c
00000200: 12b7 d9bc 5573 4d3d bba3 fc3c 4471 e73c
00000210: 832a 1abc 1446 12bc eda9 b13c a1cd 2fbb
00000220: fced c33c 53bc f73b 0907 cf3c 63c5 e5bc
00000230: 6006 d73b 3876 403d ef5e 863d c7a1 1a3d
00000240: 62b6 05bc 4016 c1bb babe b23d 05fd 243c
00000250: eabf f33c f636 853c 53c3 fdbc 90eb 173c
00000260: c749 b53c dd52 68bd 9644 573d bd18 aab9
00000270: 84af 813c 147a 70bd fc4e 693a 2547 8a3c
00000280: 4a8a 2e3d eaa1 ce3b 4307 b93c a5fd 973d
00000290: 6f3f 4e3c bc93 ca3c e1fb 503d 29c9 523c
000002a0: f0f2 143c fc18 803c c36a 5d3d 6f02 23bd
000002b0: 9c98 bc3c 8a1b a6bb 72b9 6e3b 0a6d 2abc
000002c0: 3373 ffbc 5b68 abbc 7255 563c e1fa 4d3c
000002d0: fb0f ea3c 3d06 473c c8a6 563b f92b 8dbd
000002e0: 2dde 3bbd eb8c 903d 38df 423d 0f1f 2d38
000002f0: da63 353c 0315 b538 6c67 c23c a672 11bd
00000300: e927 fe3b 1881 5cbd 4b01 3c3d 4549 183d
00000310: 100d 61ba 458f c53c 1318 4abd 359a 603d
00000320: b1b7 f23b b1d4 263d 07e0 58bb f3ec 0fbd
00000330: 5c9a 713d 97a1 5f3d f5d3 bfbc 1b4f e5bc
00000340: 3513 443d 6655 c5bc 5831 403d a0c1 303d
00000350: b1ca 43bd d1e2 4e3c 71ff 03bd 34bd 1dbd
00000360: 285f 85bc dc75 cf3d b922 cb3b 27c7 5d3d
00000370: 6149 09bc 50b6 3cbc 79dd 493d c5d5 2dbd
00000380: 2294 023d 2207 75bd c4f5 febb 62c7 503b
00000390: 8871 dfbb 5af8 05bd 23f2 b8bc 4454 7e3c
000003a0: cb18 5d3d 9ff0 5fbc 2368 07bc e2bc 29bc
000003b0: 75e2 cf3b 341b aebc d983 933c 4d13 38bc
000003c0: 9001 c03d 88da 093d 29de 75bc d891 90bc
000003d0: ed68 af3b b966 193d 128b d63c d43b 2cbd
000003e0: 8ecb a5bc 0c5e f5ba f39c 98bc d489 ac3a
000003f0: 2021 95bc 38e4 263d 6e8b 453d 2ce4 2bbc

chords_tempNet.batchnorm_1.running_var f4 [1024]
0.013599198 0.03214527 0.008243237 0.016122892 0.006686555 0.014765925 0.0050975787 0.021297744
0.010526413 0.02061558 0.018718805 0.010896285 0.004428488 0.016172452 0.021039272 0.025139082
0.011164432 0.0079401 0.031043725 0.011893953 0.024260188 0.01783644 0.013879395 0.014420473
0.010780924 0.0071206945 0.0073638856 0.013255836 0.005667098 0.011084116 0.006474581 0.013998189
0.009669843 0.011844064 0.0061572753 0.01499271 0.026374208 0.019773578 0.01568492 0.0060408935
0.011770326 0.0066618887 0.008139284 0.011284874 0.015290192 0.007515997 0.011097981 0.023709347
0.0107934745 0.004633972 0.014763897 0.017416049 0.007924604 0.00836502 0.02023413 0.014299143
0.018901395 0.024015483 0.013589922 0.007170292 0.011343177 0.0070234356 0.02096018 0.018821636
0.023055501 0.012543196 0.013459754 0.0189164 0.011320173 0.011759447 0.0086738365 0.01141986
0.01878103 0.0116114635 0.019146373 0.019828051 0.015671661 0.009613349 0.010041572 0.016621964
0.005970734 0.009010076 0.01082735 0.009529335 0.011992768 0.021168323 0.017177084 0.009102204
0.03217784 0.016505066 0.011022782 0.010977384 0.012961873 0.013743589 0.019952847 0.018757958
0.022510791 0.005271742 0.008435691 0.0109905135 0.009923723 0.011780845 0.017612176 0.0274857
0.007903236 0.012703681 0.023525666 0.0059178136 0.0066326046 0.014594913 0.012827978 0.018264277
0.01384922 0.033253636 0.02040139 0.011737265 0.013186919 0.024155226 0.019419942 0.0118952105
0.007158996 0.022480935 0.005167446 0.009009341 0.011466018 0.018954378 0.01573311 0.013376099
0.0070591457 0.0196007 0.027151687 0.016139695 0.018759754 0.027674574 0.011157381 0.015424616
0.012902303 0.0165119 0.0068361266 0.007697323 0.01295894 0.005979787 0.0067359693 0.022077516
0.040724244 0.019265484 0.014788558 0.011431751 0.010031146 0.010399709 0.017591378 0.011563892
0.021844 0.018460233 0.013734004 0.013077731 0.004938716 0.024327425 0.026315218 0.010445106
0.016087398 0.021603653 0.021674579 0.0123453215 0.008200617 0.0072343913 0.017796434 0.009708321
0.0082731955 0.016140707 0.006411211 0.017396478 0.014101771 0.005141218 0.011605681 0.0121333245
0.016018042 0.012841343 0.02213055 0.0091312 0.0120248115 0.010347298 0.0149495285 0.01539303
0.010178532 0.009454195 0.012453169 0.022394856 0.0073265075 0.021273764 0.0059086313 0.014913586
0.009442806 0.009731199 0.015783627 0.011543341 0.009677088 0.011013148 0.0045412993 0.013619383
0.009681247 0.0055379285 0.01315328 0.009491197 0.014122085 0.020860616 0.009561567 0.015220673
0.009772646 0.01660564 0.0055974103 0.0071326755 0.009148865 0.00892441 0.010062183 0.011646913
0.005962778 0.0061661997 0.025540547 0.0065802573 0.025124272 0.015461782 0.01448132 0.010037608
0.003807549 0.017526118 0.007971194 0.004817734 0.021913249 0.018903898 0.008473787 0.009169175
0.017681785 0.01209832 0.018367046 0.017003747 0.016043335 0.009916674 0.009551957 0.0152707
0.011261717 0.0042452556 0.008487583 0.01117417 0.020378292 0.010153056 0.012939928 0.008412457
0.012572167 0.010539455 0.010172156 0.015575502 0.017878212 0.016463887 0.010065464 0.028161053
00000000: 2ccf 5e3c c2aa 033d a40e 073c 2814 843c
00000010: e41a db3b c7ec 713c 9709 a73b 9b78 ae3c
00000020: fa76 2c3c 01e2 a83c 2e58 993c 5586 323c
00000030: da1c 913b 177c 843c 8d5a ac3c 7af0 cd3c
00000040: 06eb 363c 3117 023c 694f fe3c dbde 423c
00000050: 4dbd c63c ba1d 923c 6766 633c d943 6c3c
00000060: 79a2 303c b754 e93b c04c f13b 022f 593c
00000070: 10b3 b93b 279a 353c b928 d43b a958 653c
00000080: 436e 1e3c 9b0d 423c f8c2 c93b fca3 753c
00000090: b90e d83c 33fc a13c a97d 803c b0f2 c53b
000000a0: 53d8 403c f94b da3b a25a 053c 31e4 383c
000000b0: b783 7a3c c148 f63b 4ed4 353c 1b3a c23c
000000c0: 1dd7 303c 93d8 973b 46e4 713c 1aac 8e3c
000000d0: 33d6 013c 700d 093c 0cc2 a53c f446 6a3c
000000e0: 19d7 9a3c 1ebc c43c 44a8 5e3c c5f4 ea3b
000000f0: bcd8 393c d924 e63b afb4 ab3c d52f 9a3c
00000100: e4de bc3c fa81 4d3c 4d86 5c3c 91f6 9a3c
00000110: 3f78 393c b2aa 403c b51c 0e3c 5d1a 3b3c
00000120: adda 993c 023e 3e3c dbd8 9c3c 706e a23c
00000130: db61 803c 4f81 1d3c 6885 243c c92a 883c
00000140: 26a6 c33b ff9e 133c 3365 313c ee20 1c3c
00000150: 517d 443c 3169 ad3c f5b6 8c3c 6921 153c
00000160: e9cc 033d a235 873c e698 343c 7cda 333c
00000170: 095e 543c ca2c 613c 2774 a33c 4aaa 993c
00000180: 8d68 b83c 94be ac3b da35 0a3c 8e11 343c
00000190: 1c97 223c 7204 413c 6947 903c b129 e13c
000001a0: 937c 013c 1a23 503c e6b8 c03c 38ea c13b
000001b0: 5256 d93b 811f 6f3c 702c 523c f79e 953c
000001c0: d7e7 623c f734 083d d120 a73c a84d 403c
000001d0: f20d 583c 2ee1 c53c 9216 9f3c 21e4 423c
000001e0: 0396 ea3b f029 b83c ae53 a93b ea9b 133c
000001f0: f7db 3b3c 3646 9b3c b9e2 803c 6d27 5b3c
00000200: 6850 e73b a691 a03c 376d de3c 6537 843c
00000210: 0eae 993c cab5 e23c 73cd 363c 87b7 7c3c
00000220: 2e64 533c f743 873c 9601 e03b d339 fc3b
00000230: bc51 543c 17f2 c33b 68b9 dc3b e8db b43c
00000240: 77ce 263d a6d2 9d3c b54b 723c 3d4c 3b3c
00000250: ad59 243c 8b63 2a3c cb1b 903c 7a76 3d3c
00000260: 30f2 b23c ea39 973c 9704 613c fb43 563c
00000270: f4d4 a13b 4f4a c73c 0393 d73c f321 2b3c
00000280: b8c9 833c 25fa b03c e38e b13c 0844 4a3c
00000290: e15b 063c 790e ed3b d4c9 913c a60f 1f3c
000002a0: 4c8c 073c 8439 843c 2315 d23b 0f83 8e3c
000002b0: 1d0b 673c aa77 a83b c125 3e3c daca 463c
000002c0: 4538 833c 7f64 523c 214b b53c 079b 153c
000002d0: b703 453c b787 293c deee 743c 0c33 7c3c
000002e0: dcc3 263c c5e5 1a3c 6008 4c3c 6b75 b73c
000002f0: 3313 f03b 5146 ae3c 319d c13b 1d58 743c
00000300: 00b6 1a3c 9b6f 1f3c aa4c 813c 4820 3d3c
00000310: a68c 1e3c 7e70 343c 2ecf 943b d523 5f3c
00000320: 189e 1e3c 8377 b53b db80 573c f780 1b3c
00000330: 5160 673c e2e3 aa3c 1ea8 1c3c 2160 793c
00000340: 731d 203c 8d08 883c 7b6a b73b 38b9 e93b
00000350: 1fe5 153c b037 123c dbdb 243c b2d2 3e3c
00000360: 6863 c33b d50d ca3b 693a d13c 339f d73b
00000370: 6bd1 cd3c 6a53 7d3c 0f43 6d3c c874 243c
00000380: 1288 793b ef92 8f3c 9c99 023c 15de 9d3b
00000390: 6a83 b33c 59dc 9a3c a4d5 0a3c 4f3a 163c
000003a0: 64d9 903c 0838 463c 7d76 963c 714b 8b3c
000003b0: 506d 833c 8c79 223c d07f 1c3c f531 7a3c
000003c0: 1183 383c c91b 8b3b 810f 0b3c de13 373c
000003d0: 60f0 a63c 0159 263c fe01 543c 67d4 093c
000003e0: 7efb 4d3c aead 2c3c 1da9 263c 6430 7f3c
000003f0: 5475 923c 46df 863c 9ee9 243c 02b2 e63c

chords_tempNet.batchnorm_2.weight f4 [32]
0.0616652 -0.0014684019 -0.050723553 -0.04846148 0.007601938 -0.027815241 0.01768206 0.022589974
0.01284288 0.014063064 -0.06583368 -0.0055518965 0.034218214 0.0063786805 0.0036144215 0.040021002
0.026258314 0.015857365 -0.016444322 -0.027596937 0.04103183 -0.019146228 -0.030306963 0.0039530885
0.02974058 -0.037865996 -0.023218658 -0.02640389 0.04368922 0.009478688 -0.014198028 -0.04553529
00000000: a694 7c3d 6477 c0ba 80c3 4fbd 8b7f 46bd
00000010: ae19 f93b cadc e3bc f8d9 903c 9c0e b93c
00000020: f16a 523c c468 663c cfd3 86bd afec b5bb
00000030: 6628 0c3d 4004 d13b eedf 6c3b 10ed 233d
00000040: ad1b d73c 4ee7 813c 3eb6 86bc f912 e2bc
00000050: fe10 283d 8dd8 9cbc 4f46 f8bc e988 813b
00000060: 84a2 f33c 6019 1bbd 0e35 bebc f94c d8bc
00000070: 78f3 323d 804c 1b3c d89e 68bc 3683 3abd

chords_tempNet.batchnorm_2.bias f4 [32]
0.012708973 -0.0059274347 0.014734971 0.008511671 0.0019303062 0.0085500255 0.006058213 0.0043263827
0.0022688026 0.00020197619 0.0130191725 0.005744935 0.009375327 0.0038356695 0.0057383743 0.01075682
0.013637898 0.0041395626 0.008439752 0.008244796 0.00982568 0.0032827572 0.011122207 -0.0030158134
0.007247745 0.007515543 0.0065754782 0.0025174322 0.0071587646 0.0054635187 0.0008140411 0.009954154
00000000: 4c39 503c ed3a c2bb f36a 713c 8974 0b3c
00000010: 5402 fd3a 6815 0c3c f983 c63b 54c4 8d3b
00000020: 31b0 143b 92c9 5339 5e4e 553c 0240 bc3b
00000030: f99a 193c db5f 7b3b f908 bc3b 603d 303c
00000040: 7d71 5f3c 2ba5 873b e346 0a3c 2e15 073c
00000050: e4fb 203c 8723 573b eb39 363c f4a4 45bb
00000060: 7e7e ed3b f244 f63b 1c77 d73b 81fb 243b
00000070: 1294 ea3b 5107 b33b 6065 553a bf16 233c

chords_tempNet.batchnorm_2.running_mean f4 [32]
0.16687071 -0.12713423 -0.012119553 -0.11460234 -0.13846956 -0.015372498 -0.036190167 0.15466875
0.012450964 -0.09627066 -0.1404598 -0.052472692 -0.058258526 -0.100172944 0.123658895 0.15480167
-0.024726015 0.0950094 0.02033797 -0.039380156 -0.09020073 -0.14481105 -0.17740217 0.003122901
-0.14171156 0.0015243214 0.120209076 0.107011154 -0.06456302 -0.121417396 -0.0100292135 0.099080354
00000000: 28e0 2a3e 7a2f 02be 1791 46bc a2b4 eabd
00000010: f7ca 0dbe eedc 7bbc 243c 14bd 7c61 1e3e
00000020: 21ff 4b3c 8d29 c5bd b2d4 0fbe 9bed 56bd
00000030: 7ea0 6ebd 7927 cdbd e040 fd3d 5484 1e3e
00000040: 368e cabc 4a94 c23d d19b a63c 164d 21bd
00000050: 29bb b8bd 5949 14be eaa8 35be 96a9 4c3b
00000060: d61c 11be bdcb c73a 2d30 f63d aa28 db3d
00000070: 9e39 84bd afa9 f8bd 9251 24bc a4ea ca3d

chords_tempNet.batchnorm_2.running_var f4 [32]
0.00012961806 0.00010888965 0.0002445107 0.0001671293 5.4510143e-05 0.0001373697 5.889966e-05 4.136364e-05
0.00016293848 0.00018842629 0.00044740748 5.612031e-05 0.00020590065 5.9046226e-05 0.00012747454 0.000107788816
0.00019655252 0.00010428943 0.00017732226 0.00011327351 0.00019861726 7.3146e-05 9.292779e-05 6.939046e-05
0.00018838693 0.00049733656 0.00024842896 5.844623e-05 0.0002046588 7.055253e-05 0.0002024763 0.0002140077
00000000: 15ea 0739 b05b e438 ac31 8039 6e3f 2f39
00000010: d2a1 6438 e60a 1039 070b 7738 df7d 2d38
00000020: 77da 2a39 4c94 4539 0492 ea39 b962 6b38
00000030: 09e7 5739 67a8 7738 b0aa 0539 ae0c e238
00000040: aa19 4e39 f6b5 da38 95ef 3939 418d ed38
00000050: ea43 5039 f665 9938 3ae2 c238 b885 9138
00000060: bb89 4539 b15f 023a 923f 8239 2924 7538
00000070: ae99 5639 9af5 9338 d14f 5439 4167 6039
