run_2/weights/weights-g-0.pth (torch, 418811 bytes, 12 tensors)

chords_tempNet.convT_in.weight f4 [32, 1024, 2, 1]
000000 d9 a1 51 bc ab 28 b1 bc 05 74 cd b9 e7 35 08 3d
       -0.012794935 -0.021625837 -0.00039187088 0.03325453
000010 d2 fd 56 bc a9 b5 93 bc 9b d3 a0 3c fe 48 02 bc
       -0.013122039 -0.018030958 0.019632151 -0.007951973
000020 d5 ba 1d 3c 63 32 a4 bc 5d 19 ab bc 97 17 c2 bc
       0.009627064 -0.020043558 -0.020886118 -0.02369289
000030 8d 7e 64 bc 7e fa 5b 3b 0b 77 7e bc 7b 41 2c 3c
       -0.013946188 0.0033566053 -0.015531312 0.010513659
000040 ba f3 d3 bb 4d bc d5 bb e1 e2 96 3a a6 91 e4 3b
       -0.0064682635 -0.0065226913 0.0011511707 0.0069753705
000050 b5 65 b9 bb f2 c9 6b 3c 19 41 c4 3c f3 21 97 3a
       -0.0056578764 0.014391409 0.023956822 0.0011530503
000060 62 c4 e4 bb 95 97 01 3d b5 53 88 3b a5 86 ea 3b
       -0.0069814185 0.0316387 0.0041603693 0.007157164
000070 59 c5 16 bd b8 34 ce bc 59 7c 3e 3c 4d 69 76 bc
       -0.0368093 -0.025171623 0.0116263265 -0.015039754
000080 57 b5 cf 3b ee 26 01 bd 52 cb 54 3c db 3a 63 3c
       0.006338756 -0.031531267 0.012987928 0.013869013
000090 66 fb 99 bc 95 f3 6e bc 7a a1 09 3b 2f 1f be bc
       -0.018796634 -0.014584442 0.0021000789 -0.023208229
0000a0 36 d9 a2 3c be 07 d1 3c 82 58 0b ba 4a 5e 8e 3c
       0.019878965 0.025516387 -0.0005315618 0.017378945
0000b0 b0 9c ad bc 01 6b 5f ba 2a 6e 71 3c c5 20 54 bc
       -0.021192878 -0.000852272 0.014735738 -0.012947266
0000c0 fb 64 52 bb 28 41 51 3b fc 86 72 3c 04 a4 75 bc
       -0.0032103646 0.0031929705 0.014802691 -0.014992718
0000d0 b1 bd 92 bb 2a 96 49 bd e6 d9 63 3c 3d bc 8f bc
       -0.0044781794 -0.049215473 0.0139069315 -0.017545814
0000e0 bb 86 fc bc d5 c0 0d 3c 0d b4 64 3c a3 26 e5 3c
       -0.030825963 0.008651932 0.013958943 0.027972525
0000f0 ac 07 c8 3c d9 ac 7e bc d9 85 95 ba e0 26 24 bd
       0.02441772 -0.01554414 -0.0011407688 -0.040076137
000100 aa 0c f9 bc 8a 77 b0 3c 75 9a e7 3c 9e 3a b7 3c
       -0.030401547 0.021541376 0.028271893 0.022366818
000110 bc a3 86 bb 0b eb 0c 3d 5f 8c 89 3b a9 7f a4 bb
       -0.004108874 0.034403842 0.0041976417 -0.005020101
000120 23 e8 fc bb bc eb 0a bb ee 4c 98 3c 16 6f 1c 3c
       -0.0077181025 -0.0021197638 0.01859137 0.009547969
000130 f3 89 2d bd 74 3d 0c 3b 1e 37 a1 3a f4 61 23 3b
       -0.042367887 0.0021398934 0.0012299751 0.002493021
000140 8f 14 8c 3c c1 6e 0b b9 36 d3 91 3c d6 d1 4e bc
       0.017099647 -0.00013297332 0.017800909 -0.012623271
000150 17 ee a8 bb 2d 93 50 3c 25 49 1c bc 99 55 e4 3b
       -0.0051553356 0.012730402 -0.009538923 0.006968212
000160 eb 0d fa 3c d7 96 06 bc fc f3 f4 bb a1 04 97 bc
       0.030524215 -0.008214674 -0.0074753743 -0.018434824
000170 bb 80 ba bc b0 9d 20 3c dd be d6 3b 92 78 71 3b
       -0.022766462 0.009803221 0.0065535144 0.0036845547
000180 a5 32 cb bb fc cf 47 3c a7 da c8 39 f7 7b e9 3b
       -0.0062011057 0.012195583 0.0003830988 0.0071253735
000190 78 a6 80 bc 50 14 26 3d bc 64 98 38 7c ba 81 bc
       -0.015704378 0.040546715 7.266688e-05 -0.015835993
0001a0 4e 51 b1 3b 2e f8 46 bb 58 d8 fd bc 6d 7e 43 3c
       0.0054113036 -0.003036033 -0.03098695 0.011931998
0001b0 24 69 35 3d 06 80 ef bc 6a 5e aa 3a fe 49 ca 3c
       0.044289723 -0.029235851 0.0012998108 0.024693485
0001c0 c7 48 75 3d 69 c9 63 bc 95 34 2c bd db e9 dc 3c
       0.05988386 -0.013903 -0.042042334 0.02696698
0001d0 70 a7 b0 3c b2 75 9b bb d8 51 04 bb bf eb 2e 3c
       0.021564215 -0.004744255 -0.0020190384 0.010676323
0001e0 3a 6f f8 bc ff 78 c3 3a 31 cd b7 3c 60 18 86 3b
       -0.030326474 0.0014913379 0.02243671 0.004092261
0001f0 08 17 4d 3c aa 74 51 3c 77 31 18 bd 2a 3b 95 3c
       0.012517698 0.012784163 -0.03715655 0.018216688
000200 0c 4e 71 3c 14 f6 99 3b 5a ef 73 ba f6 84 cb 3c
       0.0147280805 0.0046985243 -0.00093053805 0.024843674
000210 d4 dd ad 3c 06 bd 8b 3c 12 f6 b0 bc e9 ae 22 3c
       0.02122394 0.017057907 -0.02160171 0.009929397
000220 fe d3 9d 3c 99 b0 48 bc 3a c2 15 3c 04 ac 20 3b
       0.019266125 -0.012249135 0.0091405455 0.0024516592
000230 62 05 d9 bc 8b d1 58 bc 3d 92 35 bc 02 dc 3f bc
       -0.026491825 -0.013233553 -0.011082229 -0.011710169
000240 96 41 9c 3c ad 96 e9 3b 2f 74 b0 3b fe dc 48 bb
       0.019074243 0.0071285577 0.005384944 -0.00306493
000250 87 55 06 3c 73 4e 1b bd d1 63 0d bd 93 a8 0d bd
       0.008199102 -0.037916612 -0.03451902 -0.034584593
000260 36 65 13 bc 46 f8 b0 bc 38 0b cd ba 61 2a d6 3c
       -0.008996299 -0.021602761 -0.0015643602 0.026143255
000270 65 b6 0c bd a9 a9 80 3c 48 0e 11 3c 92 f8 e0 3b
       -0.034353632 0.0157059 0.008853503 0.0068655694
000280 90 bb 25 bc bb 94 d1 bc a2 b2 c9 bc 56 33 f6 3c
       -0.010115519 -0.025583616 -0.024621312 0.030053776
000290 1c a0 9a bb 4b ab 47 3c a8 ce 86 bc 87 68 1e bb
       -0.0047187936 0.0121868355 -0.016455963 -0.002417119
0002a0 9d cd 63 3d d0 8a 27 bc ff 21 72 3c a7 04 08 3d
       0.05561601 -0.010225967 0.014778613 0.03320756
0002b0 54 aa 2f 3b d5 a7 ea 3c 23 65 df 39 44 b1 3e 3c
       0.0026804404 0.028644482 0.00042609227 0.011638943
0002c0 28 18 b2 bc 6c c3 77 bb 5d 7e bf 3c 27 39 fd 3c
       -0.021740034 -0.003780569 0.023375684 0.030911041
0002d0 6e 62 2c bd d9 5b 6e 3c 0e 5b 09 bc b5 cf 2e 3c
       -0.042086057 0.014548265 -0.008383526 0.010669638
0002e0 44 49 d6 37 99 02 eb 3b 30 ca 65 bc cd f2 6b 3c
       2.5544905e-05 0.0071719405 -0.014025256 0.01440115
0002f0 dd 5a af 3b 52 52 1e 3c 3f 42 12 bc b5 8c fb 3c
       0.005351408 0.009663181 -0.008926927 0.030706743
000300 07 95 51 bc 26 30 ff 3c fc 72 71 3c ee 46 ff bb
       -0.012791879 0.031150889 0.014736887 -0.007790438
000310 78 46 be ba e9 58 24 3c 6a 21 b7 3a 7c da ef bb
       -0.0014516851 0.010030963 0.001397175 -0.0073197465
000320 ee 93 d2 bb 45 aa 5b bc 7d f2 dc bb db 26 12 bb
       -0.006426326 -0.013407295 -0.006742774 -0.0022300992
000330 5e 97 ce bc 4a 2b cd 3a 85 72 3e bc c3 0c a4 ba
       -0.025218662 0.001565316 -0.011623983 -0.001251601
000340 14 79 29 bd 8b 03 ee 3b 27 10 76 bc 4c ec 44 bd
       -0.041375235 0.007263606 -0.015018499 -0.048076913
000350 2d de 6d 3c e8 49 5a bc b8 30 9c 3b b0 ab 81 3c
       0.014518303 -0.013323285 0.00476655 0.015828937
000360 67 49 d4 3c a5 67 ca 3c 14 04 05 bd 9f a4 45 3c
       0.025913907 0.024707625 -0.032474592 0.0120631745
000370 7b 26 eb 3c 5c b4 5b bd cf dd ea 3c f7 2a 24 bc
       0.028704872 -0.0536388 0.02867022 -0.010020009
000380 4d e0 50 bc c3 f7 20 bd 27 20 22 3d a5 08 9e 3c
       -0.01274879 -0.039298784 0.039581444 0.019291231
000390 c6 a3 ba bc 95 b9 24 bc fe 0a 94 bc a3 6a 53 3c
       -0.022783171 -0.010054012 -0.018071648 0.012903842
0003a0 a6 1b b6 bc 55 99 81 3c 05 a0 28 3c e2 72 e0 3b
       -0.02222998 0.015820185 0.010292058 0.0068496326
0003b0 96 a7 f5 3c 23 9a 99 3c f7 91 ef 3c 08 0d 84 3c
       0.029987138 0.018750256 0.029244406 0.016119495
0003c0 e2 dd 81 3c 68 47 c6 bb 50 c8 a2 3c 1a cb de ba
       0.015852872 -0.0060509928 0.019870907 -0.0016997785
0003d0 35 04 10 bb fa 52 1f 3c 45 9b 8e bc 4c 09 b1 3a
       -0.0021975164 0.009724373 -0.017408023 0.0013506799
0003e0 f4 a1 c6 bc d0 5d 91 bb 06 f3 1b 3d 4a 88 05 3d
       -0.024247147 -0.004436232 0.038073562 0.03260068
0003f0 84 d1 09 3c 3e cb 84 bb 69 12 49 3c a8 25 25 bb
       0.008411769 -0.0040525487 0.012272456 -0.0025199447

chords_tempNet.convT_in.bias f4 [1024]
000000 60 5a b3 3a 66 2f 40 3c f4 d1 ab bb 15 02 86 3c
       0.001368355 0.011730051 -0.005243534 0.016358415
000010 0e 80 5b 3c 9a e7 33 3c a0 5b b3 3a be a0 0f 3c
       0.01339723 0.010980511 0.0013683923 0.008766351
000020 d8 65 01 bc 95 23 08 bc 41 22 15 bc 08 2c 0b bb
       -0.007897817 -0.008309265 -0.009102405 -0.0021235961
000030 20 c1 5f bb 08 4c 16 bc c8 34 5f bb f4 77 b4 bc
       -0.003414221 -0.009173401 -0.003405856 -0.022029854
000040 9b 94 83 bc 20 40 8d bc 8b ff 04 bc e7 05 19 bc
       -0.016062072 -0.017242491 -0.008117567 -0.009339786
000050 c0 3c 99 b9 23 fb 84 3c 1c d4 a7 bc 1c 93 9e bb
       -0.00029227696 0.016233033 -0.020486884 -0.004839314
000060 d0 3a c2 bb b0 4d c5 ba a8 ec 3a bc a3 81 a3 3c
       -0.005927421 -0.001505306 -0.011408962 0.019959277
000070 b6 57 69 3c f5 85 b2 3c 48 6e ec 3b 66 85 3d 3c
       0.014242103 0.021792391 0.007215295 0.011567449
000080 2a c0 87 bc 08 b9 45 bb 80 d7 10 3b 58 bc 11 3c
       -0.016571123 -0.0030170102 0.0022101104 0.008895002
000090 2e 4c 40 3c e6 e6 6e 3c e2 61 82 bc c1 18 89 bc
       0.011736913 0.014581418 -0.015915815 -0.016735436
0000a0 22 4a 2f 3c 74 79 44 bc b9 fe b1 bc d1 d3 ad 3c
       0.010698827 -0.011991847 -0.021727907 0.021219166
0000b0 e4 1a ba 3b d2 0d 0b 3c 20 07 00 3a 2c 01 65 bc
       0.005679475 0.008487182 0.0004883874 -0.01397733
0000c0 18 9d 87 bc a2 6e 4b 3c 0f 8f 98 3c 08 30 39 3b
       -0.0165544 0.012416514 0.018622903 0.0028257389
0000d0 dc 72 92 bc 02 6e 30 3c 4e 9e 1f 3c ce 6c 4a 3c
       -0.017877035 0.010768415 0.009742333 0.012355043
0000e0 e8 c0 11 bb 60 38 a2 bb f2 b2 31 3c 28 68 79 3b
       -0.0022240225 -0.004950568 0.010845887 0.0038056467
0000f0 7d 89 9c 3c 39 9d 9e 3c ca 2c 4d 3c 54 fd 05 bc
       0.019108528 0.019362079 0.012522886 -0.008178074
000100 77 a0 3e bc a1 a8 9f 3c a8 72 3c bb 50 0a 6b 3b
       -0.0116349375 0.019489588 -0.0028754864 0.00358643
000110 de 3d ec bb 58 bc 06 bb d8 54 66 3b d3 d9 80 bc
       -0.0072095236 -0.002055904 0.0035145786 -0.015728867
000120 db 22 b4 bc 60 be e6 bb 34 18 96 3b 80 49 97 bb
       -0.021989277 -0.0070417374 0.004580522 -0.004616916
000130 36 4c b4 bc f2 1f 77 bc b2 72 73 3c d0 9d 35 bb
       -0.022008996 -0.0150833 0.014858888 -0.0027712472
000140 b6 4d 74 3c 37 c4 52 bc 56 21 73 bc 42 2b dd bb
       0.014911106 -0.012864164 -0.014839491 -0.0067495415
000150 56 9c 2e 3c 32 ce 23 bc c6 b7 98 bc b7 fb 93 3c
       0.010657391 -0.009997891 -0.018642318 0.018064363
000160 36 6d 2f bc b0 61 75 bc 2f d7 b1 bc 68 10 f9 3b
       -0.01070719 -0.014976904 -0.021709053 0.0076008327
000170 34 1c 86 bc bf 15 85 3c 4b 7b 96 3c be a3 85 bc
       -0.01637087 0.01624572 0.018369338 -0.01631343
000180 41 56 82 3c 49 5f 93 bc 3b 2b a6 3c 36 31 27 3c
       0.01591027 -0.017989771 0.020284286 0.010204604
000190 9a 33 10 3c f8 f0 b9 bb 4e e2 3c 3c 6f a9 9e bc
       0.008801365 -0.0056744777 0.011528565 -0.019367902
0001a0 d0 d2 cc 3b a4 37 ab bb 5e ca 7d 3c 74 50 6c bc
       0.0062507167 -0.0052251387 0.015490143 -0.014423478
0001b0 50 e9 9d bc f4 4f ef 3b 30 8e f3 3a 8b 5f a2 3c
       -0.019276291 0.0073032323 0.0018581804 0.019820949
0001c0 08 4e a0 3b 5a 5d 48 3c 62 fd 42 3c d6 5f 73 3c
       0.0048921145 0.012229288 0.0119012315 0.014854392
0001d0 a8 1d 10 3b d2 44 24 bc 50 84 48 3b f2 c7 72 3c
       0.0021990333 -0.010026174 0.0030596443 0.0148181785
0001e0 6a c2 36 3c 8a 51 48 bc 00 1b 5f 3a ff fc 18 39
       0.01115475 -0.012226472 0.0008510798 0.00014590098
0001f0 14 21 98 3b e1 36 20 bc 18 8b 27 3b a5 21 9c 3c
       0.004642615 -0.009778709 0.0025565084 0.019059012
000200 f8 5d e1 3b 9a e0 2a 3c 56 26 53 bc d8 3d 29 bb
       0.006877657 0.010429526 -0.012887558 -0.0025824215
000210 13 43 8a 3c 8a ad 09 bc 22 6f 4f bc 08 f5 91 3b
       0.016877687 -0.008403191 -0.0126607735 0.004454259
000220 70 0c b9 ba 43 4f 9b 3c a0 5f 14 3c b5 63 92 3c
       -0.0014118087 0.018958693 0.009056002 0.01786981
000230 2e 95 2f 3c c5 1f 9f 3c 68 69 3d bc da 7f 01 3c
       0.01071672 0.019424329 -0.011560775 0.007904017
000240 12 45 3e bc 75 68 1b bc ff ad a4 3c 98 41 cc 3b
       -0.011613147 -0.009485354 0.020102499 0.0062334053
000250 e1 bf 9a 3c ce c0 4d 3c 00 2d 4d bb fd 73 4a bc
       0.018890323 0.012558175 -0.003130734 -0.012356755
000260 13 e6 9a 3c 13 19 12 bc 62 2c 43 3c 24 7a 7f bc
       0.018908536 -0.008917111 0.011912437 -0.015593085
000270 1b 76 2f bc 5c 54 a1 bc 37 b2 63 bc 80 b2 81 bc
       -0.010709311 -0.019693546 -0.01389747 -0.015832186
000280 ae fb 21 3c b8 d5 2d bb d9 f4 8d bc b7 1d 96 3c
       0.009886665 -0.0026525091 -0.017328667 0.018324716
000290 4a 23 3b bc b1 5a a2 3c f0 96 f6 3b 9c 32 8e bc
       -0.011421988 0.019818636 0.0075253174 -0.017358117
0002a0 9a a0 5d bc 20 bd c9 3a db bf 03 bc 40 ea ce bb
       -0.01352706 0.0015391447 -0.008041347 -0.006314546
0002b0 40 d1 b9 b9 2d 21 29 bc a6 74 29 3c 00 9f 03 bb
       -0.00035441853 -0.010322851 0.010342753 -0.0020083785
0002c0 02 d1 e1 bb a9 29 8c 3c a1 58 59 bc 48 b2 a9 3b
       -0.0068913708 0.017109709 -0.01326576 0.0051787235
0002d0 b2 5b 59 3c 96 80 5c 3c 0e f5 58 3c 70 ad ce bb
       0.013266491 0.013458392 0.013242019 -0.0063072965
0002e0 41 4b 17 bc 6c d0 f5 3b c7 9c 6c bc 0e 03 0e 3c
       -0.0092342505 0.0075016525 -0.0144416755 0.0086677205
0002f0 d0 82 a4 bb 4d 39 9e 3c ef 53 8e 3c e0 4a e6 ba
       -0.005020477 0.019314433 0.017374007 -0.0017569922
000300 18 49 07 bc 68 3c b2 bc a4 88 8c 3b f3 f2 a4 3c
       -0.008257173 -0.02175732 0.00428875 0.020135378
000310 44 f9 80 bb b8 8e 9d bb d3 31 62 bc 40 a7 83 3b
       -0.003935965 -0.004808273 -0.013805824 0.0040177405
000320 0f 17 ae 3c 45 b6 b2 3c b6 e5 2a 3c 10 24 92 ba
       0.02125123 0.021815429 0.010430744 -0.0011149663
000330 6e d3 5b 3c 1c fb bd 3b d0 af 1c bb e3 dd 96 3c
       0.013417108 0.005797757 -0.0023908503 0.01841635
000340 e6 7c 0c 3c f0 34 ce ba fb 77 94 3c 02 9b 50 3c
       0.0085747 -0.0015732329 0.018123617 0.012732269
000350 c9 b8 6a bc b0 7b 08 3b b0 14 1b bc b5 62 a5 bc
       -0.014326283 0.0020825677 -0.0094653815 -0.020188669
000360 4e 9b 18 bc 61 1d 80 3c ae 8d 17 bc af eb 8b 3c
       -0.009314371 0.015639009 -0.009250088 0.017080156
000370 20 fc 7a bb 3f 3b 67 bc 42 64 5b 3c 19 79 b4 bc
       -0.003829725 -0.014113246 0.013390603 -0.0220304
000380 ca cc 4c 3c 69 8c 5e bc 1b 20 e9 37 f0 66 b6 3b
       0.012499997 -0.013583281 2.7790715e-05 0.0055664703
000390 04 21 67 bc 18 6a 77 bc 74 26 92 bb 82 6d 64 bc
       -0.014106993 -0.015100978 -0.0044601504 -0.013942124
0003a0 36 05 03 3c ce 3a 1b bc 2e b3 37 3c 90 97 22 3b
       0.007996848 -0.009474469 0.011212153 0.0024809577
0003b0 41 0b 10 3a 0c 0b a1 bc 9a 37 26 3c 87 d2 9c bc
       0.0005494841 -0.019658588 0.010145092 -0.019143356
0003c0 aa af 70 3c c5 f4 b0 3c 10 b9 9b 3b 30 b4 9f ba
       0.014690319 0.02160109 0.004752286 -0.0012184437
0003d0 c1 4e 76 bc 4e 09 5c 3c 88 a1 2b 3b df 89 57 bc
       -0.015033425 0.013429953 0.002618881 -0.01315543
0003e0 b7 de 9e 3c 60 12 db 3a fb 03 b0 bc e0 d3 25 bb
       0.019393308 0.001671385 -0.021486273 -0.002530329
0003f0 88 f1 18 bc 96 5f 51 3c c0 f5 f5 39 e3 13 89 3c
       -0.009334929 0.012779137 0.0004691314 0.016733116

chords_tempNet.convT_out.weight f4 [1024, 32, 1, 1]
000000 a0 a2 de 3a b0 d3 38 3c 58 d5 64 bc 8f a3 d6 bc
       0.0016985722 0.011280939 -0.013966881 -0.026201038
000010 24 50 be bb 20 ce 46 3c e3 d9 84 3b dd 14 57 3d
       -0.0058078934 0.012134105 0.0040542944 0.05251013
000020 08 2e 25 3a 33 01 1f bc e6 6a c5 bb d8 8f bf bc
       0.00063011097 -0.009704876 -0.006024706 -0.02338402
000030 e1 7c 54 bb 94 c5 6f bb fd 0e 37 bd d6 fc b0 bc
       -0.0032423066 -0.0036586272 -0.04469203 -0.021604937
000040 da 09 a5 3c 92 64 44 3c c4 e6 0d bd 43 42 e5 3c
       0.0201463 0.011986868 -0.034643903 0.027985698
000050 0b 45 8c bc f1 a1 f7 bc 1b 00 8b 3c df df 2c 3c
       -0.017122766 -0.030228587 0.016967824 0.010551422
000060 40 37 23 3d dc 59 7a 3b 21 30 96 3c 67 92 8a 3c
       0.039847612 0.0038200533 0.018333497 0.016915513
000070 d3 de c4 bc 3d a1 8d 3b bf a0 c5 ba db fe 5f bc
       -0.024032032 0.0043221996 -0.0015077813 -0.013671602
000080 f4 c4 e6 3c c5 78 30 bb e1 17 fa bc aa c6 cf 3c
       0.028170086 -0.0026927453 -0.030528964 0.025363285
000090 e4 48 60 3d 32 e3 80 3b 4c 8a 2e bb fa db 13 bc
       0.054757014 0.003933334 -0.0026632724 -0.0090246145
0000a0 d3 a7 12 bd ab aa 2e bb af 20 fe 3b 94 b1 9b 39
       -0.03580458 -0.002665202 0.007755361 0.0002969621
0000b0 9b 2c 6f 3c 04 48 94 3b 46 ea cf 3c 07 95 46 bc
       0.014598037 0.0045251865 0.025380265 -0.012120492
0000c0 da 3e e5 38 6e 14 c2 bb 42 c6 fd bc 89 36 2c bd
       0.00010931278 -0.0059228456 -0.030978326 -0.042044196
0000d0 47 87 07 3b ed ea a7 3c d7 6b 02 3c 6d 38 98 bc
       0.0020679997 0.020497764 0.007960281 -0.018581593
0000e0 4c 2e a1 bb 57 a3 93 3c 61 4b f3 3b bc 0f e3 bb
       -0.004918849 0.018022222 0.0074247574 -0.006929366
0000f0 e5 47 90 3c 24 75 71 3c b2 73 81 3b ab b3 fe ba
       0.017612407 0.014737401 0.0039505595 -0.0019432207
000100 c6 c1 56 3c 22 3d 59 bc e5 30 6b bc 20 e9 83 bc
       0.013107723 -0.013259204 -0.014354919 -0.016102374
000110 7e a1 f2 3c 88 52 fa bc 34 58 ad 3c f0 9c e3 3c
       0.029618021 -0.030556932 0.021160223 0.027784795
000120 b5 45 28 3c 34 ae 1a 3c b7 37 21 3c 27 d8 36 bc
       0.010270526 0.009440947 0.009839944 -0.011159933
000130 5c a7 78 3c eb ee c7 3c 2c 18 83 bc c6 7f 8d 3c
       0.01517662 0.024405917 -0.016002737 0.017272841
000140 77 91 ec 3a 7f 38 30 bb 78 2b f8 3c c1 a6 92 3c
       0.0018048723 -0.0026889143 0.030294165 0.01790178
000150 90 80 2c 3d 5f 16 8c 3c aa d4 cb 3c 3f 35 9d 3c
       0.042114794 0.017100511 0.02488168 0.019190429
000160 21 cd 60 3c 5e e7 af bb b5 c2 5c bc 15 10 b5 bb
       0.013720782 -0.0053681573 -0.013474156 -0.005525599
000170 a0 dd 56 3b d0 ce f4 3c 1a 12 31 bc 21 cc 2e 3c
       0.0032785907 0.029883772 -0.010807538 0.010668785
000180 60 a1 d7 bc 13 53 9f 3c 5c 76 46 3d b4 ed 11 bc
       -0.026322067 0.019448793 0.04845272 -0.0089067705
000190 ea 1a fc bb d8 10 4f 3c fa 9e 87 3c dc 5d d5 bc
       -0.007693638 0.012638293 0.016555298 -0.026045732
0001a0 ef 46 fe 3b 08 35 f3 3c dc bc 0e bd 18 8b 85 bb
       0.007759921 0.029688373 -0.03484808 -0.004075419
0001b0 c5 21 ab bb 74 02 06 bd 4e f1 e4 3a fb 7c b1 bc
       -0.0052225315 -0.032717183 0.0017466934 -0.02166604
0001c0 a5 56 4d bd b9 20 1b 3c 7b 23 23 3c 7e ad af 3c
       -0.05013146 0.009468251 0.00995719 0.021445032
0001d0 b6 c7 24 bd 20 eb 8f bb 9d 58 3f bc 2a 1c b6 3c
       -0.04022952 -0.0043920428 -0.011678842 0.022230227
0001e0 dd 6e 8f 3b d1 ef 92 3c ef ce cc bc a7 a6 72 3c
       0.0043772296 0.017936619 -0.025001017 0.014810241
0001f0 71 62 24 bc a6 29 b5 3b 2c 0c 04 bd 67 d9 05 3c
       -0.010033236 0.0055286465 -0.03223817 0.008169509
000200 4a 2b 30 bc bb 50 ea 3b cb 08 50 3c f5 ff aa b6
       -0.010752508 0.007150737 0.012697409 -5.096192e-06
000210 9c 31 2d bc 7b aa 77 3c ff f7 1a 3c b2 60 da 3c
       -0.01057091 0.015116329 0.009458541 0.026657436
000220 47 b4 f0 bc eb f6 d7 3b 38 55 f6 39 9d 26 46 3d
       -0.029382838 0.006590714 0.0004698427 0.04837667
000230 7d fd 21 3d 60 b5 61 bc d6 ba 80 3c c9 23 48 bb
       0.039548386 -0.013776153 0.01571409 -0.0030538908
000240 90 05 01 3a 8b bc a6 bb c4 81 b7 bc 47 4d 99 3c
       0.00049217883 -0.005088394 -0.022400744 0.018713607
000250 6b f4 13 bc 1e 25 4a 3c 98 52 16 bc 3b 8e da 3c
       -0.009030442 0.012337951 -0.009174965 0.026679149
000260 a3 0f 18 3c 3c 5d e5 bb 66 81 99 bc 2c 90 42 bd
       0.009281072 -0.00699964 -0.01873846 -0.047500774
000270 62 b6 db bc df 47 2f bc 0f 90 91 3b a1 5c 19 ba
       -0.026820365 -0.010698288 0.004442222 -0.00058502896
000280 cc ba c2 3c be 1c 26 ba cd 65 8f bc be b2 58 bd
       0.023770712 -0.00063366804 -0.017504597 -0.052904837
000290 f2 68 0e bd ae ed f9 ba 8c 0d 01 3c 0b 75 90 bc
       -0.034768052 -0.0019068026 0.007876765 -0.017633935
0002a0 d8 01 b1 3c 63 b4 49 3c a7 c0 b1 bc 87 e3 e1 3c
       0.021607324 0.012311074 -0.02169831 0.027574314
0002b0 7e 20 95 bc dd 38 12 3d 9c 63 4a 3c ee cb 17 bc
       -0.01820397 0.03569876 0.01235285 -0.009264929
0002c0 68 c5 78 3c 2c fc 00 bd 85 84 02 3c 5e 08 74 3b
       0.015183784 -0.03149049 0.007966165 0.0037236433
0002d0 76 e3 18 bc fe d5 ac bc 73 95 93 bc 6f bd 94 39
       -0.009331575 -0.021098133 -0.018015599 0.000283699
0002e0 8f b5 20 3c ae cf a3 bc da 76 97 3c db 07 32 3d
       0.009808912 -0.01999649 0.01848929 0.043464523
0002f0 c2 cb b3 3b 0f 4c 56 3b 11 59 b3 3b b8 41 eb bc
       0.0054869363 0.0032699143 0.005473264 -0.02871786
000300 7c a7 09 bc 5d 04 37 3b 4f b2 96 3b e7 be 67 3d
       -0.008401748 0.0027926185 0.0045988928 0.056578543
000310 e9 eb 7e 3b 02 8f 09 bd 87 65 94 3c ce b3 0d 3c
       0.0038897938 -0.03358365 0.018114818 0.008648826
000320 43 34 0f bc c5 b8 96 3b 63 24 3b 3d 21 dc ba 3c
       -0.0087404875 0.004599663 0.045688998 0.022810044
000330 26 d0 33 bc ca 56 1e bb 2e 96 77 3c 02 c8 be 3b
       -0.010974919 -0.0024160617 0.015111489 0.0058221826
000340 32 56 07 bc 45 11 98 bc 70 eb a8 3c 51 07 6b 3c
       -0.008260297 -0.018562922 0.020620078 0.014345006
000350 8b bc 56 bb e0 8d 28 bd 4b 9b 0c bd 79 c9 62 3c
       -0.003276619 -0.041150928 -0.034327786 0.01384198
000360 f7 66 52 3c fe 3e 0c 3b 2d 3b b9 bc f1 92 04 bd
       0.012841932 0.002139985 -0.022611225 -0.032366697
000370 82 7f 19 3d 78 e8 13 3c 59 d8 04 bd f9 f3 0d 3c
       0.037475117 0.009027593 -0.032432888 0.008664125
000380 0f 93 bb bc 7e fb fd bc 92 d2 33 3c 42 c1 56 3c
       -0.022897271 -0.03100371 0.010975497 0.0131076
000390 61 61 cb 3c 61 17 03 bc ee ff 0a bd a7 d7 d3 3c
       0.024826707 -0.008001179 -0.03393548 0.025859667
0003a0 09 3b c8 bc 3d 9e dd bc 97 b5 c6 3a 2f 10 c4 bc
       -0.024442213 -0.027052993 0.0015160319 -0.023933498
0003b0 16 a0 c2 b9 55 38 81 3c 46 71 8b bc 31 a5 cd bb
       -0.00037121837 0.015773932 -0.017021786 -0.006275796
0003c0 bc 71 1d 3c 0a 9a f0 bc 2f c8 81 3c a2 11 3d 3c
       0.009609636 -0.029370327 0.015842525 0.0115398485
0003d0 2f b1 69 3c ff 9f 0d 3c ec 96 8c bc a8 c9 a9 3c
       0.014263435 0.008644103 -0.017161809 0.02072604
0003e0 d7 7b 70 3b e3 e3 cd 3a ba 39 bb 3b b8 42 d2 3c
       0.0036694908 0.0015708174 0.0057136687 0.02566658
0003f0 7a dc 3b 3d d8 85 a8 bc 1f 1c 5a ba bc 85 c0 bc
       0.04586456 -0.020571634 -0.00083202304 -0.02350127

chords_tempNet.convT_out.bias f4 [32]
000000 9d 76 2c 3e 0c a6 f6 bd 6a b6 5f bc f1 70 da bd
       0.16842122 -0.1204339 -0.013654331 -0.10666073
000010 5c cc 12 be 9f c3 99 bb 8f 69 1a bd f1 4b 1a 3e
       -0.1433577 -0.0046925093 -0.037698325 0.15068032
000020 f1 12 6f 3c 4f b0 d1 bd 50 c3 12 be aa cf 71 bd
       0.014591918 -0.10238706 -0.14332318 -0.059035935
000030 90 e2 82 bd 4d 80 cb bd 1f 6c 03 3e 11 9a 18 3e
       -0.063908696 -0.09936581 0.12834214 0.14902522
000040 48 5c 05 bd 4a e1 aa 3d 08 b5 9b 3c f4 07 18 bd
       -0.03255871 0.08343752 0.01900722 -0.03711696
000050 f0 24 bd bd 80 87 0c be 77 56 2e be ff cb 93 39
       -0.09235561 -0.13723564 -0.17025171 0.00028190014
000060 32 e4 fd bd e4 5b 28 b9 5f 6d 04 3e bb fe d6 3d
       -0.123970404 -0.0001605596 0.12932347 0.10497805
000070 df fa 7f bd ce 65 0e be 70 b6 39 bc 7a bb d3 3d
       -0.06249511 -0.13906023 -0.011335 0.10338493

chords_tempNet.batchnorm_1.weight f4 [1024]
000000 c2 3b 0c bb a7 45 d7 ba 64 d6 6c bd 65 28 e9 3b
       -0.0021397923 -0.0016423956 -0.057821646 0.007115411
000010 fc 42 da 3c ad 0f 7e bc 34 5d fc 3c 32 31 8b bc
       0.026643269 -0.015506667 0.030806161 -0.016991232
000020 57 74 46 bc c8 74 34 3c 55 e4 f1 bc dc 3c c0 bb
       -0.0121126985 0.011014171 -0.029527823 -0.00586663
000030 81 89 eb b9 fb 71 9c bb 1b 49 5f 3c 27 f2 49 bc
       -0.0004492514 -0.0047743297 0.01362827 -0.0123258
000040 a4 c2 8a 3c 03 7d 45 bc 1b 02 58 bb fa cb 66 bb
       0.016938515 -0.012053731 -0.003296024 -0.0035216794
000050 5d cd 0b bd df b3 01 bd 4e b5 d0 bc 3b 85 8e 3a
       -0.034131397 -0.03166568 -0.025477078 0.0010873446
000060 a5 21 0a bd 02 35 04 bc 8a 93 34 3c d1 b1 cf bb
       -0.033723492 -0.008069279 0.011021504 -0.006338336
000070 38 0a 99 3c 61 0d 09 bd 97 6f 8c bc 14 90 d8 bc
       0.01868163 -0.033460025 -0.017143054 -0.02643589
000080 d9 6b c0 bc 4b 8c 0f bd d2 4e a6 bc ea 92 7c bc
       -0.023488926 -0.035045903 -0.020301256 -0.015415886
000090 fb 5e 92 3c 9f 57 14 bc 16 2f b9 3c 47 6a 1e bc
       0.017867556 -0.009054094 0.02260546 -0.009668893
0000a0 cb c9 fb 3b 1f 90 f1 bc 00 38 00 bd 8a 2d 57 b9
       0.0076839677 -0.029487668 -0.031303406 -0.00020520962
0000b0 27 0f 2f ba 7d 34 82 3a 12 09 01 3c 6f fd 06 bd
       -0.0006677978 0.0009933856 0.007875698 -0.032956537
0000c0 32 3c 74 bb bf 67 07 bd cc c1 ba bc aa ce d5 bc
       -0.0037267325 -0.033057924 -0.022797488 -0.026099522
0000d0 5f 2e ee bc cc 67 46 3c a2 b1 49 3d d6 37 23 bc
       -0.029074846 0.012109708 0.04924167 -0.009962043
0000e0 8e 4f 2e 3c 35 d6 9e 3c 6f 28 85 3c 7e 1a 9d bb
       0.0106390845 0.019389251 0.016254632 -0.004794418
0000f0 1b ee a0 bb 72 0a ba 3c ed 54 7f bc 09 08 db 3c
       -0.004911197 0.022710059 -0.015584213 0.02673723
000100 ee 96 22 3b 40 ee 31 3c 5a 0e 1c 3c 5a 4f 9e 3c
       0.00248092 0.010860026 0.009524906 0.019324947
000110 50 8e 07 3b 61 d7 c8 bc 1f b3 ae bb de ec f0 3a
       0.002068419 -0.024516763 -0.0053314115 0.0018381139
000120 7a 2e d6 3c c3 46 19 bc 15 4c 7a bc 29 48 cc 3c
       0.026145209 -0.00935525 -0.015276928 0.024936752
000130 2a 52 63 bc 20 51 13 bb 94 de c5 bb c1 c0 a5 bc
       -0.01387457 -0.0022478774 -0.0060384963 -0.020233514
000140 29 6d 7f bb 4c a4 26 3c 9d a7 b2 3c af 70 e9 3a
       -0.0038974977 0.010171007 0.02180844 0.0017810072
000150 e2 c9 f5 bc 2f 61 33 bd 25 60 8a bc 84 39 89 3c
       -0.030003492 -0.043793853 -0.016891548 0.016751058
000160 66 03 bb bc de 70 d8 3b 73 00 a4 bb 57 0c fc bb
       -0.022828769 0.0066052517 -0.0050049364 -0.0076919007
000170 56 9f 95 3c 8b 17 6f bc 89 b3 e1 bb 59 49 85 3b
       0.018264454 -0.014593015 -0.0068878573 0.0040675816
000180 b2 dc f3 bb da b4 df bc 8a bf 0d bc 2e 21 1b bc
       -0.0074420804 -0.027307916 -0.0086516235 -0.00946836
000190 55 df ef ba a8 98 9c 3c 8b db 80 3b 55 34 16 3c
       -0.0018300811 0.01911576 0.0039324216 0.00916775
0001a0 72 52 cb bc d0 de 55 3c cf 9e 90 3c fc 0f 91 3c
       -0.024819586 0.013053611 0.01765385 0.017707817
0001b0 52 46 34 3c d6 ea b3 3b 5f cf a5 bc 8d eb ae 3c
       0.011003094 0.005490641 -0.020240484 0.021352554
0001c0 5b b5 a9 bc 9c d1 b5 3b e7 fb c7 bc b9 7c c4 ba
       -0.02071636 0.005548669 -0.024412109 -0.0014990784
0001d0 7e db 3e bc 4d 46 2d 3d 46 7c 46 3d b6 07 bf 3b
       -0.011649011 0.042303372 0.04845836 0.0058297766
0001e0 7a a0 eb bc ec 95 02 bc f6 5f 98 3b d4 4d 17 bc
       -0.028763045 -0.0079703145 0.0046501113 -0.009234864
0001f0 2f 64 47 3c 1a b7 6d bc a2 4f 80 3c 70 09 00 bc
       0.012169882 -0.014508987 0.015662972 -0.00781475
000200 09 7a 9c 3c d8 8d 0f bd ea 96 e5 bc 60 34 0d bd
       0.01910116 -0.035047382 -0.028026063 -0.034473777
000210 f7 f2 bc 3c 01 93 48 3c ea ef 96 ba d0 31 ee bc
       0.023065073 0.01224208 -0.0011515592 -0.029076487
000220 a0 92 9a 3b 57 e1 15 3c 8e c9 f9 3c 86 fe 16 3d
       0.004717186 0.0091479635 0.030491617 0.036863826
000230 a8 80 41 3c a2 85 43 bb 85 35 80 3c f4 58 29 3d
       0.011810459 -0.002983429 0.01565052 0.041344598
000240 38 35 fa bc 5d 21 b3 bc de 34 15 3d 33 22 ef 3c
       -0.030542955 -0.021866495 0.03642737 0.029191112
000250 93 16 96 bc ad cd 66 3c 58 95 61 bc b7 18 d3 bb
       -0.018321311 0.014087123 -0.0137685165 -0.006442155
000260 6f e4 78 3c c7 a4 a8 3c ff a4 39 3b 40 fd 94 bc
       0.015191182 0.020586384 0.0028327105 -0.018187165
000270 b3 fc d0 3c 54 b1 3b 3c f9 3e a2 3c 3a 8d 08 bc
       0.025511121 0.011455853 0.019805418 -0.008334452
000280 fb 81 83 3c e0 da 5a 3c 9d 10 d9 3c aa 13 2a 3c
       0.01605319 0.013357848 0.02649718 0.010380665
000290 c7 ce 54 bd 0e fc 90 bc 73 ac 5c 3c a4 16 30 3c
       -0.05195501 -0.017698314 0.0134688495 0.010747585
0002a0 96 16 af bb 96 1c a0 bb 4a 5b b5 3c b2 ac 23 3d
       -0.0053432686 -0.00488622 0.022138257 0.039959617
0002b0 c7 81 4b ba e6 53 d1 bc a1 d7 24 bd c2 d8 31 bc
       -0.0007763174 -0.025552701 -0.040244702 -0.010854902
0002c0 a8 81 5a 3c aa 1e 15 3c 1a 39 41 b7 da 4f 1b bb
       0.0133365765 0.009101549 -1.1516991e-05 -0.0023698718
0002d0 6e 51 00 bd 57 be 8d bc 27 5f d6 bc 35 4f 9d bc
       -0.031327657 -0.017302675 -0.026168419 -0.019202808
0002e0 15 9b 82 bb 2b 08 62 3b 43 40 2f 3c a1 bb 2c bc
       -0.0039857724 0.0034489732 0.0106964735 -0.010542781
0002f0 f6 b7 4e 3c 60 e0 80 bc 59 df 53 3c 37 ea 31 bc
       0.012617102 -0.01573199 0.012931668 -0.010859064
000300 45 b7 bb bc ba 11 6b ba 7e 17 21 3d bb 05 92 bc
       -0.022914538 -0.000896718 0.039329045 -0.017824998
000310 b2 f2 ba 3c 8b cd bb bc 73 84 14 b8 6d 77 8c bc
       0.022820804 -0.022925159 -3.5409303e-05 -0.01714679
000320 98 2c 51 bc a3 39 ba 3c ea 76 50 bc 6d f4 2a bb
       -0.01276698 0.022732561 -0.012723664 -0.002608563
000330 c6 c4 5a bc d7 d9 d8 3c 02 a2 98 3c 53 cd 3f bc
       -0.0133525785 0.026471062 0.018631939 -0.011706668
000340 6b 5e 2f bb 93 a2 59 3c 75 d9 3e 3c 12 28 18 bc
       -0.0026759158 0.01328339 0.0116485255 -0.009286897
000350 f3 f9 0f 3c fa 0a be 3c 63 4f 33 bc 46 b8 36 bb
       0.00878762 0.023198593 -0.01094422 -0.0027880832
000360 94 a0 a9 3c e3 48 02 3d 27 ca 92 bc 06 69 de bc
       0.020706452 0.03180779 -0.01791866 -0.027149688
000370 0c a2 99 3c 92 85 bf 3b 5f 91 a4 3c 6b b0 8d bc
       0.018754028 0.0058447802 0.02008885 -0.017296037
000380 43 0b 39 bd 48 30 17 bc 8d a1 4a 3d ec 8c 9b bc
       -0.045176756 -0.00922782 0.049470473 -0.018988095
000390 47 b3 a9 bc bd b5 f1 bc 70 0b c6 3b 8e 1f c5 3b
       -0.020715369 -0.029505605 0.006043844 0.0060157245
0003a0 63 4b 53 bd a1 5a 5d bc c9 22 e0 3b 6a 66 ec bc
       -0.051585566 -0.013510377 0.006840084 -0.028857429
0003b0 df ba 97 3c a9 27 bd bb ad 8c 1a 3d df 96 ba bc
       0.018521724 -0.00577255 0.037731815 -0.022777019
0003c0 4c bb db 3c d6 27 9c 3b 45 9b 10 bc 08 c1 ed bc
       0.026822709 0.004765491 -0.008826082 -0.029022709
0003d0 47 23 28 bd ec 83 27 bb aa 92 b3 3c 48 ca 9c bc
       -0.041049268 -0.002556081 0.02192052 -0.019139424
0003e0 1c 5b 63 ba 3d 55 84 bc 8c 6e 7b 3b 75 da df 3c
       -0.0008672939 -0.016153926 0.0038365452 0.027325848
0003f0 39 fe 1f bc e0 92 9f ba 26 96 d6 bc dd 7f a6 3c
       -0.009765201 -0.001217451 -0.026194643 0.020324642

chords_tempNet.batchnorm_1.bias f4 [1024]
000000 35 a7 7c b8 7a 8f e1 38 3f 62 81 b7 88 9c d9 b8
       -6.0237206e-05 0.00010755561 -1.5423748e-05 -0.000103765226
000010 d5 83 4a b8 64 0d 19 b7 2c 4e c6 38 83 6a f2 b8
       -4.828333e-05 -9.122628e-06 9.4559364e-05 -0.000115592986
000020 f9 3a ae 38 4e a1 8a b8 77 84 8a 38 df a9 ec 38
       8.307951e-05 -6.610398e-05 6.605026e-05 0.00011284998
000030 19 35 3a 39 08 21 c0 b8 24 1a cb 38 9b ee 0a 39
       0.00017758123 -9.161426e-05 9.6846634e-05 0.00013249593
000040 07 92 d1 36 5f 94 84 38 b1 46 14 b9 10 63 ea b7
       6.245685e-06 6.321887e-05 -0.00014140714 -2.7941103e-05
000050 08 f0 26 39 17 b6 4b 38 92 9f fa 37 25 eb 77 39
       0.00015920412 4.8568556e-05 2.9876628e-05 0.00023643354
000060 e7 61 4c 38 a5 b0 61 39 e4 e0 cc 38 6f 20 0d 38
       4.872857e-05 0.00021523477 9.769367e-05 3.3647226e-05
000070 34 c3 b4 b8 00 35 02 39 e2 4d b4 b7 8b 43 02 39
       -8.619428e-05 0.0001241751 -2.149394e-05 0.00012422928
000080 4e 5e 00 b9 a5 85 3d b8 2d 81 33 b6 33 73 2e b9
       -0.00012242162 -4.5185578e-05 -2.6748269e-06 -0.00016636848
000090 63 6a 90 b8 dd b6 69 39 4a 32 a7 38 40 5c 35 b9
       -6.886271e-05 0.00022288733 7.9725476e-05 -0.00017295871
0000a0 6a c5 50 39 10 1d 4c 38 4e 97 c8 38 4a 28 44 39
       0.00019909968 4.8664457e-05 9.564926e-05 0.00018707025
0000b0 cb 3f 30 39 26 7a a4 b8 8c 21 e5 38 3e 66 aa 38
       0.00016808433 -7.842881e-05 0.000109258195 8.125276e-05
0000c0 9d 32 dc 38 b8 fd de 38 c3 4a 78 38 b5 aa 22 b8
       0.00010499845 0.00010633044 5.9197435e-05 -3.8782793e-05
0000d0 80 ed 4d b9 19 f8 be 38 4c 2f 43 b7 15 c9 a8 38
       -0.00019638799 9.106118e-05 -1.1633918e-05 8.048319e-05
0000e0 61 6d 15 39 be f7 14 39 97 ff 67 39 4b a7 09 39
       0.00014250494 0.00014206671 0.00022125091 0.0001312766
0000f0 e7 5a 50 38 c2 87 a5 37 86 ef 83 b8 51 d5 b5 b8
       4.9675724e-05 1.973275e-05 -6.2911815e-05 -8.670486e-05
000100 11 8f af b8 ab 1c 92 b8 de c2 67 39 b0 f1 31 b8
       -8.3712985e-05 -6.967162e-05 0.0002210247 -4.2425178e-05
000110 9e aa 9d b7 01 44 5d b9 40 94 1e 39 14 6d 85 b8
       -1.8795308e-05 -0.00021101536 0.00015123282 -6.3622516e-05
000120 49 89 85 38 36 97 29 39 40 b2 d2 b8 37 26 9c b8
       6.3675056e-05 0.00016173426 -0.00010046782 -7.445778e-05
000130 b6 cc 1c b9 bb d1 50 b8 e7 ff 12 b9 fe 43 9d 38
       -0.0001495358 -4.978639e-05 -0.00014018976 7.499008e-05
000140 e3 ce f7 b8 eb 34 43 39 48 10 ff 37 5e eb 79 b9
       -0.000118164135 0.00018616363 3.040595e-05 -0.00023834172
000150 d7 e9 d7 b8 b6 48 14 b9 c1 19 ca b8 4a 70 ed b8
       -0.00010295555 -0.00014141467 -9.6369076e-05 -0.00011321956
000160 38 08 28 39 d7 b6 a9 37 3f 4d 31 39 d1 1d 8a 36
       0.0001602479 2.0231511e-05 0.00016908812 4.1161916e-06
000170 55 25 30 39 82 a9 61 37 d4 21 59 39 cb f0 05 b9
       0.00016798575 1.3450512e-05 0.00020707335 -0.00012773571
000180 8e 02 0e b9 a9 7a 80 38 03 68 58 b9 e4 87 7f 39
       -0.00013543127 6.126363e-05 -0.00020638113 0.00024369318
000190 44 80 7c b9 91 02 30 39 ce ca 06 b8 44 eb f3 b8
       -0.00024080375 0.00016785624 -3.2136966e-05 -0.000116309646
0001a0 95 91 0e b9 f5 89 4e b9 41 a9 4c b9 7b 2a 16 b9
       -0.00013596409 -0.00019697084 -0.00019518008 -0.0001432094
0001b0 e8 b2 55 39 e2 a9 56 b9 88 85 3e 38 b8 d2 38 39
       0.0002037991 -0.00020471917 4.542389e-05 0.00017626106
0001c0 ec e0 83 b9 ef e8 48 b9 cc 6a 6a b8 20 09 07 b8
       -0.00025153847 -0.00019160261 -5.588941e-05 -3.2195006e-05
0001d0 e2 d1 97 36 96 f4 7e b8 bb a9 5f 39 6b 41 8e b8
       4.5245843e-06 -6.0786107e-05 0.00021330167 -6.783273e-05
0001e0 67 f2 0a b9 07 80 43 b9 af 74 c0 38 f0 ed fa b8
       -0.00013251007 -0.00018644343 9.1770075e-05 -0.00011965248
0001f0 02 52 24 39 d0 5b b3 b8 9d 8f e6 b6 ad 53 00 b9
       0.00015670809 -8.5524865e-05 -6.871253e-06 -0.00012238203
000200 48 95 4c 38 78 cd ec 37 70 0a 65 b8 f7 43 85 b7
       4.877642e-05 2.8229071e-05 -5.4607575e-05 -1.5886484e-05
000210 95 d8 51 39 62 db 6c b9 99 fd a4 b8 ef 94 25 39
       0.00020012476 -0.0002258844 -7.867366e-05 0.00015791108
000220 62 6c 89 38 2c 58 45 b9 2c 4a 28 b8 97 8a 22 b8
       6.552857e-05 -0.0001882023 -4.01234e-05 -3.875288e-05
000230 2b 20 b2 b8 ab 9c b8 38 6a 2b 1f 38 f7 de 96 b8
       -8.493693e-05 8.8029854e-05 3.7948987e-05 -7.194088e-05
000240 5e 58 46 38 52 61 06 39 fe 45 87 38 4d af 26 39
       4.7289177e-05 0.0001281549 6.450339e-05 0.00015896298
000250 21 18 90 b7 e4 da 90 38 d8 b0 11 39 39 51 7d 38
       -1.7177374e-05 6.9072266e-05 0.00013894157 6.0395545e-05
000260 35 a7 4d b8 8d af d1 38 6a fe bf b7 7c d8 58 39
       -4.9031532e-05 9.9985955e-05 -2.2887445e-05 0.00020680012
000270 22 81 41 b9 e1 c0 91 38 ac 01 f2 36 68 2c 25 b8
       -0.0001845402 6.950065e-05 7.2123566e-06 -3.9380422e-05
000280 27 67 7c 38 f0 81 cc b7 14 0d 0c 39 f3 66 26 39
       6.017755e-05 -2.4379202e-05 0.00013356312 0.00015869345
000290 5e 36 82 b8 ad 79 15 39 8a 2a fc 37 32 db 02 38
       -6.20901e-05 0.00014255075 3.006055e-05 3.1198557e-05
0002a0 5b fb 73 39 b8 7b a0 b7 bc 92 0a b9 11 41 9d 38
       0.00023267923 -1.9131097e-05 -0.00013215368 7.498463e-05
0002b0 1d 96 3f b9 9d e6 f3 38 8d 91 7f 38 5b 69 4c b9
       -0.00018271101 0.00011630098 6.0932292e-05 -0.00019494204
0002c0 83 fb 54 b8 b5 2d 52 b8 a5 8e 64 b9 23 3a 73 38
       -5.0778977e-05 -5.011047e-05 -0.00021796914 5.798986e-05
0002d0 db 04 ce b8 d6 0a 3f b9 e2 c5 81 38 60 17 1a 39
       -9.82375e-05 -0.00018219216 6.188058e-05 0.00014695292
0002e0 4d 99 f7 38 f1 ed 38 38 d2 f9 d3 b8 84 b9 04 39
       0.00011806432 4.409062e-05 -0.00010107797 0.00012657611
0002f0 1f 31 3e b8 06 8d fe b8 7f a3 78 39 7c 56 1a 39
       -4.5345278e-05 -0.000121379315 0.0002371203 0.00014718802
000300 e5 b7 74 b8 ae d3 44 38 12 af 35 b9 80 fb 8e b7
       -5.83454e-05 4.6927184e-05 -0.00017326724 -1.7044833e-05
000310 6b 8f 5d b9 9c bb 8d b8 a1 74 4b b9 8c ee 97 38
       -0.0002112963 -6.758349e-05 -0.00019403036 7.244674e-05
000320 60 27 39 39 f0 c9 d3 b8 87 da 75 37 37 dc 6f 39
       0.00017657643 -0.00010098878 1.4654018e-05 0.00022874853
000330 dd 1e ba 36 5b 56 27 b7 5e ce ce 38 8d 7d a8 b8
       5.546825e-06 -9.974082e-06 9.861284e-05 -8.03425e-05
000340 6a f0 dc 38 40 d2 42 39 33 a0 ab 38 c8 70 be 38
       0.00010535198 0.00018579606 8.183755e-05 9.080913e-05
000350 52 02 0b 38 bf f7 a6 38 c3 e2 e7 b8 67 d2 b6 38
       3.3142343e-05 7.961643e-05 -0.00011057176 8.717627e-05
000360 d8 a5 bc b8 fe d4 33 b8 ef 87 72 b9 d8 cc fa b8
       -8.9954294e-05 -4.287529e-05 -0.00023129558 -0.00011959084
000370 17 4b 19 b9 b3 c9 55 39 fa e8 5a b9 be b5 d1 b8
       -0.0001461919 0.00020388402 -0.0002087689 -9.999749e-05
000380 6f 4b 2f b9 03 c4 25 36 f4 dc c7 b8 4d 45 f4 b7
       -0.00016717402 2.470101e-06 -9.530215e-05 -2.9119337e-05
000390 a5 18 40 b8 df 62 61 38 2b 6b 51 38 7d a5 e9 36
       -4.579932e-05 5.373626e-05 4.992929e-05 6.9632065e-06
0003a0 0c 6b 40 b9 49 97 98 37 c7 7c 86 38 7d 97 eb 38
       -0.00018350425 1.819026e-05 6.4128595e-05 0.0001123389
0003b0 75 66 9f 38 5d a9 51 b8 e1 dd f3 b8 4c 43 23 39
       7.600795e-05 -4.9987215e-05 -0.00011628471 0.00015569961
0003c0 10 ff 10 b7 46 b3 27 37 b2 ab d9 b8 3b 48 87 b8
       -8.642455e-06 9.995716e-06 -0.00010379347 -6.4507556e-05
0003d0 41 ee b5 b8 fb f2 44 b7 ac d7 4d 37 4d a7 98 38
       -8.675131e-05 -1.1739084e-05 1.2269167e-05 7.279087e-05
0003e0 0d 84 05 39 6b d7 70 b8 bb 4b b6 b6 d1 80 21 37
       0.00012733061 -5.7421083e-05 -5.432839e-06 9.62634e-06
0003f0 ae b1 27 38 71 0e b7 b8 8e d5 a1 b8 ec 2c ad 38
       3.998138e-05 -8.72881e-05 -7.716856e-05 8.25765e-05

chords_tempNet.batchnorm_1.running_mean f4 [1024]
000000 53 c5 d4 bc 90 78 a4 3c 26 89 2b 3b 5f cd 6b bc
       -0.025972998 0.02007702 0.0026174276 -0.014392226
000010 b3 c4 95 bc 49 89 c8 3c 0e dc 94 3c 75 cb 72 bd
       -0.01828227 0.024479525 0.018171337 -0.059276063
000020 0f 82 c8 bc 70 b2 2c 3d e9 76 09 bc 20 32 5e bd
       -0.02447608 0.04216236 -0.008390167 -0.05424702
000030 2a 00 4e bd 95 8f 45 bb 1c c1 57 3d 10 cf bc bc
       -0.050293125 -0.0030145396 0.052674398 -0.023047954
000040 01 a0 ef bc 06 dc 44 bd f7 40 7f 3c 87 b7 04 bd
       -0.0292511 -0.048061393 0.015579454 -0.032401588
000050 40 1d 33 3c 67 2d f2 3a 5a 88 88 bd 16 7d 5d 3b
       0.010932267 0.0018476666 -0.06666632 0.003379648
000060 da d1 22 3c 76 63 1b bd 8f b9 f5 bc ec 6f 58 3d
       0.009937728 -0.03793665 -0.029995708 0.052841112
000070 15 86 5f 3d 1e 7a 3b bd 80 9f 2c bd 00 05 b4 3c
       0.05457123 -0.045770757 -0.0421443 0.02197504
000080 88 07 ab bd a9 af 22 bc 14 69 8d 3d 28 2a 70 bd
       -0.08351046 -0.009929576 0.06904808 -0.058633953
000090 a9 f5 f8 3a be a1 9d 3c 04 e1 40 bd 56 4c 5e bd
       0.0018994111 0.019242164 -0.04708959 -0.05427202
0000a0 a8 b5 e5 3c 31 e6 31 bd 6a ed 04 bd 68 ed 8e 3d
       0.028040722 -0.04343242 -0.03245298 0.069788754
0000b0 18 69 1a bc 59 45 3a 3d 7d b8 ee 3c ff 75 5d bc
       -0.00942447 0.04547629 0.029140705 -0.013516902
0000c0 4a 43 1c bd a8 26 98 bc a9 fb 08 3a e9 92 3c 3d
       -0.03815011 -0.01857312 0.00052254886 0.046038542
0000d0 e8 fe 8b bc 0d 15 85 3c 9b 5a 51 bc ab d6 ab bb
       -0.017089322 0.01624539 -0.01277795 -0.0052440963
0000e0 c7 fd 9c bd 38 ec c4 bc 3d 79 dc bc ad 03 a5 3c
       -0.07665592 -0.02403842 -0.02691328 0.020143354
0000f0 48 1e 83 3c 97 88 91 bb c6 98 6c bd 66 7d 6a bd
       0.01600565 -0.0044413316 -0.057762884 -0.057248496
000100 eb 03 8b bb fd 7b 24 3d bd 9d 63 3d 35 06 60 39
       -0.0042424104 0.040157307 0.055570353 0.00021364617
000110 de 2e e8 bc 90 f8 73 ba b5 f5 46 3b 5f 7e 3e 3d
       -0.02834266 -0.0009306753 0.0030358855 0.046507236
000120 36 bc 9c bd ed de 3f bc be 2a 39 3d 61 64 05 3d
       -0.07653086 -0.0117108645 0.045206778 0.032566432
000130 99 2c ce 3b 93 50 c2 bd ba 3a 58 bc bd a4 79 bd
       0.0062919375 -0.094880246 -0.013197595 -0.060948122
000140 42 7a 14 bd 45 bd cf bc de 3e 13 3c 52 59 06 3d
       -0.036249407 -0.025358805 0.008987157 0.032800026
000150 98 4b c6 3b 34 b4 bc bd 43 18 95 bd 0d 7e 50 3d
       0.006051492 -0.092140585 -0.07280018 0.05090146
000160 1d 8a ee 3a 0d 89 11 bd e5 62 8f 39 bf 84 4f 3c
       0.001819912 -0.035531092 0.00027348768 0.0126659265
000170 e5 18 bc bc 96 96 97 3d 68 d6 88 3d a2 3f 7c bb
       -0.02296109 0.07401769 0.0668152 -0.0038490077
000180 11 5a 20 3d 1f 03 ef bc 62 18 59 ba 48 eb 6b bc
       0.039148394 -0.029176293 -0.00082815264 -0.014399357
000190 19 d5 f3 3d d4 f6 5e 3d 93 c4 7b 3d 4c 4e 97 3c
       0.119058795 0.054434612 0.061466765 0.018469952
0001a0 17 98 32 3c 8b c6 92 bc 9c 60 fb bc bd de 06 bb
       0.010900519 -0.017916938 -0.030685715 -0.002057954
0001b0 f5 b6 81 bd ad 06 06 3d 86 e0 15 3d 33 e8 d8 3c
       -0.063337244 0.03272121 0.036591075 0.026477909
0001c0 01 4c e8 39 01 bc 27 3d 0b 26 dd bc 6b b1 c3 3c
       0.00044307116 0.04095078 -0.02699568 0.02388831
0001d0 38 95 fb bc 53 83 fa bc e0 6c 4c 3c cb c3 01 3c
       -0.030710801 -0.030580198 0.01247713 0.007920216
0001e0 4e 56 2a 3d 33 5a 8c 3c b8 56 32 3d e0 dd 94 3d
       0.041586213 0.017132854 0.043539733 0.07268882
0001f0 05 0b 65 3d 5f fc a7 bd 06 aa 77 3d f3 f4 79 ba
       0.055918712 -0.08202433 0.06046488 -0.00095350965
000200 52 3c 45 bd bf 59 42 bc 4c fb 3a 3c 1a 8a 1a 3c
       -0.04815323 -0.011862217 0.011412453 0.00943234
000210 56 db 09 3d 07 cb c1 bd e4 fc 43 bd 6e c0 2d 3d
       0.03365644 -0.094625525 -0.047848597 0.042419843
000220 c6 f5 87 bb cd b1 72 3d 0f 77 50 3c ae 19 95 bc
       -0.0041491715 0.059251595 0.012723698 -0.018200722
000230 9c d2 51 bd c7 e5 de bc e0 a5 95 bc fd f3 e4 3d
       -0.051226243 -0.027209176 -0.018267572 0.111793496
000240 fe f7 54 bc ce c1 e8 bc b3 07 2f bc ae 79 69 bc
       -0.012998579 -0.028412726 -0.010682988 -0.014250202
000250 42 5f 4c 3d 10 42 66 3d f2 b0 82 3d d2 f6 b0 bc
       0.049895532 0.056215346 0.06381406 -0.021602068
000260 10 36 df 3d bb 7b 95 3c 93 59 ba 3c 4f 74 7b bc
       0.108989835 0.018247476 0.02274779 -0.015347554
000270 a2 22 2e bc 81 ce 71 3c 7c 82 c8 bc 46 84 7d 3c
       -0.010628374 0.014758707 -0.024476282 0.015473431
000280 52 82 4f 3d 8a b5 02 3d ce b3 ab bd 26 01 ee 3c
       0.050661393 0.03191141 -0.083839044 0.029053282
000290 9d 84 19 bd 49 8f db 3c 4f 20 01 3c a5 cd 1d bc
       -0.037479986 0.026801722 0.007881238 -0.009631549
0002a0 55 4e 06 bb da 09 9f bc 5f cf f0 3c e2 05 6f bc
       -0.0020493467 -0.019413877 0.029395757 -0.014588805
0002b0 48 be e5 bb 08 89 4d bd ab 8d d0 bc 2e 5d 14 3c
       -0.0070112087 -0.05017951 -0.025458178 0.009055419
0002c0 15 ed 95 3d e7 e0 3c bb 6e fb 75 bc 70 8a 0a bd
       0.073206104 -0.0028820576 -0.015013559 -0.03382343
0002d0 49 51 73 bc f6 3a 9b 3d 36 51 c7 3c d9 2c 2b bd
       -0.014850923 0.07579605 0.024330717 -0.041790817
0002e0 48 b2 ab bc aa 32 e2 bc f4 8f f5 bc d1 39 8e bc
       -0.020959035 -0.02761205 -0.029975869 -0.017361553
0002f0 81 dd b1 b9 a7 a9 61 3c af d7 14 3c 1d a2 c4 3c
       -0.00033925104 0.013773358 0.009084626 0.024003083
000300 71 8f 3d bc 4b 44 8d bc aa 6c 32 3d 02 ce 76 3d
       -0.011569844 -0.017244479 0.04356066 0.060255058
000310 5f e8 bc 3d ac cd c3 bc 32 53 c4 bc 31 a5 47 bc
       0.09224009 -0.023901783 -0.023965452 -0.012185381
000320 1a 8e 8e 3d aa 05 17 bd e8 72 4a 3c f3 47 4b bc
       0.069606975 -0.036870636 0.012356497 -0.012407291
000330 df f3 c3 3c 0d 6a e2 3c a0 27 73 3d 88 77 d6 3c
       0.023919998 0.02763846 0.05936396 0.026180044
000340 67 3a 2e 3d b5 61 84 3c c1 47 4a 3d c6 48 ca bc
       0.042536166 0.016159872 0.049384836 -0.024692904
000350 da c1 80 3b a3 b5 c1 bc 19 11 1a 3b 02 fb 39 bd
       0.003929359 -0.023646181 0.0023508726 -0.045405395
000360 b2 86 e3 3c fe e8 dd bc b3 9d 9e ba 2c f1 05 3c
       0.027774189 -0.027088638 -0.0012101441 0.008175176
000370 37 e8 68 3c 01 b5 b5 bd 8e 06 1f 3d 0a b2 a4 bd
       0.014215521 -0.088724144 0.03882461 -0.08041771
000380 c2 2c 27 3c 1c 49 21 bd 93 a3 9b 3d 03 01 d7 bc
       0.010203542 -0.039376363 0.07599559 -0.0262456
000390 b2 7a ce 3c 80 42 10 bd ed e6 d7 bc 3d bc 23 3d
       0.02520499 -0.03521967 -0.026355231 0.03997444
0003a0 66 13 67 3d 67 4b 0e 3b c0 1e a8 bb 2d 87 17 b9
       0.056414984 0.0021712424 -0.005130619 -0.00014450839
0003b0 1e 0c 71 bd 95 c5 d0 bd d5 8c 2c 3d c0 83 16 bd
       -0.058849446 -0.10193936 0.042126495 -0.03674674
0003c0 56 1f 20 bc 16 94 78 3c 4d af 27 3d fe d5 a7 bc
       -0.009773096 0.015172025 0.040938664 -0.020487782
0003d0 fa 83 38 bd 4f 82 54 bd 1a 0f 98 bd 05 5e 3f bd
       -0.045047738 -0.051882084 -0.074247554 -0.046720523
0003e0 f2 af 8c 3c 37 d0 18 3d a4 01 22 bc 15 ea d3 bb
       0.017173741 0.037307944 -0.0098880865 -0.0064671137
0003f0 c9 0b 8a bd 48 09 e8 3c 62 f2 cf 3c b5 97 5d 3d
       -0.06740529 0.028324738 0.025384132 0.054099757
