run_2/weights/weights-g-100.pth (torch, 418811 bytes, 12 tensors)

chords_tempNet.convT_in.weight f4 [32, 1024, 2, 1]
000000 14 3e 77 bc a0 24 ac bc 59 35 23 bb f6 2f 05 3d
       -0.015090484 -0.021013558 -0.0024903624 0.032516442
000010 3f 65 7d bc cb 3d a6 bc 18 37 89 3c ff a9 39 bc
       -0.0154660335 -0.020293137 0.016749904 -0.011332034
000020 58 d7 13 3c eb 61 b4 bc 41 78 b5 bc 68 0c bf bc
       0.00902351 -0.022019347 -0.022152068 -0.023321345
000030 7a 01 31 bc b2 a6 c6 3b fe cb 92 bc 09 e7 a1 3b
       -0.010803575 0.006062352 -0.017919537 0.0049408716
000040 f7 a0 25 bc 8e 15 f0 bb 2f 29 ec ba ea 0c 1e 3c
       -0.010109178 -0.0073267883 -0.0018017645 0.009646634
000050 df 08 bc bb 4f f8 71 3c f4 8c ca 3c 02 15 5e 3b
       -0.005738362 0.014768674 0.024725415 0.0033887033
000060 f9 18 cb bb a4 94 01 3d a2 b5 d5 3b da 0a bb 3b
       -0.0061980453 0.031635895 0.0065218965 0.0057080807
000070 b0 61 11 bd dd b3 eb bc 73 8e 24 3c 4f 16 7b bc
       -0.035493553 -0.028772289 0.010043728 -0.015325143
000080 00 1d e5 3b 5e d0 f6 bc d7 f0 86 3c 4f 08 44 3c
       0.0069919825 -0.030128654 0.016472263 0.011964872
000090 9e 7c 99 bc 24 e2 4e bc 4b d2 a1 3b 3a ea bd bc
       -0.01873618 -0.012627158 0.004938399 -0.023182977
0000a0 f6 14 b7 3c ce 86 c4 3c d4 ae 2f ba 9f c1 93 3c
       0.022348862 0.023990061 -0.00067017716 0.018036662
0000b0 e7 6d 9b bc 05 57 e6 b9 4a 72 53 3c 8b 71 43 bc
       -0.018973304 -0.00043933853 0.012905667 -0.011928926
0000c0 82 3f 3f bb c8 93 6f 3b e0 27 6c 3c 1d e4 7c bc
       -0.002918214 0.003655659 0.014413804 -0.015435246
0000d0 dc 42 59 bb 3d 3f 47 bd aa fb 5d 3c 9a 90 99 bc
       -0.0033151424 -0.048644293 0.013548771 -0.01874571
0000e0 4c c4 f6 bc 4f 0f 21 3c c4 71 7a 3c 1d ec f6 3c
       -0.030122899 0.00983031 0.015285913 0.030141884
0000f0 72 65 c7 3c 38 0a 8c bc f2 60 ee ba 55 0a 16 bd
       0.024340365 -0.017094716 -0.0018186851 -0.036630947
000100 07 ed 01 bd 5e 5a aa 3c 4a 16 ee 3c ba 66 bf 3c
       -0.031720188 0.020795044 0.029063363 0.023364414
000110 68 cc a5 bb e7 f9 15 3d 27 16 00 3c 20 6a 22 bb
       -0.0050597675 0.03661528 0.0078177815 -0.0024782494
000120 06 0a 0c bc 06 c0 04 bb 2b 2b 90 3c b5 7b 21 3c
       -0.008547312 -0.0020256056 0.01759871 0.009856154
000130 d5 9d 24 bd 96 80 84 3b b3 3c 76 3a d0 77 0d 3b
       -0.040189583 0.004043649 0.00093932 0.0021586306
000140 13 18 93 3c 52 21 42 3b 2c 49 7f 3c 44 9c 70 bc
       0.017955815 0.0029621911 0.01558141 -0.014685694
000150 9d 96 f6 bb 46 cb 67 3c 43 76 3c bc b6 92 06 3c
       -0.0075252787 0.014147585 -0.011502805 0.00821369
000160 67 5d fe 3c ff cc d4 bb df 0f 17 bc b0 f9 89 bc
       0.031050397 -0.006494164 -0.009220093 -0.016842693
000170 63 b1 a4 bc dd 77 df 3b ce 1e 84 3b 05 0c 4b 3b
       -0.020104116 0.0068197087 0.0040319925 0.0030982506
000180 79 47 97 bb 02 5b 51 3c 26 25 83 3a d5 1b 01 3c
       -0.0046166745 0.012778046 0.0010005578 0.007880171
000190 fe 72 75 bc e4 b5 20 3d b1 33 a1 39 e9 79 65 bc
       -0.01498103 0.039235964 0.00030746826 -0.014006116
0001a0 e8 3b 57 3b 3f 61 e7 ba be b8 ed bc 12 1c 59 3c
       0.0032842103 -0.0017652883 -0.029018756 0.013251321
0001b0 7b c0 37 3d b8 0c ed bc 82 20 b8 ba 88 c0 af 3c
       0.044861298 -0.028936729 -0.0014047774 0.02145411
0001c0 9d 8b 71 3d 40 09 46 bc 79 9b 2a bd a5 8d cd 3c
       0.058971036 -0.012087166 -0.041652177 0.025091955
0001d0 27 f7 af 3c bd fa a6 bb a2 5b b2 ba 93 a2 67 3c
       0.021480156 -0.0050958083 -0.0013607631 0.014137882
0001e0 be 00 f5 bc d8 97 09 3b 2f 67 ba 3c dc 5f 06 3c
       -0.02990758 0.0020995047 0.02275428 0.008201566
0001f0 82 40 78 3c 6e bb 26 3c aa 93 0e bd 4a d0 a5 3c
       0.015152099 0.010176523 -0.034808792 0.020240922
000200 f6 4d 4e 3c a3 6d b1 3b 82 7c 82 3a 27 32 c9 3c
       0.0125918295 0.005414681 0.0009955319 0.024560047
000210 38 32 b0 3c 21 ad 8a 3c f6 f4 9a bc 76 25 b8 3b
       0.021508321 0.016928257 -0.018915635 0.0056197
000220 26 19 93 3c d2 2f 4d bc c4 16 14 3c bf 90 03 3b
       0.017956328 -0.012523608 0.009038631 0.002007529
000230 0e 9d ec bc 19 59 4c bc b8 9b 30 bc b7 dd 1c bc
       -0.028883483 -0.012472414 -0.010779314 -0.009574345
000240 95 97 a4 3c 13 36 33 3c 6c e5 86 3b 6f 5a 63 38
       0.020091811 0.010938185 0.0041167047 5.420524e-05
000250 dc 3e 24 3c 9d c8 16 bd a3 90 07 bd 14 30 0e bd
       0.0100247525 -0.036812413 -0.03309692 -0.03471382
000260 13 72 15 bc 7a 74 c8 bc 72 cc 11 b9 19 de dd 3c
       -0.009121436 -0.024469603 -0.0001390444 0.027083443
000270 57 95 02 bd c1 8c 89 3c b7 fc 31 3c 1f 95 2b 3c
       -0.031880703 0.01679075 0.010863475 0.010472565
000280 2c d3 07 bc 6d 77 da bc ac ce c2 bc 70 a1 f5 3c
       -0.008290093 -0.026668275 -0.02378019 0.029984206
000290 67 c7 a3 bb 9a bf 37 3c 62 55 7e bc 30 59 2e bb
       -0.004998136 0.011215115 -0.015523287 -0.0026603453
0002a0 f6 3c 68 3d ca 2a 28 bc 7f c9 88 3c 65 f5 03 3d
       0.056698762 -0.010264108 0.016697643 0.03221645
0002b0 4d 7f 5c 3b 6e 01 e6 3c ed 1d 01 3a 71 29 62 3c
       0.0033645213 0.028076854 0.0004925419 0.013803826
0002c0 3b 6f b9 bc 2c d4 8f bb 2e 92 bb 3c 17 e8 f7 3c
       -0.022636047 -0.0043893065 0.022896852 0.030262036
0002d0 f4 50 29 bd d8 41 93 3c 71 af e7 bb c7 90 3c 3c
       -0.04133697 0.017975733 -0.007070475 0.011509127
0002e0 47 9d f3 ba b5 f5 e2 3b c5 55 68 bc 3a 4d 63 3c
       -0.0018586301 0.006926263 -0.014180605 0.013873393
0002f0 25 7c 03 3c 58 4d 42 3c 43 2d 2d bc 59 8f 02 3d
       0.008025204 0.0118592605 -0.010569873 0.03187499
000300 df 97 55 bc 61 45 f4 3c ca 50 50 3c 6c 6a f9 bb
       -0.013036697 0.029818239 0.012714574 -0.0076115634
000310 3d 27 42 bb b7 d9 16 3c 23 bf 21 3b c1 a1 07 bc
       -0.0029625439 0.009207181 0.0024680577 -0.008278311
000320 f3 48 d1 bb 27 c3 71 bc 6a 7e ba bb 15 15 05 bb
       -0.00638687 -0.014756001 -0.0056913393 -0.0020306755
000330 9f 37 bc bc 76 61 9c 3b a1 6b 46 bc 33 14 f4 ba
       -0.022975741 0.0047723604 -0.012110622 -0.0018621742
000340 ed 0b 2b bd f9 79 c0 3b 1d b8 46 bc a4 52 48 bd
       -0.04175942 0.0058739153 -0.012128857 -0.048906937
000350 90 ba 70 3c c7 4b 82 bc 52 d7 ad 3b 9e bb 82 3c
       0.0146929175 -0.015905274 0.005305209 0.015958603
000360 c1 d7 da 3c ff de d6 3c c8 c2 fd bc 43 55 83 3c
       0.026714208 0.02622938 -0.030976668 0.016031867
000370 dd 2e d9 3c d3 51 61 bd 25 e7 dc 3c 61 2a 34 bc
       0.026511604 -0.055009674 0.026965687 -0.010996432
000380 22 10 60 bc e2 50 29 bd 5e 3e 22 3d 7e 05 95 3c
       -0.013675721 -0.0413369 0.03961026 0.018191095
000390 5c 80 c3 bc fe 48 37 bc c8 a3 99 bc 70 39 55 3c
       -0.023864917 -0.011186836 -0.018754855 0.013014182
0003a0 c2 f5 a2 bc 42 16 4e 3c 7e 08 42 3c 05 68 06 3c
       -0.019892577 0.012578549 0.011842845 0.008203511
0003b0 9f bc 03 3d b5 80 8a 3c c5 04 de 3c b0 e8 60 3c
       0.032162305 0.016907075 0.027101884 0.013727352
0003c0 2c b9 79 3c 05 e1 ba bb 1d 23 8d 3c ef 04 bf bb
       0.015241902 -0.005703094 0.017228657 -0.0058294456
0003d0 e9 5d 6a ba 26 a1 2f 3c 13 e5 7d bc 22 87 28 ba
       -0.00089403853 0.010719573 -0.01549651 -0.0006428828
0003e0 c5 4f c1 bc a1 2f 94 bb 08 66 2c 3d fa 02 06 3d
       -0.023597607 -0.0045222794 0.042089492 0.032717682
0003f0 02 ec 32 3c 28 dc 8f bb 63 4d 6a 3c 07 c0 f6 b8
       0.010920526 -0.0043902583 0.014300677 -0.00011765962

chords_tempNet.convT_in.bias f4 [1024]
000000 61 6b b3 3a 6e 42 40 3c 5d 2d ac bb c5 d6 85 3c
       0.0013688618 0.011734588 -0.005254431 0.016337762
000010 4c b9 5b 3c 12 fd 33 3c 62 9d af 3a 77 c2 0f 3c
       0.013410877 0.01098563 0.0013398344 0.008774391
000020 8c 7d 01 bc 83 4f 08 bc a3 7b 15 bc f5 f5 09 bb
       -0.007903468 -0.008319738 -0.009123716 -0.0021051143
000030 1b c1 5f bb b4 ff 15 bc 05 6d 60 bb dd 22 b4 bc
       -0.00341422 -0.009155203 -0.0034244668 -0.02198928
000040 b2 e6 83 bc e7 dc 8c bc 8c 0d 05 bc e4 cd 18 bc
       -0.016101215 -0.017195178 -0.008120906 -0.009326432
000050 80 9e b0 b9 19 bd 84 3c 93 76 a8 bc 49 8f 9e bb
       -0.00033687428 0.01620345 -0.020564353 -0.0048388583
000060 a6 8e c3 bb fb 60 c6 ba a1 7f 3b bc 47 cc a3 3c
       -0.0059679328 -0.0015135104 -0.011444003 0.019994868
000070 48 15 69 3c 4b 96 b2 3c 58 4d ea 3b 7b 60 3c 3c
       0.014226265 0.02180018 0.0071503334 0.011497612
000080 08 26 88 bc 03 cb 44 bb 24 b8 0b 3b 9b 20 13 3c
       -0.016619697 -0.003002823 0.0021319473 0.008979942
000090 a5 6f 40 3c 3b f5 6e 3c 3f 6b 82 bc 85 fd 88 bc
       0.011745368 0.014584835 -0.01592028 -0.01672245
0000a0 e4 c9 2e 3c ef 22 45 bc d3 28 b2 bc cb e2 ad 3c
       0.010668252 -0.012032255 -0.021747982 0.021226307
0000b0 23 06 ba 3b 32 0c 0b 3c 1b 5a f6 39 87 f8 63 bc
       0.005677001 0.008486794 0.0004698791 -0.013914234
0000c0 19 6e 87 bc 16 90 4b 3c 00 b3 98 3c 95 18 39 3b
       -0.01653199 0.0124244895 0.018640041 0.0028243412
0000d0 cc 61 92 bc f2 68 30 3c 52 3c 1e 3c 23 3e 4a 3c
       -0.017868899 0.010767208 0.009657936 0.012343916
0000e0 e6 77 13 bb 0a fa a2 bb 43 40 31 3c 52 95 78 3b
       -0.0022501885 -0.0049736546 0.010818544 0.0037930799
0000f0 c9 9b 9c 3c 22 c6 9e 3c 13 1a 4d 3c 00 36 06 bc
       0.019117253 0.019381586 0.012518424 -0.008191586
000100 cf a6 3e bc b2 b0 9f 3c d6 ee 39 bb 28 a9 6c 3b
       -0.01163645 0.019493435 -0.0028371117 0.0036111567
000110 df 3c ec bb af 55 08 bb b6 78 66 3b e3 db 80 bc
       -0.007209405 -0.0020803025 0.0035167164 -0.01572985
000120 65 ef b4 bc e9 d3 e5 bb f5 6f 98 3b 6d 8a 99 bb
       -0.022086808 -0.007013787 0.004652018 -0.004685691
000130 80 24 b4 bc f7 71 77 bc 76 84 73 3c 28 2f 2f bb
       -0.02199006 -0.015102855 0.014863124 -0.0026730988
000140 d5 4e 74 3c 2a 8a 53 bc 7f 38 73 bc be 26 dd bb
       0.014911373 -0.012911359 -0.014845013 -0.006749003
000150 38 e9 31 3c 0c 00 21 bc ea a2 98 bc 6b fe 93 3c
       0.010858826 -0.009826671 -0.018632371 0.018065652
000160 e3 b7 2f bc c6 43 75 bc 60 c1 b1 bc d9 51 f8 3b
       -0.010724994 -0.014969772 -0.021698654 0.0075781164
000170 5e b0 85 bc 4c 7d 84 3c 1b 75 96 3c 5b ac 85 bc
       -0.01631945 0.016173027 0.018366387 -0.016317537
000180 20 6e 82 3c 42 90 93 bc 0e 20 a6 3c 0c e3 26 3c
       0.015921652 -0.018013123 0.020278957 0.010185968
000190 97 2e 10 3c fe ea c0 bb 15 28 3d 3c 99 8b 9e bc
       0.00880017 -0.0058873883 0.011545201 -0.019353675
0001a0 b7 a8 ce 3b 43 58 aa bb c4 24 7e 3c 1f 66 6d bc
       0.0063067335 -0.00519851 0.015511695 -0.01448968
0001b0 94 2f 9e bc 86 2c ef 3b 72 4d ed 3a 09 37 a2 3c
       -0.019309796 0.007299009 0.0018104746 0.019801633
0001c0 f9 f0 a0 3b 4e 77 48 3c 84 02 42 3c 99 5f 73 3c
       0.0049115387 0.012235476 0.01184142 0.014854335
0001d0 a4 3d 12 3b 61 f0 21 bc 65 09 45 3b 8a 01 73 3c
       0.0022314573 -0.009883971 0.0030065414 0.01483191
0001e0 74 04 37 3c ce 56 48 bc ed e4 68 3a d3 c0 28 39
       0.011170495 -0.012227727 0.000888421 0.00016093561
0001f0 65 07 97 3b c2 5b 1f bc be fd 25 3b a0 42 9c 3c
       0.004609036 -0.009726467 0.0025328244 0.019074738
000200 1d 40 e1 3b b8 6c 2a 3c 2d 3a 54 bc 84 e9 25 bb
       0.006874098 0.010401897 -0.012953323 -0.0025316188
000210 23 18 8a 3c 84 9b 09 bc 30 6f 4f bc 40 51 94 3b
       0.016857212 -0.008398894 -0.0126607865 0.0045262873
000220 ba 1f b5 ba f1 56 9b 3c b2 ce 15 3c 17 a7 92 3c
       -0.0013818659 0.018962355 0.009143518 0.01790194
000230 bd 96 2f 3c 76 14 9f 3c f4 c3 3d bc 22 02 01 3c
       0.010717091 0.019418936 -0.011582363 0.007874044
000240 15 d5 3d bc 5e 06 1b bc 7e c9 a4 3c fc 98 ca 3b
       -0.011586447 -0.009461967 0.02011561 0.006182788
000250 4e a1 99 3c c9 89 4d 3c 0e 3c 4c bb a5 a2 4a bc
       0.018753674 0.012545058 -0.0031163725 -0.012367879
000260 66 e6 9a 3c 67 1b 12 bc 4c 20 43 3c 50 47 80 bc
       0.01890869 -0.008917666 0.011909556 -0.015659004
000270 7e 48 31 bc cc 25 a1 bc 2b c1 63 bc f4 cf 81 bc
       -0.010820506 -0.019671343 -0.013901035 -0.01584623
000280 39 12 23 3c 7b 3d 2c bb a3 67 8e bc 11 f0 95 3c
       0.009953075 -0.0026281762 -0.017383402 0.01830295
000290 2a 73 3d bc 33 47 a2 3c cd 76 f5 3b 10 18 8e bc
       -0.011563102 0.019809341 0.007490969 -0.017345458
0002a0 14 b3 5d bc 1f 82 ca 3a 5c 56 04 bc 0d b0 ce bb
       -0.013531465 0.0015450156 -0.00807723 -0.006307608
0002b0 eb d0 b9 b9 77 08 29 bc 8b a5 27 3c a1 ee 03 bb
       -0.00035441606 -0.01031696 0.01023234 -0.0020131248
0002c0 a9 c9 e1 bb b9 0a 8c 3c da 58 59 bc c0 ad a9 3b
       -0.006890495 0.017094957 -0.013265813 0.0051781833
0002d0 75 38 5a 3c c4 f3 5c 3c f5 85 5a 3c 52 36 cd bb
       0.0133191245 0.013485853 0.013337602 -0.006262579
0002e0 5b 4a 17 bc a5 cd f4 3b 5f d1 6c bc 94 08 0e 3c
       -0.009234036 0.007470804 -0.014454215 0.008669037
0002f0 1a 28 a3 bb 24 44 9e 3c 33 94 8e 3c ee f4 e3 ba
       -0.0049791457 0.019319601 0.017404651 -0.001739172
000300 84 81 07 bc 31 3b b2 bc 28 ba 8e 3b a4 05 a5 3c
       -0.008270625 -0.02175674 0.0043556876 0.020144291
000310 dc 6a 82 bb 28 bc 9a bb d4 31 62 bc b5 fb 83 3b
       -0.003980024 -0.004722137 -0.013805825 0.0040278086
000320 38 f0 ad 3c 79 0a b2 3c 9b 75 2a 3c fd 13 92 ba
       0.02123271 0.02173351 0.010404016 -0.0011144873
000330 97 38 5c 3c 1b 68 bc 3b 7b ae 21 bb 07 9a 96 3c
       0.013441226 0.005749715 -0.002467065 0.018383993
000340 3b ab 0c 3c cd 27 d3 ba 22 70 94 3c 70 92 50 3c
       0.008585746 -0.0016109884 0.018119875 0.012730226
000350 8e d2 6a bc 2c 65 0b 3b 3b 9d 1a bc 0c 61 a5 bc
       -0.014332427 0.002127002 -0.009436901 -0.020187877
000360 60 43 18 bc 6e 2f 7f 3c 5e f6 16 bc 0f 6d 8c 3c
       -0.009293407 0.015575273 -0.009214012 0.017141847
000370 9d 19 7d bb 70 26 67 bc 65 d9 5b 3c b5 6c b4 bc
       -0.0038620003 -0.014108285 0.01341853 -0.022024492
000380 3a db 4e 3c 56 c5 5e bc 53 d5 aa 37 0a bb b8 3b
       0.01262551 -0.013596853 2.0364916e-05 0.005637531
000390 bb 03 67 bc 6e 12 74 bc e3 0e 92 bb 2e 8c 64 bc
       -0.0141000105 -0.014896972 -0.004457341 -0.013949437
0003a0 06 a4 01 3c ff 39 1a bc 68 10 38 3c df cd 26 3b
       0.007912641 -0.009413241 0.01123438 0.0025452299
0003b0 a2 ba 0e 3a 9a 07 a1 bc 13 4e 26 3c 95 c5 9b bc
       0.00054446806 -0.019656945 0.01015045 -0.019015113
0003c0 09 5d 6e 3c b8 06 b1 3c 86 bf 9c 3b 58 48 96 ba
       0.0145485485 0.021609649 0.0047835736 -0.0011465652
0003d0 9e ff 76 bc 2b 04 5c 3c 78 6b 2e 3b 37 f2 57 bc
       -0.015075592 0.013428728 0.002661435 -0.013180307
0003e0 a2 de 9e 3c aa e6 d5 3a e6 01 b0 bc 36 69 28 bb
       0.019393269 0.0016319354 -0.02148528 -0.0025697476
0003f0 13 07 19 bc 2a 70 51 3c 94 36 07 3a 7e e3 88 3c
       -0.0093400655 0.01278309 0.0005157974 0.01671004

chords_tempNet.convT_out.weight f4 [1024, 32, 1, 1]
000000 54 07 fd 3a 66 5b 32 3c 65 07 62 bc 3d fe da bc
       0.0019304552 0.010886049 -0.013795708 -0.026732558
000010 43 e9 8c bb 4d ad 2f 3c ea a5 cc 3b 3d ba 52 3d
       -0.004300268 0.0107224705 0.0062453644 0.051447142
000020 27 ab b3 3a ce cf 2b bc 40 24 d1 bb a3 bf be bc
       0.0013707624 -0.010486556 -0.006382495 -0.023284739
000030 c0 28 c4 ba 40 27 78 bb 6c 2e 31 bd 0d 55 bf bc
       -0.0014965758 -0.0037865192 -0.043257162 -0.023355985
000040 8f 51 a9 3c 61 37 5e 3c 6d 1a 01 bd df 72 e8 3c
       0.020668773 0.013563008 -0.031519342 0.028375087
000050 52 db 77 bc 4d 46 f7 bc b4 2e 6c 3c 53 b0 0b 3c
       -0.015127974 -0.03018489 0.014415432 0.008525926
000060 7a 44 1a 3d e8 95 66 3b fc bf 90 3c 07 05 91 3c
       0.03766296 0.0035184566 0.01766967 0.017702593
000070 2b 0e c9 bc 99 7f 80 3b d5 2e cf 38 d2 97 62 bc
       -0.024542889 0.003921461 9.879252e-05 -0.013830142
000080 fc 9a ef 3c 8d 70 56 ba 54 5c fe bc b4 e6 db 3c
       0.029248707 -0.00081802235 -0.031049885 0.026843406
000090 ce 7e 6e 3d d7 0c 71 3b a2 61 04 b8 c0 46 1e bc
       0.0582264 0.0036781335 -3.156218e-05 -0.009660423
0000a0 77 6c 14 bd 78 46 a5 bb 62 4a 18 3c b2 24 6f 39
       -0.036236253 -0.005043801 0.009295078 0.00022806486
0000b0 e3 b3 52 3c 8c bc 02 3b a7 08 fb 3c 1e 87 36 bc
       0.012860271 0.0019948808 0.030643774 -0.011140613
0000c0 db 21 77 39 3d 52 bf bb 2a 17 f3 bc b6 d8 35 bd
       0.00023568368 -0.005838661 -0.029674131 -0.044396125
0000d0 d1 8d d6 3a d7 c8 9a 3c 9c 98 e8 3b dc 86 92 bc
       0.0016369169 0.018894596 0.0070982706 -0.017886572
0000e0 8e 70 49 bb 7a bf aa 3c 06 f6 c3 3b f7 1a d6 bb
       -0.0030737254 0.020843256 0.005980256 -0.006533976
0000f0 8f 23 87 3c 00 10 5b 3c fe a6 58 3b 95 db b7 ba
       0.016496448 0.013370514 0.003305852 -0.0014027233
000100 56 68 18 3c 21 54 82 bc 3c b7 6a bc 16 40 7f bc
       0.009302219 -0.015909256 -0.014325913 -0.015579244
000110 cc 08 e0 3c af 80 fd bc dc 2b c7 3c 72 96 f7 3c
       0.027347945 -0.03094515 0.024312906 0.030223105
000120 d9 dd 2c 3c a2 dd 31 3c ca a4 14 3c 19 10 29 bc
       0.0105509395 0.010856064 0.009072492 -0.010318779
000130 67 f0 6e 3c 02 67 c6 3c d7 94 8c bc 9d 9f a2 3c
       0.014583684 0.02421904 -0.017160816 0.0198515
000140 4b 19 80 3b f0 db 4f bb dc 0e e0 3c a4 3f 7d 3c
       0.003909265 -0.0031716786 0.027350836 0.015457068
000150 2c b0 32 3d 1e 30 80 3c ae 49 ce 3c 26 67 9a 3c
       0.04362504 0.015647944 0.025181618 0.018848013
000160 ec 1a 80 3c af c2 dc bb 8a 5a 6d bc ba 89 ac bb
       0.015637837 -0.0067370753 -0.014486918 -0.0052654417
000170 71 49 d0 3b 49 86 01 3d 95 91 3c bc 59 a4 21 3c
       0.006356411 0.031622205 -0.011509319 0.009865844
000180 ff 5b c8 bc 72 1e 94 3c 54 57 42 3d a3 af 1c bc
       -0.02445793 0.018080924 0.047446564 -0.009563359
000190 68 15 ca bb e7 92 5e 3c e8 29 92 3c a5 1a e7 bc
       -0.0061671026 0.013584829 0.017842248 -0.028210947
0001a0 ef 0f bf 3b c8 69 f5 3c 0a 8b 07 bd b9 5b b5 bb
       0.005830757 0.029957667 -0.033091582 -0.005534616
0001b0 ca 69 be bb 61 31 0a bd dd 90 09 3b a5 b4 a8 bc
       -0.005810951 -0.033738498 0.0020990886 -0.02059395
0001c0 81 a3 4e bd 5b 88 18 3c 30 6e df 3b d2 5f b5 3c
       -0.0504489 0.009309853 0.0068185553 0.022140417
0001d0 d1 cc 19 bd 22 4b 7c bb 0b 25 41 bc 58 fb b6 3c
       -0.037548844 -0.003849693 -0.011788617 0.022336647
0001e0 5f c3 90 3b c3 8b 8b 3c d0 e8 b5 bc b6 69 80 3c
       0.0044178213 0.017034417 -0.02220574 0.015675407
0001f0 9c 76 37 bc 37 97 ea 3b e7 db fe bc 8d f0 47 3c
       -0.011197712 0.0071591395 -0.031110717 0.012203348
000200 ae 39 3d bc 61 98 a8 3b 03 d1 84 3c c3 d6 66 3a
       -0.011549396 0.005145118 0.016212946 0.00088058057
000210 cf ba 03 bc 76 0c 81 3c 10 c1 2a 3c dc 56 d8 3c
       -0.008040144 0.015753012 0.010422006 0.026408605
000220 d6 61 fa bc cf 9a 20 3c d4 fa 4a 39 50 cd 48 3d
       -0.03056423 0.009802534 0.00019357662 0.049023926
000230 67 80 22 3d 89 47 8a bc c1 8f 5e 3c f1 21 27 bb
       0.039673235 -0.016879814 0.013584078 -0.0025502408
000240 41 82 8f 3b 76 76 aa bb 35 2c c5 bc a3 8c 95 3c
       0.004379541 -0.00520211 -0.024068931 0.018255537
000250 f8 9b 29 bc 58 3e 18 3c 6e 9a 2b bc e8 ba d4 3c
       -0.010352127 0.009292208 -0.010473831 0.02596803
000260 8b 60 d9 3b 4f c4 75 bb 8d ca b3 bc 3e 46 45 bd
       0.0066338233 -0.0037501042 -0.02194717 -0.04816269
000270 62 c2 dc bc 4b b1 48 bc a9 ae a0 3b 83 23 01 bb
       -0.026948158 -0.012249301 0.0049036336 -0.0019705005
000280 f5 e9 ac 3c 52 1f b8 ba 32 bf 80 bc 8d 55 58 bd
       0.021107653 -0.001404742 -0.015716169 -0.052815963
000290 e9 fd 19 bd ba da 83 bb 3a 68 10 3c 54 94 85 bc
       -0.037595663 -0.004023877 0.008813912 -0.01630608
0002a0 c0 f1 c8 3c e6 bd 32 3c 4a cc aa bc 1e 1a c7 3c
       0.024529338 0.010909533 -0.020849366 0.024304446
0002b0 2e c9 7d bc 61 26 0e 3d 92 29 66 3c 04 f8 15 bc
       -0.0154898595 0.03470457 0.014047997 -0.00915337
0002c0 15 3c 70 3c 68 6c f5 bc 66 a0 24 3c e9 35 40 3b
       0.014662762 -0.029958919 0.010048008 0.0029329008
0002d0 23 3c b2 bb 09 1d 9b bc 50 bc 9e bc 60 79 2b 3b
       -0.0054392978 -0.018934743 -0.019376904 0.0026164874
0002e0 52 30 37 3c 7f 4d b1 bc 16 4d 8f 3c 2c c5 2b 3d
       0.011180954 -0.021643398 0.017492812 0.041936085
0002f0 b3 57 24 3b 4f f6 a8 3b 15 62 9d 3b 6a 3b 02 bd
       0.0025076687 0.0051563154 0.004802952 -0.031794943
000300 d5 e5 08 bc 42 4d 2c 3b d5 ae 98 3b 30 b2 66 3d
       -0.0083555775 0.0026291166 0.0046595135 0.056322277
000310 c3 1d 2f 3b 96 42 10 bd c0 70 9c 3c 01 95 1d 3c
       0.002672062 -0.03521975 0.019096732 0.009618045
000320 32 8d 01 bc ff c4 bc 3b bc 02 42 3d 9b cb be 3c
       -0.007907199 0.0057607885 0.04736589 0.023290446
000330 17 81 33 bc 02 c0 b4 37 5f 06 8f 3c 84 19 f0 3b
       -0.01095607 2.1547083e-05 0.017459093 0.0073272604
000340 6b c7 20 bc ab 42 c2 bc 4b 4a 96 3c 16 dc 69 3c
       -0.00981317 -0.02371343 0.018345973 0.014273664
000350 43 a1 da b9 8e a8 31 bd ae 03 12 bd 17 14 4d 3c
       -0.0004170035 -0.043373637 -0.03564804 0.012516997
000360 d6 c3 16 3c 93 8a 62 3b 91 7a a5 bc f1 b5 08 bd
       0.009201964 0.003456746 -0.020200046 -0.033376638
000370 8a c9 11 3d 26 54 e5 3b 84 90 07 bd d5 34 09 3c
       0.035592593 0.0069985567 -0.033096805 0.008374413
000380 9e 29 a8 bc c7 f3 f5 bc 6e 77 75 3c 77 3c 53 3c
       -0.020527657 -0.030023469 0.014982088 0.012892834
000390 66 be d1 3c d0 c0 f8 bb cb 47 f9 bc f4 1a e0 3c
       0.025603484 -0.0075913444 -0.030429741 0.027356602
0003a0 0b 37 d6 bc 1c ca eb bc 9a bd 2d 3b 15 74 bb bc
       -0.026149293 -0.028782897 0.0026510716 -0.0228825
0003b0 ef c3 0d 3b b1 8f 6d 3c 14 a9 9a bc dd df 81 bb
       0.0021631678 0.014499591 -0.01887945 -0.003963454
0003c0 0e bb f4 3b a1 8d f0 bc 2d 34 88 3c f7 c2 63 3c
       0.0074685877 -0.029364409 0.016626442 0.013901464
0003d0 62 5e 7b 3c 1e cb 1c 3c 1b 0c 7d bc f3 86 a2 3c
       0.015342327 0.009569911 -0.015444781 0.01983974
0003e0 eb f6 e0 3b fd f8 5a 3b 15 b1 15 3c 0f ff de 3c
       0.0068653724 0.0033412569 0.009136458 0.02722123
0003f0 24 a6 3a 3d 50 d0 9f bc 07 9e f7 39 ee 19 b4 bc
       0.0455686 -0.01950851 0.0004722925 -0.02198502

chords_tempNet.convT_out.bias f4 [32]
000000 1e 36 2b 3e f5 f3 f5 bd 55 19 68 bc 0b 94 d6 bd
       0.16719863 -0.12009422 -0.014166196 -0.10477456
000010 a3 da 11 be 25 12 b3 bb 73 0c 14 bd c8 79 1b 3e
       -0.1424356 -0.0054648095 -0.036144685 0.15183175
000020 ec 13 6b 3c 16 8b d0 bd 07 68 12 be 6a 57 72 bd
       0.014348011 -0.101827785 -0.14297496 -0.059165396
000030 fb 80 84 bd 3c a0 ca bd 49 32 03 3e cd 31 17 3e
       -0.064699136 -0.098938435 0.12812151 0.14765091
000040 da f2 03 bd 37 51 af 3d c6 46 96 3c 6e 83 14 bd
       -0.032214023 0.085604124 0.018344294 -0.036258154
000050 48 18 c0 bd 6f 3d 0d be 7e e3 2c be 63 0a 4c 38
       -0.09379631 -0.13792966 -0.16883656 4.8647064e-05
000060 1d b9 00 be aa cc 12 3b cd 7d 02 3e 65 09 d7 3d
       -0.12570615 0.0022399821 0.12743302 0.10499839
000070 f8 22 80 bd b2 99 0c be d6 4a 35 bc 80 72 cf 3d
       -0.0625667 -0.13730505 -0.011065206 0.10129261

chords_tempNet.batchnorm_1.weight f4 [1024]
000000 0f 8e a3 b9 a5 c2 80 bb 9a 83 72 bd fe 4e a2 3b
       -0.00031195625 -0.0039294534 -0.059207536 0.0049532643
000010 78 68 ec 3c 9a fe 5f bc 4a 46 02 3d ed 71 83 bc
       0.028858408 -0.013671542 0.031805314 -0.016045535
000020 ac ca 56 bc 81 15 52 3c e4 5d f6 bc 73 37 b4 bb
       -0.013109844 0.01282251 -0.030074067 -0.005499774
000030 fa f7 2e 38 2b 45 00 bc 96 5c 48 3c aa da 2a bc
       4.171578e-05 -0.007828991 0.012229105 -0.01042811
000040 b0 0a 85 3c 45 d9 62 bc 98 a4 8c ba 5c d9 7f bb
       0.016240448 -0.013845746 -0.0010730205 -0.0039039468
000050 d0 4e 0d bd 81 7d 00 bd 4e db d7 bc 85 55 74 35
       -0.03449899 -0.03136969 -0.02634969 9.102153e-07
000060 5a d8 f4 bc 3f 3c ed bb cd 4a 28 3c 5e 99 28 bc
       -0.02988832 -0.007239848 0.01027174 -0.010290472
000070 9a 2b 8c 3c 0f 99 fe bc 54 8f 86 bc d9 c0 d1 bc
       0.017110635 -0.031078843 -0.016425766 -0.025604652
000080 2e ce be bc f7 ba 0d bd 5a 47 91 bc 52 85 8d bc
       -0.023291674 -0.03460213 -0.017734218 -0.017275486
000090 5a e9 8b 3c 10 d0 c7 bb 75 8d b5 3c 58 f8 19 bc
       0.017079044 -0.006097801 0.022162179 -0.009397589
0000a0 82 c4 f9 3b 64 07 dc bc 02 98 06 bd 35 e7 9f bb
       0.0076223025 -0.026858993 -0.03285981 -0.004879857
0000b0 53 21 d4 b8 1a 0e 11 39 18 70 18 3c 94 fd 16 bd
       -0.00010115155 0.00013833531 0.009304069 -0.036862925
0000c0 9a 16 8c bb 84 83 0c bd fd 5f b9 bc b5 75 ca bc
       -0.0042751553 -0.03430511 -0.022628779 -0.02471433
0000d0 20 47 07 bd f8 ab 2d 3c 3f c6 51 3d b6 de 1d bc
       -0.033026814 0.010600083 0.051214453 -0.009635618
0000e0 fa 6f 06 3c 03 b8 a0 3c 67 8f 38 3c 20 ea f2 bb
       0.008205408 0.019618994 0.0112646585 -0.007413164
0000f0 b3 89 8e bb bb 24 bc 3c 1f 56 79 bc 66 4b da 3c
       -0.004349911 0.022966733 -0.015218287 0.02664728
000100 6f 0e c3 39 1c b2 51 3c 90 d5 07 3c f7 89 9b 3c
       0.00037204052 0.012798812 0.008290663 0.018986685
000110 66 94 73 39 e7 30 b3 bc 1f 0b 0b bc 65 b7 06 39
       0.00023229569 -0.021873904 -0.008486538 0.00012847556
000120 e5 44 d7 3c 6c f7 1b bc 11 09 92 bc 12 c7 d0 3c
       0.026277969 -0.009519439 -0.017826589 0.02548555
000130 0d fb 38 bc 46 95 cf bb e9 92 ca bb 6f 88 a7 bc
       -0.011290324 -0.0063349335 -0.006182064 -0.020450799
000140 94 81 b5 ba 20 b0 38 3c 16 61 b7 3c 87 eb 4c 39
       -0.0013847821 0.01127246 0.022385161 0.00019542697
000150 3c 84 e8 bc 52 42 39 bd 44 41 8c bc 82 d2 91 3c
       -0.028383367 -0.045229264 -0.017120965 0.017800573
000160 20 92 a5 bc c4 f7 dc 3b c0 c7 a8 bb fd a8 0f bc
       -0.02021128 0.006743403 -0.005150765 -0.008768317
000170 c2 f9 a3 3c b5 4d 76 bc 09 78 bb bb b0 74 91 3b
       0.020016555 -0.015033175 -0.0057210964 0.004438959
000180 2e 87 da bb 57 09 d5 bc 89 8e c7 bb 46 ac 44 bc
       -0.0066689467 -0.02600543 -0.0060899896 -0.012003964
000190 d6 8e 27 b9 46 de a4 3c 13 b5 a0 3b 51 b2 0e 3c
       -0.00015979572 0.02012552 0.004904398 0.008709506
0001a0 5c 41 b7 bc c3 40 2e 3c 93 96 9c 3c a6 28 86 3c
       -0.022370033 0.010635558 0.019114768 0.016376805
0001b0 73 90 50 3c 78 df ee 3b 1d f4 9b bc b3 6c 9f 3c
       0.012729752 0.007289823 -0.0190373 0.019461012
0001c0 62 d3 a6 bc b4 2e 0f 3c 18 26 e4 bc 15 ca 41 b9
       -0.020364467 0.008739162 -0.027850196 -0.00018481196
0001d0 d5 d1 34 bc 4c e1 38 3d b3 b9 4b 3d e4 b7 f4 3b
       -0.011036356 0.045136735 0.049737643 0.0074682105
0001e0 21 60 ed bc 67 71 d5 bb 1f 46 96 3b 2f f9 ad bb
       -0.028976502 -0.0065137628 0.004585996 -0.005309246
0001f0 39 10 3e 3c 33 89 7f bc ae b8 90 3c 8b 0f 9a bb
       0.0116005475 -0.015596676 0.017666187 -0.00470156
000200 57 e3 a6 3c d7 2e 1a bd 9d 98 e2 bc 53 ad 0d bd
       0.020372076 -0.037642326 -0.027660662 -0.034589123
000210 41 86 c2 3c 51 cb 4d 3c bf 7b d1 b7 21 18 ef bc
       0.023745658 0.012560681 -2.4972365e-05 -0.02918631
000220 ec 80 b8 3b 65 a5 d6 3b 57 00 fd 3c 92 07 1b 3d
       0.005630603 0.0065504783 0.030883951 0.037849016
000230 44 26 59 3c 20 6c 24 bb 94 9f 81 3c 67 1c 1d 3d
       0.013253752 -0.0025088862 0.015823163 0.038357165
000240 8e fa f2 bc 1d 50 af bc ea bd 06 3d 81 b1 f5 3c
       -0.02966049 -0.021400506 0.03289596 0.029991867
000250 30 bb a4 bc e7 70 50 3c 01 fc 4a bc d6 4e ea bb
       -0.02010879 0.0127222305 -0.012389184 -0.0071505113
000260 a0 20 4f 3c 26 bd 9a 3c 54 1d 9c 39 a8 fc 65 bc
       0.012642056 0.018889021 0.0002977649 -0.014037289
000270 13 39 d3 3c 66 47 49 3c df 1b 9e 3c 18 26 d6 bb
       0.025784051 0.012285089 0.0193004 -0.006535303
000280 58 d8 7e 3c 67 db 3e 3c 6f ce f5 3c c8 8f 01 3c
       0.01555451 0.011648989 0.030005662 0.007907815
000290 77 42 5b bd 56 d4 85 bc 4b 9f 63 3c fe be 1c 3c
       -0.053530183 -0.016336601 0.013892959 0.00956702
0002a0 e7 1f a5 bb 7d af 7c bb ec f9 ac 3c 5e 40 15 3d
       -0.0050392034 -0.0038556748 0.021115266 0.03643834
0002b0 a1 4d 95 b8 de 42 ea bc 1f b6 2d bd f4 da 4a bc
       -7.119333e-05 -0.028596338 -0.042410012 -0.012381304
0002c0 ac f8 46 3c 4e 34 f5 3b ce 0b 97 39 80 b6 c5 ba
       0.012144249 0.007483042 0.0002880976 -0.0015084296
0002d0 a6 68 f1 bc 56 9d 8a bc a8 76 c6 bc 2a 8a 91 bc
       -0.029468846 -0.016920727 -0.024226502 -0.017766077
0002e0 01 72 59 ba 27 1a ce 3b 38 89 28 3c 86 3f 36 bc
       -0.0008294881 0.0062897387 0.010286622 -0.011123544
0002f0 8c 8d 50 3c f3 0f 83 bc 9e e9 61 3c dc e4 35 bc
       0.01272906 -0.015998816 0.013788609 -0.011101928
000300 a6 be ac bc e4 48 5b b9 1e 50 25 3d 71 4b 8d bc
       -0.021087002 -0.00020912621 0.04035961 -0.017247887
000310 61 86 cc 3c 90 4c bc bc 60 fd 63 38 4b 38 91 bc
       0.02496642 -0.022985727 5.435699e-05 -0.017727038
000320 cd 9e 40 bc c2 84 bc 3c b7 62 6c bc bb 4a 1e bb
       -0.011756611 0.023012523 -0.014427832 -0.002415343
000330 07 10 58 bc ff d9 e0 3c 12 c6 99 3c a0 4c 43 bc
       -0.013187415 0.027447699 0.018771205 -0.011920124
000340 b2 f9 14 bb 55 77 3a 3c 2d 37 f9 3b 91 d7 1e bc
       -0.0022731838 0.01138099 0.0076054544 -0.00969495
000350 30 37 2d 3c 3e 59 c5 3c 19 db 3b bc c7 79 f8 b9
       0.01057224 0.024090406 -0.011465811 -0.00047392977
000360 6b 81 b4 3c 65 7a 04 3d 15 83 84 bc 9f 42 e3 bc
       0.022034368 0.032343287 -0.016175786 -0.027741728
000370 2a 85 a0 3c b0 5e 9e 3b 08 92 88 3c 01 30 8b bc
       0.019594748 0.004833065 0.016671196 -0.016990663
000380 5f a1 2d bd 5f ed 1b bc 4f f7 3c 3d dc e7 8c bc
       -0.042390224 -0.009517043 0.04613429 -0.017200403
000390 25 9e b6 bc 4c 7e 01 bd 15 ca 98 3b a6 53 02 3c
       -0.022292206 -0.031614587 0.004662762 0.007954514
0003a0 86 44 54 bd 2c 27 87 bc e8 80 fb 3b da 0f fb bc
       -0.05182316 -0.01649817 0.007675279 -0.030647207
0003b0 77 43 a5 3c 1e 3f e3 bb 10 34 1a 3d 2d 11 c1 bc
       0.020173771 -0.0069350144 0.037647307 -0.02356776
0003c0 d6 10 df 3c 82 b6 10 3b 29 aa a6 bb 02 b4 fc bc
       0.027229708 0.002208144 -0.0050862026 -0.030847553
0003d0 02 33 24 bd ea 7a d8 ba ae f8 b5 3c 27 9a a7 bc
       -0.040087707 -0.0016516123 0.022213306 -0.020459248
0003e0 4a a7 0a b9 24 a3 83 bc f8 77 b3 3b 4b 4f d8 3c
       -0.00013223026 -0.016069002 0.005476948 0.026404997
0003f0 e6 9d ec bb c6 63 7d ba 57 2a d0 bc 16 17 9f 3c
       -0.0072209714 -0.00096660515 -0.025410814 0.019420188

chords_tempNet.batchnorm_1.bias f4 [1024]
000000 d3 0f ee 39 93 42 41 3b 04 8a 70 3b f4 69 21 ba
       0.00045406687 0.0029489144 0.0036703357 -0.0006157451
000010 88 c1 00 3b 0f 51 26 bb 50 1b ae 3a d4 d2 df ba
       0.0019646604 -0.0025377905 0.0013283286 -0.0017076381
000020 00 b3 41 3a f1 fa d4 39 d9 1f c5 39 74 2a 40 3b
       0.0007389039 0.00040622757 0.00037598496 0.002932218
000030 81 e5 8f b9 9b 43 00 3b 3e 06 81 ba a0 ee ea ba
       -0.0002744608 0.0019571546 -0.0009843779 -0.0017923899
000040 0b e1 d3 b8 fc 7e 82 3b 45 9c 5e bb ca 8a e9 38
       -0.000101031816 0.003982423 -0.0033967656 0.00011136157
000050 b7 06 ec ba e6 a0 62 39 11 0b 9a 3b c0 94 35 b9
       -0.0018007372 0.00021612979 0.0047010262 -0.00017316919
000060 67 b8 49 bb 1e 43 9d ba 88 1e 9a 3a cf 7e a7 3b
       -0.0030780078 -0.0011998152 0.0011758367 0.0051115523
000070 0e 50 bd ba 5a 5c d7 b9 d0 cf 3c ba e9 93 91 36
       -0.0014443414 -0.00041076803 -0.00072025973 4.3385558e-06
000080 cb bf fe 38 c9 71 a2 ba cd a1 f2 37 61 85 b5 39
       0.00012147388 -0.001239353 2.8923992e-05 0.00034622385
000090 e6 8e eb ba b1 57 1f bb 87 99 36 bb a0 ed 66 ba
       -0.0017971664 -0.0024313743 -0.0027862506 -0.00088092126
0000a0 a2 a7 bf 39 b6 31 9f ba d9 47 5e 3b 8d 52 65 ba
       0.00036555255 -0.0012145552 0.0033917336 -0.0008747958
0000b0 04 98 48 ba 29 76 45 ba 06 38 06 ba a0 6d dd 39
       -0.00076520466 -0.0007532561 -0.00051200425 0.00042234082
0000c0 e2 d8 d0 3a 83 41 6d 3b c1 16 0a ba b1 ef a5 ba
       0.0015933777 0.0036202378 -0.0005267673 -0.0012659935
0000d0 58 1b 80 3b 94 50 90 ba 09 e9 ac 39 4d a2 70 ba
       0.0039095096 -0.0011010342 0.0003298002 -0.0009179458
0000e0 05 d5 a4 ba 51 39 8e 3a 8d eb 80 bb 39 5d d1 3a
       -0.0012575692 0.0010850822 -0.00393433 0.0015973217
0000f0 f3 fe e3 b9 d8 73 4b 3a 67 f0 e4 39 bb bc 4b b9
       -0.00043486766 0.00077610975 0.00043666663 -0.00019429896
000100 cc d2 00 bb 80 80 eb 3a 15 d6 cc ba e6 fb 4c ba
       -0.0019656895 0.0017967373 -0.0015627766 -0.0007819518
000110 14 dc 78 ba 0d 54 a8 ba 73 51 fb 3a f8 9a 2a ba
       -0.00094932434 -0.0012842432 0.0019174054 -0.00065080775
000120 a0 4f b6 3a 30 90 78 3a 87 a0 f3 39 27 4a 0d ba
       0.0013909228 0.0009481935 0.00046468174 -0.00053897727
000130 d6 ab f3 ba a8 e7 34 3b f8 1a f0 38 9e 82 67 ba
       -0.001859064 0.0027603898 0.00011449115 -0.0008831414
000140 50 47 d2 ba 43 6f 0a 3b 77 4b e4 36 7e 2d 86 ba
       -0.0016042981 0.0021123446 6.8037148e-06 -0.0010236946
000150 89 b1 07 bb 8f 2b ce 39 71 55 bd b9 03 b0 01 ba
       -0.0020705184 0.00039323836 -0.00036112548 -0.0004947187
000160 ab eb 98 ba 03 c3 c3 3a a8 eb fd 3a be 3d 69 3b
       -0.0011666914 0.0014935437 0.0019372599 0.003558978
000170 65 52 bf 38 9a 09 e6 ba d3 b4 c2 ba 4d 81 bc 3a
       9.122937e-05 -0.0017550469 -0.0014854915 0.0014381796
000180 24 cf 3d bb ee 82 8c b9 b6 9b 5a bb 79 8d d2 3a
       -0.0028962577 -0.0002680043 -0.003335697 0.0016063891
000190 bd 5b 15 bb c0 e5 cc ba 02 dc b0 3a 79 1b ac ba
       -0.0022790276 -0.0015632436 0.0013493302 -0.0013130746
0001a0 58 3d 37 bb 30 f1 1b 38 5f af a4 3a 0f f8 b0 3a
       -0.0027960148 3.7179503e-05 0.0012564472 0.0013501662
0001b0 b9 c4 2c 3a 52 05 2c 3b 60 25 06 ba b6 44 4a 38
       0.0006590593 0.0026248288 -0.00051172636 4.8224545e-05
0001c0 1b c7 18 39 e3 22 8f ba cf fe 60 3b f4 d6 75 ba
       0.00014570022 -0.0010920431 0.0034331565 -0.0009378039
0001d0 d2 a9 db ba 61 c8 8b 3b 3b a5 29 3b cf 1d a0 3a
       -0.0016758984 0.0042658304 0.0025885839 0.0012215915
0001e0 25 c3 c4 39 6b 0f 68 b6 8a 2f 86 3a c3 d1 31 bb
       0.00037529427 -3.4579668e-06 0.0010237556 -0.0027133084
0001f0 0a 56 f6 b9 26 47 1d 3a d7 a8 30 3b ca 85 02 bb
       -0.0004698488 0.00059996767 0.0026956105 -0.001991617
000200 5c 06 6b 3a 75 51 6b 3a 2f a5 7a ba c4 96 b7 3a
       0.0008965486 0.00089766766 -0.00095613574 0.0014006724
000210 4a 94 3b 3b 55 91 a1 b9 02 c4 5c ba a2 d1 89 38
       0.0028622323 -0.00030816594 -0.00084215414 6.571716e-05
000220 0c a3 3c 3b 90 3f 04 3a 78 20 d8 b9 07 c6 16 ba
       0.0028783707 0.0005044872 -0.00041222922 -0.0005751554
000230 da 05 1a ba bd 8e 9f ba 7d 13 3c 3b 2f 8b 40 bb
       -0.0005875506 -0.0012173277 0.002869814 -0.0029379835
000240 8d 01 13 3a 20 d8 19 bb bd b1 49 ba c4 8d 52 b9
       0.0005607836 -0.0023474768 -0.00076940266 -0.00020079972
000250 7b e3 f7 3a 9c b9 28 ba c5 5b 3a bb 9c 3c 7a ba
       0.0018912399 -0.00064363494 -0.0028436047 -0.00095457747
000260 8f 5f e1 ba 83 83 69 ba ae a0 2c bb ae 07 04 bb
       -0.0017194616 -0.00089078414 -0.002634089 -0.002014618
000270 c9 90 c7 3a 56 98 00 3a 46 47 50 bb 00 9b 6c ba
       0.0015225644 0.00049055123 -0.0031780764 -0.00090257823
000280 df ca 6d b8 be 38 1c ba 92 08 b7 3a 7b 3b a1 ba
       -5.669414e-05 -0.0005959383 0.0013964346 -0.0012301052
000290 d5 a2 79 3b 2e eb 18 bb bb 52 34 ba 2d 1c ef ba
       0.003809144 -0.0023333537 -0.0006878783 -0.001824265
0002a0 9e 29 47 3a 1c ef a8 3a 97 fa aa ba 10 5d f8 ba
       0.0007597449 0.0012888643 -0.0013044652 -0.0018948633
0002b0 da 07 c2 b9 ee aa cd 3a ac fd 4b 38 32 83 e1 ba
       -0.00037008413 0.00156912 4.8635222e-05 -0.0017205237
0002c0 1f 3d cb b9 a7 53 7f ba 5c 47 8e 3a 91 60 60 39
       -0.00038764716 -0.0009739943 0.0010855007 0.00021398278
0002d0 fc ba cb ba b9 a4 84 39 84 3e ca ba 30 63 a7 3a
       -0.0015543397 0.0002529973 -0.0015430008 0.0012770649
0002e0 3f ca 5f bb 93 ea c5 3a e0 5a d5 b9 f2 cf ed 3a
       -0.0034147648 0.0015099816 -0.00040694233 0.0018143638
0002f0 0a 8f 0f bb 3d 7e a9 b7 40 d2 db 39 89 68 0f ba
       -0.0021905326 -2.0205154e-05 0.00041927584 -0.0005470594
000300 fa a5 ae b9 0e c2 74 ba 3c 67 74 ba 58 f2 86 3a
       -0.00033311528 -0.0009336778 -0.00093232444 0.0010295613
000310 2d ca 99 b8 aa 79 83 3a 04 d7 ce b9 24 4b 8d ba
       -7.333267e-05 0.0010030766 -0.0003945158 -0.001077984
000320 2a fa 82 3a 4f a9 52 3a e8 3a 84 3a 12 a6 86 ba
       0.0009992768 0.0008036093 0.0010088356 -0.0010272881
000330 f4 1d 2f 3a 9b 42 b6 b9 f6 2d a0 ba ae c7 b2 b9
       0.00066801836 -0.0003476337 -0.0012220729 -0.0003409958
000340 dd d6 5e 3a 90 e7 14 bb 0f 61 08 bb 1f e7 8e ba
       0.0008500645 -0.002272103 -0.0020809805 -0.001090262
000350 89 5a 0f 3b 16 8c 00 3b 07 e7 79 b9 3d e7 0a bb
       0.0021874032 0.0019614748 -0.00023832555 -0.0021194958
000360 34 a9 41 3a 61 21 96 ba 2f ad 4e bb 8d 6f f5 b9
       0.0007387579 -0.001145404 -0.003153633 -0.00046813153
000370 c2 fd 13 3a 65 c4 9e ba b7 d5 97 ba 25 06 b5 3a
       0.0005645418 -0.0012112973 -0.0011584078 0.0013811035
000380 00 cf 0a bb 41 23 01 3a bc 06 42 ba 6a ff 25 bb
       -0.002118051 0.0004926213 -0.0007401516 -0.002532924
000390 89 30 b8 3a 28 5d ae 3a 47 4e 19 ba 83 25 af 39
       0.001405255 0.0013302909 -0.0005848151 0.0003340655
0003a0 21 e8 8a ba a8 21 85 3b 69 8b 66 3a 09 4f b8 b9
       -0.0010597744 0.00406285 0.00087945774 -0.000351541
0003b0 74 12 cb 39 30 17 72 ba 36 3d 66 3a 46 25 d2 ba
       0.00038732926 -0.00092350226 0.0008782925 -0.0016032837
0003c0 a4 3c a6 b9 c3 26 97 ba 54 4d ba ba 68 14 58 ba
       -0.00031707168 -0.0011531938 -0.0014213719 -0.0008242787
0003d0 78 8b 72 ba 7c 02 94 ba 90 2c 0a 39 a1 d4 90 ba
       -0.000925235 -0.0011292244 0.00013177306 -0.0011049696
0003e0 fa 2b 51 ba ca e7 e2 b8 cb 0e f1 3a a0 5c 6a ba
       -0.00079792703 -0.00010819694 0.001839125 -0.0008940194
0003f0 77 75 af 39 79 e6 06 ba e2 a5 91 b9 71 d3 21 3b
       0.0003346612 -0.00051460374 -0.00027780148 0.002469268

chords_tempNet.batchnorm_1.running_mean f4 [1024]
000000 9e e3 2a bd 89 50 61 3d 03 0f 21 3c b3 28 4d 3d
       -0.04172098 0.055008445 0.009830239 0.050087642
000010 75 91 70 bc 5c bd a8 3c 8d c4 2b 3c 37 9d f4 bc
       -0.014683117 0.020598106 0.010483873 -0.029860122
000020 23 f3 93 bc 8f 11 0f bd c5 d8 ce bb 00 20 0a 3c
       -0.018060273 -0.034928855 -0.006312462 0.008430481
000030 09 8c 2c 3b 3a ce c0 3b e6 e4 e5 bc 5f 42 20 3c
       0.0026328585 0.005883959 -0.028063249 0.009781449
000040 34 7f c8 bc 62 95 01 bd 79 6b 10 3d da 6f a4 3c
       -0.024474718 -0.031636603 0.035258744 0.020072866
000050 47 a0 3c bc 4b 10 b3 bb fe 66 7c bd 75 92 22 3d
       -0.0115128225 -0.0054645888 -0.06162166 0.039690454
000060 90 a6 26 3d 03 f3 4a bd 8d 7d 7e 3c c7 5f 11 3d
       0.04068619 -0.04954816 0.015532863 0.03549173
000070 ff 2a 20 3d 05 96 93 3d b0 48 97 3c 6f 42 48 3d
       0.039103504 0.07206348 0.018467277 0.04889148
000080 4b 5b e4 bc c0 1d ad bc 00 88 63 bb 1c 0f 61 bc
       -0.027875563 -0.02113235 -0.0034718513 -0.0137365125
000090 f0 1a c3 bc 10 a1 90 3d 32 3d 66 3c 80 6a 39 bb
       -0.023816556 0.0706197 0.014052676 -0.0028292239
0000a0 e7 0e eb 3b b0 85 20 3c 46 e9 13 bd e5 e7 21 bd
       0.0071734074 0.009797499 -0.03611114 -0.039527792
0000b0 3a 5c 0e 3c 06 4a e2 3c 45 ab 3e 3d 54 4e 97 bd
       0.008688981 0.027623188 0.046550054 -0.07387987
0000c0 62 31 91 bc ab f0 a6 3c a5 2a a1 3c d3 8f 60 bd
       -0.017723743 0.020378431 0.019673655 -0.05482466
0000d0 ff b0 3f 3d 46 a1 41 3d cf 90 8c 3c 08 22 94 3c
       0.046799656 0.047272943 0.017158894 0.018082634
0000e0 02 da 32 3d 02 38 e6 b9 33 eb f8 3c f9 be 78 bb
       0.04366494 -0.00043910748 0.03038559 -0.0037955625
0000f0 5c 74 81 3d 44 5c 47 3c e2 2c 8e 3c 2a 36 96 bd
       0.06321022 0.012167994 0.017355386 -0.0733455
000100 64 7e 1d bd 14 e3 fa 3c b2 a8 95 3c bd bc 28 bc
       -0.038450614 0.030625857 0.018268917 -0.010298905
000110 a1 f3 99 3c f3 61 8d 3d 45 38 32 3b 4e 68 6e 3c
       0.01879293 0.06903448 0.0027194184 0.014551235
000120 85 49 47 bd 50 14 eb ba 51 e8 d1 3c 47 80 6d bc
       -0.048654098 -0.0017935131 0.025623472 -0.014495916
000130 be 03 1f bd bd ec 36 3c d4 ae 3a 3d 76 6f 03 3c
       -0.03882193 0.011164841 0.045576885 0.00802218
000140 ee 6a c0 bc ff 1c a6 bc 52 1c ee bc d5 fe 26 bd
       -0.023488488 -0.020277498 -0.029066239 -0.04077037
000150 85 5b d2 bc aa 79 93 3b 34 cc 21 3d 5e c5 fd 3c
       -0.025678406 0.0045005875 0.039501384 0.030977901
000160 10 c5 68 bd 9e 6a 65 bb d0 92 fe bb 4d 78 e5 3c
       -0.05682856 -0.0035006176 -0.0077689663 0.028011465
000170 7c 33 e7 3c 53 40 c4 3c 08 a9 92 3d 57 9b 35 bd
       0.028222792 0.023956453 0.071611464 -0.044337597
000180 1a 8b 87 3d d0 07 1e bd 22 3a fc 3c 6b 81 40 bc
       0.066183284 -0.03858167 0.030789439 -0.011749606
000190 1d fd 52 bd 48 dc 25 bd de 74 8f bc 95 75 70 bd
       -0.05151092 -0.04049328 -0.017511781 -0.058705885
0001a0 de 89 d1 3c 45 55 72 ba 67 0a 83 bd 76 57 9b bc
       0.025578436 -0.00092442735 -0.063984685 -0.018962603
0001b0 45 10 54 bd 91 94 18 3d 8c 7e ee 3c af 72 af 3c
       -0.05177333 0.03725106 0.029113077 0.02141699
0001c0 2b 78 12 bd 0c da 14 3d 35 3d 22 bd 26 c9 7e bc
       -0.035759132 0.03634076 -0.039609153 -0.015550887
0001d0 75 af 09 3d c6 9d 9f 3c f1 4e a2 3c 72 26 89 3d
       0.033614594 0.019484412 0.019813033 0.06696786
0001e0 e7 b2 47 3b d9 ea 08 bd 77 4c 0c bd 41 da 99 bc
       0.0030471624 -0.033427093 -0.03425261 -0.01878083
0001f0 fe 50 23 bd c6 98 c9 3c a7 3d 50 3d 49 a5 86 3c
       -0.039872162 0.02460898 0.050840046 0.016436236
000200 1d 03 8c bc 29 68 3a 3d 84 a8 a1 bc f2 25 60 bd
       -0.017091328 0.04550949 -0.019733675 -0.054723687
000210 c1 31 17 3d 04 3b 20 3d fa 3d 1e 3d af 75 44 3c
       0.036912683 0.03911878 0.038633324 0.011990949
000220 b6 fc 24 bd 51 75 90 3d 3c de 08 bd ef d9 8e bb
       -0.040280066 0.07053626 -0.033415064 -0.004359476
000230 7c a7 92 bc e0 63 01 3c 02 08 09 3c 89 ba 20 bd
       -0.017902128 0.007897347 0.008363726 -0.039240394
000240 58 bc 49 bc d0 65 93 bd 2a d7 73 3d 56 42 35 bc
       -0.012312971 -0.071971536 0.05953137 -0.011063179
000250 bb 7c df 3c d5 ac 1c 3c 45 f5 d1 3c a4 37 23 3b
       0.027281156 0.009562691 0.025629649 0.002490499
000260 ea d3 46 bd a0 39 03 bd 8d 97 42 bd c8 6c 56 bd
       -0.04854194 -0.032037377 -0.04750781 -0.052349836
000270 8f 4f 2a bd 16 bf 75 3c 82 f9 0b 3c 90 5c 20 bd
       -0.04157978 0.014999172 0.008543374 -0.039150774
000280 f5 1b 83 bc 7a eb 91 bd 26 72 14 3b 6b 6b c1 3c
       -0.016004542 -0.07124992 0.0022651046 0.023610791
000290 03 0c 79 3c f2 e2 19 bc 92 16 50 3c cd 8b ec bc
       0.015200618 -0.009392487 0.012700694 -0.028875256
0002a0 eb 39 05 bd c5 46 b4 3c 2e 7c ca 3b e8 d4 40 3d
       -0.032525938 0.022006402 0.006179354 0.047078043
0002b0 22 2e 05 bd 0b 7d e1 bc 0f 58 43 3c 01 20 21 3c
       -0.0325147 -0.027525445 0.01192285 0.0098342905
0002c0 ac 97 b3 3c 60 d6 08 3d 31 21 7c bc 34 2b 0f 3a
       0.021922909 0.03340757 -0.015388773 0.0005461455
0002d0 d3 0d b2 3c e1 fd 82 3c af 88 d0 3c 8d fd 71 bd
       0.021735108 0.0159902 0.0254558 -0.059079695
0002e0 e9 09 56 3d e4 fc cb 3c 98 c0 34 bd dd ff 3c bc
       0.052255545 0.024900861 -0.044128984 -0.011535612
0002f0 18 65 a2 3c 22 b0 a2 bc 4c 62 32 3c 02 4a a2 3c
       0.019823596 -0.019859377 0.010887694 0.01981068
000300 62 c3 8a 3c 53 e2 74 3a 6e 27 c5 bc 28 a9 55 bc
       0.016938869 0.0009341586 -0.024066653 -0.013040818
000310 10 a5 c5 bc 03 12 e7 bc de 0b a0 3c 9f 85 2e bd
       -0.02412656 -0.02820683 0.019536909 -0.0426079
000320 2e 81 27 bd a3 a1 d5 3b 9e 07 67 3c 0f ba 17 bc
       -0.04089468 0.0065195127 0.014100937 -0.009260668
000330 e5 ee 67 3d 44 67 c2 bc 7c d0 ad bb c8 98 f8 3c
       0.056624312 -0.023730882 -0.0053043943 0.03034629
000340 dd ce 86 3b b0 03 a2 bb c4 48 13 3d 4d 6c 69 3b
       0.0041140155 -0.0049442872 0.035958067 0.003561753
000350 51 2e 94 bc 30 77 81 3d c2 ff c4 bc 77 5b a3 bd
       -0.018088492 0.06321561 -0.024047736 -0.0797643
000360 9a 35 8b bc b5 68 60 3d 31 ab 1c bb 41 7f 8d 3c
       -0.016993333 0.054787356 -0.002390575 0.017272593
000370 8c 38 ba 3b 72 a7 21 bc 0c b7 f4 3c 37 38 a7 bc
       0.0056830104 -0.009866582 0.02987244 -0.020412548
000380 f2 99 c2 3c f8 8b 1f 3d 8f 9d 41 bd 83 cf 09 3c
       0.023755047 0.038951844 -0.0472694 0.008411291
000390 b1 0d 84 bc 75 cc b2 bd 11 c6 46 bd e9 cc 4e bd
       -0.01611981 -0.08730403 -0.048528735 -0.050488386
0003a0 99 2e e4 bb a6 d3 81 bc 8c 17 5f 3d a1 ab c0 3b
       -0.0069635627 -0.015847992 0.054465815 0.0058798348
0003b0 6b 66 8e 3c 7c d5 fa bb b1 1d d2 bb fc da 2a bc
       0.017382821 -0.007654844 -0.006412231 -0.0104281865
0003c0 5c e7 c2 3d b6 a7 6b 3c 9f 02 0d 3d ec c8 16 3d
       0.095167845 0.014383247 0.034426328 0.036812708
0003d0 fd 6b 1e bd 93 2d db 3c 53 89 c3 bc ce 64 c8 bd
       -0.038677204 0.02675513 -0.023869192 -0.09784852
0003e0 e9 c5 68 bc ce 34 d5 bc fb f7 96 bd 88 bb 02 bc
       -0.014207342 -0.026026156 -0.07371517 -0.007979281
0003f0 63 4d 35 bd 07 42 4e bd b8 7d 8c bd d4 d0 48 3d
       -0.044263255 -0.050355937 -0.068599164 0.04902728
