run_2/weights/weights-g-300.pth (torch, 418811 bytes, 12 tensors)

chords_tempNet.convT_in.weight f4 [32, 1024, 2, 1]
00000000: 4a52 8abc 24c4 a9bc abed b6bb d50c 013d
00000010: fbc9 8abc 4d7a 81bc a58e 803c 7b21 29bc
00000020: b97c f83b a1ce a3bc 867e 9abc 85a4 c2bc
00000030: b407 25bc 225a ca3b fed6 69bc 76fe 763b
00000040: c53c 01bc 4332 f2bb 6e9b e0ba 8381 313c
00000050: b4dc 02bc c9d2 283c b70b b93c e8c3 7b3b
00000060: f918 cbbb a494 013d 575c 9c3b 0c96 b93b
00000070: 7089 0abd bea6 f6bc 6b77 483c d73f 63bc
00000080: 88d7 953b 7699 f6bc 60bb 6d3c 29a2 0b3c
00000090: 2855 95bc 4e25 51bc a3e0 c23b 2342 c9bc
000000a0: b154 d33c db42 c13c e124 88ba f846 903c
000000b0: 1fd7 aabc ead2 cfb8 4a72 533c 8b71 43bc
000000c0: b9ef 14bb 0356 683b 3137 793c 95f9 87bc
000000d0: b7f6 35bb 6ede 46bd 912a 433c 7236 8bbc
000000e0: 8715 fdbc 14cf 1c3c 0050 8b3c 64d8 d03c
000000f0: 4142 ec3c 1797 a0bc 5795 07bb 5b51 16bd
00000100: 2bda 02bd 725e 9f3c 07de ce3c 6a0e c23c
00000110: dedf 6fba 7025 1b3d ea0c ba3b 73c1 41bb
00000120: a63b d2bb 5198 93bb c578 8d3c 8469 013c
00000130: 79bc 24bd c5d6 04b9 5fd6 c0b8 e293 083b
00000140: 9dae 663c df18 073a f912 9e3c f611 01bc
00000150: 90b1 c9bb c0d5 523c 7ac9 49bc 4ffe 043c
00000160: 675d fe3c ffcc d4bb df0f 17bc b0f9 89bc
00000170: 61ed afbc c0db db3b 5072 a83a 735b 7b3b
00000180: a81f cebb 399e 0d3c 4cb0 05b9 c472 233c
00000190: abdf 5abc e666 0e3d e9df 5cba d462 3cbc
000001a0: f2da 793b c3ae aabb 8c09 05bd cb36 883c
000001b0: fd96 2d3d 4ab1 01bd 30a7 6fbb ff67 a83c
000001c0: f4f6 793d dd6c 04bc d39e 33bd 2efe c13c
000001d0: 15c0 b53c 66ee c6bb e4ad 32bb f3eb 5a3c
000001e0: 1d67 12bd 196b 443b 33e3 a43c 68b7 493c
000001f0: a100 743c 04b5 163c 8b16 08bd 27dd b13c
00000200: f64d 4e3c a36d b13b a809 7e39 9247 e63c
00000210: b14c b73c d8c4 9b3c 526c c3bc 097c de3a
00000220: 2619 933c d22f 4dbc 100d 263c 0591 e43a
00000230: 5bee d1bc d609 35bc b89b 30bc b7dd 1cbc
00000240: 70fd a33c 0f3d 483c af9e a23b 8261 7f3a
00000250: 03d3 643c eab3 14bd fc71 01bd 72b3 0ebd
00000260: 60c3 32bc 7fc3 d3bc 5aa1 163b dda8 e43c
00000270: 2262 02bd 8229 b83c db8d 623c 2299 373c
00000280: ab9f 53bc 9cf6 f3bc 9f7d 9bbc 7726 e23c
00000290: 067f babb 50b1 283c 6255 7ebc 3059 2ebb
000002a0: 4b8b 6c3d 90ba 4ebc b9f7 983c cca0 0d3d
000002b0: 3209 3d3b fd3c cb3c 014d ccba 7eb1 5f3c
000002c0: 18ac b1bc ef6c dabb a558 b43c 2034 ef3c
000002d0: aafe 35bd 228a 8d3c c700 a9bb b351 5c3c
000002e0: 1d1e 613b ccdc 003c 1b02 78bc 5746 473c
000002f0: 2bd5 143c 22fb 063c 63d1 01bc 3b73 063d
00000300: 07cf 3dbc d725 e33c 8cfd 513c 7521 01bc
00000310: dcd7 53bb 5664 d33b 4e52 a3ba 6217 18bc
00000320: f348 d1bb 27c3 71bc 23d3 15bc ea10 1d3b
00000330: bd4a cfbc 5180 2e3a 154b 29bc 6ce7 b2bb
00000340: 6ee5 29bd 321b 913b 0440 65bc 46aa 51bd
00000350: da9a 483c f0be a0bc 8b5a c93a 847c 823c
00000360: 6f77 ef3c b6b4 df3c 3c2a 00bd 4f85 813c
00000370: 6bf5 e53c 0ded 6fbd f004 bb3c e8c1 4cbc
00000380: 8977 2dbc ed65 20bd 5d78 1b3d 40ec 8b3c
00000390: afc6 a9bc fbc4 c5bb c8a3 99bc 7039 553c
000003a0: aa95 b5bc 3023 303c e7e3 603c b1a9 f33b
000003b0: 90ca 083d 6fd9 883c c0c2 f63c 5250 843c
000003c0: cc47 743c db8d 83ba 83ac 913c a6bc 54bb
000003d0: 5cdb 563b dc04 383c b911 6ebc 1377 15bb
000003e0: 1afc cbbc edca e3bb c3f7 323d 3356 033d
000003f0: db89 303c 3c02 bbbb d3f5 7c3c 1d85 7dba
-0.016884942 -0.02072341 -0.0055825314 0.03150638 -0.016942015 -0.015805388 0.015693018 -0.010322924
0.0075832275 -0.01999599 -0.01885916 -0.02376009 -0.010072637 0.0061752954 -0.01427245 0.0037688292
-0.007888024 -0.0073912456 -0.0017136165 0.010834101 -0.00798719 0.010304161 0.022588594 0.003841633
-0.0061980453 0.031635895 0.00477175 0.005663639 -0.033822477 -0.030108806 0.012235503 -0.013870201
0.0045728125 -0.030102473 0.014510006 0.008522549 -0.018229082 -0.012765242 0.005947189 -0.02456767
0.02579722 0.02359145 -0.0010386967 0.017611966 -0.02085453 -9.909815e-05 0.012905667 -0.011928926
-0.0022725894 0.0035451658 0.015210913 -0.016598502 -0.0027765462 -0.04855197 0.011912004 -0.016993735
-0.030894054 0.009570856 0.01700592 0.025493808 0.028840186 -0.019603295 -0.0020688379 -0.03669868
-0.031946342 0.019454215 0.025252355 0.023688514 -0.0009150485 0.0378775 0.005677809 -0.0029564768
-0.006415802 -0.0045042415 0.017269501 0.007898692 -0.040218804 -0.00012668509 -9.195203e-05 0.0020840098
0.014079717 0.00051535474 0.019296156 -0.007877817 -0.0061552003 0.012868345 -0.012316102 0.0081172725
0.031050397 -0.006494164 -0.009220093 -0.016842693 -0.021475496 0.006709546 0.0012851451 0.0038354069
-0.006290395 0.00864368 -0.00012749544 0.009976093 -0.013358991 0.0347661 -0.0008425699 -0.011498172
0.0038124886 -0.0052088215 -0.032479808 0.01662769 0.04238032 -0.031663217 -0.0036568157 0.020557402
0.06102653 -0.008082596 -0.04385264 0.023680773 0.022186318 -0.0060709 -0.0027264291 0.013361919
-0.035742868 0.0029971062 0.020127868 0.012311794 0.014892728 0.009198431 -0.033224624 0.021711899
0.0125918295 0.005414681 0.00024226925 0.0281103 0.022375436 0.01901476 -0.023855362 0.0016974221
0.017956328 -0.012523608 0.01013495 0.0017438239 -0.025626352 -0.011049708 -0.010779314 -0.009574345
0.02001831 0.012221589 0.004962764 0.0009742008 0.013966325 -0.036304392 -0.031602845 -0.0348391
-0.010910839 -0.025850056 0.0022984357 0.027912552 -0.031831868 0.02248073 0.013827766 0.011205943
-0.012916486 -0.029780678 -0.0189808 0.027606232 -0.005691412 0.010296181 -0.015523287 -0.0026603453
0.057750028 -0.012617722 0.01867281 0.034577176 0.0028844592 0.024809355 -0.0015586914 0.013653157
-0.021688506 -0.006665818 0.022014925 0.02919966 -0.04443232 0.01727778 -0.0051575634 0.013447213
0.0034350224 0.007865142 -0.015137221 0.012162766 0.009084026 0.008238586 -0.007923457 0.032824736
-0.011585004 0.027728004 0.012816798 -0.007881512 -0.0032324707 0.00645117 -0.0012460442 -0.009282919
-0.00638687 -0.014756001 -0.009144577 0.002396638 -0.025304193 0.0006656694 -0.010332842 -0.0054597165
-0.041478567 0.0044282908 -0.013992313 -0.051187776 0.012243951 -0.019622296 0.0015362067 0.015928514
0.029231755 0.02730785 -0.031290278 0.015810637 0.028071126 -0.05857568 0.022829503 -0.012497403
-0.010587581 -0.039159704 0.037956584 0.017080426 -0.020724623 -0.006035445 -0.018754855 0.013014182
-0.022166092 0.010750577 0.013726211 0.0074360003 0.033396304 0.016705243 0.03012216 0.016151581
0.014909696 -0.0010036783 0.017782455 -0.0032461076 0.0032784557 0.011231627 -0.014530593 -0.002280657
-0.024900485 -0.006951681 0.043693315 0.032064628 0.010775055 -0.0057070535 0.015439468 -0.00096710195

chords_tempNet.convT_in.bias f4 [1024]
00000000: 3348 b83a 721a 403c 2b54 a2bb 0fc8 853c
00000010: f903 5d3c 7f6c 333c 323d b53a 1a7c 0f3c
00000020: 2951 01bc 6fba 07bc 129a 12bc 508c 0bbb
00000030: 1bc1 5fbb 3ac6 16bc 6163 63bb cd1e b4bc
00000040: 26f6 83bc fdab 8cbc 9d0d 05bc 7270 18bc
00000050: aa63 75b9 c6c6 843c b1f5 a6bc 498f 9ebb
00000060: eeaa c3bb ca95 c6ba f8b6 3abc 8b67 a33c
00000070: 44a4 693c 1e2c b23c fb29 ea3b 17ad 3a3c
00000080: f914 89bc 84c6 42bb dbef 0a3b 433b 133c
00000090: d93e 403c 54d9 6e3c 2637 83bc 592d 89bc
000000a0: 18d7 2e3c be0e 44bc fd2c b2bc 9212 ae3c
000000b0: 2306 ba3b 320c 0b3c 7bcb f039 7ac5 67bc
000000c0: d353 87bc b700 4b3c 08f7 983c b851 383b
000000d0: 467f 92bc e349 303c aa7a 1d3c 0dc0 493c
000000e0: f958 16bb 7a97 a4bb 68a6 313c e992 7b3b
000000f0: d7ec 9c3c 562a 9e3c e0cc 4c3c 6065 06bc
00000100: cfa6 3ebc 119c 9f3c a675 38bb 0dbd 753b
00000110: df3c ecbb f38c 05bb 22af 663b e3db 80bc
00000120: b391 b4bc bda4 e5bb a4bd 983b 3e59 9dbb
00000130: 3a1f b4bc e12f 77bc 2991 733c e481 2dbb
00000140: 9d0c 743c 5cfb 54bc 5bee 73bc be26 ddbb
00000150: a34f 353c c5c2 1dbc a0b9 98bc 725a 933c
00000160: 8a4b 2fbc d97c 75bc 8fa4 b1bc 45a6 f63b
00000170: 2385 85bc 36b4 843c bc76 963c 8288 85bc
00000180: 175e 823c fe43 93bc 5c29 a63c a2d4 263c
00000190: 972e 103c 3780 bebb 43ec 3c3c a5c2 9ebc
000001a0: 8492 d23b e791 a9bb 7776 7f3c cd1e 6dbc
000001b0: 721d 9ebc 9afe ef3b 47cd ea3a fb2b a13c
000001c0: c7a5 9c3b 5aa3 483c 36ae 423c 995f 733c
000001d0: 9474 153b 39fb 1fbc a1bc 3c3b 9cf0 723c
000001e0: cd8c 353c 818d 48bc 33f9 6b3a a64b 2639
000001f0: 6e1b 983b 8420 20bc e116 283b 9858 9c3c
00000200: f8d2 dc3b 9d2c 2d3c e7c8 55bc a00f 2bbb
00000210: f995 8b3c e85d 09bc 306f 4fbc d7c1 8f3b
00000220: 7900 b6ba 5e94 9b3c 9f60 163c 8629 913c
00000230: 5a21 2f3c 71b6 9f3c 448f 3cbc 0a1f 023c
00000240: dcc9 3cbc 003f 1abc 0c6f a73c ad05 c93b
00000250: 8b7d 993c a9a8 4c3c 880c 4dbb 49ec 4abc
00000260: c801 9b3c 46e9 12bc 4c20 433c 2b34 80bc
00000270: 4cad 31bc 3ad5 a0bc 352c 64bc 0cd1 81bc
00000280: 1a8b 233c a4b6 2dbb 311e 8fbc c93a 963c
00000290: df36 40bc eadc a13c b65a f43b 3e6b 8ebc
000002a0: 211b 5ebc 9839 cc3a 2d0a 04bc 6815 d0bb
000002b0: ebd0 b9b9 6dca 27bc 891b 2a3c e557 06bb
000002c0: 520e dfbb f852 8c3c d366 59bc 6c89 a93b
000002d0: bc1d 5a3c 4a20 5d3c 976e 593c 1e88 cdbb
000002e0: bc3e 17bc ba02 f53b eae8 6cbc 3e69 0e3c
000002f0: 33f1 a3bb 3009 9f3c 7d6e 8f3c 938d e0ba
00000300: 7bab 08bc 313b b2bc 589b 973b f849 a43c
00000310: c9d1 84bb 95a6 95bb d431 62bc 56ec 843b
00000320: d040 ae3c 662e b33c f787 2c3c 632c 92ba
00000330: c9b8 5b3c f8c8 b93b ce9c 2abb 9a7d 963c
00000340: 7d98 0c3c 2951 d4ba 6653 943c 0921 503c
00000350: 8636 6abc 0ce5 0e3b 9c43 1bbc fd51 a5bc
00000360: fdb9 17bc cb9c 803c 03e8 17bc d01f 8b3c
00000370: b2d1 7fbb 7531 67bc c4fd 5b3c e693 b4bc
00000380: 2f94 503c f094 5ebc 9f6c 6f38 97fc b63b
00000390: eb22 65bc 1376 72bc 2009 91bb 4b0a 65bc
000003a0: 4421 033c d71b 1abc bd4f 373c 9320 283b
000003b0: fc7a ed39 d9f6 a0bc cc99 253c be00 9bbc
000003c0: a247 6b3c 3d05 b13c 7e3a 9d3b 054c 8cba
000003d0: 4057 76bc 3603 5c3c 2a8f 393b 5aae 56bc
000003e0: a2de 9e3c b650 d53a d321 b0bc 769d 25bb
000003f0: 0ff5 18bc a579 513c a5a5 173a 0589 873c
0.0014059603 0.011725055 -0.0049538813 0.016330747 0.013489717 0.01095116 0.0013827442 0.008757615
-0.007892885 -0.008284195 -0.008947866 -0.002129335 -0.00341422 -0.009202534 -0.0034696686 -0.021987343
-0.016108584 -0.017171854 -0.008120921 -0.009304153 -0.00023402149 0.016208064 -0.020380827 -0.0048388583
-0.005971304 -0.0015150842 -0.011396162 0.019946834 0.014260355 0.021749552 0.0071461177 0.011393807
-0.016733633 -0.0029720375 0.0021200094 0.008986297 0.011733734 0.014578182 -0.016017508 -0.016745256
0.0106713995 -0.011966405 -0.021749968 0.02124909 0.005677001 0.008486794 0.00045927972 -0.014146203
-0.016519463 0.012390307 0.018672481 0.002812488 -0.017882954 0.0107598035 0.009611765 0.012313855
-0.0022941215 -0.00502294 0.010842897 0.0038387126 0.019155903 0.019307297 0.012500018 -0.008202881
-0.01163645 0.019483598 -0.0028146296 0.0037496716 -0.007209405 -0.0020378202 0.0035199602 -0.01572985
-0.022042131 -0.0070081637 0.004661279 -0.0048018983 -0.021987546 -0.015087099 0.014866152 -0.0026475126
0.014895585 -0.012999382 -0.014888371 -0.006749003 0.01106635 -0.009628956 -0.0186432 0.017987464
-0.010699162 -0.014983379 -0.021684913 0.007527145 -0.016298836 0.016199213 0.018367164 -0.016300444
0.015914006 -0.017976757 0.020283394 0.010182532 0.00880017 -0.0058136242 0.011530939 -0.019379923
0.0064261574 -0.0051748636 0.015592209 -0.0144726755 -0.01930115 0.007324052 0.0017913961 0.019674292
0.0047805044 0.012245977 0.011882355 0.014854335 0.0022805082 -0.009764486 0.0028798955 0.014827874
0.011080933 -0.012240768 0.0009001672 0.00015859175 0.0046419417 -0.009773377 0.0025648403 0.019085214
0.0067390166 0.010569719 -0.013048387 -0.0026101843 0.017039286 -0.008384205 -0.0126607865 0.004387121
-0.0013885639 0.018991645 0.00917831 0.017719995 0.010689104 0.019496175 -0.011508767 0.007941971
-0.011522736 -0.009414434 0.020438693 0.00613471 0.018736621 0.012491384 -0.0031287987 -0.012385436
0.018921748 -0.0089667495 0.011909556 -0.015649876 -0.01084454 -0.019632924 -0.013926555 -0.015846752
0.009981895 -0.0026506567 -0.017470451 0.018338578 -0.011731832 0.01975866 0.0074571026 -0.017385121
-0.013556273 0.0015581129 -0.008059067 -0.006350208 -0.00035441606 -0.010241133 0.010382541 -0.0020499167
-0.006807127 0.017129406 -0.013269144 0.0051738527 0.013312753 0.013496468 0.013270996 -0.00627233
-0.009231266 0.0074771317 -0.014459828 0.008692084 -0.0050031184 0.01941356 0.01750874 -0.0017132036
-0.008341665 -0.02175674 0.0046266727 0.020054802 -0.0040533287 -0.0045669773 -0.013805825 0.0040564938
0.02127114 0.02187271 0.010530463 -0.0011152144 0.013410755 0.0056697093 -0.0026033404 0.018370438
0.008581278 -0.0016198504 0.018106174 0.012703189 -0.014295226 0.0021804003 -0.009476569 -0.020180697
-0.009260652 0.015699765 -0.0092716245 0.016982943 -0.00390349 -0.014110913 0.013427202 -0.02204318
0.012730642 -0.013585314 5.70832e-05 0.0055843103 -0.013985376 -0.014798659 -0.0044261366 -0.013979505
0.008003537 -0.009406052 0.011188445 0.0025654181 0.00045295793 -0.019648956 0.010107469 -0.018921252
0.01436034 0.021608943 0.0047982326 -0.0010703808 -0.01503545 0.0134285 0.0028314092 -0.013103092
0.019393269 0.0016274664 -0.021500504 -0.0025270856 -0.00933577 0.01278535 0.0005784876 0.016544828

chords_tempNet.convT_out.weight f4 [1024, 32, 1, 1]
00000000: 1877 8b3b 2f43 5f3c 203a 72bc 54d1 f2bc
00000010: c29d d9bb 2ebb 123c 20aa 1c3c 8c90 503d
00000020: f3e1 a23b 4a01 3ebc b19a 24bc 9ee8 a2bc
00000030: 95f5 8bba c7f9 b2bb f11f 28bd 8b36 bebc
00000040: 3172 903c d5db 483c 2b9c 0dbd e667 e53c
00000050: a283 82bc 36b8 07bd 37a2 633c 2689 f83b
00000060: 6d9e 253d 5c3b 5c3b fefb 7a3c 6cfa 903c
00000070: 5670 ddbc b79f 133c 5a1c aa3a dd82 4abc
00000080: 9467 053d 1d4f a9b9 b96c 04bd 3dfc e63c
00000090: 2613 7e3d 547e e83a 75b1 8f3a cb4a 2cbc
000000a0: 50df 1abd c143 4cbb abf2 1b3c 02f7 0c3a
000000b0: 0cf1 413c 51b9 9c3b 567d e53c 2918 28bc
000000c0: 7b18 a73a 2c26 94bb afe5 01bd c441 48bd
000000d0: 385e 193a 6135 793c 0f2e dc3b f9ca 9ebc
000000e0: 0a3b 7fbb e5fb d13c c99f 773b 4a41 dfbb
000000f0: b36e 873c 5714 8a3c c19a 433b 1266 10ba
00000100: 35b7 013c ccde 6ebc 3ef9 67bc dc8e 85bc
00000110: 553e b23c b507 f6bc bdbc da3c 4042 ec3c
00000120: 5e45 f63b 3ec7 533c eb65 323c 8cf7 31bc
00000130: 95f1 463c c750 d53c 5d51 9ebc 0f0a a13c
00000140: 0b7c c23b f316 2fb9 38d4 d83c ff37 863c
00000150: 45b0 243d 1351 8b3c 3c10 ed3c 46df a33c
00000160: 9d55 8f3c 5e2d a0bb e32f 73bc 050f b2bb
00000170: 816c 3d3c 212f ee3c 1e13 7cbc 7d11 213c
00000180: 7671 b9bc c6bb 883c 1de8 433d 3c18 15bc
00000190: f5d1 9dbb f7de 623c 0d8c 833c 2ff7 b5bc
000001a0: ee41 0d3c ce77 f73c 06cd f3bc 1a59 9dba
000001b0: b43c 4dbb 79eb 04bd 8e4a 4cbb 7f4a a2bc
000001c0: 91dc 5abd c2fd 2f3c 7fdb 0a3c 3c98 9f3c
000001d0: e2b8 10bd 4b7e 40bb 533e 41bc 2285 aa3c
000001e0: b312 0ab9 e4a7 923c 7552 ccbc 3b45 753c
000001f0: 44b7 49bc 436f 283c df29 fdbc 3fd5 893c
00000200: 2e8e 2bbc 593d b63b ade0 863c 27c4 103b
00000210: b37c dfbb 5de9 a23c c7e6 003c 4f2c cf3c
00000220: f35b e8bc ff08 0d3c 7ddc d73a 26a3 483d
00000230: 33fd 1f3d 950e 89bc d686 893c 1421 e2ba
00000240: e148 c73b efee c3bb 4093 d4bc e53d 9c3c
00000250: 9b44 0abc b324 de3b 92ed e8bb 2c0d bd3c
00000260: 773b c63b 5f30 6ebb b083 d1bc 9216 2ebd
00000270: 803d d3bc ddfd 4ebc ea21 973b aeff 2e3a
00000280: 1794 a73c cbb1 0bbb ad4b 7fbc 5228 58bd
00000290: 2385 13bd d3f3 d1bb b82e 043c ae32 6fbc
000002a0: 1e5d be3c 3faa 333c cf88 c2bc 0f92 dd3c
000002b0: 12f7 58bc 8d79 1a3d 3a1d 7c3c 8824 2cbc
000002c0: c984 953c a79e f2bc c077 c73b cd72 633b
000002d0: 1bfe 0fbc 26b1 a1bc 7114 aabc 372a c93a
000002e0: 6276 983c 0d2f afbc 3a95 b53c 960d 313d
000002f0: 0b6c 0b3a a910 ec3b 3c72 aa3b 4ffc 0abd
00000300: 32ec 3dbc 92c4 b53b 5ea0 9c3b 0a6d 5f3d
00000310: 5ea9 a33b 6b42 0fbd 0512 a83c fe25 823c
00000320: 40d3 f0bb 8687 1b3c 3a1c 4f3d 0be9 ba3c
00000330: 6834 14bc 288e 40bb a81a 753c d074 e13b
00000340: 902c 79bc 4c25 acbc 049f 8e3c fee1 423c
00000350: 91fc 0d3a 2a33 31bd e557 0dbd fdf8 1b3c
00000360: 7d28 1f3c 23d1 c03b 0a0b dbbc ef5d 06bd
00000370: 0697 013d 0e2e 083c 6997 1abd 037d 113c
00000380: fdba a9bc fb4b 00bd ffe4 933c 85d8 693c
00000390: a1f3 a33c 524e 20bc 5f1d 03bd 7db8 df3c
000003a0: 182f d4bc 6bac e7bc 3720 063b 3e77 cdbc
000003b0: ae3a fa3a 873a 493c 7243 90bc 2a52 c1bb
000003c0: fe68 113c 2cf3 eebc 9d07 803c dbd3 653c
000003d0: 300c 843c dacf 1f3c 9665 91bc 49dc bb3c
000003e0: aab8 953b aa9f 153a 0d5d 903b 84a3 d83c
000003f0: d655 373d ba10 8bbc a0c2 90ba 3fa6 b3bc
0.0042561404 0.013626858 -0.014784366 -0.029640831 -0.0066411206 0.00895576 0.009562045 0.0509191
0.004970783 -0.011596987 -0.010046647 -0.019886311 -0.0010678048 -0.0054619047 -0.041046087 -0.023219367
0.017632576 0.012259443 -0.03457276 0.028003644 -0.015931908 -0.03313466 0.0138936555 0.0075847087
0.04043429 0.0033604717 0.015318869 0.017697535 -0.027031105 0.009010247 0.001297842 -0.012360302
0.032569483 -0.00032293136 -0.03233025 0.028196448 0.06202998 0.0017737844 0.001096292 -0.010515879
-0.037810624 -0.0031168314 0.009518306 0.0005377383 0.011837255 0.0047828336 0.028013866 -0.0102596665
0.0012748385 -0.004521152 -0.031713184 -0.048890844 0.00058505265 0.01521048 0.006719358 -0.019383894
-0.0038945102 0.025632808 0.0037784448 -0.006813203 0.016532278 0.016855402 0.002984688 -0.0005508374
0.007917215 -0.014579486 -0.014158545 -0.016303472 0.021758238 -0.030032972 0.026701326 0.028840184
0.0075155934 0.012925921 0.010888557 -0.010862242 0.012142559 0.026039494 -0.019325906 0.019658117
0.005935197 -0.0001669785 0.026468381 0.016384123 0.040207166 0.017006433 0.028938405 0.020003926
0.017496878 -0.0048882207 -0.01484296 -0.0054339194 0.011561514 0.029075207 -0.015385417 0.00983083
-0.02263711 0.0166911 0.047828782 -0.009100016 -0.0048162886 0.013847104 0.016057992 -0.022212593
0.008621676 0.030208495 -0.029760849 -0.0012004704 -0.00313167 -0.032451127 -0.0031172368 -0.019810913
-0.053433005 0.010741653 0.0084751835 0.01948177 -0.035332568 -0.0029372151 -0.011794644 0.020815436
-0.00013167672 0.017902322 -0.024941662 0.014970119 -0.01231176 0.010280433 -0.030903755 0.016825316
-0.01047091 0.0055615124 0.016464556 0.0022089572 -0.006820285 0.019886667 0.007867522 0.025289683
-0.028364157 0.008608102 0.0016468909 0.048983715 0.03905983 -0.016730586 0.016787928 -0.001725229
0.006081686 -0.005979411 -0.02594912 0.019072482 -0.008439208 0.006779277 -0.0071083987 0.02307757
0.006049569 -0.003634475 -0.025575489 -0.042501993 -0.025786161 -0.012633768 0.004612197 0.00066756725
0.020456357 -0.002131569 -0.015582007 -0.052772827 -0.03601564 -0.00640724 0.008067779 -0.014599485
0.023237761 0.010965883 -0.023746876 0.027047185 -0.0132425 0.037713576 0.0153878275 -0.010506757
0.018251793 -0.029616667 0.0060872734 0.0034705878 -0.008788611 -0.019737791 -0.0207617 0.0015347664
0.018611137 -0.02138474 0.022165883 0.043225847 0.0005318529 0.0072041345 0.005201606 -0.033932026
-0.011591958 0.0055471146 0.0047798594 0.054547347 0.0049945554 -0.03497545 0.020516405 0.015887257
-0.0073494017 0.0094927605 0.05056403 0.022816202 -0.009045698 -0.0029381607 0.014959969 0.00688038
-0.015208378 -0.021013878 0.017409809 0.011894701 0.00054163585 -0.043261684 -0.03450765 0.009519813
0.009714243 0.005884306 -0.026738662 -0.032804426 0.031638168 0.008311762 -0.037742052 0.008879903
-0.020719046 -0.03132246 0.01805353 0.014272814 0.020013632 -0.009784298 -0.032010432 0.02730965
-0.025901362 -0.028280457 0.002046598 -0.025081273 0.0019090974 0.01228202 -0.017610285 -0.0058996873
0.00887513 -0.029168688 0.01562863 0.014027561 0.016119093 0.0097541455 -0.017748635 0.022932189
0.004569133 0.0005707691 0.004405624 0.026445158 0.044759594 -0.01697575 -0.0011044331 -0.021929858

chords_tempNet.convT_out.bias f4 [32]
00000000: 7aa6 283e 5ea1 f5bd 796c 55bc c54c d9bd
00000010: 95ae 14be fb23 59bb 31a8 1bbd 1cbd 1c3e
00000020: c29e 853c 8627 cfbd 5f91 0ebe 45fb 78bd
00000030: b754 80bd 856f cdbd b9d5 043e 0735 193e
00000040: 441c 0abd 6dfb b33d fe93 913c fe34 1cbd
00000050: 329a c0bd 7e4d 0bbe 955d 31be 14dd 6039
00000060: 44d7 01be 68ed 5e3b cc0e 023e 83b6 d63d
00000070: cbb6 78bd b01a 0fbe f0f6 21bc 83d5 ce3d
0.16469756 -0.11993669 -0.01302635 -0.10610346 -0.14519723 -0.0033133018 -0.038002197 0.15306515
0.016311053 -0.1011496 -0.13922642 -0.060786504 -0.06266158 -0.10031036 0.12972154 0.14961635
-0.033718362 0.0878819 0.017770763 -0.038136475 -0.094044104 -0.1360378 -0.17320855 0.00021444663
-0.12679774 0.0034016017 0.12700957 0.1048403 -0.0607212 -0.13975024 -0.009885535 0.10099318

chords_tempNet.batchnorm_1.weight f4 [1024]
00000000: d596 35bb fe49 09bc 3a9f 6dbd a5cd 3e3b
00000010: ee38 c93c 5be1 81bc 222b 053d 4329 86bc
00000020: 0941 9abc 68a2 433c a894 fbbc 51e8 9fbb
00000030: faf7 2e38 26c9 78bc 0af3 7d3c 9213 f4bb
00000040: 3018 903c 663a 60bc 64bd 4dba 120c 46bb
00000050: 92f8 0abd ac9a 06bd 73a0 d4bc 8555 7435
00000060: d2cf ffbc 4004 aabb debf 313c 83a9 2dbc
00000070: 3c53 633c 6be2 06bd e690 76bc a85e debc
00000080: d5d9 cfbc b08d 20bd c74e 96bc 713b a4bc
00000090: 67ca 633c 042a 5ebb d727 9a3c 8b2f 19bc
000000a0: c478 b03b 52b2 dcbc a51c edbc eb00 f1bb
000000b0: 5321 d4b8 1a0e 1139 b677 563b 2fea 1bbd
000000c0: 1bc0 bcba 8f4c 0abd 020c cabc 566c c3bc
000000d0: 6bbc 0bbd e86d 0b3c 2319 653d 0aa6 39bc
000000e0: fd16 473c 716e a23c 2deb e03b 5303 f5bb
000000f0: 69fc 38bb 83ec b93c 3704 3bbc 3972 cc3c
00000100: 6f0e c339 b1f1 733c c58d 113c e2fa ac3c
00000110: 6694 7339 79be 8fbc 151c fcbb 65b7 0639
00000120: 6c3d c53c b702 03bc 69d7 80bc 7de3 cb3c
00000130: 4ce5 6cbc 2731 5cbb fcd1 aeba edfd a3bc
00000140: 208e 29bb b48a 483c 766a c33c 87eb 4c39
00000150: 93bc d7bc 947b 31bd 2ec7 b1bc 3abe a13c
00000160: 760f a5bc b7ed 7a3b 5568 7ebb 5a17 09bc
00000170: ffcf ac3c ee08 89bc c888 adbb cb3d 4d3b
00000180: 95af 79bb 1a87 d3bc 119c 3fbb 6997 08bc
00000190: d68e 27b9 2908 a73c a868 d53b 6e81 063c
000001a0: d645 bebc 967d 463c a757 b63c 4f57 473c
000001b0: af52 3f3c 998b b93b ae7a 8bbc 6529 ba3c
000001c0: 0bdc a4bc 4a3a e43b 3e14 d8bc 15ca 41b9
000001d0: c792 11bc 723e 353d 82aa 533d 6ccf f03b
000001e0: 644b d5bc 8270 25bc dca7 3d3b ce3a 83bb
000001f0: 3fb7 5b3c 2ce4 7abc 3239 b03c cc32 bcba
00000200: bbe4 a13c 30aa 1dbd 690e d4bc 42d7 0ebd
00000210: 0908 dc3c 49b5 813c bf7b d1b7 c121 02bd
00000220: 98a9 e43b 9166 4a3b 7ba3 013d 9628 2a3d
00000230: a14b 4d3c 6822 adbb f867 353c 122d 193d
00000240: 2d4a e6bc 9933 a2bc eaa6 113d ddbd f53c
00000250: ea97 a6bc a9b2 4c3c a2f7 58bc 4c8d 07bc
00000260: f47e 4d3c 9f3b 9f3c 541d 9c39 dc77 81bc
00000270: eee2 c93c ff0f 473c ace4 b53c fb2d 15bc
00000280: a56d 9c3c c2e9 543c f8e5 f53c ca97 863b
00000290: b96e 5dbd c154 86bc 54da 433c e2d9 c73b
000002a0: 29c0 d1bb 15b3 bfb9 a707 a43c dd12 143d
000002b0: a14d 95b8 8b66 01bd 14da 35bd c6c1 45bc
000002c0: ce38 463c 16ef 0c3c 61d4 823b c644 35bb
000002d0: 4b88 dfbc a26b 8cbc fc4d b7bc d954 8bbc
000002e0: 7ad6 97bb df82 9e3b 572e e53b 2606 61bc
000002f0: 0b9d 243c 05f6 3bbc 084b 7a3c e25a 52bc
00000300: 1a6e b2bc e448 5bb9 af7f 213d c953 9dbc
00000310: 1daf ae3c 3da1 c3bc 60fd 6338 97ec 71bc
00000320: 3a2e 24bc 8362 a03c 02c2 5fbc 2c20 1fba
00000330: ebf7 5ebc b916 e03c ef2e 9c3c 3f73 68bc
00000340: ab2a a639 9a21 003c b253 dc3b eb0a 1cbc
00000350: 5e6a 343c 4a51 d83c fe0e 78bc 884b 90bb
00000360: adf9 963c 97fe 0c3d 1cfb 7abc d128 eabc
00000370: 7bf9 b33c 6b1a c03b 1225 9e3c 10ef 8ebc
00000380: 03f3 1ebd d11f 5dbb 9ae2 3c3d d8d8 8dbc
00000390: 5b21 cbbc 7ca0 18bd f5df a93b a956 fe3b
000003a0: cf11 42bd a0bc 6fbc e02b 133c 43e6 01bd
000003b0: 00a0 823c 1d0b 65bb 2424 193d 9bf5 b8bc
000003c0: 3230 e63c bab5 153a 403d c0ba 9e9c 06bd
000003d0: 2ba6 26bd 75ab f1b9 1d95 da3c d2eb 8bbc
000003e0: 4aa7 0ab9 6152 63bc 488b 0a3c ad5a d03c
000003f0: 3fb1 b9bb fd56 83bb 5f24 d4bc 1c2f c13c
-0.002770831 -0.0083794575 -0.05801318 0.0029114273 0.024563279 -0.015854528 0.032511838 -0.016377097
-0.01882984 0.011940576 -0.030710533 -0.004879989 4.171578e-05 -0.015184676 0.01549984 -0.007448622
0.017589658 -0.013685798 -0.0007848351 -0.0030219597 -0.03392846 -0.03286235 -0.025955414 9.102153e-07
-0.031227026 -0.005188495 0.010848967 -0.010599497 0.013874825 -0.032930773 -0.015049195 -0.027144745
-0.025372425 -0.039197624 -0.01834811 -0.020047875 0.013903237 -0.0033899555 0.018817825 -0.009349714
0.00538549 -0.026940499 -0.028944323 -0.0073548458 -0.00010115155 0.00013833531 0.0032725162 -0.03806513
-0.0014400514 -0.03376442 -0.024663929 -0.02385537 -0.034115236 0.00851009 0.055932175 -0.011331091
0.012151477 0.019828053 0.0068639726 -0.007477203 -0.002822662 0.022695785 -0.011414579 0.02495681
0.00037204052 0.014889167 0.008883898 0.021115724 0.00023229569 -0.01754688 -0.0076937773 0.00012847556
0.02407714 -0.007996253 -0.015727716 0.024888748 -0.0144589655 -0.0033598633 -0.0013337727 -0.020018542
-0.0025872067 0.012240101 0.023854475 0.00019542697 -0.026335036 -0.043330744 -0.021701422 0.019744027
-0.020148974 0.0038288662 -0.003881951 -0.008367384 0.021095274 -0.01672789 -0.0052958466 0.003131735
-0.003809904 -0.025821257 -0.002923731 -0.00833688 -0.00015979572 0.020389633 0.00651272 0.008209569
-0.02322666 0.012114903 0.022258593 0.012166812 0.011677428 0.0056623933 -0.017026272 0.022724817
-0.020124456 0.0069649564 -0.02637684 -0.00018481196 -0.008885092 0.044249006 0.05167628 0.0073489454
-0.026036926 -0.010097625 0.0028939163 -0.004004813 0.0134103885 -0.0153131895 0.021511648 -0.00143584
0.019762387 -0.03849238 -0.025885778 -0.034873255 0.0268593 0.015833514 -2.4972365e-05 -0.03177047
0.006978225 0.0030883888 0.031650048 0.041542612 0.012530238 -0.0052836426 0.011072151 0.037396498
-0.028111542 -0.019799994 0.035559572 0.02999776 -0.02033611 0.012493768 -0.013242634 -0.008273434
0.012542475 0.01943761 0.0002977649 -0.015804224 0.024644341 0.01214981 0.022203766 -0.009105201
0.019095251 0.012995185 0.030016884 0.00410745 -0.05406067 -0.016397836 0.011953909 0.0060989717
-0.006401081 -0.00036563785 0.02002318 0.036150802 -7.119333e-05 -0.031591933 -0.04439743 -0.012070125
0.012098504 0.008601924 0.0039926027 -0.00276594 -0.02728667 -0.017141167 -0.022376053 -0.017008232
-0.004633722 0.0048373784 0.0069940495 -0.013734376 0.010047208 -0.01147223 0.015276678 -0.012839051
-0.021781016 -0.00020912621 0.03942841 -0.019204991 0.021323735 -0.023880595 5.435699e-05 -0.01476588
-0.010020787 0.019578224 -0.013657095 -0.00060701626 -0.013608913 0.027354585 0.019065348 -0.014187633
0.00031693777 0.007820511 0.0067238444 -0.009524087 0.011011688 0.02640595 -0.015140293 -0.0044035353
0.018429602 0.034422483 -0.015318658 -0.028583916 0.021969547 0.0058625243 0.019304786 -0.017447978
-0.038805973 -0.0033740888 0.04611454 -0.017315313 -0.024796179 -0.037262425 0.0051841685 0.0077617955
-0.047380265 -0.014632374 0.008982629 -0.031713735 0.015945435 -0.003494925 0.037387982 -0.022578051
0.028099153 0.00057109783 -0.0014666691 -0.032864206 -0.040685814 -0.00046094847 0.02668243 -0.017080221
-0.00013223026 -0.013874621 0.008456059 0.025433863 -0.0056668813 -0.0040081725 -0.02589625 0.023582034

chords_tempNet.batchnorm_1.bias f4 [1024]
00000000: e847 e43a a796 013c bf48 373b 3d4f 9f3a
00000010: 3f18 75ba 1bae f0ba ddff ad3a 1c11 3ebb
00000020: 769a 113b d6be 6d39 6c09 faba 7d62 15b9
00000030: 81e5 8fb9 7e95 9d3b 972d 523b e9d3 babb
00000040: b17b 7136 777e ec3a b23e 74bb bc0a 34ba
00000050: 009a 963a 6f6a a4b9 8e6a ec3b c094 35b9
00000060: e581 8fbb 9a27 51bb 9b33 283a 7c99 8b3b
00000070: 7ac0 8ebb 5932 613b 1dd0 69bb 5e6a 973b
00000080: 3e7f 13bb a62a 4c3a b2f3 9f3a d8b0 c9ba
00000090: 9b8f ffba 21b6 95bb 0077 cfbb 0ff0 2abb
000000a0: 193b 9739 914c 8aba 22e4 8db9 2245 0e3b
000000b0: 0498 48ba 2976 45ba 5028 f2bb 671e 1a3b
000000c0: 4d93 413a 5201 303b 431c 153b e97f 4cbb
000000d0: 2f62 623b fee9 313a f2ea d33b e6ed d13a
000000e0: 5b51 1f3a 70c0 fe3a 68da 0fbc 636e 27bb
000000f0: d965 7dbb 46f4 caba ecfe f1ba cc71 3ebb
00000100: ccd2 00bb 045b a23b f657 353a 4b31 c338
00000110: 14dc 78ba eaf1 beba 2d7a dd39 f89a 2aba
00000120: 2dbf 3439 e9b4 1d3b f0d2 4fbb 6844 a6ba
00000130: 33d3 133a 1235 d8ba 563b 88bb 2931 b5b9
00000140: a143 873a d66b 053b 1d01 793a 7e2d 86ba
00000150: 491c a0bb 1bb9 7dba 8753 983a d843 953a
00000160: c587 293a 34b1 70bb 088b cc3a 5254 203a
00000170: 62ae 37bb 859a 2139 2a9a 48bb 4532 563b
00000180: 8bdc a3bb ccae 84bb 38f6 eabb 742c d73a
00000190: bd5b 15bb 93f3 bbba b80a d23a 6e4d 1fba
000001a0: c793 60bb 55c4 be39 56d5 4e3b d190 9a38
000001b0: c918 1dbb b933 453b 6ad8 33b9 9491 763a
000001c0: 97d1 e43a fd39 50bb 81cc ad3b f4d6 75ba
000001d0: 5689 89bb 131f ae3b 894d a03b 8e0a 553a
000001e0: 4d8c 58bb 6d2d 113b 9f52 ef39 c4b8 5dbb
000001f0: b661 a43b ff9a 00bb 89e4 5d3b b694 b2bb
00000200: 9d2a 873a 9037 85b9 e12e 07bb 2aa3 0a39
00000210: 6457 be3b 03ed 923a 02c4 5cba 0cbc 2d3b
00000220: 95c8 00bb 34fe b3b9 f779 0a3a 8e67 363b
00000230: 6485 92ba cce4 ccb6 0609 26ba e49e 4bbb
00000240: 9689 a5ba facb 7abb c597 00bb 3439 9fba
00000250: c089 60ba 244b 9aba b1a6 84bb fb4c deba
00000260: f23a 08bb 1d88 e5ba aea0 2cbb e32c 1f38
00000270: 70d1 d439 401f 5e3b abd7 57b8 f01b 413b
00000280: b058 b43a e1a9 a4b8 9dc6 833a 5c78 3fbb
00000290: 6de8 6f3b 5348 b7b9 d6d2 e53a 545d a9bb
000002a0: 2255 653b d5da b9ba 0c31 33bb 4cd2 34bb
000002b0: da07 c2b9 5b7a 3d3a f7be ea39 a0be 91b9
000002c0: b3ca 09bb 636d e1b9 961b b93b 60d3 233a
000002d0: da07 adbb 2c2f 84b9 9bd8 51bb 0c1e 5eba
000002e0: a002 90ba f2ea 3b3b b11f 53bb c1f5 633b
000002f0: 7927 03bb 59a5 b0bb e636 dfb7 d30f 813a
00000300: 9e1b b8ba 0ec2 74ba 027e a03a 27fc 8b3a
00000310: 2322 12bb a47c 19b9 04d7 ceb9 92be 39bb
00000320: 449f 5cba b5b4 bc3a e4f8 003b 5e5e 2fbb
00000330: a37d 2c3b e671 11bb e6e9 43bb bfc6 80ba
00000340: 0d31 b7ba a1fc bfbb 8bfa 0abb a66a a83a
00000350: 77a6 023c a70a 213b 6e3d 2e3b dc44 103b
00000360: a2cf 9439 d064 5d39 c2ae 8cbb 865b 083b
00000370: fb79 3c38 94db 7138 3067 61bb f374 a93a
00000380: 01cb c5bb d1bf a2bb d030 94ba 6646 faba
00000390: dee0 d13a 274e 9f3b 9268 b0ba 6339 8cba
000003a0: 022c cabb 26ea 693a dcfa 0bb9 dc5b b43a
000003b0: 7ca7 84bb 0db0 5bbb c1f9 db3a 8f24 e6ba
000003c0: 4847 ca3a 5298 2bbb bb6c c1bb 1d86 853a
000003d0: 5e74 cfba 05d0 10bb 697f a73b 396e 9ebb
000003e0: fa2b 51ba c0a8 16bb f8c6 8c3a 856b 43ba
000003f0: f1af 47bb bbba d83a f0c8 48ba f64f dd3a
0.0017416449 0.0079094535 0.0027966944 0.0012154352 -0.0009349621 -0.0018362434 0.0013275106 -0.0029001897
0.002221731 0.00022673173 -0.0019076294 -0.00014246437 -0.0002744608 0.0048090806 0.003207063 -0.005701531
3.5983796e-06 0.001804306 -0.0037268815 -0.00068680546 0.0011489987 -0.00031359817 0.0072148507 -0.00017316919
-0.0043794983 -0.0031914474 0.0006416381 0.00426024 -0.004356441 0.0034362285 -0.0035677024 0.0046208343
-0.0022506262 0.00077883375 0.0012203364 -0.0015387787 -0.0019497754 -0.0045688306 -0.0063313246 -0.0026083027
0.00028844996 -0.0010551383 -0.00027063588 0.0021708687 -0.00076520466 -0.0007532561 -0.0073900595 0.0023516656
0.0007384315 0.0026856256 0.002275244 -0.003120417 0.0034543385 0.0006786882 0.0064672166 0.0016016334
0.00060774916 0.0019436013 -0.008780099 -0.0025547973 -0.0038665442 -0.0015484176 -0.0018462813 -0.0029059527
-0.0019656895 0.0049546976 0.0006917709 9.307506e-05 -0.00094932434 -0.0014567946 0.00042243433 -0.00065080775
0.00017237356 0.002406413 -0.0031711422 -0.0012685182 0.0005639076 -0.0016495308 -0.004157464 -0.00034559637
0.0010319838 0.0020358465 0.0009498762 -0.0010236946 -0.0048861844 -0.0009678767 0.0011621573 0.0011388017
0.00064670696 -0.0036726715 0.0015605399 0.00061160803 -0.0028027524 0.0001541172 -0.0030609467 0.0032683772
-0.005000656 -0.0040491577 -0.007170465 0.0016416446 -0.0022790276 -0.0014339559 0.0016024923 -0.00060769066
-0.003426777 0.00036385903 0.0031560264 7.3702664e-05 -0.0023971072 0.0030090644 -0.00017151391 0.0009405848
0.0017457482 -0.0031772845 0.00530392 -0.0009378039 -0.00419728 0.005313763 0.0048920554 0.0008126878
-0.003304261 0.002215232 0.0004564719 -0.0033832053 0.005016531 -0.0019623635 0.0033858141 -0.0054498566
0.0010312382 -0.00025409134 -0.0020627307 0.00013221489 0.0058087576 0.0011209551 -0.00084215414 0.002650979
-0.0019650806 -0.00034330937 0.00052824564 0.002783272 -0.001117867 -6.1063092e-06 -0.0006333742 -0.0031070048
-0.0012629505 -0.0038268552 -0.0019621712 -0.0012147785 -0.0008565448 -0.0011771661 -0.0040481915 -0.0016960198
-0.0020787087 -0.0017511878 -0.002634089 3.7950358e-05 0.00040591834 0.0033893138 -5.146085e-05 0.0029466115
0.0013759341 -7.851772e-05 0.0010053698 -0.0029216027 0.0036607042 -0.00034958366 0.0017534147 -0.0051685963
0.003499337 -0.0014179597 -0.0027342467 -0.0027591167 -0.00037008413 0.000722801 0.00044774238 -0.00027798582
-0.002102536 -0.00042996844 0.0056490405 0.0006249454 -0.005280477 -0.00025212148 -0.0032019976 -0.0008473105
-0.001098711 0.0028673974 -0.0032214934 0.0034783932 -0.0020012541 -0.0053908047 -2.6609236e-05 0.0009846635
-0.0014046317 -0.0009336778 0.0012244585 0.0010680006 -0.002229818 -0.0001463765 -0.0003945158 -0.0028342349
-0.00084160664 0.0014397117 0.00196796 -0.0026759128 0.0026320003 -0.0022193133 -0.0029894053 -0.0009824856
-0.001397641 -0.005858973 -0.0021206464 0.0012849167 0.007974259 0.0024573 0.0026586908 0.00220137
0.00028383458 0.00021113758 -0.0042932937 0.0020806505 4.4936296e-05 5.7663376e-05 -0.003439378 0.001292853
-0.006036163 -0.004966714 -0.0011306051 -0.0019094467 0.001601245 0.0048616114 -0.0013458899 -0.0010698255
-0.006169797 0.00089231355 -0.00013349525 0.0013760286 -0.004048286 -0.0033521682 0.0016782806 -0.0017558503
0.001543262 -0.002618332 -0.0059028543 0.0010187064 -0.0015827527 -0.0022096646 0.005111624 -0.004834917
-0.00079792703 -0.0022988766 0.001074045 -0.00074546813 -0.003046986 0.0016535142 -0.00076593366 0.0016884792

chords_tempNet.batchnorm_1.running_mean f4 [1024]
00000000: 2e9f 483b ab0f 943c fc56 5a3c 5212 313d
00000010: aee0 04bc 0877 ac3c 208e 393b ceda f13b
00000020: 54d9 0e3c 40c1 24bd 67cc 25bc 3161 99bc
00000030: 245f ccbc d89f 02bd a0e3 a8bb 9f2d 7d3c
00000040: 872c 8f3c 7c36 12bd 959e e43c e1a5 e5bc
00000050: ad9e 043d 0bd7 4cbc eb9e d8bb 0477 97bb
00000060: d43a 88bb d5e6 af3c 120f c3bb 1c85 043c
00000070: 2bbe c03c 91a7 b53c 4d02 b3ba 7948 6d3c
00000080: 6cae 90bd 1b70 e5bc 9525 8b3d 77bf 39bb
00000090: a810 59bb 5008 b53c 4440 a2bb 7deb f5bc
000000a0: 1cbf d13c b40e babc 1028 5e3b b85d 6e3d
000000b0: be74 2f3d 21c8 b43c 7384 723c 767a e0bc
000000c0: ed95 51bd 8327 1ebd b3dd 713d 8a51 293d
000000d0: 4216 8abc 5144 223b 8f49 4abd df19 44bd
000000e0: 5388 0b3d c728 c8ba 055b d1bb fcbb 093c
000000f0: e249 153d c857 f73c 8d56 1fbc 02a6 2f3a
00000100: 9f9a a9bc f883 b93c 3cf7 953c 8d0c 23bc
00000110: 5b26 3abd 8747 0cbd c382 5f3c e0c5 0bbc
00000120: 7789 87bc 596e c33b b457 aa3b 371f 5c3c
00000130: 455d 233c 948e 3abd 7b14 543c e98f 263c
00000140: 8993 02bb d5be 5ebd 2b7d 3fbb 6c92 e1bc
00000150: 950f cabb eb4f 62bd 2633 05bb 161c 0b3d
00000160: 598e 823b 9695 c2bc 7cad 88bc 830b c43c
00000170: 0c01 9abc dfea 5a3d 9ceb 193d 4524 27bb
00000180: 079b 893c 6b74 03bd e5ca b83c 310f a5bc
00000190: ae2b 0e3d 2a75 4a3b 58cc 173d a542 3bbd
000001a0: c664 bfbc a6fb a6bc 6488 4f3d 0862 023c
000001b0: 4e67 72bc 10a1 f03c 75c3 6bbb 4801 343d
000001c0: 9a39 1b3d de02 f33c 3128 343d 26f1 b0bb
000001d0: 03b0 bebc 6716 d7bc d520 b13c 0279 353d
000001e0: cb1c 5c3d 1801 f9bc f00e c93c 8f26 553b
000001f0: 6549 c73c 8454 23bd 2973 403d 4fc1 cc3c
00000200: 9824 56bd b945 fd3b a4e8 b5bc 300e a3bc
00000210: ab33 fe3c 902e 34bd 30ef 32bd b1f0 193d
00000220: 3215 08bd 12bc c03c 89c7 a53b b5d7 363d
00000230: 3182 313c e3a2 803c f5f3 143c 503c 823c
00000240: 9459 9b3c 5f83 2cbb d694 e63c f5c7 813c
00000250: dc8f 5c3d 76e3 2d3d ecdb d0bc 4f8f f2bc
00000260: 2b93 243d 9dd7 2fbd e192 273d 56d5 10bd
00000270: 118b b3bc a1a7 313c 4e12 9ebb c1c6 0fbc
00000280: d410 46bb 64f7 8abb 8034 43bd f2a8 eeba
00000290: 89ab eebc d2f0 163c 3c98 b7bc e271 04bd
000002a0: 9792 763c 9ff6 413c 2c50 193d d2e5 c83b
000002b0: 490f 4b3b 9919 13bd 752d 36bc 6b4c 34bd
000002c0: 4714 823b 5a0a 1a3c fceb a3bc 82f3 5cbc
000002d0: 7fe4 8dbc 34f5 213b 8998 85bb 4db0 b4bc
000002e0: 7a0f babc bd77 f7bc 21a4 babc 447f 38bd
000002f0: 2ef4 9037 1021 063d a585 d43c de82 71ba
00000300: 0d2c debc c97c 81bc 758a 4fbd 88cf 403c
00000310: 15a7 41bd 7974 9bbd 5f33 d4bc ba3c e4bc
00000320: c2bf 533d 34ee a9b9 7769 29bc 33c9 05bc
00000330: 1309 86bb ac16 8d39 c909 bb3c bff7 3c3d
00000340: 7c83 233d d58d 443d 2ae2 893b c540 1bbd
00000350: 4be4 a03c 3902 8cbc 5663 2fbc 1465 79bd
00000360: 5dec 0ebd 65ee b7bc 9072 1cbd 6ef8 6ebb
00000370: b150 043d ace7 bdbd cd6d d43c 00a9 b4ba
00000380: 8575 b93c b74c 1c3b ebcc 483b ae43 963b
00000390: 0cd3 4e3c 862f f9bc dd15 033d fb30 3cbc
000003a0: 957f 283d 967a 54bc 7d1d 883b b5e9 ac3c
000003b0: 60b5 3abd ecd4 1ebd 20a0 29bb 318f bdbc
000003c0: 38e7 843b 0936 b9bc 7c93 8bbc e41b 7bbc
000003d0: 4a71 b5bc b160 9cbc 4872 28bd 7bcd 86bc
000003e0: d7e8 b83c 7bb4 23bc ac09 bfbc 521d 823c
000003f0: c4d7 1abd 1a47 443c 9efc 883b 0e3d 703c
0.0030612457 0.018073877 0.013326403 0.043230362 -0.008110208 0.021052852 0.0028313473 0.00738082
0.008718807 -0.04022336 -0.010119534 -0.018723102 -0.02494771 -0.03189072 -0.005154088 0.015452771
0.017477287 -0.03569649 0.027907649 -0.028033199 0.032377888 -0.012502442 -0.0066107414 -0.004622342
-0.0041574035 0.021472374 -0.0059527243 0.008088376 0.02352818 0.022174628 -0.0013657302 0.014482611
-0.07064518 -0.028007558 0.067942776 -0.0028342882 -0.00331215 0.02209869 -0.0049515087 -0.030019516
0.025603823 -0.02271209 0.003389839 0.058194846 0.042835943 0.022068085 0.014802086 -0.027402144
-0.05116837 -0.0386119 0.05904932 0.041337527 -0.016856316 0.0024759958 -0.049386557 -0.047876235
0.034065556 -0.0015270942 -0.006389024 0.008406635 0.036447413 0.030193225 -0.009725225 0.00067004573
-0.020703612 0.022645935 0.018306367 -0.009951723 -0.045446735 -0.0342479 0.013642016 -0.008531064
-0.01654504 0.005964082 0.0051984433 0.013435177 0.009970968 -0.04554613 0.012944336 0.010166147
-0.0019924364 -0.05438121 -0.0029218893 -0.02753564 -0.0061664083 -0.055251997 -0.0020324676 0.03396233
0.0039842543 -0.023752969 -0.016684286 0.02393127 -0.018799327 0.053446647 0.03757821 -0.0025503796
0.016797556 -0.032093447 0.022557685 -0.020148845 0.034709625 0.003089259 0.03706011 -0.045717854
-0.023363482 -0.020383667 0.05066718 0.007957943 -0.014795138 0.029373676 -0.0035974656 0.043946534
0.03789673 0.029664453 0.043983642 -0.005399841 -0.023277288 -0.0262558 0.0216221 0.044304855
0.053738397 -0.03039603 0.024543256 0.0032524203 0.02432699 -0.039875522 0.046984825 0.02499452
-0.052280992 0.007729259 -0.022205658 -0.019904226 0.031030497 -0.043989718 -0.04368514 0.037583057
-0.03322334 0.023527179 0.005059187 0.044639308 0.010834263 0.01570267 0.009091367 0.0158979
0.018963613 -0.002632342 0.028147142 0.015842417 0.053848132 0.04245325 -0.025495492 -0.02960935
0.040179413 -0.042930234 0.04091156 -0.035359703 -0.021916898 0.0108431885 -0.0048239594 -0.008775414
-0.0030222433 -0.004240917 -0.04765749 -0.0018208309 -0.029134529 0.0092126895 -0.022411458 -0.03233517
0.015049598 0.011838584 0.037429973 0.0061309123 0.0030984452 -0.035913084 -0.011119236 -0.04401819
0.0039697024 0.009401882 -0.020009987 -0.013485791 -0.01732087 0.0024712803 -0.0040770215 -0.022056723
-0.022712458 -0.030208463 -0.02278334 -0.045043245 1.7279843e-05 0.032746375 0.025942633 -0.0009212921
-0.027120614 -0.015806573 -0.050669152 0.011768229 -0.047278482 -0.07590575 -0.025903402 -0.027860988
0.051696546 -0.00032411667 -0.010340086 -0.008165645 -0.004090437 0.00026910508 0.022831814 0.046134707
0.039920315 0.047986824 0.004207869 -0.037903566 0.019640109 -0.017090904 -0.010704836 -0.06088741
-0.034893382 -0.022452543 -0.038195193 -0.0036463994 0.032303516 -0.092727035 0.025931263 -0.0013783276
0.022639045 0.0023849437 0.0030639719 0.0045857048 0.01262356 -0.030418169 0.032003272 -0.011486287
0.041137297 -0.01296868 0.004153906 0.021107534 -0.04558313 -0.038777277 -0.0025882795 -0.023139568
0.0040558837 -0.022608774 -0.0170381 -0.015326474 -0.022148747 -0.019089075 -0.041124612 -0.016455403
0.022571964 -0.00999176 -0.023320042 0.015883122 -0.037803426 0.011979843 0.004180505 0.014662994

chords_tempNet.batchnorm_1.running_var f4 [1024]
00000000: 1b82 873c b968 603c 88a9 5d3c 7fb2 713c
00000010: 09e1 c53b 2064 bf3b 5d82 443c af20 3e3c
00000020: e16f 1e3c add2 d53b 3be9 833c 0879 293c
00000030: ed73 843b ef47 a03c a3d7 da3b 68c2 2c3c
00000040: 0065 163c 8806 133c bded 1d3c 32c5 a13b
00000050: 625d 9e3b 7272 5c3c 8393 223c e7ca 783c
00000060: f44a 113c aace 663c 2765 743c 4207 573c
00000070: b564 973c 04a9 2f3c f2c8 ca3b 02f1 4d3c
00000080: 1d37 363b f5f3 b43c 04fb 693c d190 023c
00000090: 067f 263c 6aca 003c 7179 cd3b e33d a03b
000000a0: 2b93 f63b d8ab 163c 6041 ea3b 6ea3 c83c
000000b0: 46be 113c 6555 293c 09a4 d93b f27c 0d3c
000000c0: 81be 363c e7d5 5b3c 54eb 693c 3b5f e53b
000000d0: 6c2d 2a3c 3e76 a23c b8fe 783c 8f49 333c
000000e0: 1117 813c 4395 9b3c 21b4 073c 64cc 243c
000000f0: 0bad 2b3c 7cf0 e13b 5d61 5f3c 3ec5 843c
00000100: 2f11 5e3c ca3a 4d3c d19c a03c ac8b 093c
00000110: 5641 0b3c 78a0 ef3b 9d8d 693c db98 cb3b
00000120: e2fe 483c 3bc7 5b3b c47e 053c 55a0 683c
00000130: ae77 b13c 2185 b43b 964d d23b a070 5c3c
00000140: af19 c13b 72fe 0c3c ad84 903c 5ab8 f53b
00000150: eed0 3f3c 2748 7c3c 58d8 923c 1b01 383c
00000160: 67e1 633c c419 af3c eaac 413c c453 ca3b
00000170: fa0a 8a3b e430 363c acc6 8b3c 345b c93b
00000180: 3360 003c e714 2f3c f45e 8a3c 1e3e 723c
00000190: d8bc dd3b 3fdc 023c 6c7f 363c ed86 7a3c
000001a0: 9711 633c 5cec 3b3c 79cd fe3c ee3e ca3b
000001b0: 4b89 063c 8980 0b3c e3f9 e33b 2fd7 703c
000001c0: 696e 813c bdab c83c 37c2 953c 23bd 8a3c
000001d0: 5553 933c 332a 233c e122 fb3b a9ad e13b
000001e0: 8bda d13b a3e0 0e3c ceb2 aa3b f5a0 1c3c
000001f0: 846d 3d3c 0b04 9c3c 1ffc 6c3c a623 ed3b
00000200: 139c 993b 96dd a63c 4349 c83b c9ee d73b
00000210: afec ba3c 44e1 0e3d fd33 b53c a3d4 133c
00000220: 502b c53c ecbf f33b c0f9 233c a2c6 583c
00000230: 1cdd bc3c bdf9 f53b 65aa 083c 5cfe 383c
00000240: cd3c b73b 882a 193c f0c1 313c 8e38 f23b
00000250: d99d 573c 2170 233c 49c7 eb3b 7952 5b3c
00000260: 8a69 023d c05c 493c 2cf9 213c c674 4b3c
00000270: 44d6 b93b 1cc0 eb3c c2ff 6c3c f370 923c
00000280: 8483 853c d443 c73c 2216 fa3c 25d9 353c
00000290: f95a 743c 9bf5 593c 7c4b 703c 1bd6 2e3c
000002a0: 2ec8 3a3c e69f 8f3c c8af dd3b 4e1e 573c
000002b0: 8493 bc3c 0395 bc3b 2769 6b3c d788 453c
000002c0: 590a 6a3c 3b17 063c 66c8 933b 104a 403c
000002d0: 6270 f23b be81 513c 556c 4c3c 8449 a03b
000002e0: b01b 0d3c e675 173c 6748 053c 89d0 893c
000002f0: f10a 473c 4518 2b3c 7a1a 923c 2e96 073c
00000300: 5767 a83c 4174 cd3b 3295 e73b d8a3 153c
00000310: d865 003c 43fd 973c e8d5 fb3c e6cd 073c
00000320: 7574 143c 762f 823c 61fa 993c 83bc 9a3c
00000330: 78c2 203c 96dd 683c 4dbd 583c 8bd7 273c
00000340: 46b6 203c 2c0b 173c 7994 533c 77e0 663c
00000350: 09c5 393c e063 d33b d7bd ff3b 74ed 5a3c
00000360: c47a cf3c 5709 0b3c 7a11 8f3c b23c 163c
00000370: d02a 7d3c b5d8 ac3c d62a 873c 437a 6c3c
00000380: 336b 7b3c 7caf a73c 9987 c43b 0b27 903c
00000390: 9008 0d3c e438 973b 41e3 cb3b a3e6 513c
000003a0: 22a7 013c 1bb8 2e3c 8324 4b3c a0dd 873c
000003b0: 6d21 633c 7f43 1e3c 0372 7b3c 6dcc 493c
000003c0: ca03 843c 1b57 0c3c 29a7 db3b 06ea 063c
000003d0: 8aaa 853c e432 cc3b c0a3 023c 09d6 bb3c
000003e0: 80bc dc3b a4f5 173c 743b 693c 4c53 3b3c
000003f0: dc94 963b 1e8e 7b3c c333 8d3c c830 1a3c
0.016541531 0.013696843 0.013529189 0.014752029 0.006038789 0.0058407933 0.011993972 0.011604472
0.009670229 0.0065253587 0.016102424 0.0103437975 0.0040421397 0.01956555 0.006678538 0.010544397
0.009179354 0.008973725 0.009639201 0.0049368376 0.0048329094 0.01345502 0.009922865 0.015185094
0.008867968 0.0140873585 0.014916695 0.013124289 0.018480638 0.010721449 0.0061885053 0.012569668
0.0027803846 0.022088984 0.014281038 0.007969097 0.010162121 0.007860759 0.0062705805 0.00489019
0.007524868 0.009196244 0.0071489066 0.024491992 0.008895462 0.010335301 0.006641869 0.008635746
0.011153818 0.0134176975 0.014277298 0.0069998777 0.010386806 0.019831773 0.015197448 0.010942831
0.01575807 0.018992072 0.008282692 0.010058496 0.010478268 0.006895123 0.013634053 0.016207334
0.013553902 0.012526223 0.019606026 0.008395117 0.008499464 0.0073128305 0.014254955 0.00621329
0.0122678 0.0033535499 0.008147899 0.014198382 0.021663513 0.0055090343 0.0064179404 0.013454586
0.0058929543 0.008605586 0.01764139 0.007498783 0.011707528 0.015398062 0.017925426 0.011230732
0.013908721 0.02137459 0.011821011 0.0061745364 0.0042127343 0.011120055 0.017062508 0.0061449055
0.007835436 0.010686136 0.01689098 0.014785318 0.0067668967 0.007987081 0.011138778 0.015290958
0.013859174 0.011469927 0.031103836 0.0061720526 0.008211444 0.008514532 0.006957279 0.014699741
0.015799718 0.024495954 0.018281085 0.01693589 0.017984072 0.009958792 0.00766407 0.006887157
0.006404226 0.00872055 0.0052093035 0.0095598595 0.011561755 0.019044897 0.014464407 0.0072369156
0.004687795 0.020369332 0.006112249 0.0065897447 0.022817938 0.0348828 0.022119517 0.0090228645
0.024068505 0.0074386504 0.0100082755 0.0132309515 0.023054652 0.0075065778 0.0083414065 0.011291113
0.005591965 0.009348519 0.010849461 0.0073919958 0.013160192 0.009975464 0.0071953875 0.013386362
0.03183893 0.01229018 0.009886067 0.012417978 0.0056712944 0.028778128 0.014465274 0.017876124
0.016298063 0.024324335 0.030528132 0.011099135 0.014914268 0.013303186 0.014666434 0.010671164
0.011400266 0.0175323 0.0067653395 0.013129784 0.02301956 0.0057550683 0.014368332 0.012056551
0.014284694 0.0081842495 0.0045099733 0.011736408 0.007398651 0.012787281 0.012477 0.0048915762
0.008612558 0.009244418 0.008134938 0.01682307 0.012148605 0.010442798 0.01783489 0.008275552
0.020557089 0.006269962 0.007067346 0.009133302 0.007836781 0.018553382 0.030741647 0.008288836
0.009060969 0.015891772 0.018796148 0.018888718 0.00981199 0.014212986 0.013228727 0.010244261
0.009809082 0.009218972 0.012913817 0.0140916025 0.011338481 0.006451115 0.007804613 0.013362277
0.025327094 0.0084861135 0.017464388 0.009169744 0.015452102 0.021099428 0.016499918 0.014433446
0.0153453825 0.02046942 0.00599761 0.017596742 0.0086079985 0.004614936 0.006222159 0.012811336
0.007913383 0.010664011 0.012398842 0.016585171 0.01386295 0.009659647 0.015347007 0.012316805
0.016115088 0.008565689 0.0067032767 0.0082345065 0.01631667 0.0062316526 0.007973611 0.022929208
0.006736338 0.009274874 0.014235366 0.011433434 0.004595382 0.015353708 0.017236596 0.009411044

chords_tempNet.batchnorm_2.weight f4 [32]
00000000: f448 6b3d acdf c939 950b 3abd 0d01 3cbd
00000010: 158e b23b 3e11 bebc d717 803c 58b1 ab3c
00000020: c364 1d3c 750d 5e3c d33a 7abd 20a4 8ebb
00000030: f42e f53c cd1a f33b b003 0f3b 5b79 123d
00000040: 6f61 9b3c d59d 6e3c f524 5fbc ea08 a2bc
00000050: 3887 073d 601a 88bc f514 d9bc d2b1 e93a
00000060: 6912 c83c 65e7 0fbd 102e abbc 6f81 cabc
00000070: c783 223d e524 fc3b a100 2fbc 9f0e 28bd
0.05744262 0.00038504356 -0.0454212 -0.04589944 0.0054490664 -0.023201581 0.015636368 0.020958588
0.009606543 0.013553013 -0.061091255 -0.0043530613 0.029929616 0.0074189664 0.0021822266 0.035760265
0.018967358 0.014563997 -0.013619651 -0.019779641 0.03308794 -0.01661414 -0.02649925 0.0017829484
0.024422841 -0.035132784 -0.020895988 -0.024719922 0.039676454 0.007694828 -0.010681302 -0.04102957

chords_tempNet.batchnorm_2.bias f4 [32]
00000000: 0068 393c 308a b4bb e579 0c3c 55a2 c63b
00000010: c52d 5539 011b 9b3b e276 963b f67c 613b
00000020: 121f f4b9 b324 793a 5de0 0f3c 8bd8 893b
00000030: 69fb 8c3b 27f6 713b 9e27 733b d657 903b
00000040: 4c14 fc3b 41e9 a83b 4bc1 d73b 5823 b23b
00000050: bca4 9f3b 635d 233b 8e9d 1c3c a27e 4dbb
00000060: b03c 7d3b 240f 683b 2911 7d3b 8fb0 783b
00000070: 8dc9 833b 7425 b83a d24a ef39 bda1 bb3b
0.011316299 -0.0055096373 0.008573984 0.006061832 0.00020330313 0.0047334437 0.0045918087 0.0034406758
-0.00046562456 0.0009504065 0.00878152 0.004206722 0.0043024314 0.00369204 0.003710247 0.004405002
0.0076928493 0.005154759 0.0065843216 0.005436342 0.004871933 0.002492749 0.009559048 -0.0031355997
0.003864091 0.0035409415 0.0038614965 0.0037947034 0.0040218295 0.0014049248 0.00045641378 0.005726068

chords_tempNet.batchnorm_2.running_mean f4 [32]
00000000: 2917 273e 2eb9 03be b6df 22bc 132c e1bd
00000010: c2d8 0dbe 3466 88bc eacc 21bd 0e53 1a3e
00000020: 84e1 5b3c 9f84 c6bd bc1c 10be 3709 5cbd
00000030: dc29 6fbd 1dec cdbd 8409 f93d 45ec 1e3e
00000040: 7842 ddbc 9e59 bc3d 65c9 b03c 1ad3 21bd
00000050: ea8d babd a763 14be b991 33be 2232 733b
00000060: 8fd1 0fbe d8da 123b 3067 f73d f808 dd3d
00000070: 6566 82bd 23a8 ffbd 7fd3 26bc c3d9 c63d
0.16317429 -0.12863609 -0.009941032 -0.109947346 -0.13852218 -0.016650297 -0.039502062 0.15070745
0.013420466 -0.09693264 -0.14073461 -0.053719725 -0.05838953 -0.10054801 0.12160018 0.15519817
-0.027009234 0.091967806 0.021580407 -0.039507963 -0.09109099 -0.1449114 -0.17536058 0.003710874
-0.14044784 0.0022408273 0.12080228 0.10792726 -0.063671865 -0.124832414 -0.010182261 0.097095035

chords_tempNet.batchnorm_2.running_var f4 [32]
00000000: 1ed9 3a39 8b90 bd38 237d 1a39 dae2 3939
00000010: 6190 9638 8f0e b038 238e 1439 a80d c638
00000020: 1665 c838 8acf ab38 ed75 1a39 3e8b 7538
00000030: 0f91 9138 a2dd 2939 2e7f 7738 c118 e338
00000040: 497a 0039 bb9c b838 8c67 3838 6125 2e39
00000050: 479c 0739 f239 9038 5333 0b39 581c 6b38
00000060: 7399 e238 58ca 4039 cd1c 2838 495e 4339
00000070: d027 5639 89b4 1a38 7c27 7c38 5c81 dc38
0.00017819225 9.0391455e-05 0.00014733202 0.00017727484 7.17945e-05 8.395046e-05 0.0001416733 9.4439194e-05
9.555572e-05 8.1925726e-05 0.00014730515 5.854223e-05 6.941158e-05 0.0001619966 5.9007834e-05 0.00010828814
0.00012252586 8.802997e-05 4.3965454e-05 0.00016607858 0.00012932821 6.877248e-05 0.00013275193 5.6054763e-05
0.00010805102 0.00018385926 4.0081144e-05 0.00018631773 0.00020423462 3.6884598e-05 6.0118255e-05 0.000105145125
