run_1/weights/weights-g-100.pth (torch, 418811 bytes, 12 tensors)

chords_tempNet.convT_in.weight f4 [32, 1024, 2, 1]
0	0x3c73c67b	0.014878864
1	0xbc16b965	-0.009199475
2	0x3ba442d8	0.005012851
3	0x3d0249da	0.03180871
4	0xbc91fe4e	-0.017821457
5	0x3d0b052d	0.033940483
6	0xbc3a454f	-0.0113690635
7	0xbb9da118	-0.0048104636
8	0x3cc91cd5	0.024549881
9	0xbc5f2b74	-0.0136212
10	0xbb9cea03	-0.0047886386
11	0xbc02069c	-0.007936146
12	0x3b995460	0.0046792477
13	0xbc6b0ceb	-0.014346342
14	0x3cc538f6	0.024075013
15	0xbbbcfaf2	-0.0057672197
16	0x3d1fd308	0.039019614
17	0x3cf304af	0.02966532
18	0xbc7f28b6	-0.015573671
19	0xbc4c14a9	-0.012456098
20	0x3c115e8a	0.0088726375
21	0xbc4f246e	-0.012642963
22	0x3c0b2307	0.008492238
23	0xbc0ef199	-0.008724594
24	0xbb888ef6	-0.004167433
25	0x3c18a15b	0.009315814
26	0x3c7bf788	0.01537884
27	0xbd10d239	-0.035356734
28	0x3c7b72ed	0.015347225
29	0xba8d51a6	-0.001078178
30	0xbbb92473	-0.005650097
31	0xbd0b6259	-0.03402934
32	0x3b8a9544	0.0042292196
33	0x39828a6d	0.00024898667
34	0xbc4efdd9	-0.012633764
35	0xbbc416de	-0.0059841713
36	0x3c48897f	0.012239813
37	0xbc3b8f66	-0.011447763
38	0x3d53efcc	0.05174236
39	0xbcfe8d19	-0.03107314
40	0x3c70664e	0.014672829
41	0xbb96d5a2	-0.0046031037
42	0xbb5473dc	-0.003241769
43	0xbc1713de	-0.009221045
44	0x3c7e54d6	0.015523156
45	0x3c220156	0.009888014
46	0x3d275adc	0.040858135
47	0x3c813ad2	0.015775118
48	0xbd59b92d	-0.053155113
49	0xbcf14e74	-0.029456355
50	0xbc5086cc	-0.012727451
51	0xbcf04a8d	-0.029332424
52	0xbc5cdcbd	-0.0134803625
53	0xbb924719	-0.004464042
54	0xbc1ba877	-0.009500614
55	0xbcb3c9c6	-0.021946799
56	0xbcaf28ce	-0.021381762
57	0xbadb4ef0	-0.0016731899
58	0xbc94d08f	-0.018165855
59	0x3a3e089a	0.00072492065
60	0x3cd0d91a	0.025494147
61	0xbc752beb	-0.014964084
62	0xbc706856	-0.014673313
63	0x3c5f3930	0.013624474
64	0x3aeb8e77	0.0017971535
65	0x3a334433	0.00068384706
66	0x3c9cc6f4	0.019137837
67	0x3cc03cad	0.023466432
68	0xbb356f6a	-0.0027684816
69	0xbcd30c93	-0.025762832
70	0x3cbad2b7	0.022805555
71	0x3c8de988	0.01732327
72	0xbb353e6f	-0.0027655622
73	0x3a5a299f	0.0008322242
74	0x3c42340c	0.011853229
75	0xbcd69dae	-0.026198234
76	0xbc875ffe	-0.016525265
77	0xbc6207dd	-0.01379582
78	0x3c6da279	0.0145040685
79	0x3b0faa34	0.0021921517
80	0x3bcde224	0.0062830616
81	0xbb2f06fd	-0.0026707046
82	0x3c0b3a30	0.00849776
83	0x3ac50409	0.001503111
84	0x3c64d1fd	0.013966081
85	0xbb028f24	-0.0019921744
86	0x3badccc0	0.005303949
87	0x39bb6c0b	0.00035747918
88	0xbd23ed6d	-0.04002135
89	0xbcae05ac	-0.021242939
90	0x3bf09868	0.007342387
91	0xbc81ada0	-0.015829861
92	0x3cde0a37	0.02710448
93	0x3c53ccc5	0.012927239
94	0x3ba4d00b	0.0050296835
95	0xbcf06d01	-0.029348852
96	0xbd0914fc	-0.033467278
97	0x3c3b1319	0.011418127
98	0x3b6e72eb	0.0036384414
99	0xbbeb2103	-0.007175566
100	0x3c5f52ac	0.01363055
101	0x3c8fa01c	0.0175324
102	0xbc941c77	-0.01807998
103	0xbcdeff6f	-0.02722141
104	0x3c3bf42d	0.01147179
105	0xbbf3cd89	-0.007440273
106	0xbbfdd854	-0.0077467356
107	0x3d1efa1d	0.038812745
108	0x3caa4ab6	0.020787578
109	0x3a7ec837	0.00097191654
110	0xbbdc93c6	-0.006731483
111	0xbc947d93	-0.018126285
112	0x3c607318	0.0136993155
113	0x3d0c3b61	0.034236316
114	0x3c935d44	0.017988808
115	0x3b8d631f	0.0043147947
116	0x3caeda48	0.021344319
117	0x3cd3acc7	0.025839223
118	0x3ca947d5	0.020664135
119	0xbc611714	-0.013738412
120	0x3cb88260	0.022523105
121	0xbc6ffa83	-0.014647129
122	0x3bdc2496	0.0067182286
123	0xba7ee3d4	-0.000972328
124	0x3c6cca04	0.014452461
125	0xbcab664a	-0.020922799
126	0xbbd91141	-0.0066243713
127	0xbc2b1802	-0.010442736
128	0xbc0a0ecd	-0.00842638
129	0x3cf06b99	0.029348182
130	0x3c06a23f	0.008217393
131	0xbc8670e7	-0.016411258
132	0xbca9bd82	-0.020720247
133	0x3b3e87a6	0.0029072552
134	0xbbf1652a	-0.007366796
135	0x3ca4752e	0.020075407
136	0xbab01ccb	-0.0013436315
137	0x3c85408c	0.01626613
138	0x3c881084	0.016609438
139	0xbcdb0014	-0.026733436
140	0x3cf56759	0.029956507
141	0xbb45d1fc	-0.0030184975
142	0x3d17bf09	0.03704742
143	0xbcb53306	-0.022119056
144	0x3cd2ddd0	0.025740534
145	0xbc421139	-0.0118449265
146	0x3cf000a6	0.029297184
147	0x3ce07246	0.02739824
148	0x3b9029c6	0.004399511
149	0x3c8a13f6	0.016855221
150	0x3c2b7220	0.010464221
151	0xbbc9cefa	-0.0061587067
152	0x3b97f103	0.004636885
153	0x3cb29350	0.02179876
154	0xbb8c6b1b	-0.004285229
155	0xba77655f	-0.0009437408
156	0xbcb8a2cd	-0.022538567
157	0x3cae237e	0.021257158
158	0x3d050cd5	0.03248294
159	0x3c8cef90	0.017204076
160	0xbc66d677	-0.014089218
161	0xbd39c3ff	-0.045352932
162	0xbbc583a5	-0.006027656
163	0x3be26b1e	0.006909742
164	0xbc7ea076	-0.015541187
165	0x3bfd0124	0.0077210832
166	0xbd2afcbd	-0.041744936
167	0x3cd22942	0.025654439
168	0x3a7e9380	0.000971131
169	0xbca7ba5e	-0.020474609
170	0xbc0e84cb	-0.0086986525
171	0x3c277d76	0.010222783
172	0x3b26087b	0.0025334645
173	0xbbab3334	-0.0052246097
174	0x3c7c4f48	0.0153997615
175	0xba56736f	-0.0008180653
176	0x3bfcfc39	0.007720497
177	0x3cc2f4a3	0.023798293
178	0xba8cf87e	-0.0010755209
179	0xbca3e7a5	-0.020007918
180	0x3c5145bd	0.012772975
181	0x3c8e02a6	0.017335247
182	0xbb50ffcb	-0.0031890746
183	0xbb749895	-0.0037322391
184	0x3cd847a8	0.026401356
185	0x3bddc618	0.0067679994
186	0x3c3384ce	0.010956956
187	0xba47d5d4	-0.00076231104
188	0xbc5312a1	-0.012882859
189	0x3cc0b55e	0.023523983
190	0xbd092923	-0.033486497
191	0xbd07b15d	-0.03312813
192	0xbd0408c8	-0.032234937
193	0xbc44833f	-0.011994182
194	0x3d17b8ac	0.03704135
195	0x3c89ca43	0.016820079
196	0xb9cf2e55	-0.00039516637
197	0xbd086928	-0.03330341
198	0x3cdc5aaf	0.02689871
199	0x3b4885bb	0.0030597288
200	0xbba46f11	-0.005018123
201	0x3c0c2445	0.008553569
202	0xbc87222c	-0.016495787
203	0xbd3802be	-0.04492449
204	0x3c73964b	0.014867376
205	0x3ba8d88f	0.005152769
206	0x3ce5d3dd	0.028055126
207	0x3ae81f81	0.0017709584
208	0x3c0991a0	0.008396536
209	0xbc8a27ff	-0.016864775
210	0x3c8ac45b	0.016939333
211	0xbcf4def4	-0.029891469
212	0x3acdb0a8	0.0015692906
213	0xbcb89ee2	-0.022536699
214	0xbc868cd0	-0.016424567
215	0xbcc5cfa5	-0.024146864
216	0x3d0cd2ad	0.034380604
217	0xbca739cb	-0.0204133
218	0xbc51c914	-0.012804288
219	0xbd0e6f9b	-0.034774404
220	0xb94c2c03	-0.00019471352
221	0x3aba7fd0	0.0014228765
222	0x3d6954b8	0.05696556
223	0x3c5faed9	0.013652527
224	0xb9bf9400	-0.00036540627
225	0xbcc4018d	-0.02392652
226	0xbc84bb78	-0.016202673
227	0xbb43eda1	-0.0029896277
228	0xbb739ee3	-0.0037173561
229	0xbba97f0d	-0.0051726163
230	0x3b4ca811	0.0031228105
231	0x3d197423	0.037464272
232	0x3c7c0cea	0.015383938
233	0xbd113172	-0.035447545
234	0x3c065841	0.008199752
235	0x3c75165c	0.014958944
236	0xbd1381c1	-0.036012415
237	0x3ca9f5b4	0.020747043
238	0xbac0c625	-0.0014707489
239	0x3b59bdd7	0.0033224726
240	0x3aa8ed06	0.0012888021
241	0x3c946a5a	0.018117119
242	0xbbe0adad	-0.0068566413
243	0x3ca1bb14	0.019742526
244	0xbc4c0505	-0.012452369
245	0x3b8f2eb2	0.00436958
246	0xbbfec2c1	-0.0077746813
247	0xbc456486	-0.012047892
248	0xbc1627c3	-0.009164753
249	0xbce8128c	-0.028329156
250	0x3ccd8ec8	0.025092497
251	0x3cc436e0	0.023951948
252	0x3c34fd63	0.01104674
253	0x3b40e909	0.0029435775
254	0xb95d782c	-0.0002112097
255	0x3c3fdf59	0.011710965

chords_tempNet.convT_in.bias f4 [1024]
0	0x3c963dea	0.01834007
1	0xbc106b36	-0.008814624
2	0xbcb1f5ef	-0.021723716
3	0xbc55772d	-0.013028902
4	0x3c40f759	0.011777722
5	0x3c7a1240	0.01526314
6	0xba0ba513	-0.0005327027
7	0xbcb1f82e	-0.021724787
8	0xbc38cc03	-0.011279109
9	0x39c0dd6e	0.00036786072
10	0x3c4ea3f5	0.012612333
11	0x3c3ae934	0.011408139
12	0xbb9d9ee8	-0.004810203
13	0xbc4b9be6	-0.012427306
14	0xbc029aa0	-0.007971436
15	0x3ab21b2d	0.0013588421
16	0x3b933618	0.0044925325
17	0xbc5ecc1f	-0.013598471
18	0x3b8d9ee9	0.004321922
19	0xbca4f146	-0.02013458
20	0x3bb72c9d	0.005590035
21	0xbc4e048f	-0.012574329
22	0xbc1a6925	-0.0094244825
23	0xbcaaa49f	-0.02083045
24	0x3c67f833	0.014158296
25	0x3bf2ae6b	0.007406046
26	0x3bf7f504	0.00756705
27	0x3cb4b80f	0.022060422
28	0xbc0619cc	-0.008184861
29	0x3c882f6e	0.016624179
30	0xbc8b0c9b	-0.016973784
31	0x3b329619	0.002725011
32	0xbb6d9b73	-0.0036255985
33	0x3c5a2d9b	0.013316537
34	0xbc87cc93	-0.01657704
35	0x3b927d6b	0.0044705174
36	0x3c904896	0.017612737
37	0x3c407e16	0.011748811
38	0xbc3b3eb0	-0.01142852
39	0x3b2a292b	0.002596448
40	0xbc8bd995	-0.017071525
41	0x3a09a62d	0.00052508974
42	0xbc92f194	-0.017937459
43	0xbcac8863	-0.021061128
44	0xbcaf6418	-0.021410033
45	0x3c5b3a34	0.013380576
46	0xbc23a2cb	-0.009987543
47	0xbbc050b9	-0.005868998
48	0x3b3ac050	0.0028495975
49	0xbc56c0ac	-0.01310746
50	0xbc8a0f0d	-0.01685288
51	0x3c0903e6	0.008362746
52	0x3c927ed8	0.01788275
53	0xbc99b4a1	-0.018762888
54	0x3c8221ab	0.015885195
55	0xbc9910be	-0.018684741
56	0x3be29ab4	0.0069154147
57	0xbb3b250a	-0.0028556013
58	0x3b86a4cd	0.0041090013
59	0x3c0dcce9	0.008654811
60	0x3c8b55f0	0.017008752
61	0xbc5812e0	-0.013188094
62	0xbc792c1e	-0.015208272
63	0xbc44b802	-0.0120067615
64	0xba529151	-0.0008032518
65	0xbc72d8b4	-0.014822174
66	0xbc944e2a	-0.018103678
67	0xbc709d59	-0.014685952
68	0x3c641cfa	0.013922924
69	0x3ca42e8d	0.020041728
70	0x3b75c483	0.0037501163
71	0x3cb05290	0.021523744
72	0x3c948ba2	0.018132988
73	0x3c0d8257	0.0086370325
74	0xbab60469	-0.0013886812
75	0x3a4bf088	0.00077796774
76	0xbca751a9	-0.02042468
77	0x3c1bd1fa	0.0095105115
78	0x3b361046	0.0027780696
79	0x3c6886e5	0.014192318
80	0x3c1302ab	0.008972804
81	0x3c34ae66	0.011027908
82	0xbb6ef2ca	-0.0036460632
83	0x3c8052d6	0.0156645
84	0xbb9d15d5	-0.0047938623
85	0xbaabb058	-0.0013098819
86	0xbc2f94d2	-0.010716634
87	0x3c6f5400	0.0146074295
88	0x3ae4420f	0.0017414707
89	0x3c0641dd	0.008194414
90	0x3bfa313f	0.007635265
91	0xbc8fa2a7	-0.017533613
92	0x3c42ebb5	0.011897017
93	0x3c42eee3	0.011897775
94	0x3ae10a9d	0.0017169301
95	0xbaec0081	-0.0018005521
96	0xbcaea260	-0.02131766
97	0xbca15e25	-0.019698212
98	0x3ca95d16	0.02067427
99	0xbc25158f	-0.010075941
100	0xbb8b9d0f	-0.004260666
101	0xbc8f6692	-0.017504964
102	0xbc0fedf7	-0.008784763
103	0xbc42bb70	-0.011885509
104	0xbc648405	-0.0139474915
105	0x3ca4c482	0.020113233
106	0x3c99a52a	0.018755514
107	0xbcaed062	-0.021339599
108	0x3b5c9c14	0.0033662366
109	0xbc1e9c59	-0.009680831
110	0xbcb1fdad	-0.021727407
111	0xbb83c76b	-0.004021575
112	0x3bd8fbdf	0.0066218222
113	0xbc65dfb4	-0.014030386
114	0x3c16cbf7	0.009203902
115	0xbcb3ada6	-0.021933388
116	0xbc515fd7	-0.012779198
117	0x3c1aa854	0.009439547
118	0x3adcff1b	0.0016860695
119	0xbc50924c	-0.012730192
120	0xbcac9e2f	-0.021071522
121	0x3c659984	0.014013652
122	0xbc3c57dd	-0.011495558
123	0xbb3df1f1	-0.002898332
124	0xbbd9c80d	-0.0066461624
125	0x3c98c51d	0.018648678
126	0x3ca86e8c	0.020560525
127	0x3be2e4c6	0.0069242446
128	0x3b594082	0.0033150022
129	0x3c89a75f	0.016803442
130	0x3c68da8f	0.014212265
131	0xbc683494	-0.014172692
132	0x3c5b3b6d	0.013380867
133	0xbaad2f7b	-0.0013213003
134	0x3c9c61a3	0.019089526
135	0x3c981fe3	0.018569892
136	0x3cac1194	0.021004476
137	0xbc9be31f	-0.019029198
138	0x3bf73ff7	0.007545467
139	0x3cacf34d	0.021112109
140	0x3c740083	0.0148927
141	0xbc12a56b	-0.0089505715
142	0x3bd7a228	0.00658061
143	0xbc80fdf8	-0.015746102
144	0xbc70cca1	-0.014697225
145	0xbca78793	-0.020450389
146	0x3c57691b	0.013147618
147	0xbbf3b717	-0.0074375975
148	0x3ae9dd1d	0.0017842386
149	0x3c637ce8	0.01388476
150	0x3c2c21ab	0.010506074
151	0xbb63504d	-0.0034685314
152	0xbc5f8fac	-0.013645094
153	0xb929948f	-0.00016172438
154	0xbc6d0eb4	-0.0144688375
155	0xbbf30cbb	-0.007417289
156	0xbca0726e	-0.019585814
157	0x3c4b44c2	0.01240653
158	0xbbbf0709	-0.005829696
159	0xbc17f28f	-0.009274139
160	0x3bf88cd1	0.007585146
161	0x3c591903	0.013250592
162	0xbc431a4a	-0.011908123
163	0xbc2b1da5	-0.0104440795
164	0xbbcdda9c	-0.006282164
165	0x3c50d3f5	0.012745847
166	0xba57de27	-0.00082347024
167	0x3bd7d077	0.0065861302
168	0x3c991a2e	0.018689241
169	0x3c8ad667	0.016947938
170	0xbc74f862	-0.014951797
171	0xba4bf372	-0.00077801116
172	0xbca8e4cf	-0.020616917
173	0x3ca12f40	0.01967585
174	0xbbae6a84	-0.0053227562
175	0x3c2b0b74	0.010439742
176	0xbcb1c43f	-0.021700023
177	0xbc98005e	-0.018554863
178	0xbc3bfe08	-0.01147414
179	0xbbb851df	-0.005624994
180	0x3c8b0d42	0.016974095
181	0x3ca1404a	0.019683976
182	0x3bde62c7	0.0067866775
183	0x3c67a94c	0.014139485
184	0xbc93fe47	-0.018065585
185	0x3c511985	0.012762432
186	0xbc9088d8	-0.017643377
187	0xbbabd8ec	-0.005244365
188	0xbb1feea5	-0.0024403718
189	0xbc4f9eff	-0.012672185
190	0x3c9bde6d	0.01902696
191	0x394cb18e	0.000195211
192	0xbc70607b	-0.01467144
193	0x3c145584	0.009053592
194	0x3c1fb1fb	0.009747024
195	0xbca9286e	-0.020649161
196	0x3b516957	0.0031953657
197	0xbc524b19	-0.0128352875
198	0x3c41d37c	0.011830207
199	0xbbb92036	-0.005649592
200	0xbca4c946	-0.020115506
201	0x3c269484	0.010167245
202	0x3cb1bce0	0.021696508
203	0x3ab31a4d	0.0013664454
204	0x3c04ffec	0.008117657
205	0xbc768bfc	-0.015048023
206	0x3c4be82b	0.01244549
207	0xbca99151	-0.020699175
208	0x3c921129	0.017830448
209	0xbbadb1be	-0.0053007295
210	0xbc45b0ee	-0.012066109
211	0x3c25313a	0.010082537
212	0xbc88646a	-0.016649444
213	0x3c1abcc1	0.0094444165
214	0xbc8a17c5	-0.016857037
215	0x3c790280	0.01519835
216	0x3c6798fd	0.014135596
217	0xbc0fb925	-0.008772169
218	0xbc9b06cc	-0.01892414
219	0xbca1d292	-0.019753728
220	0x3c55ab9d	0.013041404
221	0xbc7bcebd	-0.0153691145
222	0xbbcaf81e	-0.0061941287
223	0x3c591b2e	0.013251109
224	0xba803180	-0.0009780377
225	0xbc878ea6	-0.016547512
226	0x3c279c71	0.01023017
227	0x3c8139b0	0.015774578
228	0xbc9ad69c	-0.018901162
229	0x3c826471	0.015917035
230	0x3ae9db5d	0.0017841865
231	0x3c8f3fb9	0.01748644
232	0x3b07dbef	0.0020730456
233	0xbc2db8ec	-0.010603171
234	0xbbc91c47	-0.006137404
235	0x3bc138ef	0.0058966796
236	0xbbc30745	-0.0059517943
237	0x3c6b7f21	0.014373572
238	0x3b5c6291	0.0033628086
239	0x3c05c06c	0.008163553
240	0xbc7a856e	-0.015290601
241	0xba519428	-0.0007994794
242	0x3b6a573f	0.003575757
243	0x3b7a32e2	0.0038177301
244	0x3b6f6032	0.0036525843
245	0x3c83bc48	0.01608099
246	0x3ac5e037	0.0015096728
247	0x3c84846a	0.016176421
248	0x3a0ec82c	0.0005446698
249	0xbc2b926b	-0.0104719205
250	0xb992108b	-0.00027859616
251	0xbc644c57	-0.013934216
252	0xbc7a911f	-0.015293389
253	0xbc9976d0	-0.018733412
254	0x3c6aa289	0.014320978
255	0x3af57f3d	0.0018729937

chords_tempNet.convT_out.weight f4 [1024, 32, 1, 1]
0	0xbbc4d73f	-0.0060071046
1	0xbc1848f2	-0.009294735
2	0x3c98b7ac	0.01864227
3	0xbd3c6243	-0.045992147
4	0x3d229d95	0.039701063
5	0xbb059a5b	-0.0020386192
6	0x3ba0643a	0.0048947604
7	0x3c927e32	0.01788244
8	0x3d1e8704	0.03870298
9	0xb922954f	-0.00015505146
10	0xbb19709f	-0.0023413075
11	0x3cb8172d	0.022471989
12	0x3c728ea5	0.014804517
13	0x3c17e365	0.009270524
14	0xbc368d92	-0.011142151
15	0xbcb066d8	-0.021533415
16	0x3d2d0cb5	0.042248446
17	0xbd14e008	-0.036346465
18	0xbd06ff8d	-0.032958556
19	0x3c93ebb8	0.018056735
20	0xbcb2de84	-0.02183462
21	0x3c13db82	0.009024503
22	0xbc8a5912	-0.016888175
23	0x3cc3c4e0	0.023897588
24	0xbc745936	-0.014913848
25	0x395b26a3	0.00020899861
26	0xbc9fa06c	-0.019485675
27	0xbcb89eed	-0.02253672
28	0xbcf00ab5	-0.02930198
29	0x3c8c52f9	0.017129408
30	0xbc982ca1	-0.018575968
31	0xbcb18feb	-0.02167507
32	0x3c43ed0d	0.011958373
33	0xbb3074e4	-0.002692514
34	0x3b3d2cf2	0.00288659
35	0xbd3877da	-0.045036174
36	0x3c92a276	0.017899733
37	0xbd10ca0f	-0.035348948
38	0xbca50321	-0.020143094
39	0x3c31a668	0.010842897
40	0x3c514a18	0.012774013
41	0xbc0da9e1	-0.008646459
42	0x3cd23645	0.025660643
43	0x3d303c02	0.043025978
44	0xbc4ec70f	-0.012620701
45	0xbc236834	-0.009973574
46	0x3c8e6949	0.017384188
47	0x38ccca70	9.765185e-05
48	0x3a975a7a	0.001154735
49	0x3cd01a46	0.025403153
50	0xbce4676c	-0.027881347
51	0x3c60c66a	0.013719181
52	0x3b001ac6	0.0019547208
53	0x3ca25132	0.019814108
54	0x3cba0608	0.022707954
55	0xbc095d7a	-0.008384103
56	0xbc906eca	-0.017630953
57	0x3c4b6a55	0.012415488
58	0xbd02ac02	-0.03190232
59	0x3c00e056	0.007865986
60	0x3c123237	0.008923105
61	0x3c4be3f1	0.012444482
62	0x3b34f83f	0.0027613787
63	0xbca052fa	-0.019570816
64	0x3c5c41d7	0.013443432
65	0xbc841fcd	-0.016128445
66	0xbc9e9688	-0.019358888
67	0xbc50722c	-0.012722533
68	0x3c86b3aa	0.016443092
69	0xbb9f627a	-0.0048640342
70	0x3c704b25	0.014666353
71	0x3bff2b9a	0.00778718
72	0xbcc4781c	-0.023983054
73	0xbcc32e9e	-0.02382594
74	0xbc95adeb	-0.018271407
75	0xbcf16eab	-0.029471716
76	0x3cfc7433	0.030817127
77	0x3c50539b	0.012715246
78	0xbbf0fbb1	-0.0073542227
79	0x39f73ddb	0.00047157597
80	0x3c23e7a4	0.010003958
81	0xbc1ad1f8	-0.0094494745
82	0xbc8d6e2e	-0.017264452
83	0x3caf420c	0.021393798
84	0x3ca97093	0.020683562
85	0x3ca34ffd	0.019935602
86	0xbc7606df	-0.015016287
87	0xbb9b431d	-0.004738225
88	0xbd9a5a70	-0.07536781
89	0x3c7034de	0.014661042
90	0x3cd1ec7a	0.025625456
91	0x3d4fb532	0.05070991
92	0xbc5a56ba	-0.013326341
93	0xbcae2395	-0.021257201
94	0x3bd24cbe	0.00641784
95	0x3c72d224	0.014820609
96	0x3bd6abe5	0.006551253
97	0xbc82c507	-0.01596309
98	0xbc25643d	-0.010094699
99	0xbc0e150b	-0.008672009
100	0xbc07b783	-0.008283499
101	0x3cbae50f	0.022814302
102	0x3c73ae40	0.014873087
103	0xbc22b189	-0.009930023
104	0x3c945b3f	0.018109916
105	0xbafe6def	-0.0019411425
106	0x3cb5ab33	0.02217636
107	0x3bb49564	0.005510973
108	0x3cb1e0d3	0.02171365
109	0x3c35084d	0.011049342
110	0x3c1e4a33	0.009661245
111	0xbce397e4	-0.027782388
112	0xbcf8634a	-0.030320782
113	0xbbdc6ad5	-0.0067266026
114	0xbc7c96e7	-0.015416837
115	0x3d1f9daa	0.03896872
116	0xbc3f4423	-0.01167396
117	0x3c94f91e	0.018185195
118	0xbce89263	-0.028390115
119	0xbbd7db95	-0.0065874555
120	0xbc2edf7e	-0.010673402
121	0x3c995a76	0.018719893
122	0xbc4ad247	-0.012379236
123	0xbba67d3b	-0.0050808466
124	0x3cb1a27d	0.021683926
125	0x3c27cc84	0.010241631
126	0x3c42e9cb	0.011896561
127	0x3ccd6aee	0.025075402
128	0x3c9b582f	0.018962948
129	0xbb91639c	-0.004436923
130	0x3c76f8ba	0.0150739495
131	0xbb00ffea	-0.0019683787
132	0xbc90d8a3	-0.017681425
133	0x3d162141	0.036652807
134	0xbc52e591	-0.012872116
135	0x3c3b7100	0.0114405155
136	0x3b7b6984	0.0038362453
137	0x3ce478cf	0.027889637
138	0x3c301331	0.010746763
139	0x3a548753	0.0008107323
140	0xbbe445ee	-0.006966344
141	0x3cb2dbba	0.02183329
142	0x3d061e14	0.03274353
143	0xbb0ae930	-0.002119612
144	0x3c9c6673	0.01909182
145	0x3c255f9a	0.010093594
146	0xbcd78595	-0.026308814
147	0x3ce60357	0.028077764
148	0x3a98ffdc	0.0011672932
149	0x3b6719f6	0.0035263277
150	0xbc49cf8c	-0.012317549
151	0x3bf85756	0.0075787706
152	0xbc53f8c2	-0.012937726
153	0x3d049081	0.032364372
154	0xbce7b82e	-0.028286066
155	0x3a559f01	0.00081489986
156	0xbc2109eb	-0.009829025
157	0x3b9b8706	0.0047463207
158	0x3c97b5d4	0.01851932
159	0x3c8f098f	0.017460613
160	0x3a56dd7f	0.00081964576
161	0x3b259f08	0.0025271792
162	0x3baacfa4	0.005212741
163	0xbc863f60	-0.016387641
164	0xbc3417a4	-0.0109919645
165	0xbbacabba	-0.005269495
166	0xbbbcc4b9	-0.005760756
167	0x3d27c9f8	0.040964097
168	0xbcdf1499	-0.027231501
169	0xbd23b1c8	-0.039964467
170	0x3cbdf377	0.023187382
171	0xbc409af4	-0.011755694
172	0x3c86cd05	0.016455183
173	0x3c49e574	0.012322772
174	0x3d2da912	0.042397566
175	0xbd0c82cd	-0.03430443
176	0x3cc6a6f9	0.02424954
177	0x38326557	4.2532887e-05
178	0x3c4925b1	0.012277053
179	0xbc9609b9	-0.018315183
180	0x3cb15aa2	0.021649662
181	0xbbbd1420	-0.0057702214
182	0xbc125b13	-0.008932847
183	0xbb11bff6	-0.0022239662
184	0x3d5054b3	0.050862025
185	0xbc174053	-0.009231645
186	0x3cab8453	0.02093712
187	0xbc2c698a	-0.010523209
188	0xbbad8504	-0.0052953977
189	0x3b82651b	0.003979338
190	0xbcc496fd	-0.023997778
191	0xbd10c552	-0.03534443
192	0xbcc594e9	-0.024118857
193	0x3cb0533b	0.021524062
194	0x3be83f4e	0.0070876246
195	0x3b1d8397	0.0024034732
196	0x3c5c132d	0.013432306
197	0x3cd35ec7	0.02580203
198	0xb9d6f035	-0.0004099623
199	0xbc76ee20	-0.015071422
200	0xbc4a7351	-0.012356595
201	0x3ccac24c	0.024750851
202	0x3ca39854	0.019970097
203	0xbd005178	-0.031327695
204	0xbc375186	-0.01118887
205	0x3b3516fe	0.0027632113
206	0xbae6ec37	-0.0017618005
207	0xbc35d59e	-0.011098294
208	0x3cd553a5	0.026040861
209	0x3c9a5399	0.01883869
210	0xbcbc5880	-0.022991419
211	0x3bcb80b7	0.0062104124
212	0xbd5eb5ab	-0.05437247
213	0xbca7b6c9	-0.020472901
214	0x3bc988f1	0.006150358
215	0x3c9e51f2	0.019326184
216	0xbc83026a	-0.015992362
217	0x3c382e02	0.011241438
218	0xbb1c6e9c	-0.002386964
219	0xbcaaf8c2	-0.02087057
220	0xbcd373ae	-0.025811996
221	0x3c9301da	0.017945219
222	0x3d0d429d	0.034487356
223	0x3ca5293b	0.020161262
224	0xbc8be94d	-0.01707902
225	0x3bd187b4	0.006394351
226	0x3c70069c	0.014650013
227	0x3c57ef07	0.013179547
228	0xbc5caaad	-0.013468427
229	0xb9b38659	-0.00034241637
230	0x3bdc852b	0.006729742
231	0xbb6a4c9a	-0.0035751224
232	0x3c8bed5e	0.017080959
233	0xbcf9f99f	-0.030514536
234	0xbad47025	-0.0016207738
235	0x3c816c46	0.0157987
236	0x3be3f95f	0.0069572176
237	0xbc79e7bf	-0.0152530065
238	0xbc7f6002	-0.015586855
239	0x3d065199	0.03279266
240	0xbced62b1	-0.028977724
241	0xbd43783c	-0.047722086
242	0xbce48e26	-0.027899813
243	0x3cb9dc6e	0.022688117
244	0xbc4e2363	-0.012581679
245	0x3cc835bf	0.02443969
246	0x3c5a71be	0.013332782
247	0xbbe1e5b7	-0.006893839
248	0xbcd8e1ab	-0.026474794
249	0x3cc5f856	0.024166267
250	0xbc1235e4	-0.008923981
251	0xbc70efa9	-0.014705577
252	0x3cb4d469	0.022073941
253	0xbb0a1118	-0.0021067318
254	0x3be454ef	0.0069681327
255	0xbcd73007	-0.026268018

chords_tempNet.convT_out.bias f4 [32]
0	0xbde9aa5f	-0.11409449
1	0x3aef0ef4	0.0018238709
2	0x3e166880	0.14688301
3	0xbe0fe6f1	-0.14052941
4	0x3d8b6f32	0.06808318
5	0x3d32113a	0.04347346
6	0xbd0e5c95	-0.03475626
7	0x3d7266ba	0.05918
8	0x3c43a9c3	0.01194233
9	0x3e2e631e	0.17029998
10	0xbe0b0c9b	-0.13579027
11	0xb925772e	-0.00015780024
12	0x3d890f76	0.06692402
13	0x3aee7dda	0.0018195466
14	0xbd5e1e54	-0.054228142
15	0x3e155d46	0.14586362
16	0xbd974040	-0.073853016
17	0xbe0a07f4	-0.13479596
18	0x3c2bfae8	0.010496832
19	0xbc1eff59	-0.009704434
20	0xbcfea88c	-0.031086229
21	0x3da987aa	0.08277829
22	0xbe10d6f7	-0.14144503
23	0x3df53b4c	0.119742006
24	0x3ce99787	0.028514637
25	0xbd3575db	-0.04430185
26	0x3c687329	0.014187613
27	0x3cf4a4a4	0.029863663
28	0xbd7167ed	-0.058937002
29	0x3bda8087	0.0066681537
30	0x3e11cf4c	0.14239234
31	0x3e29d01f	0.16583298

chords_tempNet.batchnorm_1.weight f4 [1024]
0	0xbc18b67f	-0.009320854
1	0xbcd8e5b5	-0.02647672
2	0x3c97485b	0.018467119
3	0x3b482706	0.0030540838
4	0xbd24ed9f	-0.040265676
5	0x3c237d4c	0.009978604
6	0xbd107998	-0.03527221
7	0xbcc907cb	-0.024539849
8	0x3c6006b1	0.01367347
9	0x3cbc1488	0.022959009
10	0xbccd9a7e	-0.025098082
11	0xbc4714ce	-0.012150956
12	0xbae60885	-0.0017550146
13	0x3ba45cb6	0.005015935
14	0x3d180dc4	0.037122503
15	0x3c2cafea	0.010539988
16	0xbc4922a4	-0.012276325
17	0xbc8a9914	-0.016918696
18	0xbd0b3657	-0.03398737
19	0x3d014d60	0.03156793
20	0x3d1cceca	0.038283147
21	0xbb61c694	-0.0034450637
22	0x3c0819fa	0.008306975
23	0x3c54cd27	0.012988365
24	0xbc06277b	-0.008188124
25	0xbc84933d	-0.01618349
26	0x3cc26849	0.023731368
27	0x378d9c84	1.6881393e-05
28	0xb8caac1a	-9.664167e-05
29	0xbcc283fb	-0.023744574
30	0x3d81570e	0.063154325
31	0xbb2d67f1	-0.002645966
32	0xbb7461ed	-0.0037289814
33	0xb8695c9a	-5.563777e-05
34	0xbca0c6a4	-0.01962597
35	0xbc906f8a	-0.017631311
36	0x3c2e8a96	0.010653159
37	0x3cf2f2f2	0.029656861
38	0x3c5ce5a8	0.013482489
39	0x3cd9fa2d	0.02660855
40	0xbc0ca968	-0.0085853115
41	0x3c60560d	0.013692391
42	0xbc9ac028	-0.018890455
43	0x3b81eef4	0.003965253
44	0xbca6ff49	-0.020385401
45	0xbbcf7d8c	-0.006332105
46	0xbc83ff26	-0.016112875
47	0x3b643d10	0.0034826435
48	0xbc867fbb	-0.016418329
49	0x3b1bea56	0.0023790798
50	0x3d3e7f9b	0.046508413
51	0xbca0f65a	-0.01964872
52	0xbc085bd8	-0.0083226785
53	0x3cf7912e	0.030220594
54	0x3bae11a5	0.005312162
55	0x3c62e7d4	0.013849217
56	0xbc3e0e3d	-0.011600074
57	0xbb781994	-0.0037857043
58	0xbc6e819f	-0.014557271
59	0x3c9fde36	0.019515138
60	0x3b7568fb	0.0037446606
61	0x3c7f5983	0.015585306
62	0x3cb75d4f	0.02238336
63	0x3b895a28	0.0041916557
64	0xbbdcab63	-0.006734298
65	0x3c4b2704	0.012399439
66	0xbbe72741	-0.00705424
67	0x3ac5df1f	0.0015096402
68	0xbc8a6fb1	-0.016898962
69	0xbcfc0bb9	-0.030767309
70	0xbc45fa8b	-0.01208366
71	0xbc4e4086	-0.012588626
72	0x3c2b95a5	0.01047269
73	0xbc8569db	-0.016285827
74	0x3be45301	0.0069679026
75	0xbcd56d61	-0.026053132
76	0xbc96fa4d	-0.0184299
77	0x3d1766e1	0.036963347
78	0xbc4d7e26	-0.012542283
79	0xb9a5e5c1	-0.00031642432
80	0xbbcb4c0b	-0.0062041334
81	0xba9af735	-0.0011822941
82	0x3bca8efe	0.006181597
83	0xbd306af9	-0.043070767
84	0x3c15df57	0.009147487
85	0x3bed6b20	0.0072454363
86	0xbc1b050a	-0.009461651
87	0x3d4260ff	0.047455784
88	0x3cd8e258	0.026475117
89	0x3cfad75c	0.03062027
90	0x3c202010	0.009773269
91	0x3bc17374	0.0059036557
92	0xbadacc35	-0.0016692939
93	0xbaebbcd6	-0.0017985355
94	0xbd039d01	-0.032132152
95	0x3bc82996	0.006108473
96	0xbd2b0201	-0.041749958
97	0x3cd4dd39	0.025984393
98	0x3c80276b	0.015643796
99	0xbb7c3ea3	-0.0038489483
100	0x3c7b0692	0.015321391
101	0xbd073f49	-0.033019338
102	0xbc2aecf5	-0.0104324715
103	0x3cc4141d	0.023935372
104	0xbb5ff313	-0.0034171983
105	0xbd09ce08	-0.033643752
106	0xbcb25f3d	-0.021773929
107	0x3d0d5736	0.034507
108	0x3b7f991e	0.0039001177
109	0xbbdef127	-0.00680365
110	0x394e4c11	0.00019674028
111	0x3d0300f8	0.031983346
112	0xba31302d	-0.0006759193
113	0x345d1d61	2.0592917e-07
114	0x3cd7b8d0	0.026333243
115	0xbc71eeef	-0.014766439
116	0x3c9add9c	0.0189045
117	0x3cffbb6f	0.031217305
118	0x3bac3ed0	0.0052565113
119	0xbbc8bc64	-0.0061259735
120	0x3c261a21	0.010138066
121	0x3c69655a	0.0142453555
122	0x3b984818	0.004647266
123	0x3c34838f	0.011017694
124	0x3c8ed963	0.017437642
125	0xbcfdd4ec	-0.030985318
126	0x3d0968e7	0.03354731
127	0xbc6a5ebb	-0.014304812
128	0x3c3a7477	0.011380306
129	0x3cfbfad8	0.03075926
130	0x392a289a	0.00016227589
131	0x3c0f00bb	0.0087282015
132	0x3cc99992	0.02460936
133	0x3d05fcec	0.03271191
134	0xbc5fddbb	-0.0136637045
135	0xbcb29589	-0.02179982
136	0xba887128	-0.00104097
137	0x3c8b4e2d	0.01700505
138	0x3b363cfe	0.002780735
139	0xbcf2d0e1	-0.029640617
140	0x3cbd3944	0.023098595
141	0xbcb5ac96	-0.022177022
142	0x3c8057d7	0.015666885
143	0x3c955d7e	0.018233057
144	0xbc218ef3	-0.009860742
145	0x3bc3e911	0.0059787114
146	0xbc398617	-0.011323473
147	0x3bdb5442	0.006693394
148	0xbc842624	-0.016131468
149	0x3a6c6f75	0.0009019294
150	0xbc249846	-0.01004607
151	0x3d3749ab	0.04474799
152	0x3b7762a2	0.0037747999
153	0xbba91d5a	-0.0051609697
154	0xbc3f75e3	-0.011685821
155	0xbd09fc81	-0.033688072
156	0x3c703af5	0.014662494
157	0xbcb9c2d6	-0.022675913
158	0x3c8e12a8	0.01734288
159	0x3c63b643	0.013898435
160	0x3c41bf94	0.011825461
161	0x3a7e6c84	0.0009705501
162	0x3c9d8d2f	0.01923236
163	0xbb9b4326	-0.0047382293
164	0x3cec2a0e	0.028828647
165	0x3c03cb1a	0.008044029
166	0x3d069ce8	0.03286448
167	0x3b03ba6b	0.0020100127
168	0xbc44892f	-0.011995598
169	0xbce1473c	-0.027499788
170	0x3d084a69	0.033274088
171	0x3d1036f8	0.035208672
172	0xbcccc413	-0.02499584
173	0xbcac2853	-0.021015322
174	0x3d7d39fc	0.061822876
175	0xbb53e950	-0.003233511
176	0x3c1be6ed	0.009515506
177	0xbca7ac8a	-0.020468015
178	0x3c26125c	0.010136213
179	0xbc889eb7	-0.016677244
180	0xbd2729c5	-0.04081132
181	0x3cb771d0	0.022393137
182	0x3c70c08c	0.014694344
183	0x3d4e73dc	0.05040346
184	0x3bf66f0c	0.007520562
185	0x3b5b7f60	0.003349267
186	0xbb27a275	-0.002557901
187	0x3abe213c	0.0014505754
188	0xbb1ac870	-0.0023618005
189	0xbcd4af13	-0.025962388
190	0xbc763106	-0.015026337
191	0xbca17731	-0.019710155
192	0x3c5189f3	0.012789237
193	0xbc0c6447	-0.00856883
194	0x3ba76fd7	0.005109768
195	0x3bcb75bd	0.006209104
196	0x3ca10716	0.0196567
197	0xbcb3b602	-0.021937374
198	0xbb437674	-0.0029825242
199	0xbd2c75e2	-0.04210461
200	0x3cc2e5a7	0.023791147
201	0x3c2f3e57	0.010696015
202	0x39a61ef5	0.00031685052
203	0x3bd5a98d	0.006520456
204	0xbd03af0d	-0.032149363
205	0x3c70c003	0.014694217
206	0x3cfc3054	0.030784763
207	0xbbcb9362	-0.0062126378
208	0xbc2fff71	-0.010742054
209	0xbc43bb11	-0.011946456
210	0xbcd9d81e	-0.02659231
211	0xbcf1cd30	-0.029516786
212	0x39bce291	0.0003602696
213	0xbd2b69ec	-0.04184906
214	0x3c2b92e1	0.01047203
215	0x3d15f75d	0.036612857
216	0x3c47cc3b	0.012194688
217	0xbca35090	-0.019935876
218	0xbb542205	-0.003236891
219	0xbc44f5ba	-0.012021476
220	0xbd05d830	-0.032676876
221	0x3cd5a45b	0.026079347
222	0x3c84ee5c	0.01622694
223	0x3d4d8fa3	0.05018581
224	0x3c81614d	0.015793467
225	0xbc08f125	-0.008358275
226	0x3c0155b1	0.007893966
227	0xbbf4a9fd	-0.0074665532
228	0xbcc93aa0	-0.024564087
229	0xbb3c8aba	-0.002876921
230	0xbc60b521	-0.0137150595
231	0x3c127135	0.0089381235
232	0x3c21ee10	0.009883419
233	0xb9539808	-0.00020179164
234	0x3d00e0eb	0.0314645
235	0xbc368107	-0.011139161
236	0x3c832619	0.016009377
237	0x3c869d40	0.016432405
238	0xbcbcbb9a	-0.023038674
239	0xbc7990b2	-0.015232252
240	0xbcf9835a	-0.030458141
241	0xbbfbb1e7	-0.0076811197
242	0x3d080abe	0.03321337
243	0xbb54bd9f	-0.0032461656
244	0x3c86f6e2	0.016475145
245	0x3ce3f6cb	0.027827641
246	0x3c943b45	0.018094668
247	0xbb67f781	-0.0035395327
248	0xbc8546fe	-0.016269203
249	0x3cca6b66	0.024709415
250	0x3ce3b5ec	0.027796708
251	0x3be38dd0	0.0069443956
252	0xbcd7b621	-0.026331963
253	0x38e82496	0.00011069437
254	0xb8c10c93	-9.205299e-05
255	0x3b372cf2	0.0027950373

chords_tempNet.batchnorm_1.bias f4 [1024]
0	0x3a3c2cd1	0.0007178309
1	0xba10c77c	-0.00055228896
2	0x3a108098	0.0005512326
3	0xb9c4c7b4	-0.00037532824
4	0xb9b618d5	-0.00034732246
5	0xba8aa6c7	-0.0010578268
6	0xba2e36b7	-0.00066457264
7	0x3a1bbb5c	0.00059406995
8	0xb96f3503	-0.00022812565
9	0xbaac1a71	-0.0013130439
10	0x3ab8b3d9	0.0014091685
11	0x3a1cd122	0.0005982091
12	0x3b3f98ef	0.0029235443
13	0xb9f778fc	-0.00047201652
14	0x3aa91fca	0.0012903151
15	0xbb281839	-0.0025649203
16	0x39e25a11	0.00043173184
17	0x3b0a9d7d	0.0021151
18	0xbb1a9b05	-0.0023590934
19	0x3a06a5c9	0.0005136398
20	0xbb4c5134	-0.003117633
21	0xba39ecc8	-0.0007092473
22	0xb89d2761	-7.493678e-05
23	0x3a909262	0.0011029954
24	0x399add37	0.00029537987
25	0xb9a8a897	-0.00032169066
26	0xba50dcb0	-0.00079674553
27	0xba4097d2	-0.0007346842
28	0xba21bcba	-0.0006169785
29	0xba937f6a	-0.0011253182
30	0x3b306397	0.002691483
31	0xbb8b89fb	-0.004258392
32	0xba508920	-0.00079550035
33	0xb9f7cac3	-0.0004726258
34	0x3aed66cd	0.0018112302
35	0x3a7c0b19	0.0009614691
36	0xbb2c65da	-0.0026305825
37	0xb9fa2667	-0.00047712328
38	0xbb309d12	-0.002694909
39	0x3a5dfda4	0.00084682764
40	0xba842edf	-0.001008477
41	0xba7b5176	-0.0009587029
42	0x39c51644	0.00037591357
43	0x3b2036d5	0.0024446745
44	0x39e572e1	0.00043763875
45	0x3a5fb8a2	0.00085342873
46	0xbab7d071	-0.0014023912
47	0x3a2977bb	0.00064646796
48	0x3ae578f9	0.0017507366
49	0xbb8c60ba	-0.0042839916
50	0xb9cc043f	-0.00038913076
51	0x3a83c228	0.001005237
52	0xb815e4bf	-3.5737405e-05
53	0x3a847cb2	0.0010107963
54	0x3a01e8b4	0.0004955635
55	0xba4a8e32	-0.0007726877
56	0xbad98103	-0.0016594235
57	0xbb1a3459	-0.0023529737
58	0x3b38f252	0.0028220606
59	0xbbcc25da	-0.006230098
60	0x3a5bf2fb	0.0008390394
61	0x3a1e3120	0.0006034542
62	0xbb520a82	-0.003204972
63	0x3a41218a	0.00073673634
64	0x3ab2a3f7	0.0013629188
65	0xb9e0d4f2	-0.00042883266
66	0x3a7d44f4	0.0009661459
67	0x3aae08ca	0.0013277766
68	0xb99db1bc	-0.00030077796
69	0x3b04a621	0.0020240622
70	0x3abbc212	0.0014324805
71	0xbaf09d19	-0.0018357366
72	0x3ad24929	0.0016043532
73	0x37b1ff3c	2.1218897e-05
74	0x3b3a50a6	0.0028429418
75	0xbb2d1480	-0.0026409924
76	0x39a78f82	0.00031959644
77	0x3af799db	0.0018890457
78	0xba9676af	-0.0011479462
79	0xbae61aa0	-0.0017555542
80	0xb9394095	-0.00017667034
81	0xbad4ee91	-0.0016245415
82	0xb9e5e5b2	-0.0004384942
83	0x39a52d07	0.000315048
84	0xbb9cae19	-0.0047814962
85	0xb9e734c5	-0.0004409907
86	0x3acd0432	0.0015641509
87	0xba63a126	-0.0008683376
88	0xba2484a4	-0.00062758685
89	0x3b4129fe	0.0029474492
90	0x39e4765f	0.00043575742
91	0xbb248518	-0.0025103744
92	0xb8125b70	-3.489427e-05
93	0xbb3ddc31	-0.0028970356
94	0xba01dc49	-0.00049537845
95	0xb980e7e1	-0.00024586826
96	0xb7438df5	-1.1655958e-05
97	0x39058ee5	0.00012737101
98	0xba43079e	-0.0007439795
99	0x3a9e28c9	0.0012066598
100	0xbb232a66	-0.0024897098
101	0xba1c15ef	-0.0005954196
102	0xb9824841	-0.00024849366
103	0x3903f922	0.00012585943
104	0x3a03bbe8	0.00050252536
105	0xb9d2efab	-0.00040232888
106	0xbb300ca6	-0.0026863008
107	0xba8f1160	-0.0010915212
108	0x3a482f3c	0.0007636433
109	0x3b783c0c	0.0037877588
110	0xbac1104c	-0.0014729588
111	0x3ab264bf	0.0013610347
112	0xbb15b0d4	-0.0022840993
113	0xb993b2f8	-0.00028171367
114	0xb94f7ba9	-0.00019787125
115	0x3945fbef	0.00018881237
116	0x3b125dd2	0.0022333753
117	0x3a0cb6c9	0.0005367813
118	0xba2cf61c	-0.00065979525
119	0xb9fd8400	-0.00048354268
120	0xba6357ba	-0.0008672435
121	0xba495bc6	-0.0007681217
122	0xba873a7b	-0.0010317111
123	0xbb62dca4	-0.0034616375
124	0xba664df9	-0.00087854225
125	0xb9400c13	-0.00018315045
126	0x3a819243	0.0009885508
127	0x391e9808	0.0001512469
128	0xbb26b2bf	-0.002543613
129	0xbb757615	-0.0037454416
130	0xba471ba7	-0.0007595368
131	0xba8773c6	-0.0010334186
132	0x38286204	4.0145605e-05
133	0x3875e1bc	5.8622783e-05
134	0x391a32f7	0.0001470557
135	0x3ad27a9d	0.001605827
136	0xbb22f09c	-0.0024862653
137	0x3a1a7b8a	0.00058930425
138	0x39afd6b6	0.00033538573
139	0x3b47ebdd	0.0030505576
140	0x3abdc5fc	0.001447856
141	0x3acd63c4	0.0015669991
142	0x3afe0bc9	0.0019382174
143	0xbae7681b	-0.0017654927
144	0x3ace1297	0.0015722093
145	0xbb841b15	-0.0040315487
146	0xbab49245	-0.0013776502
147	0x3a88650c	0.0010406091
148	0xbab8e35d	-0.0014105845
149	0xbba0f21e	-0.004911675
150	0x3b2a1f4a	0.002595859
151	0x3b5862a5	0.003301778
152	0xbb0b46a4	-0.0021251822
153	0xbb256226	-0.0025235503
154	0x3aa568a1	0.0012619683
155	0x3881473e	6.164469e-05
156	0xbad3e155	-0.0016165177
157	0xbad1d90e	-0.0016010122
158	0xba40d974	-0.0007356622
159	0x3b1a79dc	0.002357117
160	0x3ab3d422	0.0013719837
161	0x3a831bb2	0.0010002761
162	0x3a6425d1	0.0008703145
163	0x3b2c2f6c	0.0026273383
164	0x3aa65421	0.0012689867
165	0x3ae95538	0.0017801886
166	0xbaa04688	-0.0012228051
167	0xb89a5f22	-7.361012e-05
168	0x3adcff6a	0.0016860787
169	0xb97c1f51	-0.00024044259
170	0x3b3756ad	0.0027975247
171	0x3acd5586	0.0015665747
172	0x3b499047	0.0030756162
173	0x382b62e5	4.086168e-05
174	0x3bc1be76	0.0059125973
175	0x3b513c21	0.0031926709
176	0xbaccd79c	-0.0015628221
177	0xb9d855e1	-0.00041262715
178	0x3a56fdd8	0.0008201278
179	0x38921c21	6.967062e-05
180	0xb962fe23	-0.00021647713
181	0xb913f8be	-0.00014111676
182	0x397bbee1	0.00024008333
183	0xba847e92	-0.0010108522
184	0x3a28b46b	0.0006435576
185	0x3a9c4325	0.0011921866
186	0x39a2628f	0.0003097248
187	0xb9865b17	-0.0002562634
188	0xba83f7dd	-0.0010068376
189	0xbb584729	-0.00330014
190	0xbb366bd8	-0.0027835276
191	0xb886a050	-6.4194784e-05
192	0xba624ba0	-0.0008632485
193	0xb9221c7a	-0.00015460132
194	0xba392010	-0.00070619676
195	0x3b0203a6	0.00198386
196	0xb9e4056e	-0.00043491594
197	0x3a74097c	0.00093092746
198	0x3b3db7e5	0.002894872
199	0x3af0e60e	0.0018379109
200	0xbb3b1172	-0.0028544334
201	0x3a44b9bb	0.00075044826
202	0xbab5e4b6	-0.0013877365
203	0xbb188a33	-0.0023275733
204	0x3b0f774a	0.002189117
205	0x3a867c2c	0.0010260395
206	0x3af3295a	0.0018551752
207	0x3b2c7e9c	0.0026320582
208	0xbaa41ebf	-0.001252137
209	0xbb025a8a	-0.0019890391
210	0xbb36b697	-0.0027879828
211	0x3b7df2b5	0.00387494
212	0xbac51621	-0.0015036502
213	0x3aecc631	0.0018064437
214	0xbb3c96b4	-0.002877635
215	0x38d26e4a	0.00010034123
216	0x3b03f2d0	0.0020133741
217	0x387dd530	6.0518447e-05
218	0x39975618	0.0002886511
219	0xbb368894	-0.0027852403
220	0x3b3fdff9	0.0029277785
221	0x3ad2360f	0.0016037839
222	0x3b77f14c	0.0037833033
223	0xbb1533ef	-0.002276655
224	0xba69b87c	-0.0008915735
225	0xba2e3ebf	-0.0006646923
226	0xba9c7370	-0.0011936259
227	0x3a065edd	0.000512583
228	0xbb13c427	-0.0022547336
229	0x3b506cc0	0.0031803101
230	0xb732b4c3	-1.0651714e-05
231	0x3b14388a	0.0022616708
232	0xbae8780d	-0.0017735973
233	0xba8a358e	-0.0010544525
234	0x3a34f2cc	0.00069026346
235	0xba646d9f	-0.00087138446
236	0x3ae743b5	0.001764408
237	0xb971593a	-0.0002301679
238	0xba91a243	-0.001111098
239	0xb931259b	-0.00016894045
240	0x398f30a8	0.00027311337
241	0x3a2b3958	0.0006531677
242	0xb93841bb	-0.00017572094
243	0xbb12cbde	-0.0022399346
244	0xb89aade3	-7.375681e-05
245	0x3aa49627	0.0012556956
246	0x3a84a623	0.0010120313
247	0xbb55427a	-0.0032540844
248	0xba9a7ee8	-0.0011787089
249	0x3a3930db	0.000706447
250	0x3b27888f	0.0025563573
251	0x3a6a31bd	0.0008933803
252	0xbb708503	-0.0036700375
253	0xb9f1c1b9	-0.00046111437
254	0x3aeea32a	0.0018206586
255	0x39ceda0d	0.00039453842

chords_tempNet.batchnorm_1.running_mean f4 [1024]
0	0x3cf747fb	0.03018569
1	0xbb85aea6	-0.0040796576
2	0x3c822fd3	0.015891945
3	0xbd7ee46f	-0.06222957
4	0x3cbcb8ba	0.023037303
5	0x3c17fc80	0.009276509
6	0xbcbd1347	-0.023080481
7	0xbc27a4de	-0.0102321785
8	0x3c374fac	0.011188429
9	0xbd2a31b7	-0.041551318
10	0x3a814c60	0.000986468
11	0xbc9098e4	-0.017651029
12	0x3c0ab0df	0.008465021
13	0xbcba5481	-0.022745373
14	0xbc14c11d	-0.009079245
15	0x3c0ee207	0.008720881
16	0x3cbd213f	0.023087142
17	0xbd44e960	-0.048074126
18	0xba3b450b	-0.0007143772
19	0xbc81c00c	-0.015838645
20	0xbd4d57c8	-0.050132543
21	0xbd2f62d0	-0.042818844
22	0x3b82160a	0.0039699124
23	0x3d07ebd5	0.03318389
24	0xbb8de323	-0.0043300553
25	0xbd044fb2	-0.032302566
26	0x3d15c986	0.03656914
27	0xbbff406b	-0.0077896616
28	0xbaae1641	-0.0013281779
29	0xbbdca73b	-0.0067338026
30	0xbd2be54d	-0.041966725
31	0x3c286402	0.01027775
32	0xbcd1daec	-0.025617085
33	0x3cfde1b3	0.03099141
34	0xbd4f3dfc	-0.050596222
35	0x3d0db106	0.03459265
36	0x3c814ef3	0.015784716
37	0x39db548d	0.0004183393
38	0xbd0bca07	-0.034128215
39	0x3c9d198e	0.019177224
40	0xbced2499	-0.028948115
41	0xbcd49698	-0.025950715
42	0xbd5d3d1a	-0.05401335
43	0x3c32718b	0.010891329
44	0xbd981cd5	-0.07427374
45	0x3d036730	0.03208083
46	0x3cbf9385	0.023385772
47	0xbd11d22d	-0.03560083
48	0xbc21bbb2	-0.00987141
49	0xbce140fb	-0.027496805
50	0x3d1eacfd	0.038739193
51	0xbccae6ba	-0.024768222
52	0x3cd8ec37	0.026479824
53	0xbcb82f87	-0.0224836
54	0x3d43d664	0.04781188
55	0xbc94e438	-0.01817523
56	0x3d8f0c31	0.06984747
57	0x3d62343c	0.055225596
58	0x3cd35e97	0.02580194
59	0x3c699f05	0.014259105
60	0x3b80443c	0.003914384
61	0xbc06f5cf	-0.008237316
62	0x3c2b032a	0.010437766
63	0x3a6d9fbc	0.0009064635
64	0x3d10ff88	0.035399944
65	0xbc155588	-0.0091146305
66	0xbcef623c	-0.029221646
67	0x3c125b3e	0.008932887
68	0x3d2280d3	0.039673638
69	0x3d7be61e	0.061498754
70	0x3d4d8615	0.0501767
71	0x3d7ab423	0.061206948
72	0x3caba9a3	0.020954913
73	0x3d663758	0.056205124
74	0x3c9b88c3	0.018986112
75	0x3b30c5b6	0.0026973314
76	0x3a9172a7	0.0011096791
77	0x3aeaa15e	0.0017900874
78	0xbd06f53e	-0.032948725
79	0x3c9f3f82	0.019439463
80	0xbbac254e	-0.0052534705
81	0x3c3a43e2	0.011368724
82	0xbccab3f7	-0.024744017
83	0xbd250acf	-0.04029351
84	0xbc82e05a	-0.01597612
85	0x3c427917	0.01186969
86	0xbc5407f5	-0.01294135
87	0x3beb394b	0.0071784607
88	0x3d21c1af	0.03949135
89	0xbc911bf9	-0.017713534
90	0x3d0206c1	0.031744722
91	0xbd177d85	-0.03698494
92	0x3c9307e0	0.017948091
93	0x3d7bef81	0.061507706
94	0xbb83b9d8	-0.004019957
95	0xbd24092d	-0.040047813
96	0xbc6183cc	-0.013764333
97	0xbc4460e6	-0.011985993
98	0x3cb6fab7	0.022336347
99	0xbc5862cc	-0.013207149
100	0xbcbabc92	-0.022794995
101	0xbcc36454	-0.023851551
102	0x3c8b5ed9	0.017013
103	0x3ccd42d8	0.025056288
104	0x3c9024fd	0.017595762
105	0xbb3ca071	-0.0028782154
106	0xb9948f4c	-0.00028335524
107	0xbd887c7f	-0.06664371
108	0x3d01e387	0.031711128
109	0xbc332cc8	-0.01093597
110	0xbd851e83	-0.0649996
111	0x3b4d235e	0.0031301598
112	0x3c0e7c71	0.008696661
113	0xbd4fd5e6	-0.0507411
114	0x3c97ce57	0.018531008
115	0xbcf7100d	-0.03015902
116	0xbca18548	-0.019716874
117	0xbcd03bed	-0.0254192
118	0x3c4a907f	0.012363552
119	0x3c894062	0.016754333
120	0x3bce78c2	0.0063010165
121	0x3c0737b7	0.00825303
122	0xba0ef695	-0.00054536137
123	0xbc0097cb	-0.00784869
124	0xbcec134b	-0.028817793
125	0x3d2c4348	0.042056352
126	0xbd5f9a6d	-0.05459063
127	0xbc7d4158	-0.015457474
128	0x3d01ac62	0.031658538
129	0x3d15d855	0.036583263
130	0xbc9ecd64	-0.019385047
131	0x3ca98881	0.020694973
132	0x3b9e9320	0.004839316
133	0xbac45aa5	-0.0014980627
134	0x3ce7ac8a	0.028280515
135	0xbc4ab89e	-0.012373118
136	0xbcc4cb6e	-0.024022784
137	0xbc97db51	-0.018537195
138	0x3b16367b	0.0022920656
139	0xbbb985b7	-0.005661692
140	0xbc24b53a	-0.010052973
141	0x3c9d5bf0	0.019208878
142	0x3d91a7c4	0.07112077
143	0xbd32e7a3	-0.043677937
144	0xbae0147f	-0.0017095952
145	0xbd32db66	-0.043666266
146	0x3d092c0a	0.033489265
147	0x3a8a28d3	0.0010540731
148	0xbaa364d5	-0.0012465963
149	0x3d2ec628	0.042669445
150	0x3c9adf3a	0.01890527
151	0xbcb57d0e	-0.022154357
152	0xbb856ad9	-0.004071575
153	0x3c885973	0.016644215
154	0xbd1449ca	-0.036203183
155	0xbc011225	-0.007877861
156	0x3ca44a1a	0.020054866
157	0xbb455df0	-0.0030115806
158	0xbc890a2e	-0.016728487
159	0xbcd56718	-0.026050135
160	0x3d293192	0.04130704
161	0x3c06ccfc	0.008227583
162	0xbd80c981	-0.06288434
163	0xbd85f2e3	-0.065404676
164	0x3cc22aee	0.023702111
165	0xbbe684c9	-0.007034872
166	0xbd06055d	-0.03271996
167	0xbd00d50e	-0.031453185
168	0xbc5f3994	-0.013624568
169	0x3be5c63a	0.007012156
170	0xbd374659	-0.044744823
171	0xba3553cc	-0.0006917089
172	0x3c5a5c52	0.013327675
173	0x3d82477e	0.06361292
174	0x3c10c037	0.00883489
175	0xbd23a011	-0.039947573
176	0xbd29b5cf	-0.04143315
177	0xba9e54c6	-0.0012079708
178	0xbbafb76c	-0.0053624418
179	0xbba580e0	-0.0050507635
180	0x3ccdf662	0.025141899
181	0x3cc9c62c	0.024630629
182	0x3b695db5	0.0035608832
183	0x3ce1c456	0.02755944
184	0xbc1407b9	-0.009035044
185	0x3cffaf3d	0.03121149
186	0xbd23319c	-0.039842233
187	0x3c17fdc1	0.009276808
188	0x3c816395	0.015794555
189	0xbd6d222c	-0.057893917
190	0xbab33cbe	-0.0013674719
191	0x3d36e1fb	0.044649106
192	0x3b063a90	0.0020481683
193	0x3cb198f3	0.021679377
194	0x3d01fdcc	0.03173618
195	0xbc6bea36	-0.014399102
196	0x3d217cb2	0.03942556
197	0xbd0bb3e8	-0.03410712
198	0x3c9c2235	0.01905928
199	0x3c0f16cf	0.008733465
200	0xbd026f3c	-0.031844363
201	0x3d153bf5	0.036434133
202	0xbb92514f	-0.004465259
203	0x3c82f5d5	0.015986362
204	0xbc01cdfb	-0.007922645
205	0x3bca893d	0.006180911
206	0x3c942637	0.018084629
207	0xbc6780d4	-0.014129836
208	0x3d14f1f6	0.036363564
209	0xbbdf1a96	-0.006808589
210	0x3c93f01c	0.018058829
211	0x3c5a4b7c	0.013323661
212	0x3c1418e8	0.009039141
213	0x3d440012	0.04785163
214	0xbd04242f	-0.03226107
215	0xbc8240f9	-0.015900122
216	0x3ba1cc13	0.0049376576
217	0xbc66c982	-0.014086129
218	0xbc3a03ae	-0.011353416
219	0xbd25aa48	-0.040445596
220	0xbc1c85d5	-0.009553392
221	0xbce2cb35	-0.027684787
222	0xbc5e849d	-0.013581422
223	0x3b9fb500	0.004873872
224	0x3c9815cc	0.018565081
225	0xbd8ce93f	-0.06880426
226	0x3be3a3fa	0.0069470378
227	0x3c5094f0	0.012730822
228	0x39c918db	0.00038356226
229	0xbbe73d6d	-0.007056883
230	0xbd204476	-0.03912779
231	0x3c3fe2a9	0.011711755
232	0xbc66405f	-0.014053433
233	0xbc8b9485	-0.017038593
234	0x3c3b4e9b	0.011432315
235	0x3ce72db9	0.028220044
236	0x3c4aab1a	0.012369895
237	0xbbb935c2	-0.0056521604
238	0xbd2c685c	-0.042091712
239	0xbcb2568e	-0.021769788
240	0x3b62b67e	0.0034593637
241	0x39f97565	0.00047580447
242	0xbbbb1dfc	-0.0057103615
243	0xbc2dafd4	-0.010601003
244	0x3c7b4d35	0.015338232
245	0x3bfa8f2f	0.0076464633
246	0xbcbe0b1c	-0.023198657
247	0x3c33a88d	0.010965479
248	0xbce8f413	-0.028436696
249	0xbc4c79d4	-0.012480218
250	0xbd5a10fb	-0.05323885
251	0xbd0bf6cd	-0.034170914
252	0x3c94d187	0.018166317
253	0x3bd29742	0.0064267227
254	0xbbcf65c2	-0.006329269
255	0xbd2c409c	-0.042053804

chords_tempNet.batchnorm_1.running_var f4 [1024]
0	0x3c346932	0.011011409
1	0x3ba9f9c5	0.0051872456
2	0x3c50dc0b	0.012747775
3	0x3bc750a6	0.006082612
4	0x3c17789e	0.009245066
5	0x3c1f74d6	0.009732446
6	0x3c0785a0	0.008271605
7	0x3c5bd61c	0.013417747
8	0x3cae935b	0.021310499
9	0x3c0757c5	0.008260672
10	0x3c75665c	0.014978018
11	0x3bf3d4d1	0.007441141
12	0x3c3f9db9	0.011695319
13	0x3c9c3a0a	0.019070644
14	0x3bc95584	0.0061442275
15	0x3c158658	0.009126268
16	0x3bca2910	0.006169446
17	0x3c3a34de	0.011365144
18	0x3bd14378	0.0063862167
19	0x3c7d0848	0.015443869
20	0x3c5afa13	0.013365286
21	0x3c01a597	0.007913015
22	0x3be64006	0.007026675
23	0x3c77204e	0.015083386
24	0x3c227656	0.009915909
25	0x3c2436e2	0.010022851
26	0x3bc47467	0.0059953216
27	0x3c9a23ae	0.018815842
28	0x3c0034e6	0.007825112
29	0x3c255191	0.010090248
30	0x3bf88536	0.0075842394
31	0x3c8a746e	0.016901221
32	0x3c3ec521	0.011643679
33	0x3c609b81	0.01370895
34	0x3c1032b8	0.008801155
35	0x3ca4c357	0.020112677
36	0x3c33ddd3	0.01097818
37	0x3c0c0c95	0.008547922
38	0x3c141909	0.009039172
39	0x3c018128	0.007904328
40	0x3be8571f	0.007090464
41	0x3c1f400b	0.009719859
42	0x3c222253	0.009895879
43	0x3c14e659	0.009088122
44	0x3c2fb5b7	0.010724477
45	0x3c64f4e8	0.013974406
46	0x3c9de5d8	0.019274637
47	0x3c0893e3	0.00833604
48	0x3c148fcf	0.00906749
49	0x3c85f105	0.016350279
50	0x3ba7590f	0.005107052
51	0x3c8affdb	0.016967705
52	0x3c7deffc	0.015499111
53	0x3c57641e	0.013146428
54	0x3c120d48	0.008914299
55	0x3bd77141	0.00657478
56	0x3bd9293e	0.006627231
57	0x3c1dc2ac	0.009628933
58	0x3cb014c7	0.021494282
59	0x3c4b277c	0.0123995505
60	0x3c46f1ee	0.0121426415
61	0x3caed707	0.021342767
62	0x3c96d23f	0.0184108
63	0x3c28245d	0.010262576
64	0x3ba0f111	0.00491155
65	0x3c0c4a11	0.008562581
66	0x3bf0efbb	0.007352797
67	0x3c9144b6	0.01773296
68	0x3c8d9c92	0.017286573
69	0x3c283a68	0.010267831
70	0x3c304903	0.010759595
71	0x3c82160c	0.015879653
72	0x3c1f46e8	0.009721495
73	0x3c5f8d86	0.013644582
74	0x3cc9de00	0.02464199
75	0x3c84bb56	0.01620261
76	0x3bd52ae2	0.006505356
77	0x3c62d81d	0.013845471
78	0x3c1a2b3e	0.009409724
79	0x3c69b466	0.014264202
80	0x3c112191	0.0088581005
81	0x3c8001ed	0.015625918
82	0x3ba7dc21	0.005122677
83	0x3c3e8f68	0.01163087
84	0x3be2f75b	0.0069264597
85	0x3bf1d6c2	0.0073803375
86	0x3c0a9100	0.008457422
87	0x3c855ed6	0.016280573
88	0x3c801f94	0.015640058
89	0x3befc457	0.0073171067
90	0x3b8caba4	0.004292922
91	0x3bc7166a	0.00607567
92	0x3c14ac19	0.009074234
93	0x3c98528d	0.01859405
94	0x3cb149ac	0.021641575
95	0x3b2aac98	0.0026042815
96	0x3c20d922	0.0098173935
97	0x3c32ed68	0.01092086
98	0x3c026f61	0.007961125
99	0x3c19dfc8	0.0093917325
100	0x3bfccf27	0.007715124
101	0x3c607085	0.013698702
102	0x3c3680d6	0.011139115
103	0x3c8288e5	0.015934417
104	0x3c874289	0.016511219
105	0x3c81d449	0.015848296
106	0x3c7fab79	0.015604847
107	0x3cac3ca6	0.021025013
108	0x3c6ebdeb	0.014571647
109	0x3c718fa8	0.014743723
110	0x3c30be74	0.010787595
111	0x3c780f89	0.015140423
112	0x3b81ac17	0.0039572823
113	0x3c74f353	0.014950591
114	0x3c2be664	0.010491941
115	0x3bddd75b	0.006770057
116	0x3c444eac	0.011981647
117	0x3bb7f4de	0.0056139072
118	0x3c0e4442	0.008683266
119	0x3c6a9654	0.014318068
120	0x3c7602a7	0.015015281
121	0x3c01f8d9	0.007932865
122	0x3c05eccb	0.008174132
123	0x3c82e170	0.015976638
124	0x3c83e04e	0.016098168
125	0x3c44f04c	0.012020182
126	0x3c8305b6	0.015993934
127	0x3c0cc10b	0.008590947
128	0x3c494729	0.012285032
129	0x3bdf47cf	0.00681398
130	0x3bdf0da8	0.006807048
131	0x3bd66315	0.006542573
132	0x3bcd0682	0.0062568793
133	0x3c1fec98	0.009760998
134	0x3bfe1f61	0.0077552055
135	0x3c7c9dd2	0.015418487
136	0x3c1e560a	0.009664068
137	0x3c03ec91	0.008052007
138	0x3bf1bbeb	0.007377138
139	0x3c858082	0.016296629
140	0x3c3e4a35	0.011614372
141	0x3bc5fdcb	0.0060422174
142	0x3becd750	0.0072278157
143	0x3bcc2fc9	0.0062312824
144	0x3c074acf	0.008257582
145	0x3c2c276c	0.010507446
146	0x3ca16534	0.019701578
147	0x3c38fbf0	0.011290535
148	0x3c54b474	0.0129824765
149	0x3b8ea364	0.004352974
150	0x3bb7ed9c	0.005613042
151	0x3c4beebd	0.012447056
152	0x3cdc948f	0.026926307
153	0x3c845888	0.016155496
154	0x3baa759e	0.0052020093
155	0x3ca6cfca	0.020362753
156	0x3c38245d	0.011239138
157	0x3c460745	0.012086694
158	0x3bbd030e	0.0057681864
159	0x3c7bab0e	0.015360607
160	0x3c753f91	0.014968769
161	0x3c0943e3	0.008378002
162	0x3c0e2e2d	0.008678001
163	0x3c5b650c	0.013390791
164	0x3c840b62	0.016118709
165	0x3c82ee9e	0.015982922
166	0x3c6fdb85	0.01463974
167	0x3cb0a3f0	0.021562546
168	0x3b96da7f	0.0046036835
169	0x3c2c1153	0.010502177
170	0x3c847147	0.016167296
171	0x3c0ee9b4	0.008722711
172	0x3c8e17a0	0.01734525
173	0x3c0668fd	0.008203742
174	0x3bc37cde	0.005965813
175	0x3c2a7db0	0.010405943
176	0x3c3e7a1d	0.011625794
177	0x3ccec007	0.02523805
178	0x3b839b37	0.004016306
179	0x3ba679d4	0.005080441
180	0x3c4ce99a	0.012506867
181	0x3c171b43	0.009222808
182	0x3be51502	0.0069910297
183	0x3c221f9f	0.009895234
184	0x3c640a1d	0.013918427
185	0x3c4e42b2	0.012589144
186	0x3c8caa02	0.01717091
187	0x3bf4aedb	0.0074671335
188	0x3ca99b32	0.020703886
189	0x3bf1608c	0.0073662456
190	0x3c51c5a2	0.012803467
191	0x3bd6eb69	0.006558825
192	0x3c115fdd	0.008872953
193	0x3c4b3f8b	0.012405287
194	0x3c230e99	0.009952211
195	0x3c9b98eb	0.018993815
196	0x3c86c7ea	0.016452748
197	0x3bb96ed7	0.005658965
198	0x3c72d5b1	0.014821456
199	0x3bef4694	0.0073021147
200	0x3c4644d5	0.012101372
201	0x3c288fa7	0.010288156
202	0x3be47f04	0.0069731493
203	0x3bb30059	0.005462688
204	0x3bf8e734	0.007595921
205	0x3ce8c292	0.02841309
206	0x3c1de5bd	0.009637293
207	0x3d0d7a13	0.034540247
208	0x3bc854e1	0.006113634
209	0x3c23b902	0.00999284
210	0x3b9050d1	0.0044041653
211	0x3bc6b406	0.006063941
212	0x3cacf512	0.021112952
213	0x3c0dc406	0.008652693
214	0x3c83e282	0.016099218
215	0x3c852cc5	0.0162567
216	0x3bc290b9	0.0059376624
217	0x3d1bfe6c	0.038084432
218	0x3c2eba15	0.010664483
219	0x3b958cba	0.004563895
220	0x3bf3492a	0.0074244933
221	0x3c383140	0.011242211
222	0x3c020dac	0.00793783
223	0x3b980772	0.0046395594
224	0x3c0e8b6f	0.008700236
225	0x3c751f0a	0.014961014
226	0x3bd30460	0.0064397305
227	0x3c867441	0.016412856
228	0x3c86392b	0.016384682
229	0x3c9394cd	0.01801529
230	0x3c16225e	0.009163467
231	0x3bcd8f60	0.006273195
232	0x3b87e787	0.0041474733
233	0x3c32f6a8	0.010923065
234	0x3c2eef84	0.010677222
235	0x3c4a6973	0.012354243
236	0x3c0b7bdc	0.008513417
237	0x3c0bdae1	0.0085360715
238	0x3c83bc93	0.01608113
239	0x3c62a62d	0.013833565
240	0x3bda8c00	0.0066695213
241	0x3c21574b	0.009847472
242	0x3c603d09	0.013686427
243	0x3c238e0a	0.009982595
244	0x3c2d5646	0.010579651
245	0x3c9a8915	0.018864194
246	0x3cb76e32	0.022391412
247	0x3c280787	0.010255701
248	0x3c5885b4	0.013215471
249	0x3c416d89	0.0118059
250	0x3c834064	0.016021915
251	0x3c148aa9	0.009066262
252	0x3bd63a0a	0.0065376805
253	0x3c881c6f	0.01661512
254	0x3c2a9a2b	0.010412733
255	0x3c39c900	0.011339426
