run_1/weights/weights-g-400.pth (torch, 418811 bytes, 12 tensors)

chords_tempNet.convT_in.weight f4 [32, 1024, 2, 1]
0.01868803 -0.008845148 0.003825904 0.035622824 -0.022014212 0.030450704 -0.014931711 -0.0045893085
0.023597669 -0.010721361 -0.0009868495 -0.0057889065 0.0047455537 -0.0148188835 0.026156547 -0.0010454798
0.037012696 0.03204745 -0.01819813 -0.011364608 0.007893132 -0.013202423 0.008431051 -0.005536708
-0.0035222915 0.0079635 0.014524799 -0.032905217 0.014982615 -0.00029057538 -0.010475645 -0.030557266
0.00424859 -0.00217291 -0.0133209955 -0.0077226614 0.015251044 -0.012206491 0.05753856 -0.03003598
0.016289184 0.000499158 -0.003658913 -0.011446573 0.016975373 0.009717134 0.042344168 0.014802036
-0.053837303 -0.02531541 -0.011233781 -0.0307139 -0.014815935 -0.0040688645 -0.009500614 -0.021946799
-0.021381762 -0.0016731899 -0.020354168 -0.0011806458 0.028577005 -0.014308999 -0.014162699 0.013358809
0.0058062803 -0.0003584196 0.019137837 0.023466432 0.0013230552 -0.029061273 0.024551187 0.017352404
0.0019410173 4.1085666e-05 0.012128422 -0.03023501 -0.017788664 -0.018298052 0.012168875 0.00072331086
0.009152651 -0.0035990828 0.0040213913 0.0042610094 0.014076569 0.0021312982 0.006372667 -0.0016157435
-0.04550817 -0.020625612 0.010414492 -0.013036367 0.030869087 0.016849065 0.00036804783 -0.02923108
-0.031149266 0.008681828 0.0035141278 -0.0059497403 0.016799223 0.013213122 -0.017820593 -0.028151177
0.0105967 -0.006274668 -0.006317752 0.035104044 0.021898014 0.0029281185 -0.010828613 -0.012898338
0.014216457 0.03319742 0.020004475 0.0057407534 0.01991544 0.027429411 0.020598719 -0.010297788
0.019865377 -0.018958464 0.003666004 0.0043072468 0.015200828 -0.020301053 -0.0074758944 -0.014503012
-0.006801021 0.030117923 0.009015713 -0.019884616 -0.019995498 0.0017200179 -0.0049372218 0.019092796
0.0037008761 0.018546075 0.017869702 -0.029390918 0.026411224 -0.0060489234 0.036071893 -0.019382458
0.027543329 -0.011962804 0.031047164 0.02743194 0.0033194814 0.014592535 0.01296963 -0.005270629
0.0047315955 0.023281911 -0.006347898 -0.0015964224 -0.0242115 0.022149257 0.03248294 0.017204076
-0.016311962 -0.045665316 -0.0065521346 0.0068062604 -0.014411851 0.008105647 -0.04252713 0.026274493
-0.0033093404 -0.016672047 -0.008676777 0.008142626 0.00024084616 -0.009136365 0.0160647 -0.003457256
0.0071146395 0.022736073 0.00014247713 -0.018642798 0.01360344 0.01630249 -0.009271484 -0.0023609465
0.02659449 0.0065653906 0.010992312 -0.0011251486 -0.015033954 0.021020804 -0.032796066 -0.030839462
-0.034641236 -0.0072157634 0.033842348 0.01764198 -0.002742413 -0.031886425 0.025762675 0.003204393
-0.004098665 0.010088795 -0.020353792 -0.0439618 0.013711092 0.0013002977 0.028401015 0.002745889
0.010305516 -0.016592499 0.016698388 -0.03418215 0.0045772395 -0.022710105 -0.017470822 -0.024945157
0.037203062 -0.018422727 -0.014512843 -0.03979651 -0.00019471352 0.0014228765 0.059339978 0.007033791
-0.0003486811 -0.023602143 -0.016202673 -0.0029896277 -0.0047506224 -0.0030207478 0.008173869 0.038888276
0.01259394 -0.039060257 0.0066791335 0.01740266 -0.03701979 0.01971619 -0.0046049138 0.0037645006
0.0015757289 0.024145244 -0.006674323 0.022494014 -0.012614624 0.0064230664 -0.0063098813 -0.016220633
-0.01282467 -0.028461417 0.023965642 0.02034925 0.008752623 0.0018509917 0.0024079687 0.01220103
00000000: a417 993c 3deb 10bc 05bc 7a3b 3de9 113d
00000010: 2657 b4bc c173 f93c 23a4 74bc e961 96bb
00000020: e64f c13c a6a8 2fbc 2d59 81ba deb0 bdbb
00000030: 9780 9b3b e7ca 72bc 4146 d63c 7b08 89ba
00000040: a09a 173d 3044 033d 3f14 95bc 9f32 3abc
00000050: 3252 013c fa4e 58bc 6422 0a3c 466d b5bb
00000060: 3fd6 66bb 5779 023c 6cf9 6d3c 9fc7 06bd
00000070: a479 753c 5e58 98b9 0aa2 2bbc 3b53 fabc
00000080: c237 8b3b 6167 0ebb 4e40 5abc 610e fdbb
00000090: 84df 793c bcfd 47bc 8ead 6b3d 040e f6bc
000000a0: e570 853c edd9 023a 60ca 6fbb 688a 3bbc
000000b0: f00f 8b3c 9d34 1f3c 1471 2d3d 3d84 723c
000000c0: 8184 5cbd 4362 cfbc e50d 38bc b89b fbbc
000000d0: 89be 72bc 1c54 85bb 77a8 1bbc c6c9 b3bc
000000e0: ce28 afbc f04e dbba c9bd a6bc e6bf 9aba
000000f0: 531a ea3c 4b70 6abc aa0a 68bc e8de 5a3c
00000100: 9c42 be3b 44ea bbb9 f4c6 9c3c ad3c c03c
00000110: 5e6a ad3a e811 eebc 921f c93c a126 8e3c
00000120: bc69 fe3a 6653 2c38 4ab6 463c 69af f7bc
00000130: 88b9 91bc cce5 95bc f65f 473c 929c 3d3a
00000140: 00f5 153c 97de 6bbb e0c5 833b f09f 8b3b
00000150: 69a1 663c 40ad 0b3b ced1 d03b 5bc7 d3ba
00000160: c666 3abd 0bf7 a8bc 8ca1 2a3c 7c96 55bc
00000170: 2be1 fc3c 0d07 8a3c 8bf6 c039 0576 efbc
00000180: bf2c ffbc 3a3e 0e3c 484d 663b 0af6 c2bb
00000190: 869e 893c da7b 583c 7efc 91bc 4c9d e6bc
000001a0: c89d 2d3c bb9b cdbb 2505 cfbb 42c9 0f3d
000001b0: 7763 b33c ade5 3f3b 7f6a 31bc 8d53 53bc
000001c0: 24ec 683c 05fa 073d 6de0 a33c ee1c bc3b
000001d0: b425 a33c a5b3 e03c a5be a83c 0eb8 28bc
000001e0: b7bc a23c c84e 9bbc 5741 703b ce23 8d3b
000001f0: e50c 793c 654e a6bc 59f8 f4bb 0b9e 6dbc
00000200: 19db debb ddb9 f63c a4b6 133c 10e5 a2bc
00000210: 99cd a3bc 3972 e13a 6bc8 a1bb 7f68 9c3c
00000220: 668a 723b f0ed 973c 7b63 923c 39c5 f0bc
00000230: 5a5c d83c 0c36 c6bb 1fc0 133d f6c7 9ebc
00000240: 8ca2 e13c a3ff 43bc 9f56 fe3c f3b8 e03c
00000250: a88b 593b 8715 6f3c 927e 543c 3eb5 acbb
00000260: 800b 9b3b b5b9 be3c 0702 d0bb 0c3f d1ba
00000270: 3257 c6bc 5c72 b53c d50c 053d 90ef 8c3c
00000280: aaa0 85bc 8e0b 3bbd 4ab3 d6bb 0d07 df3b
00000290: af1f 6cbc 8ccd 043c ee30 2ebd 9b3d d73c
000002a0: 85e1 58bb d193 88bc 0a29 0ebc a668 053c
000002b0: a68b 7c39 b1b0 15bc 1e9a 833c 2193 62bb
000002c0: ec21 e93b 0041 ba3c ea65 1539 c8b8 98bc
000002d0: f6e0 5e3c cd8c 853c 6ce7 17bc 1cba 1abb
000002e0: b0dc d93c 7d22 d73b 1919 343c b979 93ba
000002f0: f950 76bc d233 ac3c 2b55 06bd 0aa3 fcbc
00000300: f8e3 0dbd 3672 ecbb 469e 0a3d ea85 903c
00000310: 0eba 33bb 579b 02bd 3f0c d33c cb00 523b
00000320: 184e 86bb 794b 253c ffbc a6bc 4a11 34bd
00000330: 7da4 603c c06e aa3a 3fa9 e83c 5ff4 333b
00000340: 78d8 283c feec 87bc 0fcb 883c 9502 0cbd
00000350: abfc 953b 8b0a babc f81e 8fbc c959 ccbc
00000360: 3d62 183d 42eb 96bc 47c7 6dbc aa01 23bd
00000370: 032c 4cb9 d07f ba3a 7a0e 733d b77b e63b
00000380: 2fcf b6b9 4859 c1bc 78bb 84bc a1ed 43bb
00000390: 1cab 9bbb bdf7 45bb b1eb 053c 5049 1f3d
000003a0: d056 4e3c a6fd 1fbd a2dc da3b 0690 8e3c
000003b0: 10a2 17bd d983 a13c d1e4 96bb d7b5 763b
000003c0: b088 ce3a 3fcc c53c 48b4 dabb 5e45 b83c
000003d0: 91ad 4ebc 9678 d23b 1fc3 cebb 22e1 84bc
000003e0: 911e 52bc eb27 e9bc 9853 c43c 78b3 a63c
000003f0: 2967 0f3c fa9c f23a 03cf 1d3b d4e6 473c

chords_tempNet.convT_in.bias f4 [1024]
0.018283464 -0.008950358 -0.021679096 -0.012999004 0.011698783 0.015222062 -0.00072617404 -0.02173786
-0.01125236 0.00034729653 0.012768906 0.011484628 -0.004809075 -0.012470218 -0.0083257565 0.0014001115
0.0044272314 -0.013917069 0.0044484525 -0.019922053 0.0056565627 -0.012567218 -0.009427388 -0.020968148
0.014172941 0.007456331 0.0075963517 0.022060422 -0.008184861 0.01669207 -0.01707503 0.0027245772
-0.0036164275 0.013316537 -0.01666067 0.004541579 0.017582206 0.011408705 -0.011473502 0.002595275
-0.017180648 0.00050889875 -0.01805319 -0.021021431 -0.02140722 0.0134132495 -0.010025478 -0.0058944155
0.0027351847 -0.013030031 -0.016950648 0.00825422 0.017863346 -0.018533321 0.015962135 -0.01871693
0.006882882 -0.0028960095 0.0041066646 0.008626857 0.017034492 -0.013217864 -0.015328151 -0.012034464
-0.00081832043 -0.014813017 -0.0181737 -0.0146881165 0.013873133 0.019802395 0.0036797682 0.021430183
0.018116402 0.008546483 -0.001366765 0.0009955299 -0.020265292 0.00932718 0.0028537686 0.014192318
0.00897809 0.011027568 -0.0036483316 0.015492327 -0.004781582 -0.0013077317 -0.010690423 0.014493837
0.0015716803 0.008029088 0.0075658634 -0.017520979 0.01189489 0.011897606 0.0017074626 -0.0018097507
-0.021001628 -0.019498676 0.02074284 -0.010097688 -0.004276147 -0.017367845 -0.008812539 -0.011768464
-0.013966241 0.020169355 0.018821241 -0.021277832 0.0033803442 -0.009688081 -0.021727407 -0.0041154455
0.0066218222 -0.014030386 0.009111805 -0.021893326 -0.012618906 0.009548931 0.001734769 -0.012731448
-0.02109819 0.014035387 -0.011491393 -0.0029344982 -0.0065680537 0.018416293 0.020387031 0.006859727
0.00324654 0.016802583 0.014212265 -0.014190068 0.0131364465 -0.0015480319 0.01902773 0.018630985
0.021004466 -0.01913125 0.0075453045 0.021114482 0.014868084 -0.008962715 0.006451966 -0.015756277
-0.014750003 -0.020408671 0.013193162 -0.0074488586 0.0018849904 0.01388476 0.0103984615 -0.0032910043
-0.013634636 -0.0001622729 -0.014463089 -0.007090168 -0.019760435 0.01228141 -0.005874787 -0.009176717
0.0075262873 0.013250744 -0.011913101 -0.010430005 -0.0063854726 0.012765065 -0.00095308287 0.006588896
0.018790187 0.016844904 -0.015033091 -0.0009255622 -0.020613048 0.019491602 -0.005445213 0.010387838
-0.021626422 -0.018659858 -0.011399739 -0.0055870097 0.017040594 0.019611062 0.006706506 0.013770709
-0.018120175 0.012790225 -0.017648118 -0.005247405 -0.0024244373 -0.012611989 0.018984545 0.00024206823
-0.014613538 0.009079809 0.009732372 -0.020681 0.0032220113 -0.012891556 0.011812074 -0.0052902624
-0.020036262 0.010156292 0.021696508 0.0013633495 0.0086251795 -0.0150179425 0.01232668 -0.020659378
0.017922284 -0.005352364 -0.012154505 0.010488399 -0.01664946 0.009689717 -0.016898703 0.015415094
0.014122259 -0.008692027 -0.018920632 -0.0198237 0.013000517 -0.015565151 -0.0061068595 0.013108964
-0.0012291805 -0.016562615 0.010197519 0.01574213 -0.01882319 0.015902456 0.0018628304 0.017489215
0.0020389236 -0.010603171 -0.006194766 0.0057553416 -0.005858267 0.014367784 0.003371071 0.008136961
-0.015380126 -0.000781252 0.0035194494 0.0038109783 0.0035263668 0.016155688 0.0014663073 0.016176056
0.00063184573 -0.010782534 -9.748038e-05 -0.013944408 -0.0156025225 -0.018731702 0.014319589 0.0018734455
00000000: 34c7 953c 86a4 12bc 5c98 b1bc c6f9 54bc
00000010: 41ac 3f3c f565 793c b75c 3eba 9913 b2bc
00000020: d25b 38bc 5a15 b639 ac34 513c 052a 3c3c
00000030: 7295 9dbb e34f 4cbc c168 08bc f283 b73a
00000040: 4f12 913b 6b04 64bc 53c4 913b 9333 a3bc
00000050: b05a b93b bce6 4dbc 5575 1abc 65c5 abbc
00000060: a035 683c 3d54 f43b d1ea f83b 0fb8 b43c
00000070: cc19 06bc cfbd 883c efe0 8bbc d28e 323b
00000080: 9601 6dbb 9b2d 5a3c f57b 88bc 87d1 943b
00000090: 8f08 903c 94eb 3a3c 5bfb 3bbc 7d15 2a3b
000000a0: 6ebe 8cbc 9e67 053a 49e4 93bc 2335 acbc
000000b0: 325e afbc 3fc3 5b3c e741 24bc f125 c1bb
000000c0: c940 333b e97b 55bc 16dc 8abc b53c 073c
000000d0: 2756 923c 31d3 97bc 06c3 823c 3f54 99bc
000000e0: cd89 e13b faca 3dbb 3391 863b a957 0d3c
000000f0: eb8b 8b3c bd8f 58bc ed22 7bbc 332c 45bc
00000100: 8e84 56ba 4cb2 72bc 03e1 94bc 6da6 70bc
00000110: 234c 633c a238 a23c 4428 713b 5a8e af3c
00000120: d968 943c 8c06 0c3c 0625 b3ba 717c 823a
00000130: 6603 a6bc 07d1 183c 4b06 3b3b e586 683c
00000140: d718 133c f9ac 343c d918 6fbb 87d3 7d3c
00000150: d1ae 9cbb 3268 abba e226 2fbc 8f77 6d3c
00000160: d700 ce3a 708c 033c 10eb f73b 2888 8fbc
00000170: c9e2 423c 2dee 423c f0cc df3a 2835 edba
00000180: 9b0b acbc b0bb 9fbc e3ec a93c c670 25bc
00000190: ec1e 8cbb 0347 8ebc 7862 10bc 84d0 40bc
000001a0: a9d2 64bc 343a a53c 012f 9a3c d94e aebc
000001b0: c488 5d3b c2ba 1ebc adfd b1bc dcda 86bb
000001c0: dffb d83b b4df 65bc ae49 153c a259 b3bc
000001d0: 87bf 4ebc 1f73 1c3c 3061 e33a 9097 50bc
000001e0: 1dd6 acbc aef4 653c 6546 3cbc b650 40bb
000001f0: d438 d7bb c4dd 963c b402 a73c 90c7 e03b
00000200: e7c3 543b 92a5 893c 8fda 683c 757d 68bc
00000210: 403a 573c 55e7 caba 0be0 9b3c 02a0 983c
00000220: 8f11 ac3c 24b9 9cbc 9a3e f73b 47f8 ac3c
00000230: 4499 733c 5ad8 12bc 036b d33b 4f13 81bc
00000240: ffa9 71bc 1630 a7bc 2228 583c 8e15 f4bb
00000250: c811 f73a e87c 633c 4f5e 2a3c e4ad 57bb
00000260: cf63 5fbc cd27 2ab9 98f6 6cbc a454 e8bb
00000270: a3e0 a1bc f837 493c 4981 c0bb f159 16bc
00000280: 139f f63b a619 593c 2b2f 43bc 9de2 2abc
00000290: 3a3d d1bb 9024 513c 4fd8 79ba aae7 d73b
000002a0: e1ed 993c 53fe 893c 5b4d 76bc 6ea1 72ba
000002b0: b2dc a8bc daac 9f3c c26d b2bb c031 2a3c
000002c0: e529 b1bc 8fdc 98bc f9c5 3abc 3c13 b7bb
000002d0: b798 8b3c 61a7 a03c 40c2 db3b 8a9e 613c
000002e0: c370 94bc 188e 513c c992 90bc 6cf2 abbb
000002f0: 4fe3 1ebb 84a2 4ebc 7a85 9b3c b2d3 7d39
00000300: 9f6d 6fbc 7bc3 143c 8774 1f3c 336b a9bc
00000310: 6128 533b 1b37 53bc 6e87 413c f059 adbb
00000320: 1623 a4bc 9366 263c e0bc b13c 6bb2 b23a
00000330: a050 0d3c d10d 76bc d8f5 493c db3d a9bc
00000340: c1d1 923c e262 afbb b023 47bc 89d7 2b3c
00000350: 7364 88bc 9ec1 1e3c 266f 8abc 978f 7c3c
00000360: 0c61 673c 0169 0ebc 71ff 9abc 5065 a2bc
00000370: 1f00 553c fa04 7fbc 0d1c c8bb fbc6 563c
00000380: 741c a1ba 52ae 87bc 7f13 273c a4f5 803c
00000390: 1733 9abc de45 823c 372a f43a 8b45 8f3c
000003a0: 769f 053b ecb8 2dbc 77fd cabb 4e97 bc3b
000003b0: b5f6 bfbb db66 6b3c 30ed 5c3b e350 053c
000003c0: edfc 7bbc efcc 4cba 90a6 663b 9bc1 793b
000003d0: 9e1a 673b ef58 843c 1c31 c03a a683 843c
000003e0: 73a2 253a 3aa9 30bc 616e ccb8 1677 64bc
000003f0: b9a1 7fbc 3a73 99bc b69c 6a3c 668e f53a

chords_tempNet.convT_out.weight f4 [1024, 32, 1, 1]
-0.006416323 -0.0097491015 0.015943065 -0.045700144 0.04255813 -0.0064244517 0.00045717118 0.015027468
0.0361861 -0.0050273747 -0.006310606 0.019189397 0.01325471 0.0119145205 -0.015752304 -0.019809453
0.041419253 -0.032985203 -0.03477407 0.015531794 -0.027344216 0.009408962 -0.020642562 0.022564422
-0.014647131 0.004464758 -0.015668904 -0.022924919 -0.030582855 0.016312903 -0.017431319 -0.02243424
0.011460769 -0.0040595983 0.00051072973 -0.048446722 0.017161472 -0.030673841 -0.01818955 0.010350585
0.015442024 -0.012891825 0.027214577 0.04009573 -0.014087427 -0.008102083 0.020095399 0.0007001162
0.0008619402 0.027744357 -0.028073251 0.014244238 0.00026939312 0.020286143 0.024497414 -0.005853025
-0.016272081 0.011724778 -0.032516032 0.00803863 0.011325004 0.012736453 0.0028315955 -0.02225709
0.010621832 -0.016027795 -0.019111536 -0.009512466 0.014877723 -0.008126108 0.018407842 0.0076104943
-0.021539783 -0.024638476 -0.022757754 -0.029106038 0.03214667 0.013751593 -0.0072118673 -0.009192559
0.007964796 -0.008417848 -0.023314407 0.023324877 0.024585633 0.019968884 -0.014063854 -0.005102805
-0.07325301 0.010250904 0.030259889 0.051404595 -0.017594306 -0.02190589 0.0036319518 0.01942615
0.008786965 -0.021024588 -0.009582808 -0.0046418174 -0.013423062 0.03070034 0.015198412 -0.013024864
0.020510353 -0.0035409732 0.02269889 0.0073457602 0.022301069 0.008371002 0.010480574 -0.02649645
-0.028766455 -0.0052686473 -0.014939407 0.04173605 -0.008778947 0.017152911 -0.0303494 -0.0057109827
-0.01050411 0.016808013 -0.013089844 -0.0009355515 0.027497865 0.010221168 0.016697882 0.025925808
0.013743227 -0.0059654983 0.011827299 -0.0012148325 -0.020827137 0.034813657 -0.010385511 0.009912266
0.0054158974 0.032258846 0.012796174 0.0067586037 -0.0005015216 0.026406888 0.027109941 -0.0031623582
0.018452903 0.011632525 -0.028242465 0.027684994 0.0016837104 0.0014729956 -0.010398315 0.008445016
-0.013951646 0.031787924 -0.03267543 -0.00026903782 -0.004873504 0.0037979963 0.022710623 0.019321756
0.0052642357 0.006504624 0.0034567788 -0.013628 -0.00939181 -0.0034861178 -0.005966159 0.04037116
-0.023676777 -0.037448592 0.022954455 -0.011344576 0.01885987 0.014135209 0.0425553 -0.03011858
0.02607005 -0.0045344317 0.0049373438 -0.018486338 0.018670931 -0.003858734 -0.011941626 -0.006129211
0.0490861 -0.00727378 0.021918468 -0.010703929 -0.0062853275 0.004455006 -0.028331889 -0.039413262
-0.022383614 0.02780723 0.009949756 0.0045629195 0.013199996 0.024827465 0.0035762172 -0.015420171
-0.016055988 0.026072029 0.02288556 -0.035213865 -0.014284183 -7.835946e-05 -0.0047828844 -0.006486343
0.02341769 0.0166103 -0.024092281 0.004619118 -0.05679231 -0.023560105 0.006178583 0.017371522
-0.020796651 0.009686529 -0.00068113994 -0.021029217 -0.022062162 0.01411565 0.03281785 0.019142898
-0.021871585 0.0067856363 0.0127578275 0.012365887 -0.016871376 -0.0012886985 0.012064783 -0.009812078
0.015091729 -0.03098209 -0.0029900465 0.019890448 0.0036737893 -0.017305888 -0.015243125 0.036682434
-0.02717053 -0.04400029 -0.029272396 0.02294287 -0.011439685 0.022180177 0.015863301 -0.0067751445
-0.022651063 0.028965889 -0.009927229 -0.018151462 0.02118514 -0.001016964 0.008224085 -0.030053122
00000000: 0540 d2bb b2ba 1fbc 089b 823c 1330 3bbd
00000010: 6f51 2e3d 3584 d2bb 7ab0 ef39 c535 763c
00000020: e037 143d adbc a4bb 33c9 cebb 1533 9d3c
00000030: 482a 593c 1f35 433c fa0a 81bc 6f47 a2bc
00000040: 3ca7 293d 7e1b 07bd 416f 0ebd 1179 7e3c
00000050: fa00 e0bc 0c28 1a3c 971a a9bc 06d9 b83c
00000060: 85fa 6fbc 1b4d 923b 135c 80bc 0acd bbbc
00000070: e588 fabc a3a2 853c 20cc 8ebc 03c8 b7bc
00000080: f3c5 3b3c 6106 85bb 7ee2 053a 1270 46bd
00000090: 3796 8c3c b547 fbbc 4002 95bc 8095 293c
000000a0: 8b00 7d3c 3c38 53bc 1bf1 de3c 6c3b 243d
000000b0: f4ce 66bc 99be 04bc 1b9f a43c 0188 373a
000000c0: d4f3 613a 2248 e33c e0f9 e5bc aa60 693c
000000d0: 553d 8d39 202f a63c cdae c83c bbca bfbb
000000e0: 074d 85bc 4919 403c 882f 05bd 75b4 033c
000000f0: 828c 393c 8eac 503c 4a92 393b 8054 b6bc
00000100: 3107 2e3c b94c 83bc cc8f 9cbc 2dda 1bbc
00000110: b1c1 733c 5e23 05bc 0bcc 963c 7461 f93b
00000120: 3374 b0bc a1d6 c9bc 786e babc c96f eebc
00000130: 3aac 033d 5d4e 613c 8751 ecbb 639c 16bc
00000140: c77e 023c 03eb 09bc dbfd bebc d013 bf3c
00000150: cf67 c93c c995 a33c 146c 66bc 6e35 a7bb
00000160: ad05 96bd 68f3 273c 96e3 f73c a08d 523d
00000170: ef21 90bc fb73 b3bc 0a06 6e3b 9723 9f3c
00000180: 34f7 0f3c c23b acbc 3601 1dbc 631a 98bb
00000190: 67ec 5bbc 487f fb3c c302 793c 3d66 55bc
000001a0: 5405 a83c ac0f 68bb 06f3 b93c b4b4 f03b
000001b0: bbb0 b63c 8726 093c b7b6 2b3c 150f d9bc
000001c0: a1a7 ebbc 9ea4 acbb 6ac4 74bc 6cf3 2a3d
000001d0: 93d5 0fbc 4384 8c3c 4e9f f8bc 3223 bbbb
000001e0: 6e19 2cbc f5b0 893c c976 56bc cc3f 75ba
000001f0: 3443 e13c b076 273c ffc9 883c 5c62 d43c
00000200: 462b 613c 3a7a c3bb 4ac7 413c 043b 9fba
00000210: ac9d aabc c498 0e3d fe27 2abc 0f67 223c
00000220: d777 b13b da21 043d 0ba7 513c 4777 dd3b
00000230: 8b78 03ba 4253 d83c ab15 de3c 913f 4fbb
00000240: 8b2a 973c 5996 3e3c be5c e7bc a4cb e23c
00000250: f2af dc3a 8811 c13a b25d 2abc f75c 0a3c
00000260: 7295 64bc 0e34 023d acd6 05bd a50d 8db9
00000270: eab1 9fbb cee7 783b a10b ba3c a948 9e3c
00000280: 9c7f ac3b be24 d53b 208b 623b fa47 5fbc
00000290: 1be0 19bc 5a77 64bb c57f c3bb 3b5c 253d
000002a0: cdf5 c1bc b263 19bd fb0a bc3c 9ade 39bc
000002b0: 0480 9a3c 5d97 673c 774e 2e3d 3ebb f6bc
000002c0: dc90 d53c 9295 94bb 71c9 a13b a970 97bc
000002d0: c8f3 983c d0e2 7cbb cfa6 43bc 8cd7 c8bb
000002e0: 820e 493d e458 eebb 5c8e b33c 885f 2fbc
000002f0: 26f5 cdbb 4dfb 913b 4718 e8bc cd6f 21bd
00000300: d75d b7bc fdcb e33c 4d04 233c 8b84 953b
00000310: cc44 583c f862 cb3c f85e 6a3b e3a4 7cbc
00000320: d987 83bc 0295 d53c 7f7a bb3c 6a3c 10bd
00000330: 3508 6abc ea54 a4b8 beb9 9cbb 648b d4bb
00000340: 75d6 bf3c 5312 883c 2d5d c5bc f85b 973b
00000350: 0e9f 68bd 1f01 c1bc b675 ca3b b94e 8e3c
00000360: bd5d aabc 3fb4 1e3c 878e 32ba 7745 acbc
00000370: b5bb b4bc 5445 673c 036c 063d 91d1 9c3c
00000380: 0a2c b3bc 0b5a de3b 3506 513c 4a9a 4a3c
00000390: d735 8abc 8ce9 a8ba 5eab 453c d7c2 20bc
000003a0: 4d43 773c 27ce fdbc a8f4 43bb 4bf1 a23c
000003b0: f5c3 703b 14c5 8dbc 4dbe 79bc 5240 163d
000003c0: bb94 debc a639 34bd aacc efbc b0f2 bb3c
000003d0: 846d 3bbc 34b3 b53c c1f3 813c 0802 debb
000003e0: b98e b9bc df49 ed3c d1a5 22bc 60b2 94bc
000003f0: 758c ad3c a64b 85ba 50be 063c f731 f6bc

chords_tempNet.convT_out.bias f4 [32]
-0.11255559 0.0030173664 0.1487142 -0.13850106 0.06685508 0.042689558 -0.03807498 0.06003
0.011486399 0.17128707 -0.13694066 0.00197058 0.06402945 0.0014709287 -0.053909693 0.14996994
-0.073840454 -0.13902481 0.007289796 -0.012640735 -0.032600783 0.08388598 -0.13832149 0.12378415
0.032336064 -0.04379098 0.0140395975 0.02885812 -0.057439987 0.0058039343 0.14291902 0.16694817
00000000: 8c83 e6bd 02bf 453b 8948 183e 39d3 0dbe
00000010: 51eb 883d 3fdb 2e3d 83f4 1bbd 04e2 753d
00000020: 7331 3c3c e165 2f3e 2c3a 0cbe d924 013b
00000030: df21 833d 2dcc c03a 69d0 5cbd b891 193e
00000040: aa39 97bd 855c 0ebe 3edf ee3b 161b 4fbc
00000050: 6688 05bd 6acc ab3d 26a4 0dbe 8b82 fd3d
00000060: d272 043d 2c5e 33bd 5706 663c dd67 ec3c
00000070: 3146 6bbd ee2e be3b 5d59 123e 76f4 2a3e

chords_tempNet.batchnorm_1.weight f4 [1024]
-0.0074257087 -0.0270733 0.018619731 0.007627802 -0.04016112 0.0063437307 -0.0402933 -0.024704512
0.015482734 0.023663532 -0.030570712 -0.010035008 -0.0008256626 0.0054529193 0.035672396 0.010228497
-0.011989849 -0.023665542 -0.032760855 0.032055147 0.038646504 -0.002045138 0.008334672 0.012887786
-0.009128849 -0.016558914 0.026706658 1.6881393e-05 -9.664167e-05 -0.024939947 0.05583404 -0.0013440594
-0.006685883 -5.563777e-05 -0.02203052 -0.017251996 0.0086868815 0.031157104 0.014977683 0.027982654
-0.010800317 0.018702507 -0.01593315 0.0007560566 -0.018398238 -0.007204575 -0.016647585 -5.800295e-05
-0.021585478 0.007027969 0.04637169 -0.02010229 -0.009221253 0.033709675 0.011665933 0.0177981
-0.010143847 -0.0056474023 -0.016322061 0.018413385 0.00516994 0.0120290425 0.018089233 0.0040512835
-0.0062496513 0.015018187 -0.0055889753 6.0187638e-05 -0.013644458 -0.029302025 -0.015400499 -0.011035621
0.011181501 -0.015169887 0.0065212348 -0.025368912 -0.019364405 0.038954075 -0.01831513 -0.00031642304
-0.0009725748 -0.00023690905 0.0039985385 -0.049151227 0.011252499 0.0025171768 -0.014097334 0.048769478
0.026523383 0.034870226 0.01423546 0.007915108 0.00010311601 -0.0006815764 -0.033990722 0.007202446
-0.043330602 0.02454333 0.011549747 -0.0032569077 0.020776905 -0.03593789 -0.007819406 0.023609094
-0.0009081526 -0.035583645 -0.01566613 0.034362946 0.007787924 -0.004231333 0.00019674028 0.031744745
-0.0003389559 2.0592917e-07 0.023361964 -0.014720817 0.01556296 0.034654096 0.0005668233 -0.005861375
0.010695852 0.012766844 0.0065768277 0.010737087 0.012403936 -0.033853214 0.033317428 -0.013925514
0.010382152 0.027866472 0.00016227589 0.004037222 0.02609785 0.02935899 -0.012262237 -0.024197688
-0.0004465075 0.018114982 0.0048012896 -0.034405928 0.025095345 -0.01658019 0.014749343 0.019313704
-0.0051065222 0.0073630726 -0.014065174 0.00048384187 -0.01674215 0.0009019294 -0.007926222 0.047531825
0.0007012113 -0.0012374613 -0.012279366 -0.036088664 0.016909787 -0.0251249 0.020009367 0.014877744
0.011724806 0.0029499382 0.018381504 -0.00057073415 0.03117256 0.010188921 0.029600892 0.006101595
-0.018207517 -0.02342037 0.032063134 0.037888736 -0.020061772 -0.022294693 0.060537536 -0.006927585
0.010437669 -0.018679343 0.014351466 -0.019015051 -0.03869192 0.024401966 0.014203784 0.055981096
0.0044440944 0.0025404538 -0.0066921976 0.0024331075 -0.006939808 -0.029957626 -0.011394756 -0.015860379
0.007953483 -0.005478996 0.0041042767 0.010492057 0.017452471 -0.02384984 0.0025195344 -0.042611975
0.02261104 0.008014075 0.00031685052 0.0013757239 -0.035861738 0.012092293 0.036623914 -0.0050549367
-0.017686475 -0.0076283514 -0.032432836 -0.031509973 0.00032997364 -0.03715671 0.011458474 0.035065334
0.020385152 -0.023854714 -0.005999591 -0.011543775 -0.035080805 0.024539327 0.015278218 0.050672147
0.019083265 -0.008174895 0.0065816133 -0.006494578 -0.026759066 -0.00045768125 -0.013720655 0.01522633
0.0070968284 -0.00020179164 0.028653346 -0.011897199 0.015754819 0.012088662 -0.02217634 -0.0099933725
-0.029820908 -0.00764047 0.028218199 -0.00094188 0.0139877675 0.026378341 0.015752025 -0.0013756453
-0.01609435 0.022380628 0.03333264 0.0071722055 -0.03178656 -0.00016565998 0.00041533247 0.000581211
00000000: 5c53 f3bb d3c8 ddbc 6888 983c a4f2 f93b
00000010: fd7f 24bd 12df cf3b 960a 25bd 1e61 cabc
00000020: 4bab 7d3c 06da c13c 6e6f fabc e069 24bc
00000030: 4771 58ba 67ae b23b 381d 123d 6d95 273c
00000040: 1271 44bc 3dde c1bc 3f30 06bd 424c 033d
00000050: cc4b 1e3d b907 06bb 268e 083c 4b27 533c
00000060: 2b91 15bc 8fa6 87bc ecc7 da3c 849c 8d37
00000070: 1aac cab8 dc4e ccbc 3cb2 643d 262b b0ba
00000080: 4015 dbbb 9a5c 69b8 5979 b4bc 0f54 8dbc
00000090: 6c53 0e3c 2f3d ff3c f564 753c e13b e53c
000000a0: d0f3 30bc 0036 993c 3d86 82bc 1932 463a
000000b0: e7b7 96bc 5b14 ecbb 8460 88bc 3148 73b8
000000c0: 07d4 b0bc e14a e63b 3ef0 3d3d 8fad a4bc
000000d0: bd14 17bc 2813 0a3d 7822 3f3c 52cd 913c
000000e0: 6132 26bc d80d b9bb d8b5 85bc abd7 963c
000000f0: 9a68 a93b 7615 453c df2f 943c a1c0 843b
00000100: e0c9 ccbb d80e 763c b923 b7bb fc71 7c38
00000110: 018d 5fbc cd0a f0bc 6052 7cbc c0ce 34bc
00000120: 9d32 373c 1e8b 78bc 15b0 d53b 77d2 cfbc
00000130: 1aa2 9ebc 4f8e 1f3d 9d09 96bc 95e5 a5b9
00000140: 64f4 7eba ca6a 78b9 2c06 833b cc52 49bd
00000150: 675c 383c 38f7 243b 81f8 66bc 81c2 473d
00000160: 9147 d93c 15d4 0e3d d93b 693c 5fae 013c
00000170: fd3f d838 d1ab 32ba db39 0bbd 7f02 ec3b
00000180: 6e7b 31bd 180f c93c 263b 3d3c d871 55bb
00000190: 5434 aa3c 9c33 13bd f71c 00bc dc67 c13c
000001a0: 1711 6eba 28c0 11bd 4256 80bc 29c0 0c3d
000001b0: d731 ff3b fea6 8abb 114c 4e39 c706 023d
000001c0: e4b5 b1b9 611d 5d34 9761 bf3c 952f 71bc
000001d0: c9fb 7e3c 74f1 0d3d de96 143a c710 c0bb
000001e0: a83d 2f3c 062c 513c 6e82 d73b 9bea 2f3c
000001f0: e139 4b3c aba9 0abd db77 083d d727 64bc
00000200: e719 2a3c 3a48 e43c 9a28 2a39 ac4a 843b
00000210: 29cb d53c 4482 f03c 8de7 48bc 3b3a c6bc
00000220: 3919 eab9 df65 943c 2354 9d3b 3bed 0cbd
00000230: c194 cd3c 2ed3 87bc 3aa7 713c c637 9e3c
00000240: 9d54 a7bb ee45 f13b 9e71 66bc 28ac fd39
00000250: d526 89bc 756f 6c3a fcdc 01bc bbb0 423d
00000260: 7ed1 373a 5032 a2ba 652f 49bc b5d1 13bd
00000270: 6586 8a3c bcd2 cdbc afea a33c c8c1 733c
00000280: 6719 403c c053 413b cf94 963c 529d 15ba
00000290: 995d ff3c 6fef 263c 927d f23c e3ef c73b
000002a0: ee27 95bc 13dc bfbc a254 033d 3831 1b3d
000002b0: 9658 a4bc 5ca3 b6bc 35f6 773d cc00 e3bb
000002c0: c202 2b3c 6c05 99bc 6922 6b3c 74c5 9bbc
000002d0: 6b7b 1ebd a2e6 c73c fdb6 683c 6f4c 653d
000002e0: c49f 913b be7d 263b 394a dbbb c574 1f3b
000002f0: 5467 e3bb b269 f5bc 12b1 3abc a0ed 81bc
00000300: 534f 023c 2689 b3bb 2b7d 863b e0e6 2b3c
00000310: 7cf8 8e3c bd60 c3bc c61e 253b e589 2ebd
00000320: ca3a b93c 784d 033c f51e a639 a251 b43a
00000330: c2e3 12bd c11e 463c f502 163d e2a3 a5bb
00000340: 3ae3 90bc 40f7 f9bb 4bd8 04bd 9a10 01bd
00000350: 5000 ad39 a231 18bd 53bc 3b3c aba0 0f3d
00000360: c3fe a63c f66a c3bc 3898 c4bb 1a22 3dbc
00000370: e4b0 0fbd b306 c93c 7e51 7a3c 998d 4f3d
00000380: 8254 9c3c ffef 05bc 93aa d73b 78d0 d4bb
00000390: d435 dbbc f0f4 efb9 99cc 60bc db77 793c
000003a0: 838c e83b 0898 53b9 6cba ea3c 78ec 42bc
000003b0: 4010 813c 860f 463c 28ab b5bc 3ebb 23bc
000003c0: fa4a f4bc e85c fabb da29 e73c 7fe8 76ba
000003d0: f32c 653c 6417 d83c 640a 813c ff4e b4ba
000003e0: 4cd8 83bc 9457 b73c ce87 083d d204 eb3b
000003f0: a032 02bd 03b5 2db9 fbc0 d939 695c 183a

chords_tempNet.batchnorm_1.bias f4 [1024]
-0.0014184812 -0.0010663816 0.0049009114 0.008177924 -0.00094833144 -0.0046968875 -9.453979e-05 0.0031624013
-0.00060258555 -0.0015356097 0.006291854 -0.0010837014 0.0053574624 -0.0027486174 0.0031358362 -0.0014304451
0.0018005472 0.006503721 0.00021573607 0.0009566347 -0.0040691863 0.00029958884 0.0002652513 0.004547056
0.0015066755 0.00055534777 0.00038684375 -0.0007346842 -0.0006169785 -0.0004707974 -0.0011401733 -0.0055344445
0.0008393644 -0.0004726258 0.0048869275 0.0026094592 -0.0041520027 -0.0009440813 -0.0028288683 0.0030301868
0.003058509 0.0008428207 -0.0033250353 0.0023712907 0.0011137943 0.0038297966 -0.0032260937 -0.001325829
0.0069632963 0.0038523285 -0.00089066714 0.0046442132 -0.00083137606 0.0017915348 0.006109161 0.0052314536
-0.0010671824 0.001761559 0.0021555757 -0.0076573608 0.0076985587 0.00085507287 -0.00595706 -0.00077605114
0.00033929132 0.0038348201 -4.9939163e-06 -0.00043769338 -0.004862554 0.0022900128 0.0017897482 -0.0010012183
-0.00021137824 -0.0055277664 0.002503102 -0.0044126934 0.0036727958 2.561786e-05 0.0036360957 -0.0017555552
-0.005344911 -0.0028054886 -0.0043175495 0.0039770217 -0.003654193 -0.0070372513 0.0023439692 -0.0010682954
-0.0007915615 0.006015893 0.0037253886 -0.0012814961 -0.0010730925 -0.004131072 -0.000121150115 -0.00059545337
-0.0037846721 -6.496814e-05 -0.006202906 0.0010795482 0.0033381106 -0.0009791538 -0.00093290955 -0.0028852546
-0.0009247533 0.0014601375 -0.0066047926 -0.00078403536 0.004993137 0.010047504 -0.0014729588 -0.0026670166
-0.002613926 -0.00028171367 -0.0022018726 -0.0023654788 0.0021045865 0.0037777321 -0.003552209 0.0057242815
0.0012171059 0.0024243763 0.0011685438 -0.0048206053 -0.001460455 0.00031696595 -0.0006988053 -0.00046595486
-0.0011253032 -0.0046531567 -0.0007595368 -0.005314551 0.0009818835 -0.004645585 -0.0056986464 0.0053577796
-0.0030893495 0.0019209094 0.0032878462 0.0067599784 0.0029079951 0.002789652 0.0058397795 -0.0007629061
0.0030038278 -0.0029466792 -0.0013214682 -0.0029365239 0.0029687134 -0.004911675 -0.0012133196 0.0056040795
-0.0036184336 -0.00522214 0.0007106626 0.0028744494 -0.0021625976 0.00075010344 0.003391305 0.0014331591
0.0019330848 0.0013981571 0.0047160103 0.0051630167 0.0035085273 0.0023878128 -0.0041227466 0.0014735524
0.008296522 -0.0027942357 0.0045168125 0.0037952925 -0.0026921083 0.002170119 0.0054717856 0.004535036
0.001080652 -0.0015505196 0.0026860049 -0.001493414 -0.00088131975 0.0019346571 -0.0001328621 0.0037903734
-0.0048962426 0.0041720783 0.0046731946 0.00025596193 0.0006001247 -0.0013590385 -0.006999566 0.0009841784
-0.0035753902 -0.0054035834 -0.0025584204 0.006754826 -0.0050650677 0.004607252 0.0020149716 -0.0030697112
-0.0037805082 0.0051635318 -0.0013877365 -0.0074487072 0.0049856836 -0.0046372865 0.0039476566 0.0006110521
0.0030436858 -0.007115073 0.0017402389 0.0045789476 -0.001881642 -0.0035688193 -6.76527e-05 -0.004469617
0.006076467 0.0039362353 0.0024975361 -0.0041604415 0.0012598608 0.0009992965 0.0062761893 -0.0022234928
0.00041503753 0.0029897683 -0.002264498 0.0027029559 0.0016815675 0.003005476 0.004451981 0.0070678606
-0.0034224896 -0.0010544525 -0.0025290882 -0.00092790043 0.0043469565 -0.0030556524 0.001972993 -0.003942669
-0.0007445357 0.0021013753 -0.0061138608 -0.0048920945 -0.0032291135 0.0042997296 0.0011790629 -0.0055613695
0.000307301 0.0005017569 0.0056240894 0.0027578517 -0.0016716395 -0.0008870814 0.0020355384 -0.0028740128
00000000: 55ec b9ba d4c5 8bba d397 a03b b3fc 053c
00000010: 7299 78ba 59e8 99bb aa43 c6b8 4a40 4f3b
00000020: d5f6 1dba 8346 c9ba e62b ce3b fc0a 8eba
00000030: a78d af3b 2622 34bb 9a82 4d3b c67d bbba
00000040: 5700 ec3a 2a1d d53b 3637 6239 abc6 7a3a
00000050: cf56 85bb 2212 9d39 6d11 8b39 78ff 943b
00000060: a47b c53a c294 113a 4ad1 ca39 d297 40ba
00000070: babc 21ba 5bd5 f6b9 de71 95ba 495a b5bb
00000080: cb08 5c3a c3ca f7b9 8522 a03b 7603 2b3b
00000090: 860d 88bb 397c 77ba 8964 39bb 1996 463b
000000a0: 4471 483b bdf0 5c3a d6e8 59bb a867 1b3b
000000b0: bcfc 913a 53fd 7a3b df6c 53bb 70c7 adba
000000c0: 5d2c e43b 5977 7c3b a97b 69ba 7c2e 983b
000000d0: b4f0 59ba efd1 ea3a 5b2f c83b 9d6c ab3b
000000e0: b3e0 8bba 1de4 e63a 8f44 0d3b 99ea fabb
000000f0: 3144 fc3b f826 603a 7133 c3bb e96f 4bba
00000100: e9e2 b139 9b51 7b3b 6a91 a7b6 367a e5b9
00000110: 0f56 9fbb 0a14 163b fc95 ea3a 503b 83ba
00000120: 6aa5 5db9 4422 b5bb 150b 243b 5b98 90bb
00000130: 4ab3 703b efe5 d637 904b 6e3b a81a e6ba
00000140: 5d24 afbb 4adc 37bb 3b7a 8dbb ad51 823b
00000150: 2f7b 6fbb be98 e6bb 479d 193b 0c06 8cba
00000160: cb80 4fba f820 c53b a625 743b e0f7 a7ba
00000170: 02a7 8cba f25d 87bb f911 feb8 3318 1cba
00000180: 4308 78bb 813f 88b8 bf41 cbbb a07f 8d3a
00000190: 34c4 5a3b f356 80ba 808e 74ba 8a16 3dbb
000001a0: 256b 72ba 1662 bf3a 046d d8bb b987 4dba
000001b0: 789d a33b 499e 243c 4c10 c1ba 1dc9 2ebb
000001c0: 674e 2bbb f8b2 93b9 4b4d 10bb 2606 1bbb
000001d0: 1aed 093b d493 773b 2dcc 68bb c192 bb3b
000001e0: 4c87 9f3a 49e2 1e3b d329 993a 2bf6 9dbb
000001f0: bd6c bfba 732e a639 0830 37ba 674b f4b9
00000200: e97e 93ba 8279 98bb a71b 47ba af25 aebb
00000210: 8bb2 803a fe39 98bb b6bb babb 5090 af3b
00000220: af76 4abb 06c7 fb3a e878 573b cf82 dd3b
00000230: 1094 3e3b 98d2 363b 9f5b bf3b c3fd 47ba
00000240: dedb 443b 131d 41bb 1d35 adba b272 40bb
00000250: bf8e 423b 1ef2 a0bb 4008 9fba 6da2 b73b
00000260: 3e23 6dbb 7c1e abbb c34b 3a3a 4261 3c3b
00000270: 5eba 0dbb 97a2 443a a840 5e3b d7d8 bb3a
00000280: 905f fd3a 5e42 b73a c388 9a3b 862e a93b
00000290: 52ef 653b da7c 1c3b 1b18 87bb 3724 c13a
000002a0: 23ee 073c 7f1f 37bb c501 943b 71ba 783b
000002b0: 156e 30bb 8e38 0e3b aa4c b33b a49a 943b
000002c0: aaa4 8d3a ce3a cbba af07 303b a9be c3ba
000002d0: 5e08 67ba 5294 fd3a e650 0bb9 ea67 783b
000002e0: a970 a0bb eeb5 883b 9921 993b a132 8639
000002f0: b051 1d3a c421 b2ba 9e5c e5bb 8cff 803a
00000300: 1851 6abb 8b10 b1bb 2cab 27bb 9657 dd3b
00000310: def8 a5bb 6ef8 963b 9d0d 043b 352d 49bb
00000320: 67c2 77bb d832 a93b b6e4 b5ba 4914 f4bb
00000330: f25e a33b 61f4 97bb 585b 813b 032f 203a
00000340: 9378 473b 8f25 e9bb ba18 e43a ff0a 963b
00000350: 6ea1 f6ba dae2 69bb c4e0 8db8 dd75 92bb
00000360: 1a1d c73b 89fb 803b b4ad 233b 5054 88bb
00000370: ea21 a53a d4fa 823a 7ea8 cd3b 05b8 11bb
00000380: 6599 d939 fdef 433b f967 14bb 1324 313b
00000390: 0b68 dc3a 85f7 443b ece1 913b 8399 e73b
000003a0: d94b 60bb 8e35 8aba 0fbf 25bb 583e 73ba
000003b0: ea70 8e3b 5741 48bb 544d 013b 8131 81bb
000003c0: f22c 43ba 3ab7 093b c856 c8bb dd4d a0bb
000003d0: 899f 53bb bfe4 8c3b c98a 9a3a 263c b6bb
000003e0: 3e1d a139 5688 033a 484a b83b 13bd 343b
000003f0: ea1a dbba 068b 68ba ab66 053b ef59 3cbb

chords_tempNet.batchnorm_1.running_mean f4 [1024]
-0.065311596 -0.039198674 -0.012272811 -0.021638831 0.06104243 0.00070540747 -0.0117403725 -0.007830485
-0.011481808 -0.029132389 -0.0020096255 0.008212573 -0.027291166 0.01664785 -0.004502984 0.019599784
-0.040796623 -0.05035999 0.043254625 -0.0062129647 -0.028886227 -0.028685808 -0.03661231 -0.0070683407
0.04062708 -0.026178647 0.0025533114 -0.0054463204 0.03140793 0.036330767 -0.007227298 -0.041674394
0.031238547 0.00685763 -0.0031618301 0.0823567 0.051018905 -0.04291941 0.0046830983 -0.02700258
0.034469265 -0.054374427 0.020069482 0.037093755 -0.013513029 0.0725897 0.015456391 -0.040632404
0.0010026526 -0.037143666 0.04402694 -0.04822069 0.03857816 0.050010778 0.08156235 0.026831143
0.037925128 -0.00821779 0.0068921526 0.03079602 -0.013545863 0.032007392 -0.05048669 -0.025867939
0.0034072713 -0.103267655 -0.012178699 -0.0013201275 0.0032971543 0.02458194 0.004208027 0.034242094
0.012773617 -0.03363356 -0.0035817833 -0.023816852 -0.019467393 -0.046046097 0.026358604 0.07157848
-0.013321279 0.003311073 0.035497986 0.024890441 -0.034519438 -0.019494977 -0.04828612 0.034408536
-0.0017213823 -0.016361425 0.032667324 0.003429601 0.009538356 0.0054327096 -0.09042852 -0.037628856
-0.044997044 0.023667367 0.0011427442 -0.04632437 -0.017685661 -0.044278502 0.019077642 0.06816101
-0.0164293 0.014048857 -0.0071942997 -0.05846428 -0.03881809 0.0026786735 0.026425356 0.042773355
-0.054953065 -0.022568332 0.021099739 0.018285193 -0.030722406 0.08059644 0.063997805 -0.026524892
0.01861144 0.010510935 -0.01817927 -0.005944709 0.005790487 0.03552654 0.0406968 -0.038937345
-0.088943675 0.056171004 0.022925435 -0.034583293 -0.02481704 0.01681711 0.054059833 0.049918383
0.03036702 0.0110268025 -0.023839543 0.11359309 -0.06869165 0.015042748 0.080000244 -0.022750748
-0.026249906 -0.06852801 -0.004227367 -0.055933367 -0.0035823616 -0.040231816 0.05065219 -0.042202093
0.0046341904 -0.047996964 -0.02813868 -0.016726239 0.015395863 0.03236855 -0.007911623 -0.14614464
0.017992927 0.011781619 0.0646409 0.0139208 0.022924265 0.052500382 0.00860207 -0.006101648
-0.027361678 -0.018354291 -0.06643914 0.041249357 -0.034628287 0.01902455 0.028559547 -0.02174804
0.03373869 0.036518864 0.03585961 -0.0072736363 -0.0062468504 0.007458861 -0.0034361158 -0.013958995
-0.03141046 0.020771258 0.03236972 0.0009192471 -0.03262038 -0.04072954 0.08823019 -0.014169436
-0.023480512 0.020955319 0.016196048 0.010401913 0.0007711951 -0.054013353 0.03494717 0.028377593
-0.023842108 0.06877669 0.09000658 0.0047061592 0.08367051 -0.06316407 0.024855267 0.006531296
-0.006617609 0.07232624 -0.041198794 -0.023155244 0.03874373 0.044713978 -0.043230712 0.029907873
0.0147298835 -0.03422685 -0.008080104 -0.045014232 0.0069019455 -0.022652907 0.014210525 -0.024403105
0.015012725 0.010846444 0.05003506 0.029191481 0.027675094 0.052867495 -0.012824221 0.0861717
0.039872173 -0.027774114 0.03049157 -0.0057980344 -0.025059896 0.041332487 -0.084142156 0.0142726805
-0.007071766 0.00685253 0.06701269 0.05885652 -0.035390936 -0.005037354 -0.059171773 -0.077767216
-0.054318327 0.011949606 0.0038836582 0.013810763 -0.0029232702 0.035967536 0.01283247 -0.0038754956
00000000: 16c2 85bd ca8e 20bd e613 49bc eb43 b1bc
00000010: a107 7a3d 18eb 383a b15a 40bc 6f4b 00bc
00000020: 311e 3cbc 0ca7 eebc ecb3 03bb 078e 063c
00000030: b991 dfbc 1261 883c c58d 93bb ba8f a03c
00000040: 5c1a 27bd 4746 4ebd c32b 313d 2096 cbbb
00000050: cfa2 ecbc 80fe eabc caf6 15bd 8a9d e7bb
00000060: 9568 263d 9a74 d6bc 7555 273b 0c77 b2bb
00000070: 9aa5 003d 92cf 143d f8d2 ecbb c5b2 2abd
00000080: fbe7 ff3c f8b5 e03b b536 4fbb a1aa a83d
00000090: 33f9 503d 43cc 2fbd ad74 993b 8434 ddbc
000000a0: a52f 0d3d b8b7 5ebd c168 a43c 9fef 173d
000000b0: c065 5dbc e9a9 943d cd3c 7d3c 2a6e 26bd
000000c0: 706b 833a f523 18bd 9855 343d 0f83 45bd
000000d0: 2204 1e3d 1ad8 4c3d 290a a73d fccc db3c
000000e0: 6157 1b3d e9a3 06bc 91d7 e13b ef47 fc3c
000000f0: 78ef 5dbc 2f1a 033d 22cb 4ebd 00e9 d3bc
00000100: 874c 5f3b fe7d d3bd 2a89 47bc 2108 adba
00000110: 1215 583b 1160 c93c 7de3 893b 7041 0c3d
00000120: 6f48 513c 58c3 09bd 5abc 6abb 8f1b c3bc
00000130: 157a 9fbc d59a 3cbd 00ee d73c bd97 923d
00000140: 7e41 5abc 96fe 583b 5666 113d 0ae7 cb3c
00000150: 4164 0dbd eeb3 9fbc abc7 45bd f7ef 0c3d
00000160: 01a0 e1ba 6508 86bc 2cce 053d 28c3 603b
00000170: c446 1c3c df04 b23b 9732 b9bd b720 1abd
00000180: d24e 38bd 11e2 c13c 22c8 953a 9fbe 3dbd
00000190: 85e1 90bc 605d 35bd b748 9c3c 0098 8b3d
000001a0: bd96 86bc 2d2d 663c 29be ebbb 3e78 6fbd
000001b0: b8ff 1ebd af8c 2f3b fd79 d83c 1d33 2f3d
000001c0: 7716 61bd 39e1 b8bc 5cd9 ac3c d4ca 953c
000001d0: 8ead fbbc bf0f a53d 4811 833d bb4a d9bc
000001e0: 0577 983c 0f36 2c3c b1ec 94bc d5cb c2bb
000001f0: 20be bd3b 4784 113d b0b1 263d c47c 1fbd
00000200: 1a28 b6bd 9113 663d 1fce bb3c 36a7 0dbd
00000210: 1b4d cbbc 09c4 893c d86d 5d3d 3877 4c3d
00000220: 42c4 f83c c3a9 343c 254b c3bc 7ea3 e83d
00000230: 35ae 8cbd dc75 763c 2bd7 a33d c75f babc
00000240: 0b0a d7bc 6a58 8cbd ba85 8abb 631a 65bd
00000250: 0ec6 6abb 1eca 24bd ac78 4f3d 1adc 2cbd
00000260: 68da 973b 7798 44bd 1783 e6bc 7705 89bc
00000270: ee3e 7c3c e294 043d c19f 01bc f1a6 15be
00000280: e765 933c b107 413c 7362 843d 1114 643c
00000290: abcb bb3c a40a 573d b2ef 0c3c 55f0 c7bb
000002a0: 9925 e0bc bd5b 96bc 3e11 88bd 16f5 283d
000002b0: 64d6 0dbd 60d9 9b3c b6f5 e93c f228 b2bc
000002c0: 9531 0a3d ce94 153d 87e1 123d af57 eebb
000002d0: 61b2 ccbb 7669 f43b 7530 61bb 45b4 64bc
000002e0: 41a8 00bd 7c28 aa3c 1d96 043d a1f9 703a
000002f0: f39c 05bd 05d4 26bd 08b2 b43d ec26 68bc
00000300: 345a c0bc 7daa ab3c 93ad 843c c96c 2a3c
00000310: 072a 4a3a 1b3d 5dbd c424 0f3d 2078 e83c
00000320: 8650 c3bc cbda 8c3d 5f55 b83d 2036 9a3b
00000330: 725b ab3d 2a5c 81bd 469d cb3c 7b04 d63b
00000340: 87d8 d8bb c81f 943d 11c0 28bd 11b0 bdbc
00000350: bfb1 1e3d 0126 373d b012 31bd 5b01 f53c
00000360: 9c55 713c 7431 0cbd 6a62 04bc d860 38bd
00000370: b729 e23b 9792 b9bc 43d3 683c 05e9 c7bc
00000380: eff7 753c 49b5 313c 90f1 4c3d f922 ef3c
00000390: e1b6 e23c 968b 583d ae1c 52bc ca7a b03d
000003a0: 0151 233d 8a86 e3bc 75c9 f93c 70fd bdbb
000003b0: 694a cdbc 414c 293d b952 acbd f6d7 693c
000003c0: 46ba e7bb 308b e03b f33d 893d 8913 713d
000003d0: 16f6 10bd 6310 a5bb 1a5e 72bd 6b44 9fbd
000003e0: e57c 5ebd 48c8 433c f984 7e3b 8a46 623c
000003f0: 5694 3fbb b252 133d 483f 523c 07fc 7dbb

chords_tempNet.batchnorm_1.running_var f4 [1024]
0.01005504 0.007243816 0.009898511 0.0131769525 0.030310635 0.010966418 0.011458355 0.008637607
0.016744519 0.0071834056 0.01180291 0.0098457495 0.009900948 0.009756145 0.014266088 0.012815574
0.01985078 0.0046107266 0.020646816 0.0128038665 0.009662211 0.011172092 0.010700299 0.013184393
0.015131754 0.012568109 0.008036937 0.009652235 0.0072396123 0.0068470505 0.009180373 0.008955394
0.0055607283 0.007131151 0.0139205605 0.006557238 0.009434681 0.024266418 0.006444758 0.0058880793
0.010991192 0.01589088 0.010603684 0.0068815416 0.026308518 0.013616254 0.029466297 0.012311377
0.013919213 0.011001671 0.010569404 0.0068418 0.005497099 0.007130923 0.0052142893 0.0032070465
0.01602388 0.008964237 0.01498944 0.0067495503 0.013682396 0.025485745 0.010150913 0.005948013
0.014158522 0.012497997 0.007715369 0.0061028292 0.019364614 0.014650273 0.01029127 0.012120037
0.012632288 0.0039509414 0.012596247 0.0075419513 0.003954424 0.020215493 0.017960075 0.007088867
0.01669449 0.01115406 0.023462351 0.01191563 0.012631894 0.0069885976 0.019630136 0.017834952
0.0147038605 0.019222638 0.007197582 0.009946584 0.0064596687 0.008434997 0.012715217 0.01010595
0.010586413 0.0048582344 0.0068476717 0.015278137 0.009090769 0.013521908 0.013037205 0.011472919
0.016066156 0.01281209 0.017031126 0.024108797 0.010727285 0.013816459 0.007982817 0.007354242
0.017326092 0.015667818 0.021129543 0.010502984 0.0062152096 0.005148962 0.011092479 0.010272849
0.011334451 0.0128215505 0.005283856 0.018931272 0.0071468 0.0063115386 0.015888669 0.018026564
0.009661728 0.0085395565 0.022855185 0.0056108837 0.011740597 0.0048847487 0.007910983 0.014679837
0.008814568 0.0076699737 0.02504016 0.008348494 0.026213536 0.0067201676 0.014387378 0.013471517
0.0063340566 0.020379212 0.015075117 0.010728698 0.014705807 0.018275999 0.007931035 0.026142227
0.045221675 0.01140489 0.008942234 0.0137426825 0.01179447 0.010643269 0.006969785 0.006998342
0.021630071 0.007640618 0.0070041004 0.01102844 0.018751461 0.020450559 0.013373854 0.015692005
0.011169029 0.0039873994 0.013156986 0.011275387 0.014320529 0.006020933 0.0060792477 0.007034334
0.012763042 0.009258371 0.010733181 0.012864195 0.022404598 0.0047750403 0.00766062 0.010630846
0.015964985 0.010475661 0.0131994 0.010708242 0.009313709 0.017954547 0.0116581 0.010875311
0.009538835 0.016722048 0.005922409 0.0150487 0.0053442684 0.015526693 0.014354558 0.010536282
0.015418377 0.02258317 0.009640902 0.011596212 0.011322954 0.008034181 0.009316995 0.01996922
0.013593713 0.011458756 0.0076276646 0.0143220415 0.0063765543 0.016063793 0.021593187 0.01427704
0.010433293 0.013477082 0.014852333 0.015501873 0.00809151 0.00789025 0.021503363 0.0065065646
0.0106565235 0.0118045835 0.009571644 0.016273366 0.016445938 0.021051351 0.006783335 0.008725536
0.017158633 0.026222296 0.019586863 0.008787937 0.012488557 0.016190467 0.007606365 0.011942751
0.016922565 0.0085241785 0.0093915565 0.01575804 0.012632982 0.015117708 0.018137673 0.0067246933
0.012847012 0.011569825 0.0175318 0.013643406 0.0136341 0.011499821 0.0062260786 0.012389307
00000000: e5bd 243c 885d ed3b 5d2d 223c 25e4 573c
00000010: 024e f83c 7eac 333c d3bb 3b3c c084 0d3c
00000020: cd2b 893c c662 eb3b fe60 413c 1150 213c
00000030: 9637 223c 3dd8 1f3c 4fbc 693c 6af8 513c
00000040: 1a9e a23c 9415 973b 8323 a93c 4fc7 513c
00000050: 404e 1e3c 260b 373c 4f50 2f3c 5a03 583c
00000060: 2deb 773c 78ea 4d3c 5bad 033c 6824 1e3c
00000070: 453a ed3b 395d e03b 4669 163c a5b9 123c
00000080: c536 b63b 6eac e93b 1013 643c 19de d63b
00000090: ec93 1a3c 5eca c63c 8c2e d33b caf0 c03b
000000a0: 6714 343c 972d 823c 13bb 2d3c 8e7e e13b
000000b0: f684 d73c b516 5f3c 4e63 f13c a8b5 493c
000000c0: 690d 643c 5a40 343c 4b2b 2d3c 2e31 e03b
000000d0: 0221 b43b 85aa e93b a1dc aa3b 502d 523b
000000e0: 8344 833c bcde 123c 4596 753c 552b dd3b
000000f0: 212c 603c 7bc7 d03c 0450 263c 8de7 c23b
00000100: 25f9 673c 66c4 4c3c 35d1 fc3b 3efa c73b
00000110: 8aa2 9e3c b307 703c b79c 283c 1f93 463c
00000120: a8f7 4e3c e676 813b 7d60 4e3c 7922 f73b
00000130: 1d94 813b f69a a53c 0221 933c ba49 e83b
00000140: e2c2 883c 85bf 363c 1e34 c03c c639 433c
00000150: 01f6 4e3c 9b00 e53b 61cf a03c 9b1a 923c
00000160: 76e8 703c cb78 9d3c b2d9 eb3b fff6 223c
00000170: a1ab d33b f132 0a3c 7c53 503c 6d93 253c
00000180: a272 2d3c d331 9f3b 6f62 e03b 2751 7a3c
00000190: 73f1 143c fe8a 5d3c 009a 553c e9f8 3b3c
000001a0: 2c9d 833c cde9 513c dc84 8b3c d07f c53c
000001b0: 7fc1 2f3c 6e5e 623c 5cca 023c dafb f03b
000001c0: 73ef 8d3c cc59 803c dd17 ad3c b514 2c3c
000001d0: f5a8 cb3b a0b8 a83b 3bbd 353c 744f 283c
000001e0: 22b4 393c 7b11 523c 3224 ad3b c115 9b3c
000001f0: b42f ea3b 06d1 ce3b f428 823c 72ac 933c
00000200: 394c 1e3c 7fe9 0b3c cc3a bb3c 81db b73b
00000210: a25b 403c 3e10 a03b 119d 013c b383 703c
00000220: fa6a 103c 6754 fb3b 0621 cd3c 1fc8 083c
00000230: c5bd d63c da34 dc3b 09b9 6b3c a3b7 5c3c
00000240: eb8d cf3b 4ef2 a63c a0fd 763c 6cc7 2f3c
00000250: a0f0 703c 8cb7 953c 2cf1 013c 3928 d63c
00000260: 5d3a 393d 93db 3a3c 7382 123c fd28 613c
00000270: 983d 413c 1b61 2e3c cb62 e43b 5952 e53b
00000280: 8c31 b13c 265e fa3b a782 e53b a1b0 343c
00000290: aa9c 993c ee87 a73c 021e 5b3c 858c 803c
000002a0: 4efe 363c bba8 823b 6690 573c 67bc 383c
000002b0: a7a0 6a3c 3f4b c53b 6d34 c73b 4580 e63b
000002c0: 141c 513c 6cb0 173c 39da 2f3c 58c4 523c
000002d0: d989 b73c f177 9c3b f005 fb3b 002d 2e3c
000002e0: 00c9 823c 1ba2 2b3c 4c42 583c 9f71 2f3c
000002f0: 8798 183c 6a15 933c 9e01 3f3c 5c2e 323c
00000300: c648 1c3c adfc 883c c410 c23b d38e 763c
00000310: f91e af3b ac63 7e3c 612f 6b3c 5fa0 2c3c
00000320: 5c9d 7c3c 5700 b93c e0f4 1d3c 0afe 3d3c
00000330: e983 393c cca1 033c 4fa6 183c 7d96 a33c
00000340: 2ab8 5e3c 82bd 3b3c 7df1 f93b ffa6 6a3c
00000350: 6af2 d03b 3798 833c 32e4 b03c 3fea 693c
00000360: 67f0 2a3c fbce 5c3c 3357 733c 91fb 7d3c
00000370: 4192 043c 1b46 013c d227 b03c 0535 d53b
00000380: b398 2e3c 0368 413c 62d2 1c3c b94f 853c
00000390: a2b9 863c e273 ac3c bd46 de3b 8df5 0e3c
000003a0: 4390 8c3c 24d0 d63c a174 a03c 48fb 0f3c
000003b0: ce9c 4c3c dfa1 843c d03e f93b 87ab 433c
000003c0: 31a1 8a3c ffa8 0b3c 0bdf 193c 0117 813c
000003d0: 91fa 4e3c 43b0 773c 7595 943c d15a dc3b
000003e0: 467c 523c 5d8f 3d3c d99e 8f3c 9888 5f3c
000003f0: 8f61 5f3c bf69 3c3c 2204 cc3b 85fc 4a3c

chords_tempNet.batchnorm_2.weight f4 [32]
-0.009371721 -0.05115534 -0.0102349045 -0.044339195 -0.043333363 0.022016257 0.029976645 -0.0037200786
-0.07324635 0.0049313023 0.064846255 0.04297131 -0.0353298 -0.029131213 0.032095492 -0.019027686
-0.0011407579 0.02742374 0.03973015 0.07180019 0.0063602133 -0.013869231 -0.018278044 -0.023070307
0.08860186 -0.021931306 0.05824101 -0.031845964 -0.030544732 0.027529024 -0.0038102807 0.009062451
00000000: d98b 19bc 4388 51bd 4db0 27bc 049d 35bd
00000010: 537e 31bd 705b b43c 9591 f53c 90cc 73bb
00000020: 2f02 96bd c396 a13b 1dce 843d af02 303d
00000030: fbb5 10bd 95a4 eebc 9076 033d f3df 9bbc
00000040: 7c85 95ba c0a7 e03c 15bc 223d fa0b 933d
00000050: 5669 d03b c53b 63bc d6bb 95bc f1fd bcbc
00000060: e474 b53d 48a9 b3bc 208e 6e3d ea70 02bd
00000070: f238 fabc 8c84 e13c e7b5 79bb ad7a 143c

chords_tempNet.batchnorm_2.bias f4 [32]
0.004905936 0.011820705 0.0006439825 0.009818381 0.0049581733 0.0057166647 0.007327374 0.002329151
0.021163354 0.00055977335 0.009795336 0.014810733 0.0048471554 -0.002982036 0.011175893 0.004536482
-0.0041104797 0.0010422195 0.0033848477 0.018746702 6.777932e-05 0.0022685 0.004741177 0.002879789
0.022676405 0.00545184 0.014537535 0.0032537924 0.006888406 0.0015656962 -0.003577133 0.0011365415
00000000: f9c1 a03b a1ab 413c efd0 283a 46dd 203c
00000010: 2c78 a23b dc52 bb3b 781a f03b aba4 183b
00000020: c55e ad3c c1bd 123a 9e7c 203c b7a8 723c
00000030: e3d4 9e3b 436e 43bb 181b 373c c5a6 943b
00000040: 34b1 86bb 159b 883a 52d4 5d3b af92 993c
00000050: bf24 8e38 1dab 143b e05b 9b3b d8ba 3c3b
00000060: dec3 b93c 59a5 b23b d72e 6e3c 943d 553b
00000070: 23b8 e13b 0c38 cd3a 556e 6abb 01f8 943a

chords_tempNet.batchnorm_2.running_mean f4 [32]
-0.116132654 0.004543809 0.14230359 -0.13971822 0.06676364 0.04331707 -0.038964372 0.051999718
0.002654528 0.16070539 -0.1372983 -0.0018894367 0.061873883 0.013326748 -0.045018133 0.1481008
-0.070618935 -0.15159811 -0.009372199 -0.012654416 -0.036563374 0.078022726 -0.13381189 0.12394233
0.029864276 -0.03782131 0.020904034 0.024909673 -0.059116703 0.0077897306 0.15225144 0.1624265
00000000: f5d6 edbd 3ce4 943b 08b8 113e 4b12 0fbe
00000010: 60bb 883d 3d6d 313d 1b99 1fbd a8fd 543d
00000020: 97f7 2d3b f48f 243e ed97 0cbe faa6 f7ba
00000030: 786f 7d3d 6f58 5a3c ef64 38bd bca7 173e
00000040: a9a0 90bd 893c 1bbe da8d 19bc 7854 4fbc
00000050: 7ac3 15bd 61ca 9f3d fc05 09be 7ad5 fd3d
00000060: eda5 f43c 85ea 1abd f03e ab3c 5f0f cc3c
00000070: 5b24 72bd ff40 ff3b cde7 1b3e 2253 263e

chords_tempNet.batchnorm_2.running_var f4 [32]
2.5737796e-05 0.00012864027 3.639162e-05 0.00013035972 0.00012100663 0.00011241522 8.109176e-05 0.00010456007
0.00018263521 9.494592e-05 0.00037486758 7.8359684e-05 0.00012805652 6.652011e-05 0.00031514838 0.00013409418
6.749012e-05 0.00010651279 5.6933284e-05 0.00022311285 5.9559115e-05 0.00010578904 5.8988146e-05 0.0001473263
0.0001243017 6.945397e-05 0.00011618595 9.347367e-05 0.00010131653 0.00023349877 8.7494394e-05 5.4676093e-05
00000000: 7fe7 d737 9ce3 0639 34a3 1838 2cb1 0839
00000010: f1c4 fd38 76c0 eb38 cf0f aa38 4347 db38
00000020: c481 3f39 b41d c738 e089 c439 0955 a438
00000030: e946 0639 b680 8b38 803a a539 a29b 0c39
00000040: 7b89 8d38 9e5f df38 a6cb 6e38 66f3 6939
00000050: 1dcf 7938 0fdb dd38 0a6a 7738 9a7b 1a39
00000060: fc56 0239 d1a7 9138 dba8 f338 4b07 c438
00000070: e679 d438 59d7 7439 327d b738 0254 6538
