run_1/weights/weights-g-300.pth (torch, 418811 bytes, 12 tensors)

chords_tempNet.convT_in.weight f4 [32, 1024, 2, 1]
00000000: b765 883c 2758 04bc 7e3e 7b3b 2e67 0b3d
00000010: e910 aebc 7686 043d 7b8b 4abc e189 89bb
00000020: e29a c13c 5bb2 37bc 5339 553a b175 fabb
00000030: 703b eb3b 353b 64bc 8e71 d93c 459c deba
00000040: fe02 193d 94b1 fe3c c175 8dbc e312 58bc
00000050: c32f 003c 57bc 58bc 38e2 063c d604 ccbb
00000060: 4cb4 3dbb 4e94 f43b dbf7 2f3c 06bb 06bd
00000070: 90e3 613c 18ce d5b9 cd52 2cbc cf0e fbbc
00000080: d046 783b 53cb 0e3a 43e5 5abc 017d f7bb
00000090: a643 823c 9d0e 6cbc 5062 663d 1362 e5bc
000000a0: 6404 783c 31c2 ce39 d70b 8abb 1f32 4ebc
000000b0: 1dad 8e3c 917d 253c f708 303d e1e7 603c
000000c0: ecbb 5dbd db61 d5bc aa0b 31bc 449d f2bc
000000d0: a78c 5abc 55b1 96bb 77a8 1bbc c6c9 b3bc
000000e0: ce28 afbc f04e dbba 3707 b3bc 15d2 e6b9
000000f0: c155 db3c 4f07 68bc aa0a 68bc e8de 5a3c
00000100: 601b b33b 33d3 40bb f4c6 9c3c ad3c c03c
00000110: 9c74 2c3a 6304 fabc 4941 c13c badd 883c
00000120: 082b 9cb9 e348 f2ba eeeb 4e3c 9427 f5bc
00000130: 8cd3 91bc 3f15 84bc 2dc8 583c b452 3239
00000140: cb84 063c 4e38 50bb 1741 af3b 5f63 e538
00000150: 912f 583c ae94 203b fda6 a13b 3909 99ba
00000160: 8f71 37bd 46b7 acbc 004b 3f3c a390 86bc
00000170: 922f f53c 0ff0 733c b10a 033a 201c f3bc
00000180: 08c6 0abd 1731 183c bfca 393b 1d7b 11bc
00000190: 85fb 833c 6b68 603c 243d 8abc 6904 f0bc
000001a0: 621c 2e3c 39bb acbb 5cda e4bb 9264 153d
000001b0: 3495 c73c 08ec 203b 38b0 e2bb 215a 71bc
000001c0: 7d49 693c 2c5a 083d 00c3 8a3c 1dbd e43b
000001d0: 3d83 a83c d481 d53c ccc3 bd3c 1064 29bc
000001e0: 8818 af3c d27c 99bc 396a 8e3b 1d05 c53a
000001f0: 39d2 513c 3b97 afbc d5a7 e2bb cbea 62bc
00000200: 0c97 04bc b0b3 fd3c fba4 0e3c 231a 89bc
00000210: 4e66 a8bc c82a 553b 6bc8 a1bb 7f68 9c3c
00000220: 6384 243b 2667 af3c 48c0 7a3c 1d5e f2bc
00000230: eb82 da3c 0dea a7bb 85e5 0f3d 0f4a a1bc
00000240: c091 da3c 8bb8 44bc 0593 fc3c 6c9e cc3c
00000250: f3c1 133b d33b 7a3c dad3 243c f1ee 96bb
00000260: c954 823b 49fa a83c 40d1 a3bb 876f 11bb
00000270: 34f3 c0bc c304 c33c d50c 053d 90ef 8c3c
00000280: aaa0 85bc 8e0b 3bbd 3070 e1bb 554e d53b
00000290: a044 66bc c1b9 f73b 9d98 2abd 9fee d33c
000002a0: 38a3 53bb fcaf 8dbc 7841 ebbb d14e c93b
000002b0: 6ef2 74ba 68fd 0ebc 1601 703c 5e58 7ebb
000002c0: 43eb 233c cd8f b43c 67c5 1bbb 27b4 a0bc
000002d0: 8046 3e3c 6270 883c 5d5d fbbb d1b1 1ebb
000002e0: b0dc d93c 7d22 d73b 1919 343c b979 93ba
000002f0: 767e 54bc 4b7b b03c c5b2 07bd aa09 e9bc
00000300: cd89 0dbd 25b0 d4bb cde1 103d 38f5 8e3c
00000310: 1416 1cbb ba63 f9bc 519e bc3c fb4c 313b
00000320: b165 cdbb f813 173c 2b05 95bc beff 36bd
00000330: c4e6 563c 047b 813b 2279 df3c bbac 383b
00000340: 8f16 233c ce77 84bc 3f8b 603c eed9 07bd
00000350: e4bc da3a 00b0 b3bc d439 82bc 4d4a ccbc
00000360: f863 153d 8349 95bc 2341 67bc 2c96 27bd
00000370: 032c 4cb9 d07f ba3a ef0e 713d 8125 103c
00000380: 2fcf b6b9 4859 c1bc 78bb 84bc a1ed 43bb
00000390: 9246 8abb 3028 bcbb db39 c63b 15fc 1b3d
000003a0: 6fda 3d3c 5219 1dbd d057 143c 24bf 8b3c
000003b0: 89b8 15bd 6a42 9c3c 95c4 95bb 5d54 903b
000003c0: ce39 1e3b 6cf0 ac3c 78c5 c3bb c209 a83c
000003d0: d6d4 50bc 42a7 603b 00e1 bdbb 6ea5 7dbc
000003e0: 6cdf 4ebc 9cf8 f4bc 392d ba3c 6fa3 ab3c
000003f0: 6e36 213c 4c72 393b 6a2d 913a fbba 433c
0.016650064 -0.008077658 0.0038336809 0.034033947 -0.021248298 0.032354794 -0.012362356 -0.0041973446
0.023633424 -0.011211957 0.0008133847 -0.0076434244 0.0071787164 -0.013930132 0.026543405 -0.0016983828
0.03735637 0.031090535 -0.017268064 -0.013188097 0.007823887 -0.0132284975 0.008232646 -0.0062261624
-0.0028946577 0.0074639684 0.010740246 -0.032893203 0.013787165 -0.00040780078 -0.010517788 -0.03064671
0.0037884004 0.0005447168 -0.013360324 -0.0075527434 0.015901398 -0.014407781 0.0562461 -0.028000867
0.015137766 0.00039436066 -0.004212837 -0.012585192 0.017416531 0.010100738 0.0429773 0.013727159
-0.054134294 -0.026047638 -0.010806004 -0.029616006 -0.013339198 -0.0045987763 -0.009500614 -0.021946799
-0.021381762 -0.0016731899 -0.021854026 -0.00044025542 0.02677429 -0.014161899 -0.014162699 0.013358809
0.00546591 -0.002942276 0.019137837 0.023466432 0.00065786554 -0.03051967 0.0235907 0.01670729
-0.000297867 -0.0018484857 0.012629492 -0.029926099 -0.017801069 -0.016123412 0.013231319 0.00017006212
0.008210371 -0.0031771841 0.0053483355 0.0001093808 0.013194934 0.0024502682 0.0049332366 -0.0011675722
-0.044786032 -0.021083485 0.011675596 -0.01642639 0.02992991 0.014888777 0.00049988466 -0.029676497
-0.033880264 0.009289048 0.0028349606 -0.00887945 0.016111145 0.01369677 -0.016874857 -0.029298978
0.010626884 -0.005271342 -0.0069840383 0.036472864 0.024363138 0.0024554748 -0.0069179796 -0.014730961
0.014238712 0.03328912 0.016938686 0.006980552 0.020570392 0.026062883 0.023164652 -0.010338798
0.021374002 -0.018736277 0.004346159 0.0015031431 0.012806469 -0.021434417 -0.00691698 -0.013849924
-0.008092653 0.03096947 0.008706327 -0.016736096 -0.020556595 0.003252672 -0.0049372218 0.019092796
0.0025103323 0.02141149 0.0153046325 -0.029585892 0.026673755 -0.0051243366 0.035130996 -0.019688634
0.026680827 -0.012006889 0.030831823 0.024977885 0.0022546023 0.015273052 0.010060275 -0.0046061208
0.0039773923 0.020627158 -0.00499931 -0.002219172 -0.023553468 0.023805982 0.03248294 0.017204076
-0.016311962 -0.045665316 -0.006879829 0.006509582 -0.014054447 0.0075599854 -0.04164945 0.02587062
-0.003229333 -0.01729583 -0.0071794353 0.006143429 -0.0009343986 -0.008727409 0.014648696 -0.0038809995
0.010004821 0.022041226 -0.0023768784 -0.019617153 0.011613488 0.01665515 -0.007671042 -0.0024214874
0.02659449 0.0065653906 0.010992312 -0.0011251486 -0.012969604 0.021543166 -0.033129472 -0.028446991
-0.034555245 -0.0064907246 0.03537159 0.017450914 -0.002381687 -0.030443061 0.02302471 0.002705394
-0.006268226 0.0092210695 -0.01819094 -0.04467749 0.013116542 0.003951432 0.02727944 0.0028179127
0.009954109 -0.016170409 0.013705074 -0.03316682 0.0016688374 -0.02193451 -0.015896715 -0.024937773
0.03647229 -0.01822353 -0.014114651 -0.0409147 -0.00019471352 0.0014228765 0.058852132 0.008798004
-0.0003486811 -0.023602143 -0.016202673 -0.0029896277 -0.0042198384 -0.0057420954 0.0060493774 0.0380822
0.011587723 -0.038354225 0.009054139 0.017058916 -0.03655294 0.019074637 -0.0045705535 0.004404588
0.002414334 0.021110736 -0.005974468 0.020512465 -0.012746057 0.003427938 -0.0057946444 -0.015481336
-0.01262651 -0.029903702 0.022726642 0.020951955 0.009839637 0.0028296886 0.0011076157 0.011946435

chords_tempNet.convT_in.bias f4 [1024]
00000000: 21e9 953c 5c74 0fbc f7c6 b0bc 55e1 54bc
00000010: 35e8 3f3c b48f 793c 3470 2eba e22e b2bc
00000020: ba79 38bc 6adf b939 e6c7 503c 78c5 3b3c
00000030: c989 9dbb 920e 4cbc 56e6 05bc 90a9 b73a
00000040: a0d5 913b c0c1 61bc f99e 923b 6b48 a4bc
00000050: 08ae b93b b0f5 4dbc 82d2 1abc ea60 abbc
00000060: d2f4 673c 6b23 f23b a412 f73b 0fb8 b43c
00000070: cc19 06bc 5a8a 883c d829 8bbc d28e 323b
00000080: 8ab8 6cbb 9b2d 5a3c 649a 87bc c21a 933b
00000090: 7074 903c 4565 3b3c f737 3cbc d854 273b
000000a0: 151d 8cbc 5066 053a 7c84 93bc 5c42 acbc
000000b0: 040a afbc 6a61 5b3c 7afe 23bc 9020 c1bb
000000c0: 0d2e 373b af5a 56bc 0a4e 8dbc a1c3 093c
000000d0: 06a0 923c aa86 98bc b24c 823c 3e85 99bc
000000e0: 6b1c e33b a454 3dbb 5b35 863b 74a1 0d3c
000000f0: 3f76 8b3c 683a 58bc 0e2c 7bbc dd34 45bc
00000100: 12e7 55ba 189e 73bc 52ac 94bc 6da6 70bc
00000110: 8c4f 633c 5456 a23c 3c6e 723b 3ab4 af3c
00000120: 4bfa 943c 1176 0c3c 963e b0ba 043e 7f3a
00000130: 241d a7bc ffdd 193c f9bc 383b e586 683c
00000140: d718 133c f9ac 343c c495 6ebb cb80 7f3c
00000150: c16a 9dbb a728 acba 52e0 2fbc 2ff7 6e3c
00000160: bb2f d73a 006f 053c 114a fb3b 2f77 8fbc
00000170: c9e2 423c 2dee 423c cef2 ca3a a90a edba
00000180: ee7a acbc d92a a0bc a0b4 a93c fc40 25bc
00000190: f107 8cbb 3465 8ebc 3a15 10bc a0e4 41bc
000001a0: 82b4 64bc d712 a43c f8eb 993c 7433 aebc
000001b0: 2a03 5d3b dc94 1ebc adfd b1bc 4f00 83bb
000001c0: dffb d83b b4df 65bc 4c1d 153c c27b b3bc
000001d0: a5a4 4fbc 2927 1a3c 7933 e33a 35bc 50bc
000001e0: 748b acbc c689 653c 429d 3cbc 6218 40bb
000001f0: b0b1 d7bb 5a3b 973c d193 a73c 55a7 e03b
00000200: 1a3b 553b 29f4 883c 8fda 683c 4688 68bc
00000210: edeb 593c 71d9 baba 80f4 9b3c 1889 983c
00000220: 8f11 ac3c af55 9cbc 0e64 f73b 0ce7 ac3c
00000230: 6a6b 733c 5eb0 13bc 5c14 d83b f3ea 81bc
00000240: 5ebd 70bc 677c a7bc 980c 583c 8e15 f4bb
00000250: ca10 f43a e87c 633c 7377 2b3c 4cab 60bb
00000260: 3051 5fbc 6e1d 2ab9 d2c6 6bbc 70d9 eebb
00000270: 870a a1bc 892e 493c 9dfe c0bb 2896 17bc
00000280: a3d6 f73b 3b18 593c 482c 44bc 61d4 2abc
00000290: 7dbe d0bb 292c 513c 10a4 80ba 6806 d83b
000002a0: 9267 993c b27f 8a3c 8fc0 75bc 23b0 44ba
000002b0: 89a0 a8bc 9c74 a03c e533 b0bb 9dc3 2a3c
000002c0: 38af b1bc e72e 98bc 17e7 3abc 368a b7bb
000002d0: 0c74 8c3c 4b44 a03c 2812 dd3b 9e52 663c
000002e0: b052 94bc f44c 513c 8761 90bc 1a16 acbb
000002f0: 9bc1 1fbb 5cb5 4dbc 0e85 9b3c bc9d 5439
00000300: e2ce 6fbc b886 143c d25d 1f3c 7f29 a9bc
00000310: 14ff 4f3b 0da2 52bc dba1 413c 85ff b2bb
00000320: 5db2 a4bc efe7 253c e0bc b13c 6bb2 b23a
00000330: 27e9 093c 834b 76bc 5cf9 473c c765 a9bc
00000340: 3e38 923c 8fa5 aebb a3b1 44bc c6c0 283c
00000350: 7364 88bc ddd3 1d3c 6f43 8abc ded8 7b3c
00000360: 7fbc 663c 278f 0dbc 3b18 9bbc 4835 a2bc
00000370: 7162 553c 6468 7dbc c622 c9bb 76c7 523c
00000380: e0db 98ba 8067 87bc 7e43 273c f819 813c
00000390: 3498 9abc 8f65 823c b5dc f63a 44ac 8e3c
000003a0: 48e4 053b ecb8 2dbc e51c cbbb d547 bd3b
000003b0: bae2 bfbb 71df 6b3c 0b02 5a3b 5d42 053c
000003c0: 43c6 7abc ef02 45ba 85c3 693b b2c0 793b
000003d0: a493 693b b59b 833c b8ab bf3a a783 843c
000003e0: 5945 0f3a 9128 2fbc f2a4 52b9 8706 64bc
000003f0: 285b 7ebc d076 99bc ad97 6a3c 668e f53a
0.018299641 -0.00875577 -0.021579249 -0.0129931765 0.011713077 0.015232015 -0.0006654293 -0.021750871
-0.011259491 0.00035452406 0.012742972 0.011460654 -0.004807685 -0.012454646 -0.008172592 0.0014012326
0.004450515 -0.013779104 0.0044745174 -0.020054063 0.005666498 -0.0125707835 -0.009449603 -0.020920236
0.014157491 0.007389476 0.007540064 0.022060422 -0.008184861 0.016667534 -0.016987726 0.0027245772
-0.0036120736 0.013316537 -0.016553111 0.0044892738 0.017633647 0.011437719 -0.011487952 0.0025532749
-0.017103711 0.0005088793 -0.01800751 -0.021027736 -0.02136708 0.013389925 -0.010009402 -0.0058937743
0.0027951032 -0.013083144 -0.017249126 0.008408458 0.01789857 -0.0186189 0.015905712 -0.018740293
0.006930878 -0.002888956 0.004095716 0.00864445 0.017024158 -0.013197519 -0.015330328 -0.012036529
-0.00081597373 -0.014869235 -0.018148575 -0.0146881165 0.013873946 0.019816555 0.0036991974 0.021448243
0.018185755 0.008573071 -0.0013446386 0.0009736719 -0.020399638 0.009391307 0.0028188808 0.014192318
0.00897809 0.011027568 -0.0036405185 0.0155946715 -0.004803986 -0.0013134674 -0.0107346345 0.0145853
0.0016417423 0.00814414 0.0076687415 -0.017512886 0.01189489 0.011897606 0.0015483738 -0.0018084842
-0.021054711 -0.019551681 0.020716012 -0.010086294 -0.0042734076 -0.017382242 -0.008794123 -0.011834294
-0.013959052 0.020028515 0.018789276 -0.02126477 0.003372381 -0.0096790455 -0.021727407 -0.0039978395
0.0066218222 -0.014030386 0.009101223 -0.021909598 -0.012673532 0.009408751 0.0017334066 -0.012740185
-0.02106259 0.0140098985 -0.011512103 -0.0029311408 -0.0065824613 0.018460918 0.020456227 0.006855885
0.0032536448 0.016717987 0.014212265 -0.014192646 0.013300878 -0.0014255476 0.019037485 0.018620059
0.021004466 -0.019083826 0.0075497692 0.021106265 0.0148571525 -0.009014217 0.006594224 -0.015859103
-0.014693586 -0.020445062 0.013186596 -0.0074488586 0.0018620726 0.01388476 0.010465491 -0.0034281788
-0.013630196 -0.00016223427 -0.014390664 -0.007289104 -0.01965834 0.012279161 -0.0058897273 -0.009252109
0.0075634285 0.013250406 -0.011973448 -0.010426612 -0.006370364 0.012766876 -0.000981452 0.0065925606
0.018726144 0.016906593 -0.014999523 -0.0007503053 -0.020584362 0.019586854 -0.00537728 0.010422614
-0.021689996 -0.018577052 -0.011407635 -0.005601193 0.01714518 0.019563815 0.006746549 0.014057783
-0.018105835 0.012774695 -0.01762463 -0.005251658 -0.0024376872 -0.0125554465 0.018984344 0.00020276656
-0.014636727 0.009065323 0.009726958 -0.02064967 0.0031737732 -0.012856019 0.0118183745 -0.005462589
-0.020104581 0.010126098 0.021696508 0.0013633495 0.008417404 -0.015032652 0.012205448 -0.020678414
0.017849084 -0.0053297947 -0.0120052425 0.010299867 -0.01664946 0.009633032 -0.016877858 0.015371529
0.014083027 -0.008640087 -0.018932452 -0.019800797 0.013023959 -0.015466783 -0.0061381785 0.012864938
-0.0011662208 -0.016528845 0.0102089625 0.015759453 -0.018871404 0.015917568 0.0018834086 0.017416127
0.0020430256 -0.010603171 -0.006198513 0.0057763853 -0.0058558853 0.014396534 0.0033265378 0.008133498
-0.015306058 -0.0007515391 0.0035669517 0.003810924 0.003564098 0.016065458 0.001462332 0.016176058
0.00054653507 -0.010690824 -0.00020088608 -0.013917572 -0.015524663 -0.018733412 0.014318389 0.0018734455

chords_tempNet.convT_out.weight f4 [1024, 32, 1, 1]
00000000: d0b5 aabb ee8e 25bc ee7b 833c 6924 3bbd
00000010: 86a3 2b3d c6da a8bb dcba 573b 0edc 843c
00000020: fa1b 1a3d 6b96 12bb 9533 62bb 74a6 a83c
00000030: 4553 3c3c cd5b 253c d459 68bc fda4 b1bc
00000040: 1bae 283d a4b8 0ebd 5b74 02bd e883 8d3c
00000050: 9dc3 c9bc 2b7d 133c 6b5c a8bc 93b3 c43c
00000060: fdf7 6fbc f1d2 8d3a 9c25 82bc fb70 c3bc
00000070: 1c82 f7bc 18e6 843c 39b0 99bc eaa6 a9bc
00000080: bc82 663c 5061 90bb 8fd8 403b b88a 3fbd
00000090: 800f 8b3c 1071 05bd 713e 91bc 6f12 343c
000000a0: 145c 463c 6fc2 f4bb c355 de3c fe2f 2f3d
000000b0: ca0a 5cbc aa92 17bc 8119 ab3c 6292 95ba
000000c0: 476d 33ba d227 d63c 9020 e2bc c4f4 563c
000000d0: 366b 94b9 cdd1 b03c c89f c13c 81b4 bbbb
000000e0: a151 92bc 0551 363c 2563 fcbc 98ba 023c
000000f0: 9571 3a3c 7f2e 653c b5d3 1b3b 2d40 abbc
00000100: 598f 4c3c decd 85bc 3c83 99bc 8d06 3ebc
00000110: c11a 7d3c bfa6 1cbc a2db 883c 26f7 013c
00000120: 65eb afbc fd46 c6bc c55b babc 1b9b ebbc
00000130: d575 ed3c 6457 1e3c d2d1 ddbb b464 00bc
00000140: e05e 273c 8494 05bc ea2f a9bc c67a ba3c
00000150: 08ac c23c e52e a83c a849 7fbc 7add 9ebb
00000160: 91c2 9bbd 3dde 533c 4305 f03c 939a 533d
00000170: e286 87bc 2a80 aebc 022b 1e3b 4441 963c
00000180: 0cff ec3b ac32 89bc eba9 2bbc e0c7 d0bb
00000190: 4456 38bc cda8 ee3c 1151 823c 98ff 5abc
000001a0: 5f50 b53c ef24 c3ba 5c84 be3c 4dbd c03b
000001b0: 06fc ac3c 7c2b 0b3c aae5 2a3c 4447 dcbc
000001c0: cb89 f1bc 8a71 0fbc 1309 8ebc ddf0 253d
000001d0: cf8f 09bc b735 983c bf0b f0bc 9944 03bc
000001e0: 208a 30bc bcfa a13c 21f9 5ebc b7d3 16bb
000001f0: 060f d73c d348 313c fab9 843c ed7a d03c
00000200: df68 683c a965 91bb 4fff 413c bc0e fcba
00000210: 7493 9cbc d328 133d bd1c 05bc c7c4 263c
00000220: 4bf1 7f3b e625 e43c 2aba 5f3c f617 ac3b
00000230: e803 f5ba 211d db3c 9fc4 f53c 2eaa 67bb
00000240: 93f6 983c 392e 423c b49c e0bc 01e8 e63c
00000250: 823d 98b9 728d 623b 2a9a 57bc 6ba4 f83b
00000260: 3d72 6ebc 43ae 053d 2ff7 01bd 26cd a4ba
00000270: 6137 c1bb 3a94 b83b bc04 a93c a1f2 873c
00000280: 901b 453b 2a84 bd3b 1654 073b 618d 70bc
00000290: 2bad 2ebc 645c 88bb 03a0 eebb daf4 203d
000002a0: 92d1 d7bc 3f4f 19bd 9838 c73c 3cef 53bc
000002b0: 720f 9c3c 5501 6d3c f7b3 2d3d dc1f fabc
000002c0: b82f db3c 58d1 31bb eafb e13b 0ef9 9cbc
000002d0: 005b 993c 8a6f 8dbb 9020 4fbc 415a 93bb
000002e0: 44f1 493d 6b45 c6bb 96f0 a93c 83cc 2fbc
000002f0: 9f1c b4bb 4a62 cc3b 0383 d4bc 5d1e 19bd
00000300: 559b aabc 2dac d33c 9c7e ce3b ea4d 5d3b
00000310: 7d59 683c acdb cd3c 7690 783b 8b21 7cbc
00000320: ae16 69bc b512 d73c 04d0 a53c ab2b 0bbd
00000330: 5a8a 31bc 8ac3 fb3a ece4 52bb 1fb5 eebb
00000340: fb99 c93c 571a 923c cc67 c8bc a111 913b
00000350: c6aa 5fbd 9215 b7bc 7889 db3b 0a14 903c
00000360: f8f5 91bc 427c 203c 96c4 bfba 9801 a5bc
00000370: 5980 b6bc 23db 663c bffc 013d bf87 a23c
00000380: 1ae6 b0bc 26ec 973b d216 7d3c 0144 363c
00000390: ecdc 86bc a3d2 b43a 641b 4f3c dbb2 06bc
000003a0: a6cc 683c d14c f1bc 0377 9fbb b6a6 833c
000003b0: 157c 4d3b 0784 75bc 7a3f 83bc 8ea8 103d
000003c0: 38fb d5bc 772a 37bd 2586 f8bc 11ad bc3c
000003d0: 291a 4cbc e231 c13c d8d3 853c fa9c 03bc
000003e0: 7ce1 a5bc 3ba9 e13c a61e 3abc 1484 8abc
000003f0: a9b6 aa3c 0ef8 40bb 2a84 f43b ff91 fbbc
-0.005209662 -0.010104878 0.016050305 -0.04568902 0.041903995 -0.005153033 0.0032917773 0.016218212
0.037624337 -0.0022367488 -0.0034515609 0.020587184 0.011494462 0.010092688 -0.014181573 -0.021685118
0.041181665 -0.034844056 -0.031849246 0.017274812 -0.024629408 0.00900201 -0.02055188 0.024011409
-0.014646527 0.0010820312 -0.015887074 -0.023857584 -0.030213408 0.016222998 -0.018760787 -0.020709474
0.014069255 -0.004406132 0.0029425954 -0.046763152 0.016975164 -0.032578528 -0.01772997 0.010990723
0.012106914 -0.0074694674 0.027140504 0.04277038 -0.013430307 -0.009251276 0.020886185 -0.0011411423
-0.00068445917 0.026142035 -0.027603418 0.01311988 -0.00028308638 0.021584416 0.02363576 -0.005728305
-0.01786119 0.011127715 -0.030808995 0.007979058 0.011379619 0.013988136 0.002377731 -0.020904625
0.012485349 -0.016333517 -0.018739335 -0.0115982415 0.015448273 -0.00956124 0.016706292 0.00793246
-0.02147455 -0.024203772 -0.022748837 -0.028760483 0.02898685 0.00966439 -0.0067693973 -0.0078365095
0.010215491 -0.008153085 -0.02065273 0.022763621 0.023763672 0.020530174 -0.015581526 -0.0048481794
-0.0760547 0.012931404 0.029299384 0.051661085 -0.01654381 -0.021301348 0.0024134521 0.018341668
0.0072325524 -0.016747795 -0.010477523 -0.006371483 -0.011251036 0.029133225 0.015907796 -0.013366602
0.02213305 -0.0014888326 0.023256473 0.0058819414 0.021116268 0.008494254 0.010430733 -0.02688945
-0.02948465 -0.008755097 -0.017338311 0.04051291 -0.008396103 0.0185803 -0.029302476 -0.00801196
-0.010775119 0.01977288 -0.013609202 -0.0023014375 0.02625228 0.010820585 0.016201962 0.02544924
0.0141851595 -0.0044371677 0.0118406555 -0.0019230465 -0.01911328 0.035927605 -0.0081245275 0.010178751
0.0039053734 0.027850103 0.013655225 0.00525188 -0.0018693181 0.026747288 0.030000983 -0.0035349238
0.018672263 0.011851841 -0.027418472 0.0281868 -0.00029037526 0.0034569171 -0.013159314 0.0075879595
-0.014553604 0.032636892 -0.031729873 -0.0012573346 -0.0058964943 0.0056329044 0.02063214 0.016595187
0.0030076243 0.0057835774 0.0020649484 -0.014682145 -0.010661404 -0.0041614044 -0.0072822585 0.03929601
-0.026345048 -0.03742909 0.024318978 -0.012935456 0.019050334 0.01446565 0.042407956 -0.03053277
0.026756153 -0.0027132835 0.0068964856 -0.019161727 0.01872015 -0.004316275 -0.012642041 -0.004496843
0.049302354 -0.0060507557 0.020744603 -0.010729912 -0.005496576 0.006237303 -0.025941378 -0.037382472
-0.020826021 0.025838936 0.006301714 0.0033768364 0.014181492 0.025129162 0.0037927902 -0.015388857
-0.014226599 0.026254037 0.020240791 -0.033977192 -0.010836208 0.0019208055 -0.0032179905 -0.007284775
0.024609556 0.017834825 -0.024463557 0.0044271504 -0.05460622 -0.022349153 0.006699737 0.01758768
-0.017817482 0.00979525 -0.0014630731 -0.020142362 -0.022277998 0.014090332 0.031735178 0.01984012
-0.021594096 0.0046363054 0.015447335 0.011124612 -0.016462766 0.0013795685 0.012640808 -0.008221353
0.014208948 -0.029455574 -0.004866482 0.016070705 0.0031354476 -0.014985091 -0.016021479 0.035316996
-0.026120767 -0.044718232 -0.030337403 0.023031743 -0.012457409 0.023583356 0.016336367 -0.008033032
-0.02024912 0.027546516 -0.011359846 -0.016908683 0.020839052 -0.0029444727 0.0074620442 -0.030709265

chords_tempNet.convT_out.bias f4 [32]
00000000: 4f4e e9bd bab2 6f3b 0656 183e 6fbb 0ebe
00000010: ff45 8c3d 7d86 313d 0a6e 13bd 457a 763d
00000020: c801 3a3c 155d 2e3e 0186 0bbe cdc1 183a
00000030: 8984 833d b2a1 213b 9262 5bbd 2518 193e
00000040: 9a5e 97bd 40ee 0cbe fb50 263c 0fa6 41bc
00000050: a6a3 02bd f0dc aa3d 2ead 0fbe 089e fb3d
00000060: 6f13 f33c 4635 35bd d5e7 623c 3c94 ec3c
00000070: 3e71 72bd c2bb fc3b 3bdc 113e 1d87 2a3e
-0.11391889 0.0036575035 0.14876565 -0.13938688 0.06849288 0.04334115 -0.035993613 0.0601752
0.011352964 0.17027695 -0.13625337 0.00058272184 0.064217634 0.0024663028 -0.0535608 0.14950617
-0.07391091 -0.1376276 0.010151143 -0.011819377 -0.03189435 0.08342922 -0.14030907 0.122860014
0.029672353 -0.04424026 0.013849218 0.028879277 -0.059190027 0.007712812 0.14244168 0.16653104

chords_tempNet.batchnorm_1.weight f4 [1024]
00000000: bcfc fabb 77e1 dbbc f536 a13c f1ce 0e3c
00000010: c43a 28bd 122e 063c c2c4 10bd 89d8 bcbc
00000020: a84c 5a3c 6920 c23c 13c4 f4bc 11ba 34bc
00000030: a652 6c3a 1d4b d33b b766 133d 7498 133c
00000040: 40f0 5cbc b6c7 acbc 9347 17bd 85b8 053d
00000050: 0eac 193d 1518 5ebb acfe 1f3c 2089 6b3c
00000060: 64fe fcbb 022c 9abc 7234 d53c 849c 8d37
00000070: 1aac cab8 716e cfbc cdb0 673d 262b b0ba
00000080: af57 8abb 9a5c 69b8 9c74 b2bc 4eb4 8cbc
00000090: aea0 1f3c a11a 073d 635c 8a3c 4baa e33c
000000a0: 01af 2bbc b692 853c 7f36 88bc 82a3 6c3b
000000b0: 3484 8bbc 5692 f1bb 779e 92bc ee60 d13a
000000c0: 140f a1bc 4abe 003c b4fc 483d 3b44 c1bc
000000d0: 64e5 3bbc 0a6d 033d 1885 343c 48ad 893c
000000e0: 5c18 18bc f0a1 c5bb 9a07 73bc 61ba 983c
000000f0: 0f3c e73b 41ba 6c3c 5eb8 a33c 320d b53b
00000100: 133d 02bc 2b88 5e3c eab9 a0bb fc71 7c38
00000110: e082 5bbc c05f ebbc be6a 83bc 1377 3abc
00000120: 27a3 4e3c 259b 90bc 9ecf ab3b 8eb8 c5bc
00000130: f925 abbc 2a98 1d3d 90f4 7cbc 95e5 a5b9
00000140: 64f4 7eba 56bd 15ba 421f b53b 979d 3fbd
00000150: 1bd5 173c 3efd 8b3b d3f5 41bc c59e 463d
00000160: 94e5 dc3c 3718 0c3d 10c3 5f3c 9665 e63b
00000170: fd3f d838 d1ab 32ba 179f 08bd 5f8b c83b
00000180: fc89 2ebd f2fc cc3c 93d7 4b3c 0086 16bb
00000190: 9123 7b3c 9c27 0abd fb91 15bc 2e05 c63c
000001a0: 3bf0 43bb 66e7 14bd 8297 7cbc c41c 043d
000001b0: 274d ae3b 09ac a1bb 114c 4e39 f44e 003d
000001c0: e4b5 b1b9 611d 5d34 7fce ae3c 437f 6fbc
000001d0: 8f70 8d3c 9933 093d 7b84 1d3b 4e90 cdbb
000001e0: 6e3e 293c 855a 603c 4fb4 a03b cf79 233c
000001f0: 90f8 5c3c 14eb f3bc c95e 043d 81b0 7abc
00000200: 684f 4f3c e616 e53c 9a28 2a39 e141 b43b
00000210: 3ab0 c63c df58 f23c a73c 77bc 567a cfbc
00000220: 3919 eab9 2706 9d3c 6d90 643b 2010 09bd
00000230: 7ba9 c83c ab45 9abc d05f 8b3c ac15 9e3c
00000240: 5aed e8bb 7c47 e73b f3eb 66bc 28ac fd39
00000250: d6dd 92bc 756f 6c3a f3a8 eabb e874 3d3d
00000260: d8a8 793b 6fc7 e7ba a733 48bc 7d07 0fbd
00000270: 45ca 8c3c e350 ccbc ed7a a23c da7d 7e3c
00000280: 5325 603c f77a 383b 0981 8d3c 7cc6 56bb
00000290: f461 f43c 6802 003c 3162 f53c 16d2 953b
000002a0: 4e52 84bc 14d5 cabc 4150 fd3c 9446 193d
000002b0: f5c4 abbc 2b42 b4bc 85bd 7a3d 86c5 d1bb
000002c0: 4784 493c 39e6 9bbc 0ba4 833c 7b70 a0bc
000002d0: 0639 21bd 3540 b03c 32c6 823c 5936 593d
000002e0: 1ff1 b93b ed70 523b 346e f2bb 160c 2d3b
000002f0: 681d 77bb 6f5c e2bc 933b 28bc 8c06 98bc
00000300: d1cf f23b 9b82 dbbb e470 9a3b a43e 313c
00000310: 012a 903c 32e8 bebc 85d4 f4b9 28e8 30bd
00000320: 5705 b23c aed5 113c f51e a639 a251 b43a
00000330: 0139 0cbd 0aad 5e3c 350e 123d d10f 84bb
00000340: 8a33 7ebc 7d3a 1abc 9c8f e3bc abe2 fabc
00000350: 5000 ad39 4edb 21bd a626 313c fe2e 103d
00000360: f5a6 9d3c 2631 9cbc 366a acbb f475 62bc
00000370: 5214 04bd a130 ca3c cae7 683c 715a 473d
00000380: 770a 913c 8eb6 0cbc 65bd 053c 22a0 eabb
00000390: d51b dcbc 8359 4cbb 0d56 74bc 5cbf 573c
000003a0: 4409 173c 0898 53b9 65cd ea3c b4c8 40bc
000003b0: 5ddc 613c 5edf 493c c20b c0bc 34fc 4fbc
000003c0: 0364 e8bc b067 f8bb df2b f03c 00f7 a5ba
000003d0: 9fde 7f3c baef e33c 9039 a23c 98f0 0fbb
000003e0: 4134 7ebc bd2c d33c a9e8 0b3d 3019 1a3c
000003f0: f1b6 e8bc 9624 e838 fa84 96ba 695c 183a
-0.007659523 -0.026840908 0.019679526 0.008716331 -0.04107167 0.008189695 -0.035343893 -0.02305247
0.01332394 0.023697095 -0.029878652 -0.01103069 0.0009015001 0.006448163 0.03598663 0.009008516
-0.013485014 -0.021091323 -0.036933493 0.032646675 0.0375176 -0.0033888866 0.009765308 0.014375955
-0.0077207554 -0.018819813 0.026025984 1.6881393e-05 -9.664167e-05 -0.025321217 0.056565095 -0.0013440594
-0.0042218785 -5.563777e-05 -0.02178412 -0.01717582 0.009742899 0.03298438 0.016889757 0.027791163
-0.010478736 0.016305309 -0.016627548 0.00361082 -0.017030813 -0.007372181 -0.017897828 0.0015974322
-0.01966051 0.007857868 0.04906912 -0.023592105 -0.011468265 0.03208641 0.01101806 0.01680626
-0.0092831515 -0.0060312673 -0.014833355 0.01864356 0.00705672 0.014448703 0.019985374 0.0055252546
-0.007949132 0.01358227 -0.004904975 6.0187638e-05 -0.013397902 -0.02873218 -0.01604211 -0.011380929
0.012612141 -0.017652104 0.0052432558 -0.024135854 -0.02089213 0.038475193 -0.015439168 -0.00031642304
-0.0009725748 -0.0005712112 0.005527408 -0.04678115 0.009267117 0.004272132 -0.011838394 0.04849126
0.02696494 0.03420278 0.013657346 0.007031153 0.00010311601 -0.0006815764 -0.033354845 0.00612013
-0.04261206 0.025022957 0.012441534 -0.0022968054 0.015328304 -0.03372918 -0.009129043 0.024172392
-0.0029897827 -0.03635349 -0.015416982 0.032253996 0.005319256 -0.0049338383 0.00019674028 0.031325296
-0.0003389559 2.0592917e-07 0.0213387 -0.014617744 0.017265586 0.033496473 0.0024035263 -0.006273306
0.010329826 0.013693457 0.004904307 0.009977772 0.013486996 -0.02977518 0.032316957 -0.015300871
0.012653209 0.02796502 0.00016227589 0.0055010174 0.024253953 0.029583393 -0.015090144 -0.025326889
-0.0004465075 0.019167973 0.0034876124 -0.033462644 0.024494877 -0.018832048 0.01701346 0.019297443
-0.0071083726 0.007058082 -0.014094341 0.00048384187 -0.017928045 0.0009019294 -0.0071612536 0.04625407
0.0038095023 -0.0017683337 -0.012219346 -0.03491925 0.017186293 -0.024940914 0.019834006 0.015532935
0.013680774 0.0028149465 0.017273443 -0.0032772115 0.029831864 0.007813074 0.029954048 0.0045721633
-0.016152527 -0.024759807 0.030922057 0.037420824 -0.02096794 -0.022004208 0.061215896 -0.0064017205
0.012299604 -0.019030677 0.016069433 -0.019584885 -0.039361022 0.021514991 0.015963648 0.053030346
0.005674496 0.0032110766 -0.007398391 0.002640491 -0.0037706736 -0.027631966 -0.01026811 -0.01855781
0.0074100276 -0.006698919 0.0047131646 0.010818157 0.017598154 -0.023304079 -0.00046697646 -0.04319015
0.021731062 0.008901043 0.00031685052 0.0013757239 -0.03423405 0.01359106 0.03565808 -0.004030206
-0.015515218 -0.009413359 -0.02777844 -0.030625662 0.00032997364 -0.039515786 0.010812437 0.035201065
0.01924465 -0.019066405 -0.005261685 -0.0138220675 -0.03224594 0.024681391 0.014215419 0.048670236
0.017705185 -0.008588446 0.008162831 -0.0071602026 -0.02686874 -0.0031181283 -0.014913094 0.013168182
0.009218518 -0.00020179164 0.028662393 -0.011766601 0.013785449 0.012321321 -0.023443107 -0.012694407
-0.028368002 -0.00758072 0.029317794 -0.0012662113 0.015617042 0.027824271 0.019802839 -0.0021963473
-0.015515388 0.025778169 0.03415743 0.009405419 -0.028407546 0.00011069437 -0.0011483722 0.000581211

chords_tempNet.batchnorm_1.bias f4 [1024]
00000000: 7033 ddba 7ced 8cba 9c04 6c3b 3dc2 843b
00000010: 8e3e 4eb8 6c38 0dbb 16d1 34bb a306 153b
00000020: a040 06b8 b98d e1ba e8a4 a73b f93c 36ba
00000030: fff1 a63b ea10 28ba 0ebb 1e3b 8f15 86bb
00000040: 5c97 eb3a 6b4e be3b 8905 6d3a 45ce 1a3b
00000050: 28ea 9ebb 77b0 1f39 c30d 8439 fc22 6f3b
00000060: 1911 81ba 6238 d23a 3b85 183b d297 40ba
00000070: babc 21ba 68bb 78b8 f8da fa3a 495a b5bb
00000080: e557 e1b8 c3ca f7b9 53ae 6a3b 011b 3d38
00000090: 6042 7dbb 64e5 d6b8 2034 59ba dcaf a03b
000000a0: d3b5 173b 0663 e639 14f9 7dbb e1ba 773b
000000b0: 739d c5ba 94f3 c43a 3b24 40ba 84fb 52b8
000000c0: 047a b93b ca4e 803a ecd0 a939 f26b d23b
000000d0: 957e 7239 c5ec 973a 9225 ce3b 2072 083b
000000e0: 8c8b 17bb e251 023b 83e6 743a c84c dbbb
000000f0: 0b70 f53b f6c8 283a 96ab 9cbb 668c 0e39
00000100: 9c5c a73a b145 6f3a 6fe5 0e3a 367a e5b9
00000110: 949e 9cbb b6c1 733a c444 673b 0312 58bb
00000120: e0d6 863a b422 2fbb 760f 963a a044 a2bb
00000130: 276d 3a3b 7c61 9c3a 5229 a83a a81a e6ba
00000140: 5d24 afbb 31f4 21bb ebe5 42bb deab 433b
00000150: 5174 a6bb a248 88bb f0a6 1d3b 7f64 cdba
00000160: 3a39 6eba 4eb8 c43b 0728 563a ef0a b1ba
00000170: 02a7 8cba f25d 87bb 7645 55ba 09c5 07bb
00000180: bb0b 04bb 3436 ab38 8b09 94bb 9002 913b
00000190: fa98 e0ba 1c9d 47bb 907d e139 977b e2b9
000001a0: f5d6 9a3a 4a67 df3a 4a6c c9bb 9d36 c3ba
000001b0: 29f5 8536 daa6 253c 4c10 c1ba c4ec 26ba
000001c0: 674e 2bbb f8b2 93b9 d1e5 7abb 9437 04ba
000001d0: a87b 343b 1b8a 313b 402d afba 3826 753b
000001e0: 1241 e03a 098b 173a b7fa 16ba d952 bbbb
000001f0: c2ef 50bb 797b 03bb 0f79 28bb 08d2 803a
00000200: b160 4b3a e033 cdbb a71b 47ba 7b78 6cbb
00000210: cada 9439 3ae2 04bb 746b c1ba e81e 773b
00000220: af76 4abb 09c4 e03a 6489 663a c6df c23b
00000230: a22d c93a 995f 8639 cab6 fb3b 6273 b3b9
00000240: aff0 943a 3468 a1bb 9c10 b8b9 b272 40bb
00000250: aee1 0e3b 1ef2 a0bb 1661 5b3a f90d dd3a
00000260: f349 a8ba b965 99bb e92b 223a 3ce3 183b
00000270: c24b bdba 3403 5f3a 09de 2a3b 3001 753b
00000280: 193c 053a bf0b 933b 6985 393b 3f4a 943b
00000290: 78ab 2a3b d8e9 3f3a cfc8 2ebb 3a2a 573a
000002a0: 5405 a73b 655f 08bb 8fa4 333b 8289 9c3b
000002b0: f7d8 96b8 8a3c 243a 5f64 c13b 9ca9 8d3b
000002c0: dfe8 f03a c841 7f39 de2e 033b fcb8 39b9
000002d0: 41ee 2eb9 e9ea 7439 e1ad 313a ff73 66ba
000002e0: c702 5fbb b81c 243b a2cf 953b 0930 9c3a
000002f0: 049f 6a38 b2c0 8dbb 2fc8 00bc bc6e 353b
00000300: 721a 80bb f493 5dbb af53 3dbb bef0 ea3b
00000310: 8740 b6bb 2c46 683b a821 773b 4dc3 323a
00000320: 825e 52bb 171d a03b b6e4 b5ba 4914 f4bb
00000330: 8dd4 333b b6c0 17bb 1ecb 3b3b 756c f03a
00000340: 0abf c23a c279 a7bb 8efa 32ba 4800 803b
00000350: 6ea1 f6ba 86d4 5139 4ea6 fdba 95fa 12bb
00000360: ee6a 973b bf2e 523a a592 513a e0ec 02bb
00000370: dd34 bf39 8645 183b 36a8 b63b 1be9 9cbb
00000380: 359a 6eba 6ba4 2a3b d682 07bb 2c8b 123b
00000390: eedd c039 8e62 353b a967 693b 2e18 713b
000003a0: 7b26 50bb 8e35 8aba 0cbf 3fbb da6f 0bba
000003b0: b8b0 443b a6f7 7cbb d91b e93a 52fc c6ba
000003c0: 33fe 83ba 0516 623b 7376 64bb b4c9 95bb
000003d0: dc28 c9ba 2bc4 943b 5ee4 d83a 31aa 9fbb
000003e0: bc15 8dba 43a2 263b 0fec d33b 9efc 2b3b
000003f0: 428c 22bb b9c1 f1b9 7631 4c3b ef59 3cbb
-0.0016876291 -0.0010751928 0.003601349 0.0040514753 -4.9172486e-05 -0.0021548523 -0.0027590445 0.0022739551
-3.2008276e-05 -0.0017208374 0.005116094 -0.00069518347 0.005094766 -0.0006411212 0.002422038 -0.0040919255
0.0017974186 0.005807688 0.00090416573 0.0023621481 -0.004849691 0.0001522916 0.00025187255 0.0036489358
-0.0009847014 0.0016038532 0.002327277 -0.0007346842 -0.0006169785 -5.9302343e-05 0.0019138744 -0.0055344445
-0.00010745208 -0.0004726258 0.0035809472 4.508626e-05 -0.00386443 -0.000102470425 -0.00082856603 0.0049037766
0.0023149147 0.00043942797 -0.0038753198 0.0037800597 -0.0015076831 0.0015026205 -0.00073296175 -5.0302144e-05
0.0056602973 0.0009789106 0.0003238985 0.0064215595 0.00023126074 0.0011590949 0.0062911 0.0020819977
-0.0023123948 0.0019885232 0.000934221 -0.0066925026 0.007490163 0.0006438637 -0.004781197 0.00013594478
0.0012768689 0.00091275113 0.00054510584 -0.00043769338 -0.004779646 0.00092985795 0.003528879 -0.003296972
0.0010287426 -0.0026723566 0.00114487 -0.0049520284 0.0028446408 0.0011930908 0.0012829697 -0.0017555552
-0.005344911 -0.00247122 -0.0029739093 0.002985708 -0.005079784 -0.004159049 0.0024055801 -0.0015670209
-0.0009087507 0.006003416 0.00081694167 -0.0013507287 -0.0010730925 -0.004131072 -0.00081356557 -0.0020716807
-0.0020148593 8.1640115e-05 -0.004517739 0.0044253543 -0.0017135434 -0.0030458635 0.00043008896 -0.0004319816
0.001181333 0.0017044332 -0.0061469423 -0.0014893595 3.9922493e-06 0.010110581 -0.0014729588 -0.0006367678
-0.002613926 -0.00028171367 -0.0038283954 -0.0005043682 0.0027539525 0.0027090374 -0.0013364926 0.0037406813
0.0017109236 0.0005780911 -0.00057594053 -0.0057166633 -0.0031881188 -0.002006261 -0.0025706922 0.0009828219
0.00077582436 -0.0062622875 -0.0007595368 -0.0036082554 0.0002839177 -0.0020276443 -0.0014756755 0.003770763
-0.0030893495 0.0017148267 0.00087942765 0.005947086 0.0015348683 0.00025629697 0.0076817023 -0.00034227507
0.0011363233 -0.004925752 -0.0003510759 -0.0029365239 0.0021801996 -0.004911675 0.0008368654 0.0016865126
-0.0012839421 -0.0046813157 0.00061863527 0.0023328802 -0.0014442133 0.0008507252 0.0026072285 0.003738474
0.00050825026 0.004487484 0.0028308278 0.0045254524 0.0026042145 0.0007320917 -0.0026669984 0.00082078914
0.0050970707 -0.0020808813 0.0027411317 0.0047771344 -7.19297e-05 0.00062651245 0.0059018577 0.0043231975
0.0018379948 0.000243432 0.0020016949 -0.00017711887 -0.0001668269 0.00023357164 0.0006777924 -0.00087910885
-0.0034028755 0.0025041532 0.004571871 0.0011916171 5.5938042e-05 -0.0043259496 -0.0078602275 0.002768441
-0.0039094025 -0.003381011 -0.002888899 0.007169812 -0.0055618915 0.0035442216 0.003770927 0.0006819263
-0.0032099788 0.0048862803 -0.0013877365 -0.0074487072 0.0027439923 -0.0023155636 0.0028655003 0.001834287
0.001485796 -0.00511095 -0.00068274967 0.0039062835 -0.001881642 0.00020010964 -0.0019351931 -0.002242719
0.0046209013 0.000801783 0.0007994569 -0.0019977614 0.00036469745 0.0023234799 0.0055742515 -0.0047885305
-0.0009101958 0.0026037942 -0.002067735 0.0022360785 0.00036786444 0.0027677151 0.0035614765 0.0036788094
-0.0031761217 -0.0010544525 -0.002925816 -0.00053190964 0.003001256 -0.0038599758 0.0017784789 -0.0015181398
-0.0010070264 0.0034497988 -0.003486064 -0.004571164 -0.001534726 0.0045399866 0.0016547551 -0.0048725833
-0.0010763924 0.0025426305 0.0064673494 0.00262431 -0.0024802838 -0.00046111437 0.003115741 -0.0028740128

chords_tempNet.batchnorm_1.running_mean f4 [1024]
00000000: 940d 653c 6638 54bd 7ecf bbbc b8b2 923c
00000010: cf5c 63bd 499b eb3c ea6e d33c 5c7c 543c
00000020: 3cf6 6cbd 1a89 853c 144d 133d 4e93 1dbd
00000030: dc17 e7bd 8fff 113d 225e 60bc da72 07bd
00000040: e2ff 243d 2bf3 31bc 8ab9 05bc 3158 02bd
00000050: 7aa5 a6bb 8a86 10bd 2553 5e3c 05c7 503b
00000060: d2eb 66bc b92d 0c3d 95f7 b43c f9b6 74bd
00000070: 8a92 89bc 41ea e63c 45a0 8cbc 4870 983d
00000080: 7017 533b 868c 153d 0d6d 6dbd c2f2 89bc
00000090: 6cc3 6ebb 0df5 c23b 5bad ccbc daf2 95ba
000000a0: 4a28 ed3c 11c6 2d3c f730 95bb a324 0c3c
000000b0: fff9 94bc 0bf2 413d 88a4 adbc 6326 8ebd
000000c0: a10b bc3c 87f9 bcbd e4cc a0bc f934 aabc
000000d0: 8313 933c bf9a edbc 737d 313d 9756 0fbc
000000e0: 97b6 f7bc 7a97 4a3c 2d1b a63c 2ae9 4d3a
000000f0: 9628 8ab8 ed49 f23c 43af 18be d092 a5bd
00000100: 40d8 21bd edab 8abb 6a6c 43bd db3a 4a37
00000110: f7eb 9a3c 8925 8cbc cdb8 293d 104d a53c
00000120: a252 d23d 40e4 11bc 9711 39bd e040 823c
00000130: 4e52 22b9 e3c4 be3c 0e3d 1d3c e3b5 df3c
00000140: f15c b4bb 5222 db3c 4cf0 36bc 5f39 10bd
00000150: a4ed 5cbc 2f34 7c3c 7e77 76bd b0a6 013d
00000160: d816 6f3d 7eed 08bd 52b0 f53b f944 44bc
00000170: 8689 1b3d 1481 243c 5765 5f3b be10 2cbd
00000180: 65e1 a9bd 7b90 afbd 9c12 383c ed92 7e3d
00000190: 87a5 00bd 43c2 40bb 181d 2abd 196f e9bc
000001a0: ce63 40bd a695 3fbc 8fa4 143d af82 1ebc
000001b0: cc9a 073d 8557 84bc 10a0 26bd 2d37 483d
000001c0: e04e db3c 5ad0 5abd 5385 ca3b 546d e5bc
000001d0: a458 0bbd b680 a53b 55f1 1bbd 99ce 1fbd
000001e0: ba49 e8bc fd71 9b3c aba0 afbc 627d d23c
000001f0: f947 943c 0fe0 71ba 07a8 873d b6b5 0cbc
00000200: a77c 32bd 317f 6d3c b980 173d 56dd 1d3d
00000210: 80b0 a73b 1bdd ddbc dfd7 963d 97ca ba3d
00000220: 1d5e 7c3d f05d 0c3c d88a 163d 6b77 053d
00000230: e35c 74bb f3d2 423c 6057 35bd 4675 e83c
00000240: 0d11 69bc 06d2 b5bd b18e e8bc ebdf 81bc
00000250: 6b33 f23a a1e7 173b 8ecd 2bbb f959 f63c
00000260: fcf6 253d 1efd e3bc 3679 14bd f0fc 8ebd
00000270: e8fd 1dbd abea 703d 5571 57bc 05f6 25bd
00000280: 18ad 233d c686 653d 6496 a43b 355b e13c
00000290: 53a2 94bb 43fd 9c3d db71 a5bc b993 673c
000002a0: bb8e 9c3c 5156 72bd dcdb 08bd 5bba 7a3d
000002b0: da81 56bd 6a12 533d cc30 53bd 3259 88bc
000002c0: 230f a6bd eda1 5b3b a4f2 7fbc f81c 39bd
000002d0: a66b 1b3d 27b8 ff3c 9124 1b3d c00c 083d
000002e0: 6cb5 88bd 410a a3ba 97d5 23bd 519d 06bd
000002f0: 02ca d83c ade1 3abd 8615 f63d e7ed cebb
00000300: a084 d23c 6e98 56bc 2c21 59bc 5fa3 9d3d
00000310: 5180 6a3c cfde 06bd 1762 a2bd 8db0 e43c
00000320: e12e 4dbd 8442 26bc b67c 8cbb dbfc 073d
00000330: 47eb 8a3d be89 abbd 3ce5 e03c e956 3cbd
00000340: b9e0 813d 5fbd 56bd 8a01 3a3d 0a8a c4bc
00000350: 07f4 99bc 856f 3e3d ca99 0b3d 7402 3e3d
00000360: 6b66 70bc d5cd 123b 1fee c3bc e359 ac3d
00000370: 0167 40bc 31f5 17bc c2c6 dd3c c04c e33c
00000380: e76e 363d 066a cb3c 58ef af3c ca0d d1bc
00000390: 8a83 5dbd fc0e bf3d e497 31bd cf0f 64bc
000003a0: c753 ee3c be21 0e3d 89d8 58bc c233 aabc
000003b0: 4f2f 223d 88ce 943d a787 c9bc bedd 123d
000003c0: cced ccbb 63aa 06ba ca1c 713b 2fea 913c
000003d0: de3d fe3b b0f1 41bc c977 a33d fedc 363d
000003e0: 9d1f b4bd b747 2dbd 2eb0 be3d 61e5 74bc
000003f0: 0fb7 d1ba c48c c4bc 2cbb a93d cbbc c3bc
0.013980288 -0.0518116 -0.022926088 0.017907485 -0.05550843 0.02876057 0.025809724 0.012969103
-0.057852015 0.016300727 0.03596218 -0.03847056 -0.11283848 0.03564411 -0.013694318 -0.033068515
0.04028309 -0.010861198 -0.008161912 -0.031822387 -0.0050856443 -0.035284556 0.013569628 0.0031856906
-0.01409431 0.034223292 0.022090713 -0.05974481 -0.016793508 0.028187873 -0.017166266 0.07443291
0.0032210015 0.036510967 -0.057965327 -0.016839389 -0.0036432398 0.0059496225 -0.024985006 -0.0011440173
0.028949875 0.010606305 -0.004552956 0.008553657 -0.018185614 0.04734997 -0.021196619 -0.069409154
0.022954764 -0.09227281 -0.01962895 -0.020777212 0.01795364 -0.029004453 0.04333253 -0.008748672
-0.030238433 0.012365216 0.02027663 0.00078548735 -6.5879125e-05 0.029576266 -0.14910607 -0.08084643
-0.039512873 -0.004231921 -0.047710814 1.2053842e-05 0.018911345 -0.017107742 0.041436005 0.020178348
0.10269667 -0.008904517 -0.04518279 0.015900075 -0.00015480185 0.023287242 0.009597076 0.02730841
-0.0055042435 0.026749764 -0.01116569 -0.035210963 -0.013484392 0.015393301 -0.06017255 0.031653106
0.058371395 -0.033429615 0.0074978257 -0.011979335 0.03797295 0.01004054 0.0034087503 -0.042008154
-0.08294944 -0.08572479 0.011234906 0.062151838 -0.03140786 -0.0029412664 -0.041531652 -0.028495358
-0.04697018 -0.011693394 0.036289748 -0.009674712 0.03310661 -0.016155014 -0.04067999 0.048880745
0.026771009 -0.053421356 0.0061804443 -0.028006233 -0.03402008 0.005050744 -0.03807195 -0.039015386
-0.028355468 0.018975252 -0.021438917 0.025694553 0.018100725 -0.0009226808 0.066238455 -0.008588245
-0.04357591 0.014495657 0.036987994 0.03854116 0.005117476 -0.02708297 0.07365393 0.09120672
0.06161319 0.008567318 0.036753505 0.03258459 -0.003728681 0.0118911145 -0.04427278 0.028376233
-0.014225257 -0.088779494 -0.028388353 -0.015853843 0.0018478459 0.0023178833 -0.002621505 0.0300722
0.040518746 -0.027830657 -0.03624841 -0.06981838 -0.038572222 0.058817547 -0.013149579 -0.040517826
0.039959997 0.056036733 0.005022811 0.027509311 -0.004535952 0.07665493 -0.020195892 0.014134341
0.019111028 -0.05916435 -0.0334128 0.06121288 -0.05236993 0.051531233 -0.05156021 -0.016644094
-0.08108356 0.0033513263 -0.015621815 -0.045193642 0.03794446 0.03121574 0.03787667 0.033215284
-0.066752285 -0.0012438969 -0.039998617 -0.032864872 0.026463512 -0.045625377 0.12015824 -0.0063149813
0.025698006 -0.0130978655 -0.013252538 0.07697176 0.01431282 -0.03292733 -0.079288654 0.027916217
-0.050093535 -0.0101476945 -0.0042873276 0.033200126 0.06783157 -0.083758816 0.027453057 -0.04598132
0.063416906 -0.052426692 0.045411624 -0.023991603 -0.01879312 0.046493072 0.03408221 0.04638906
-0.014672856 0.0022400517 -0.023917256 0.08415582 -0.011743308 -0.009274767 0.027072314 0.027746558
0.04453936 0.02483083 0.021476433 -0.02551927 -0.054080524 0.0932903 -0.043357745 -0.013919785
0.029092683 0.034700148 -0.01323522 -0.020776633 0.0395959 0.07265955 -0.024600817 0.035856
-0.0062539335 -0.0005137084 0.0036790841 0.017811863 0.00775884 -0.011837408 0.079818316 0.04464435
-0.08795092 -0.04230472 0.09310947 -0.014947266 -0.001599999 -0.023992904 0.08287653 -0.023893734

chords_tempNet.batchnorm_1.running_var f4 [1024]
00000000: 265a 2e3c db1d d53b fa55 e13b 6277 d83c
00000010: 9450 ef3b 01f2 bd3c 6a43 d03c baaf f33b
00000020: a11a 163c 46ba aa3c 97e3 033c 7f7a fa3c
00000030: 9346 9e3c 6769 043c c47d b53b 8401 e63b
00000040: 8ecc 7e3c 830e f93b 6dbe 343c e2a3 083c
00000050: ee4d e53b 473d 7e3c 7c97 bf3b c52d 6c3c
00000060: 8a1f db3b 9181 6a3c d7c8 523b 2d6c c83c
00000070: d0c2 7d3b 0bb0 9f3b a86d 0b3c ebf6 373c
00000080: 481e c63b 1e22 113c 825b 1c3c 88ec 2f3c
00000090: cdfd 303c 6e1c 393c 7e40 843c ef96 103c
000000a0: 305b 793c 3fd5 3c3b c0b8 213c e71e 743c
000000b0: 0aed 633c 1dc6 883c f5dc 803c c583 463c
000000c0: b994 763c 269b 853c 9596 103c c6ea 243c
000000d0: 1c1b 813c 61dc a63c a740 3e3c 3028 2a3c
000000e0: f5dd 2b3c befc 363c a25b 073c ec8c 153c
000000f0: 9d0a f33b 4bf4 dc3c fbb7 d73c 09a4 8e3c
00000100: e98f 2f3c b351 413c 9c71 843c ec1e ac3b
00000110: 10f9 3c3c 6695 eb3b 27c0 883c 53a1 793c
00000120: 3964 863c b948 393c a8e1 003c 9169 cc3b
00000130: 5592 0a3c e785 b33c e343 2e3c f529 223c
00000140: daf7 c03b af54 233c 8d57 533c 4cdc b73c
00000150: d4d6 3c3c f427 823c 48a5 ca3b 8497 723c
00000160: aa57 b93c 663b 173c ee8e 2c3c 7cfe 9b3c
00000170: 0975 aa3b b4d9 af3c bce0 c93b da91 ce3b
00000180: f281 af3c 1fe3 753c 7771 f83b b572 ed3b
00000190: a859 da3b c8b8 9d3c d5d0 133c 9e71 043c
000001a0: 24df 7c3c 2332 4d3c b0a8 d13b 4c64 a53c
000001b0: 2750 303c 58eb 133c 2e85 853c fac6 213c
000001c0: 6f54 303c 54dc c53b 1240 ef3b e25d 1e3c
000001d0: d255 163c 9540 f63b 2e9e bd3c e3ca 733c
000001e0: ea13 df3c fda8 473c 3929 2a3c 27b7 1a3c
000001f0: c2b4 543c e61c 2d3c 6eb3 c13c 8403 713c
00000200: 1420 bb3b 7f82 713c b403 ef3b 230b 743c
00000210: 819f f23a 5b1d 403c 830f 143d c32e 993b
00000220: 6cfd 073d 1555 7e3c b8ac 803c 33c5 e13b
00000230: 70d4 743b e33c a83b 8fa9 683c 6f60 3a3c
00000240: 04ab a53c 5411 9c3c 719a e73b 6ae7 9b3b
00000250: 6469 e93b 5ad0 fc3b 5b85 673c fbfa 9b3c
00000260: 74f0 923c e90c 993c 75cb 323c 3f36 883c
00000270: 3b86 9a3c af5b 6c3c f710 083c 9e3c 823c
00000280: 08ac bb3b e0bd 353c e5ff 2d3c 3e50 463c
00000290: 1bb8 483b 218e 1b3c 981b 7f3c 3a86 823c
000002a0: 1d3d 463c 9f5f fe3b f459 1b3c 80b7 b43c
000002b0: e3d3 9c3c 10cf 7a3c 8900 593b 41f0 1c3d
000002c0: ff2c b03c 6c65 f33b c170 713c b4e8 733c
000002d0: 53a8 573c fed8 d63b b5d1 c13c 3579 5b3c
000002e0: 9b42 d93b 0d97 313c 9b98 b23c 86f2 8a3b
000002f0: 65f2 8b3c 9d87 343c 466e 423c 97dd cc3b
00000300: 3a7b 2d3c 02f1 043d 17cc 8f3c 192b 903c
00000310: 49c4 e83b 6243 cb3b e667 b53b 3985 453c
00000320: 045e f03b f4ce c83b eca9 d83b da99 5f3c
00000330: cef6 ef3c 6ca1 663c 8ded 013c 28a6 383c
00000340: 39b3 083c 316c ab3c c9bb 8c3c b710 223c
00000350: 1037 933c ef32 c83b ffa4 c03b a8a9 383c
00000360: a75e 133c b397 b43c 5138 3c3c f714 e43c
00000370: 9534 253c a097 3f3c f016 3e3c 5ca2 a93b
00000380: 33ce 003c 6d03 8a3b ca96 a73c fcab 813b
00000390: 2c9d b83c 7cab 9e3c 45b9 953c e592 423c
000003a0: 1019 043c 4dca 073c e834 543c 7100 5b3c
000003b0: e46f 133c 6422 743c 2c71 003c 2279 803c
000003c0: 182d 123c 3fb8 1c3c 6770 273c a79d 6d3c
000003d0: 91bc 903b dfc4 343c 9ce8 2a3c c1d3 423c
000003e0: 4489 f63b 75e5 243c 9cab a63c bddc 6a3c
000003f0: 6bcd 173c ef75 3b3c ff1b 083c b6ac 863c
0.01064161 0.006503803 0.0068767043 0.026424114 0.007303307 0.023186686 0.02542277 0.0074367197
0.009161622 0.020840775 0.008049867 0.030575989 0.019320762 0.0080817705 0.005538674 0.0070192236
0.015551699 0.007600607 0.011031729 0.008339854 0.0069978153 0.015517539 0.0058469158 0.014415209
0.0066871094 0.014313118 0.0032163167 0.024465645 0.0038720854 0.004873281 0.008510031 0.011228303
0.0060460903 0.008858232 0.009543302 0.010737546 0.010802698 0.011298282 0.016144034 0.008825048
0.015219495 0.0028813628 0.009870708 0.014899946 0.013911495 0.01669603 0.01573036 0.012116377
0.015050107 0.016309332 0.008824964 0.01006574 0.015759997 0.020368757 0.011612094 0.010385558
0.01048993 0.011168657 0.008261593 0.009127837 0.0074170367 0.026971957 0.026332846 0.017412202
0.010715463 0.011799264 0.016167454 0.0052527096 0.0115339905 0.0071894405 0.016693188 0.015236217
0.016405212 0.011308842 0.007866301 0.0062381704 0.00845774 0.021914436 0.010636303 0.009897699
0.005888921 0.009968921 0.012899292 0.022443913 0.011525828 0.015888192 0.006184254 0.014806632
0.02262481 0.00923047 0.010532124 0.019042246 0.00520194 0.021466114 0.0061608236 0.006304008
0.021424267 0.015007763 0.0075818854 0.00724634 0.00666352 0.01925315 0.009021957 0.008083729
0.01543406 0.012524161 0.006398283 0.020189427 0.010761297 0.009028278 0.016298857 0.0098741
0.010762318 0.006038228 0.007301339 0.009665938 0.009175735 0.007515023 0.023146715 0.014879915
0.027231175 0.012186286 0.010385805 0.009443081 0.012982549 0.010565972 0.023645129 0.014710311
0.005710611 0.014740585 0.0072941426 0.014895233 0.0018510671 0.011725749 0.036147606 0.004674764
0.033200666 0.015523215 0.015707359 0.006889963 0.0037358068 0.0051342114 0.014200582 0.011375531
0.020223148 0.019051231 0.0070679714 0.0047578113 0.0071231592 0.007715267 0.0141309155 0.019040575
0.017936923 0.018682914 0.010912766 0.016627429 0.018862834 0.014426156 0.008304826 0.015898045
0.005727295 0.011092633 0.010620092 0.012104092 0.0030627314 0.009494335 0.015570544 0.015933145
0.0120995315 0.0077628638 0.009481896 0.022060156 0.019144004 0.015308157 0.0033111891 0.03831506
0.02150583 0.007427862 0.014736355 0.014887024 0.01316269 0.006556629 0.023659566 0.013395597
0.0066302544 0.010839236 0.021801284 0.004240337 0.017083356 0.011018661 0.011867112 0.0062520015
0.0105884615 0.032456405 0.017553372 0.017598676 0.007103477 0.006203101 0.0055360673 0.012055689
0.0073354263 0.0061281864 0.006612053 0.013647521 0.02929249 0.014076572 0.007930172 0.0112700835
0.008343511 0.020925613 0.017179387 0.00989168 0.017970592 0.0061095874 0.005879044 0.011270918
0.008994735 0.022044992 0.011488036 0.027842028 0.010083337 0.011693865 0.011602148 0.0051768254
0.007861662 0.004211834 0.020457644 0.0039572697 0.022535883 0.01936888 0.01827682 0.011875843
0.008062616 0.008287978 0.012952067 0.013366804 0.008998845 0.0149007775 0.007839482 0.01568276
0.008921884 0.009565412 0.01021967 0.014502919 0.00441701 0.011033266 0.010431435 0.011891306
0.0075236876 0.010064472 0.020345502 0.014334855 0.009265284 0.011441692 0.008307456 0.016439777

chords_tempNet.batchnorm_2.weight f4 [32]
00000000: d27b 03bc 6e1b 3bbd 13bd 2cbc 635f 22bd
00000010: 5f6e 29bd d40d 9b3c 7d71 e03c 681d 18bb
00000020: 7950 87bd 05bf 233b 7ada 713d 577c 1c3d
00000030: c741 f4bc b326 cbbc 1cd2 e13c bfa5 6fbc
00000040: d29e 6cba 367c c63c 2a1a 213d db35 883d
00000050: 8a54 9f3b 36c9 45bc 7eb8 88bc 5cef afbc
00000060: c3e1 a23d 176a b1bc dbf0 5e3d 0eef 00bd
00000070: 3d51 d7bc 3e3e dd3c c5a0 b6bb bd35 1c3c
-0.0080251265 -0.045680456 -0.010543126 -0.03964175 -0.041365024 0.018927492 0.027397865 -0.0023210887
-0.06607146 0.0024985683 0.059046246 0.038204517 -0.029816521 -0.024798727 0.027566008 -0.014626919
-0.00090263516 0.02422915 0.039331593 0.06650897 0.0048623728 -0.012071898 -0.016689535 -0.02147644
0.07953217 -0.021657033 0.054428916 -0.03147798 -0.026283855 0.027007218 -0.0055733644 0.009534297

chords_tempNet.batchnorm_2.bias f4 [32]
00000000: 0977 753b e928 113c 033a d53a e029 e93b
00000010: 63eb 9b3b 705e 5f3b c368 aa3b d348 5a3a
00000020: 66e9 5e3c b94d 2dbb fc22 f53b da83 2a3c
00000030: a477 fb3a 5ec1 dfbb 4c5d 073c 7634 423a
00000040: 08dc 47bb 835c a1b9 3b38 423b e8a9 673c
00000050: 3a55 e737 0a94 853a 29fb 8d3b 0951 913a
00000060: f4c4 7d3c 4033 973b 89ff 323c 80fc 4f3b
00000070: ac63 493b eee2 563b 82de abba 459c c03a
0.0037454984 0.008859851 0.0016267899 0.0071155876 0.004758285 0.0034083389 0.005200477 0.00083268917
0.013605451 -0.0026444031 0.007480977 0.010407412 0.0019185436 -0.006828471 0.00826199 0.000740833
-0.003049614 -0.0003077724 0.0029635567 0.01413963 2.7577033e-05 0.0010191214 0.004332919 0.0011086772
0.015488852 0.004614264 0.010925182 0.0031736195 0.0030729575 0.003278907 -0.0013112577 0.001469501

chords_tempNet.batchnorm_2.running_mean f4 [32]
00000000: fdd1 edbd 1734 cd3b 2819 123e 286f 0fbe
00000010: 7064 8c3d fe9d 333d 8627 13bd 584f 633d
00000020: dd6d 0c3b 882e 273e 838f 0abe 5945 0bbb
00000030: 6c44 803d 16ff 7e3c 23c4 3abd 60db 143e
00000040: 7a82 8bbd 6e25 18be d226 a7bb 8a3d 7fbc
00000050: b05e 15bd d103 a43d bc31 0abe 9def f93d
00000060: b33b e23c 48c3 12bd b83a c93c 9e81 d43c
00000070: 5202 79bd d55b 243c b71e 1b3e 82bb 263e
-0.11612318 0.006262313 0.14267409 -0.14007246 0.068550944 0.043851845 -0.035926364 0.05549559
0.0021427788 0.16326344 -0.13531308 -0.0021251051 0.062630504 0.015563747 -0.045597207 0.1453681
-0.06811996 -0.14858028 -0.0051010633 -0.015578637 -0.036467254 0.080085404 -0.13495535 0.12203906
0.027616357 -0.035830766 0.024564132 0.025940713 -0.06079323 0.01003166 0.15148436 0.16282466

chords_tempNet.batchnorm_2.running_var f4 [32]
00000000: 1881 7a38 7337 3139 28f9 bb38 4f5c 8038
00000010: f7eb f438 e9a1 d438 ace8 1739 5c5b c938
00000020: 0e47 4939 175c c937 aa21 9c39 ba75 1d39
00000030: f418 7e39 1a81 2c39 ce79 8038 4376 6338
00000040: e266 6638 607f 7f38 8adb d038 2f0d 0a39
00000050: b29f 8b38 3f17 b938 783b 9c38 b563 8338
00000060: 0601 cd38 2c9e 0a39 3823 1e39 846b db38
00000070: 37c6 ae38 32df e538 9d20 9938 f724 ba38
5.9724873e-05 0.00016900692 8.963264e-05 6.1207094e-05 0.000116787785 0.00010139106 0.00014487159 9.601444e-05
0.00019195324 2.400395e-05 0.0002977972 0.00015016543 0.00024232623 0.00016451292 6.1262035e-05 5.4231157e-05
5.493209e-05 6.0915365e-05 9.959105e-05 0.00013165617 6.657782e-05 8.825817e-05 7.4497366e-05 6.265139e-05
9.7753524e-05 0.00013219629 0.00015081174 0.0001046276 8.333887e-05 0.00010961144 7.301683e-05 8.8760564e-05
