run_1/weights/weights-g-200.pth (torch, 418811 bytes, 12 tensors)

chords_tempNet.convT_in.weight f4 [32, 1024, 2, 1]
00000000: 9ba3 7e3c b116 1bbc c5e6 c33b 654e 073d
00000010: 6b6c a8bc d826 063d 395b 22bc ad1d 62bb
00000020: 6edd c03c 0be2 4cbc cba4 f9ba 7954 10bc
00000030: 1863 e93b 0735 7dbc 94a5 c73c c178 74bb
00000040: f009 1f3d 56eb f03c d6e2 77bc ea90 43bc
00000050: 58e0 d03b bb5e 4fbc 0567 013c 3bb9 17bc
00000060: 3aba 6ebb 1033 f13b 81a1 4c3c 635c 11bd
00000070: c9ec 6f3c 410e 453a 36f1 fcbb 0143 ffbc
00000080: 97e6 933b 2125 8738 7f1a 49bc e65a c6bb
00000090: f5ba 873c e078 6abc bac3 5f3d a6c9 fdbc
000000a0: c7a9 883c e1c7 2dbb 2247 a9bb 9bd3 2fbc
000000b0: eed6 a23c d457 143c 3cfd 2f3d f273 593c
000000c0: 70cf 57bd dc40 eebc 88c3 40bc fbe1 fcbc
000000d0: d32d 84bc 4a03 5cbb 77a8 1bbc c6c9 b3bc
000000e0: ce28 afbc f04e dbba 2350 a1bc 2ad8 b539
000000f0: 3133 e13c a271 72bc aa0a 68bc e8de 5a3c
00000100: 3870 203b dd2b 18ba f4c6 9c3c ad3c c03c
00000110: 2faa 8fba 0440 edbc 5ac4 c43c fc10 8c3c
00000120: 31c5 17bb f4da 02b9 2f04 503c e198 e7bc
00000130: 86a8 83bc 77fa 7dbc c562 673c 9112 1d3b
00000140: c4f5 d53b 7c31 2cbb 5088 fb3b 3660 cf3a
00000150: e49d 543c a859 fdb7 9d6f 993b 3fe0 c2ba
00000160: b0d8 37bd ee5f 93bc fa11 093c f8a4 79bc
00000170: 846a e23c a7d3 4b3c ddb9 fa3a 35ff f3bc
00000180: cfbb 07bd 6940 1e3c 8381 613b ddd0 0cbc
00000190: edf3 753c 83a5 833c a2d5 97bc f48a e2bc
000001a0: ad83 3c3c 1eb7 d3bb aad5 09bc 1940 1b3d
000001b0: d91c bc3c 4ee4 0d3b 59d0 0ebc b7b4 85bc
000001c0: 717e 8e3c 0f74 0e3d 71a6 8e3c 1237 833b
000001d0: 2221 9e3c 52dd d83c 0fad bb3c ceac 5abc
000001e0: cea3 a73c c2ea 77bc 061a cf3b aedc 39ba
000001f0: ecab 3e3c a46f 92bc 63b3 c7bb 1466 59bc
00000200: adff d8bb 0a03 f53c 8566 353c 97de 87bc
00000210: f195 b9bc 26b4 8a3b 3087 86bb 485b 8e3c
00000220: a035 da3a ecd8 8e3c 1f20 893c 9484 e5bc
00000230: cd69 e53c ad0d aabb 3faa 163d 734f a6bc
00000240: 1f12 d73c f128 57bc 4dde fe3c 8a26 d53c
00000250: 73e4 183b 8da6 9b3c fdd3 303c 0cba b7bb
00000260: 228d 463b 1413 a23c d17b e1bb 61a4 923a
00000270: 816d aebc 1cf8 b13c d50c 053d 90ef 8c3c
00000280: aaa8 81bc 1764 3bbd e203 e0bb c43c e23b
00000290: 79c0 58bc 377f f63b 7227 2cbd 2845 cf3c
000002a0: 81bb ff38 e293 8cbc 3919 edbb 9224 f53b
000002b0: f622 823a 5a97 e6bb ea9e 823c b185 64bb
000002c0: ee0e 1f3c 34fe c73c f8f4 7bbb f821 a9bc
000002d0: 5fed 373c 2569 803c 469b cabb 5fcf 08bb
000002e0: b0dc d93c 7d22 d73b 1919 343c b979 93ba
000002f0: 9485 52bc 3c4f c13c 9ee6 00bd 77e0 05bd
00000300: 55c3 08bd ce4b 26bc bc0e 193d 68ab 8c3c
00000310: 2809 cfba 5711 01bd 95a5 c83c 361b 363b
00000320: 3351 c5bb 1055 043c eab5 89bc fee9 36bd
00000330: d9c0 593c 7c53 7d3b 398d e03c c94f a33a
00000340: 86e2 f03b 125b 8dbc 77db 6a3c 6e9b eebc
00000350: 700f 073b 4af7 b6bc be13 76bc 6e92 cbbc
00000360: 6337 113d 37f8 96bc aa52 4ebc 3b2e 1abd
00000370: 032c 4cb9 d07f ba3a 94d6 6f3d cb99 533c
00000380: 2fcf b6b9 4859 c1bc 78bb 84bc a1ed 43bb
00000390: 6146 9abb e0aa 69bb 030c 9b3b fedf 153d
000003a0: 5308 463c a820 18bd 734f 0e3c ee98 873c
000003b0: 0765 12bd 0e0f 993c 90de bfbb 286a 993b
000003c0: 1642 eb3a 9b39 9f3c 0ac3 f1bb 49df a73c
000003d0: b28c 49bc f53e be3a 75b3 ebbb 2d81 7abc
000003e0: 0f55 54bc 0037 f9bc aa56 d13c 6bf7 a23c
000003f0: d9b6 1c3c 8ad2 aa3a 741f 6739 82ae 423c
0.015541936 -0.009465859 0.0059784376 0.033033747 -0.02055951 0.032751888 -0.0099094445 -0.0034502551
0.023543086 -0.012505065 -0.0019046305 -0.008809202 0.0071224086 -0.015454537 0.024370946 -0.003730342
0.038827837 0.029409092 -0.0151297655 -0.011936406 0.0063744 -0.012656863 0.007898097 -0.009260471
-0.0036426918 0.0073608235 0.012489677 -0.035488497 0.014643856 0.00075170776 -0.0077191843 -0.03115988
0.0045135724 6.4442174e-05 -0.012274384 -0.0060533164 0.01656864 -0.014311045 0.05463002 -0.030979943
0.016682519 -0.0026516842 -0.0051659504 -0.010731603 0.019877877 0.009054143 0.042966112 0.013272272
-0.052688062 -0.029083662 -0.011765368 -0.030869475 -0.016135132 -0.0033571296 -0.009500614 -0.021946799
-0.021381762 -0.0016731899 -0.019691532 0.00034684065 0.02749023 -0.0147976 -0.014162699 0.013358809
0.002448095 -0.0005804876 0.019137837 0.023466432 -0.0010960753 -0.02896119 0.024019409 0.017097943
-0.0023158307 -0.00012479333 0.01269631 -0.02827114 -0.01607157 -0.01550161 0.01412267 0.0023967365
0.0065295417 -0.0026274612 0.007676162 0.001582152 0.012977097 -3.02017e-05 0.004682495 -0.0014867856
-0.044884384 -0.017990079 0.008366102 -0.0152370855 0.027638681 0.012440599 0.0019128878 -0.029784778
-0.033138093 0.009658911 0.003440947 -0.008594719 0.01501177 0.016070133 -0.018534485 -0.027654149
0.011506003 -0.0064610383 -0.008412758 0.037902925 0.022962974 0.0021650973 -0.008716666 -0.016321523
0.017394276 0.03477865 0.01741335 0.0040043676 0.019302908 0.026472721 0.02290967 -0.013346864
0.02046385 -0.015131654 0.006320241 -0.0007090074 0.011637669 -0.0178755 -0.0060943826 -0.013268966
-0.006622276 0.029908676 0.011071806 -0.016585631 -0.022654505 0.004232901 -0.004105471 0.01737751
0.0016648062 0.01743742 0.01673895 -0.02801732 0.028004551 -0.0051896186 0.036783453 -0.020301556
0.026253758 -0.01313232 0.03111186 0.026019353 0.0023329526 0.019000316 0.010792729 -0.0056068953
0.0030296524 0.019784488 -0.006881215 0.0011187905 -0.02129245 0.021724753 0.03248294 0.017204076
-0.015827496 -0.04574975 -0.0068364004 0.0069042165 -0.013229483 0.0075224894 -0.042029805 0.025301531
0.00012194273 -0.01716036 -0.007235673 0.007481166 0.0009928632 -0.0070370855 0.015944917 -0.0034869725
0.009708149 0.024413206 -0.0038445573 -0.02064608 0.011226027 0.015675137 -0.006183061 -0.0020875556
0.02659449 0.0065653906 0.010992312 -0.0011251486 -0.01284923 0.023597352 -0.031469934 -0.03268477
-0.03338941 -0.010149909 0.037367567 0.017171577 -0.0015795575 -0.031510677 0.024493018 0.0027787215
-0.0060216426 0.008076921 -0.016810376 -0.044656746 0.013290607 0.0038654497 0.02741109 0.0012459691
0.0073512224 -0.01725534 0.014334551 -0.029126849 0.0020608567 -0.022334713 -0.015019355 -0.024850097
0.03545321 -0.018428905 -0.012592951 -0.037641745 -0.00019471352 0.0014228765 0.058554247 0.012915085
-0.0003486811 -0.023602143 -0.016202673 -0.0029896277 -0.004708097 -0.0035654828 0.0047316565 0.03659057
0.012086946 -0.03714052 0.008685934 0.016552415 -0.03574088 0.018683936 -0.005855389 0.0046818443
0.0017948772 0.019436648 -0.007377987 0.020492213 -0.012301611 0.0014514612 -0.007193024 -0.015289587
-0.012959733 -0.030421734 0.02555402 0.019893369 0.009565079 0.0013032716 0.00022041594 0.011882426

chords_tempNet.convT_in.bias f4 [1024]
00000000: f0d5 953c eaec 0ebc eb30 b2bc 17c2 54bc
00000010: 1628 423c ac5f 793c 89ca 15ba e0c4 b1bc
00000020: 4a81 38bc 146c a939 155a 4e3c 50f1 3a3c
00000030: 7b9e 9dbb db7a 4bbc 64fb 04bc 1c8d b43a
00000040: 706b 923b aae5 5fbc 12dc 8f3b 4ddc a4bc
00000050: 2971 ba3b 3ce5 4dbc 78b8 1abc 05db aabc
00000060: a6d9 673c d8ac f03b 3d29 f63b 0fb8 b43c
00000070: cc19 06bc b68b 883c ff0f 8abc d28e 323b
00000080: a352 6cbb 9b2d 5a3c 9061 87bc a10d 943b
00000090: 7d4c 903c 1d07 3e3c 5da4 3bbc 2b5a 263b
000000a0: 60f6 8bbc 7caf 143a 4d0f 93bc ba54 acbc
000000b0: 9164 afbc ab71 5b3c 8e43 24bc ced4 c0bb
000000c0: 2e29 373b 4bbb 56bc 2f83 8abc 13be 083c
000000d0: 274b 923c c9ee 98bc 020a 823c 6254 99bc
000000e0: bff9 e13b bc60 3bbb 9ea6 853b 5897 0d3c
000000f0: 194f 8b3c 127a 57bc 7d14 7abc e61b 45bc
00000100: 3648 57ba 053f 73bc 27bf 94bc 57aa 70bc
00000110: 5a9f 633c 8dd2 a23c 4331 753b 4422 b03c
00000120: 76c5 943c 7575 0c3c 1199 b1ba 9bf6 603a
00000130: 8275 a6bc 63ce 1b3c 977f 383b e586 683c
00000140: c718 133c d8ac 343c 64e8 6fbb a134 803c
00000150: a712 9dbb 91a3 a9ba faba 30bc 2efb 6c3c
00000160: f35b de3a 8310 093c 1fdd fb3b cf84 8fbc
00000170: c9e2 423c 2dee 423c 01d3 d43a b150 eeba
00000180: 155c adbc cc4e a0bc 0c5f a93c 7748 25bc
00000190: e409 8cbb 3ca8 8ebc c723 10bc 4709 43bc
000001a0: 048a 64bc 818a a33c a6e8 993c ee4a afbc
000001b0: a398 5c3b bf58 1ebc adfd b1bc 772a 83bb
000001c0: dffb d83b b4df 65bc b28c 153c 55f2 b3bc
000001d0: f0ff 4fbc 3756 1a3c c47a de3a 4bd5 50bc
000001e0: a7a5 acbc 5e30 653c ce90 3cbc 384d 3cbb
000001f0: a2c5 d9bb 132e 983c 9785 a73c 6072 e33b
00000200: 07fd 553b bcdf 883c 8fda 683c b567 68bc
00000210: eb83 5a3c 2e3a bbba a63d 9c3c 1966 983c
00000220: 8f11 ac3c 4749 9cbc 3d15 f73b 0f2a ad3c
00000230: e067 733c b1df 12bc 6c38 d93b 6475 81bc
00000240: d5ea 70bc 1d99 a7bc a6f4 573c 870e f4bb
00000250: 7013 f13a e87c 633c 5706 2c3c a6ea 5fbb
00000260: f554 5fbc bd87 25b9 8859 6cbc f3aa f2bb
00000270: dad7 a0bc 4c32 4a3c 3424 c1bb 097b 17bc
00000280: 95c2 f83b a917 593c 82c3 43bc a6e8 2abc
00000290: ef64 d0bb c6df 503c 32a2 7dba 19bf d73b
000002a0: b81e 993c 944d 8a3c cfe5 73bc e63b 53ba
000002b0: 3b02 a9bc 9dfa a03c 333f adbb 3612 2b3c
000002c0: bbce b1bc ca13 98bc b4af 3bbc 4f65 b6bb
000002d0: e106 8c3c 7ebb a03c 8044 df3b cf71 673c
000002e0: f66c 94bc ab0f 513c 5082 90bc 8fe3 abbb
000002f0: 3bf3 1fbb 415a 4dbc c180 9b3c ab09 8839
00000300: 0460 6fbc a568 143c 768c 1f3c 571a a9bc
00000310: cf4e 513b 3ba0 53bc 789e 413c 0bed b1bb
00000320: 20e0 a4bc a7c4 253c e0bc b13c deb4 b23a
00000330: 1f84 073c aa89 76bc adf1 4a3c b951 a9bc
00000340: ce3b 923c 1dbc aebb 5922 45bc c4f7 293c
00000350: 8164 88bc ebd2 1e3c 832c 8abc 680c 7c3c
00000360: ced0 663c 548c 0ebc d545 9bbc ef36 a2bc
00000370: e0ac 543c 92ba 7dbc 8b4f c8bb b469 593c
00000380: 6ec8 91ba 0a8e 87bc 9072 273c a663 813c
00000390: e6db 9abc 7e6a 823c 729c f33a b4ed 8e3c
000003a0: 2b9b 073b ecb8 2dbc db13 cdbb e2d5 bf3b
000003b0: fb62 c0bb 2db5 6b3c 52a7 5d3b e7b8 053c
000003c0: a388 7abc c1ad 47ba 405b 6d3b 4d0b 7a3b
000003d0: 171a 6a3b 05d2 833c 9026 c03a 1484 843c
000003e0: efaf 103a e65f 2fbc 900d 8bb9 dd04 64bc
000003f0: 1e80 7cbc d076 99bc 939a 6a3c 598a f53a
0.01829049 -0.008723477 -0.021751842 -0.012985728 0.011850378 0.015220564 -0.0005714079 -0.021700323
-0.011261294 0.00032314716 0.012594719 0.011410072 -0.004810152 -0.012419428 -0.008116577 0.0013774964
0.004468374 -0.013665596 0.004390248 -0.020124579 0.0056897593 -0.012566861 -0.009443395 -0.02085639
0.0141510125 0.0073448233 0.00751224 0.022060422 -0.008184861 0.016668182 -0.01685333 0.0027245772
-0.0036059998 0.013316537 -0.016526014 0.0045182263 0.017614597 0.011598376 -0.0114527615 0.0025383334
-0.017085254 0.0005671901 -0.017951632 -0.021036495 -0.021410258 0.0133938 -0.010025872 -0.0058847433
0.002794813 -0.013106178 -0.016908256 0.0083460985 0.017858101 -0.01866855 0.015873913 -0.018716995
0.006896227 -0.0028591594 0.0040787 0.00864204 0.01700549 -0.013151662 -0.015263674 -0.012030577
-0.00082123594 -0.014846568 -0.018157555 -0.01468905 0.013892973 0.019875789 0.0037413395 0.021500714
0.018160563 0.008572926 -0.0013549646 0.0008581669 -0.020319704 0.009509656 0.0028152221 0.014192318
0.008978075 0.011027537 -0.0036607021 0.015650095 -0.0047934833 -0.0012942423 -0.010786766 0.014464183
0.0016964659 0.008365753 0.007686272 -0.017519383 0.01189489 0.011897606 0.00162372 -0.0018182007
-0.021162072 -0.019568823 0.020675205 -0.010088078 -0.00427364 -0.017414205 -0.0087975925 -0.011904067
-0.013948921 0.019963505 0.018787693 -0.021398034 0.0033660315 -0.009664713 -0.021727407 -0.004002865
0.0066218222 -0.014030386 0.009127783 -0.021966139 -0.012695298 0.009419969 0.0016973843 -0.0127461655
-0.021075083 0.013988582 -0.0115091335 -0.002873255 -0.006645874 0.018576657 0.020449443 0.006941125
0.0032652037 0.016708247 0.014212265 -0.014184882 0.013337116 -0.0014284307 0.019072365 0.018603371
0.021004466 -0.01907791 0.0075403736 0.02113822 0.014856309 -0.008964465 0.0066290405 -0.015803047
-0.014704426 -0.020458752 0.013180887 -0.007448021 0.0018392634 0.01388476 0.010499558 -0.003416696
-0.013631095 -0.00015786193 -0.014425643 -0.0074056326 -0.019634176 0.012341093 -0.0058942083 -0.009245642
0.0075915554 0.01325027 -0.011948468 -0.010431444 -0.0063596885 0.012748664 -0.0009675353 0.00658406
0.018691406 0.016882695 -0.014886334 -0.0008057937 -0.020630946 0.019650752 -0.005287075 0.010441354
-0.021705022 -0.018564124 -0.011455465 -0.005566276 0.017093124 0.019620653 0.0068135858 0.014126255
-0.018118363 0.012760083 -0.017640263 -0.005245633 -0.0024406451 -0.012533725 0.018982293 0.00025947145
-0.014610294 0.009058152 0.009738078 -0.020642443 0.0031937843 -0.01291662 0.011817567 -0.005429869
-0.020126402 0.010117686 0.021696508 0.0013634225 0.008271246 -0.01504747 0.012386722 -0.020668851
0.017850783 -0.0053324834 -0.012032115 0.010374013 -0.016649486 0.009693841 -0.016866928 0.015383817
0.014087869 -0.008700449 -0.018954197 -0.019801585 0.01298067 -0.015486376 -0.006112998 0.0132698305
-0.0011122355 -0.016547222 0.010220185 0.015794586 -0.018903684 0.01591992 0.0018586053 0.01744733
0.0020691853 -0.010603171 -0.0062584705 0.0058543542 -0.0058711744 0.014386457 0.0033821655 0.00816176
-0.015291366 -0.0007617139 0.003621772 0.0038153708 0.0035721117 0.016091356 0.001465993 0.016176261
0.000551938 -0.010704016 -0.0002652225 -0.013917175 -0.015411405 -0.018733412 0.01431908 0.0018733247

chords_tempNet.convT_out.weight f4 [1024, 32, 1, 1]
00000000: ed04 f8bb f3d7 2bbc 8f40 933c 9fd0 38bd
00000010: 9070 273d 9485 25bb 25a9 8a3b d154 8a3c
00000020: d8e8 183d 9f66 1fbb 5ec2 92bb 15b9 ad3c
00000030: 9d77 813c e5b4 273c b34e 41bc 2519 abbc
00000040: f1db 2e3d 66f4 14bd e389 0bbd 5a94 8c3c
00000050: 2793 c3bc d602 103c 2947 96bc c09d b13c
00000060: 593c 6bbc 40cb 3a3b a1ab a2bc 8354 c4bc
00000070: 0be5 f4bc 74dd 833c 6696 8cbc 1982 aabc
00000080: ebf8 233c 8a7a 89bb 91ca 5e3b 0300 36bd
00000090: 1888 9e3c f60e 0ebd ca8f 9bbc 12f2 243c
000000a0: e4a0 4e3c 435a cabb 4a10 d53c f077 333d
000000b0: d10d 5bbc 7382 1bbc 9a59 a53c 9757 94ba
000000c0: a84b 883a fe94 c83c 2c2c d1bc e68e 6a3c
000000d0: 36c5 263b 879e b23c acb5 b93c 932d d4bb
000000e0: b85d 92bc cf24 413c 39f9 03bd 52aa 043c
000000f0: 249d 2b3c e1cb 4b3c 390b 6c3b 2020 aabc
00000100: 76a9 473c 40bd 87bc ec51 94bc 15c5 52bc
00000110: 5a27 9a3c a6cb edbb 7db4 683c 6538 d53b
00000120: dc76 c4bc 5634 cfbc 21f6 b2bc 0f1a f1bc
00000130: 77c7 f73c 2886 3e3c 2580 e7bb 7667 56bb
00000140: 6adf 333c d8e5 0abc 0b9c aebc e326 ab3c
00000150: 1a2e ae3c ee9f 973c 9434 58bc 843e c2bb
00000160: 3966 9bbd 1ae7 813c 78f1 ec3c 9fb1 543d
00000170: ec8a 8abc 1376 a6bc 0849 973b af1f 8c3c
00000180: 7a33 ee3b fc61 82bc 526c 2fbc eacd fabb
00000190: eec2 08bc 9d7d d93c d510 823c 9457 2ebc
000001a0: 2e2b 9b3c 48f2 aeba b38f ad3c 9649 c73b
000001b0: c0da b73c 0709 193c 868c 553c 2bfe ebbc
000001c0: 0e75 f1bc f880 d4bb b59f 87bc 4515 283d
000001d0: 37a6 1dbc 178b 963c b119 f9bc f7ef a2bb
000001e0: bbce 34bc 95c2 a33c ef4a 57bc 63a8 80bb
000001f0: c6cd c23c 3fd0 473c bb96 503c 8486 c73c
00000200: 5ddc 953c 5979 85bb 79ea 5b3c 8c1e a7ba
00000210: 1710 98bc affa 0d3d 253e 24bc 149a 3f3c
00000220: 9190 ab3b fdd1 de3c 2388 463c f5f0 553b
00000230: a5e7 a8bb c7a0 cc3c b7cb f83c 4eb4 e9ba
00000240: bc1d 973c 5d3d 413c 218f dfbc 6860 d53c
00000250: 474e 683b 43ac 173b e946 48bc d6ba d33b
00000260: cce0 55bc a77c 033d 3312 04bd a0b6 943a
00000270: d755 00bc bc74 a73b da2e a83c 29bd 823c
00000280: b981 3a3b f3eb 723b b74c 8e3b 00db 8cbc
00000290: f24a 1fbc 1635 71bb fc64 f3bb f8ac 223d
000002a0: 1f1a eabc 3d67 1fbd 0dab c53c 35d1 59bc
000002b0: c057 843c 83a3 543c 00cd 253d bfa3 03bd
000002c0: 9da5 c43c 4b67 09bb 1aa0 4b3c f411 a7bc
000002d0: b379 b03c dead f4bb e440 3cbc 4d12 5fbb
000002e0: 43f4 503d 9ba7 0dbc c916 b03c 5718 04bc
000002f0: 207d cfbb fb21 ab3b cc98 c1bc ff6b 14bd
00000300: 7f54 b2bc ceea b93c 2380 dc3b 8cda 553b
00000310: ef1a 833c 356f cf3c 7bcd f03a 9974 5cbc
00000320: 916b 68bc 1c57 d13c 96af 993c 922e 08bd
00000330: ed81 40bc 4a1c 3e3b d86d 64bb a1a5 02bc
00000340: f69e d43c 2541 a93c 3aa7 cbbc ec32 9b3b
00000350: 2c88 63bd 287c a8bc cfe3 9e3b 6354 963c
00000360: 57ab 97bc 7acc 163c 173b 62bb 7c39 a4bc
00000370: 1423 d3bc a0c2 7a3c 9e74 083d c2f3 a03c
00000380: c863 9cbc 6200 b03b f4f7 7a3c 7b8b 283c
00000390: 1fa1 80bc 4a04 da3a 2ab7 283c fa33 8ebb
000003a0: d75b 6f3c 8eea f9bc ea2f 24bb dd79 693c
000003b0: 0faf b03b ae29 69bc 9d30 87bc f6f4 0f3d
000003c0: 7f09 eebc 37d8 45bd ea2c dcbc 1fa3 a93c
000003d0: f2dc 3cbc e437 c43c 8178 803c 403a 00bc
000003e0: 62e1 bdbc f9f4 e13c 6e85 2fbc eb1e 77bc
000003f0: 290a a33c 792a 18bb 9199 dd3b 4d12 f2bc
-0.0075689466 -0.010488498 0.01797512 -0.04512083 0.040878832 -0.002525662 0.0042315894 0.016886147
0.037331432 -0.0024322642 -0.004478737 0.021206418 0.015804106 0.010236 -0.0117985485 -0.020886013
0.04269022 -0.03636589 -0.034067046 0.017160583 -0.023873879 0.008789739 -0.018344479 0.021681666
-0.01435765 0.0028502494 -0.01985723 -0.02396608 -0.029894372 0.016096808 -0.01716156 -0.020813989
0.010008077 -0.004195516 0.003399525 -0.044433605 0.019352004 -0.034682237 -0.018989462 0.01006748
0.0126116015 -0.006175311 0.026008744 0.043815553 -0.013369993 -0.009491551 0.020184327 -0.0011317608
0.0010398524 0.024485108 -0.025533758 0.014316296 0.0025447137 0.021804107 0.022669636 -0.0064751594
-0.017866954 0.011788561 -0.0322201 0.008097248 0.010474477 0.012438745 0.0036017431 -0.020767272
0.012186399 -0.016569734 -0.01810547 -0.012864371 0.018817592 -0.007256943 0.014203188 0.006506967
-0.023982458 -0.02529351 -0.021845879 -0.029431371 0.03024648 0.011628665 -0.0070648366 -0.0032715476
0.010978559 -0.008477651 -0.021314641 0.020892566 0.021262217 0.018508878 -0.013196129 -0.0059278626
-0.07587857 0.015857268 0.028923735 0.051927205 -0.016911946 -0.020319974 0.0046168603 0.017104952
0.00726932 -0.015915863 -0.010706978 -0.0076539414 -0.008347256 0.026549155 0.015877167 -0.010640997
0.018941488 -0.0013347352 0.021186685 0.00608177 0.022443175 0.009340531 0.013033992 -0.02880772
-0.029474761 -0.006485101 -0.016555646 0.04103591 -0.009622148 0.01837687 -0.030407758 -0.0049724537
-0.0110356165 0.019990245 -0.013140424 -0.0039263233 0.023779761 0.012195646 0.012731249 0.024356134
0.018293554 -0.0040733037 0.013422602 -0.0012750193 -0.01856236 0.0346629 -0.010024582 0.01169445
0.0052357395 0.02719974 0.012117418 0.0032644842 -0.0051545673 0.024979008 0.030370576 -0.0017830224
0.018446796 0.011794415 -0.027289929 0.026046947 0.0035447048 0.0023143447 -0.012223938 0.0064614816
-0.013054084 0.0321013 -0.03224392 0.001134593 -0.007832966 0.0051103514 0.020530153 0.01595934
0.0028458668 0.0037066906 0.004342641 -0.017194271 -0.009722458 -0.0036805323 -0.0074278098 0.039715737
-0.028576909 -0.038916815 0.024129415 -0.013294508 0.016155124 0.012978437 0.040478706 -0.032138582
0.024004752 -0.0020966108 0.012428308 -0.020394303 0.021542406 -0.0074670156 -0.0114900805 -0.0034038008
0.051014196 -0.008645917 0.02149524 -0.008062444 -0.0063320547 0.0052225566 -0.02363243 -0.036235806
-0.021768807 0.022694971 0.0067291423 0.0032631485 0.016004054 0.025321582 0.0018371785 -0.013455533
-0.014185802 0.025554232 0.018760484 -0.033247538 -0.011749727 0.002900856 -0.003485551 -0.007974059
0.025954705 0.020660946 -0.024860013 0.004736295 -0.055549785 -0.020567015 0.0048489342 0.018350786
-0.018514318 0.009204024 -0.0034520084 -0.020046942 -0.025773562 0.015305191 0.03331434 0.019647483
-0.019090548 0.0053711394 0.015317906 0.010287161 -0.015701829 0.0016633358 0.010297576 -0.004339692
0.014609299 -0.030507352 -0.0025052973 0.014250246 0.0053919624 -0.014231129 -0.016502673 0.035145722
-0.029057262 -0.0483019 -0.026876885 0.020707665 -0.011527287 0.023952432 0.01568246 -0.007826388
-0.02317876 0.027582632 -0.010712964 -0.015083055 0.019902306 -0.0023218675 0.0067626913 -0.029549742

chords_tempNet.convT_out.bias f4 [32]
00000000: 7d5c e9bd 5b1b 713b 2dff 153e db6d 0ebe
00000010: a2ac 8c3d 6d85 333d 41b8 09bd a903 733d
00000020: bf51 303c 722c 2e3e 7134 0cbe 45d2 1439
00000030: c3b4 833d a1c7 7f3a af0e 61bd 24fc 163e
00000040: 20c1 97bd 32d0 0abe 1dd4 323c 0f26 47bc
00000050: c061 ffbc 10aa aa3d 7c6d 10be 47d0 f63d
00000060: 14e5 e93c 59f2 36bd 5dfc 783c 0853 e43c
00000070: 8a5b 73bd 1cb7 e23b 64e8 113e b720 2c3e
-0.11394594 0.0036789987 0.14648123 -0.13909094 0.068688646 0.043828417 -0.033622984 0.059329662
0.010761677 0.17009142 -0.1369188 0.00014192711 0.06430962 0.0009757225 -0.054945644 0.14744622
-0.074098825 -0.13555983 0.01091483 -0.01215507 -0.03117454 0.08333218 -0.14104265 0.120514445
0.028551616 -0.044664714 0.015196887 0.027871624 -0.05941347 0.006918801 0.14248806 0.16809355

chords_tempNet.batchnorm_1.weight f4 [1024]
00000000: bb38 14bc fe3d d9bc a0f5 a73c d07c d63b
00000010: 42d4 22bd 259a 233c 582e 16bd f355 b5bc
00000020: 364c 5e3c ff4a b93c b460 e4bc c99c 23bc
00000030: ad7e 8738 f488 fb3b 9462 153d d024 2b3c
00000040: 9770 29bc 8ccd b2bc 26eb 0ebd db4c 033d
00000050: a2fa 1a3d de94 e8ba 8168 0b3c 9504 4c3c
00000060: d884 cdbb cb1a 88bc 6639 c03c 849c 8d37
00000070: 1aac cab8 b8d7 c3bc c26e 733d 262b b0ba
00000080: 33bf 8dbb 9a5c 69b8 9f26 a6bc e748 8ebc
00000090: 5523 1d3c 2036 083d 40cc 863c 9bdf e73c
000000a0: 1f81 17bc 238e 783c f0a9 93bc 2c89 4c3b
000000b0: 19de 87bc 9648 00bc 32e0 6fbc b964 193b
000000c0: ad3e 8dbc 3712 4c3b 4df6 403d a871 b5bc
000000d0: 9669 3abc 75d1 fa3c 262f ef3b ff96 783c
000000e0: bdfd 1fbc 7143 a8bb 6b1d 75bc 92de a13c
000000f0: 0574 e03b ff4d 8c3c 9cda ad3c 790d 763b
00000100: 6daa e5bb 02a7 7f3c ec16 cdbb d68b 8c3a
00000110: 6834 7abc 70bf fcbc 2695 50bc 632d 5abc
00000120: fac7 3a3c 511d 8ebc e2ee ee3b 1418 c2bc
00000130: fcf7 9bbc cebb 1c3d b91f 7ebc 95e5 a5b9
00000140: c464 a7ba 010b 97ba ff59 d43b 9c14 37bd
00000150: ae6c 3a3c 5ac3 f93b 9174 3fbc 12b0 4a3d
00000160: eec3 d53c baa4 013d 5434 593c 3615 ae3b
00000170: fd3f d838 d1ab 32ba 4be5 fcbc 1690 8f3b
00000180: a51d 2cbd fe9b d03c de5a 843c 9d45 9cb9
00000190: 6734 863c 5b86 05bd 178d 22bc b96f b23c
000001a0: efd8 14bb c551 10bd 3709 92bc d87d 093d
000001b0: cde1 403b a5b6 cebb 114c 4e39 cb18 033d
000001c0: e4b5 b1b9 611d 5d34 8cf4 be3c fe38 7fbc
000001d0: 6c36 8b3c c742 ff3c 7fb5 d83b 215e d0bb
000001e0: e485 2a3c 9524 793c 48e4 703b 771a 343c
000001f0: 9f14 723c 1f1b fdbc 1ce2 0e3d 0157 53bc
00000200: 654e 453c 5fb2 e23c 9a28 2a39 35a7 d13b
00000210: 52fd c73c d4f8 fb3c 7f62 69bc 63ed b8bc
00000220: 3919 eab9 2e26 aa3c dd5f 403b 88ef 00bd
00000230: 1f1a c63c 6fa3 a9bc f747 7a3c ca16 9b3c
00000240: a2d0 0ebc 0a80 c23b 0257 4bbc a185 503b
00000250: fdee 85bc 756f 6c3a c5e5 dfbb 911e 3c3d
00000260: 9873 b53b 1880 7ebb dc02 39bc b040 0fbd
00000270: 9368 823c ebc5 dcbc 808a 9c3c a8b1 4c3c
00000280: c8b4 563c 4360 aa3a f17a 8f3c 8f70 bcbb
00000290: 2543 dc3c 72ff 173c b965 fa3c f150 5b3b
000002a0: 97fb 75bc c13c dfbc f8b7 093d ffd2 103d
000002b0: 8193 bebc 3ade b3bc efe7 743d 7dae a7bb
000002c0: 0a16 263c 3389 b1bc 8938 653c c482 86bc
000002d0: f5e6 1dbd f5c1 b13c 5a0d 863c 3f14 503d
000002e0: 051d e73b 55b2 8c3b 87d4 b9bb 7aa7 943a
000002f0: c7ee 3fbb 64b2 ddbc 9c0f 48bc c11a a1bc
00000300: 128b 2e3c 8286 12bc ca10 9d3b 50ac 0f3c
00000310: c97a 953c a503 bebc 5029 7639 6ce3 25bd
00000320: d079 bb3c b484 393c f51e a639 53d3 2b3b
00000330: af0c 09bd 1588 783c 76a7 103d 9865 b2bb
00000340: f660 6ebc 2691 21bc ae00 d8bc 464e 01bd
00000350: 5faa 0f3a 0103 1cbd fbdb 413c 03d8 173d
00000360: 2477 863c c8f5 9fbc 3955 b7bb fd4a 4fbc
00000370: ef14 0abd 9875 d73c 8d33 653c 8c81 523d
00000380: a256 833c 8872 01bc 9e5d db3b 1ef2 2abc
00000390: 21c9 d7bc ee0c 7cbb 2899 77bc a7ce 433c
000003a0: 52d1 0d3c 0898 53b9 c030 f43c 53bd 3ebc
000003b0: 531e 673c f601 5b3c 6316 babc 2579 4ebc
000003c0: b56d f0bc d460 e8bb ae04 073d b727 42bb
000003d0: 4171 8f3c 7c65 d73c 172b 9a3c 19c3 62bb
000003e0: 0067 81bc 600e d53c ea56 fd3c 78cc 043c
000003f0: 03a9 e7bc 9624 e838 a198 ce39 62f7 b33a
-0.009046729 -0.026518818 0.020502865 0.0065456405 -0.039753206 0.009985481 -0.03666529 -0.02213571
0.013567975 0.022618769 -0.027878143 -0.009986111 6.460897e-05 0.007676238 0.036470965 0.0104457885
-0.010341785 -0.021826528 -0.034892224 0.032055717 0.03783668 -0.0017744561 0.008508802 0.012452264
-0.0062719397 -0.016614338 0.02346487 1.6881393e-05 -9.664167e-05 -0.023906574 0.0594318 -0.0013440594
-0.0043257712 -5.563777e-05 -0.020282088 -0.017368747 0.009590943 0.033254743 0.016454816 0.028304866
-0.009247093 0.015170607 -0.018025368 0.003120969 -0.016585397 -0.007829806 -0.014640855 0.0023405983
-0.0172418 0.0031138787 0.04710989 -0.022148922 -0.011377713 0.030617455 0.0072993217 0.015172719
-0.009765086 -0.0051349928 -0.014960627 0.01975945 0.006849768 0.017127035 0.021222405 0.0037544651
-0.0070088417 0.015603783 -0.006258836 0.0010722827 -0.015271284 -0.030853003 -0.012730872 -0.013316485
0.011400217 -0.017347964 0.0072916606 -0.023693122 -0.019039147 0.038265042 -0.015510493 -0.00031642304
-0.0012771119 -0.0011523665 0.006480455 -0.04469739 0.01137845 0.0076221647 -0.011685506 0.04948432
0.026094403 0.031651236 0.013257105 0.005312587 0.00010311601 -0.0006815764 -0.030871054 0.00438119
-0.04202046 0.025465008 0.01615661 -0.00029806505 0.01638241 -0.032598834 -0.009921334 0.02178179
-0.002271231 -0.03523423 -0.01782666 0.03356728 0.0029431463 -0.006308394 0.00019674028 0.032006066
-0.0003389559 2.0592917e-07 0.023309968 -0.015577553 0.016993724 0.031159772 0.006613433 -0.0063588773
0.010407899 0.015206476 0.003675716 0.010992638 0.014775424 -0.030896721 0.034883603 -0.012899161
0.0120426165 0.027672945 0.00016227589 0.0063981065 0.024412785 0.030758299 -0.014244675 -0.022574132
-0.0004465075 0.020770159 0.0029354014 -0.031478435 0.024182377 -0.020707814 0.015275947 0.018931765
-0.008716734 0.0059356736 -0.012410881 0.003181793 -0.01634931 0.0009019294 -0.0068328106 0.045927588
0.0055374615 -0.0038833674 -0.011292186 -0.0349738 0.015919005 -0.026949843 0.01910901 0.012493528
0.013104625 0.0012998659 0.017514678 -0.0057507227 0.026887486 0.0092772115 0.030566083 0.0033464993
-0.015013597 -0.02725065 0.033622712 0.03535747 -0.023263695 -0.021956552 0.0597915 -0.005117236
0.01013709 -0.021671867 0.01399053 -0.016419776 -0.038550336 0.021698931 0.016363788 0.05080056
0.00705302 0.00429372 -0.005671087 0.0011341416 -0.002928661 -0.027062602 -0.012210753 -0.019666078
0.010653274 -0.008943202 0.004793261 0.00876911 0.018247025 -0.023195097 0.00023475778 -0.04050009
0.022885233 0.011323143 0.00031685052 0.0026218488 -0.03345936 0.015169163 0.035315953 -0.00544424
-0.0145494845 -0.009861266 -0.026367512 -0.031568788 0.00054804044 -0.038088802 0.011832233 0.03707124
0.016414233 -0.019526377 -0.005594876 -0.012652156 -0.03371137 0.02630119 0.013989341 0.051393077
0.01603252 -0.0079008415 0.0066945096 -0.010433702 -0.026341023 -0.0038459855 -0.015112199 0.011951125
0.008655863 -0.00020179164 0.029808402 -0.011641818 0.014106351 0.013367167 -0.022715753 -0.012602125
-0.029349187 -0.007091621 0.032963447 -0.0029625723 0.017510058 0.026293509 0.018819375 -0.003460115
-0.015796185 0.026007831 0.030925233 0.00810539 -0.028278833 0.00011069437 0.000394051 0.0013730342

chords_tempNet.batchnorm_1.bias f4 [1024]
00000000: 3839 37ba fdef 8dba 25f8 2a3b 4255 433b
00000010: 7bfa 533a e68f d8ba 249b 84b9 fa9c 7e3a
00000020: a0b5 2db9 d0b9 59bb 04ad 5b3b 816e 0cbb
00000030: 0bb5 753b ad88 dc3a bbc5 fe3a 8bfb 22bb
00000040: 2fbd 9eba d846 a53b e0f9 10ba ff18 543b
00000050: e41f 6abb 968a 53ba 1189 bbb9 5681 9e3b
00000060: 2f1c b5ba d166 4bba 4944 40ba d297 40ba
00000070: babc 21ba 0033 35bb 4b01 e93a 495a b5bb
00000080: 6945 3737 c3ca f7b9 6d3e 3a3b 0250 123b
00000090: bfb4 58bb 8de5 27ba dea5 7fba cbaf 8a3b
000000a0: 7dfd 22b9 7420 44ba af4c 10bb 1f06 243b
000000b0: ccf8 45bb d12f 003b 6e99 c5ba 96b6 0e3b
000000c0: 67ee 8b3b 8b6c 81bb f3db 27ba 6097 7e3b
000000d0: cafc 2e3b 7762 eab8 2787 293b 65aa b93a
000000e0: ab3a 27bb a88e 4d3a 6473 4c3b e709 e9bb
000000f0: 1d8e 923b 6761 733a a267 65bb 934d d739
00000100: 173e 6cb9 f8d4 343a 64b5 5db9 3b70 9a39
00000110: 54b7 18bb 263a 2e3b 2a73 ed3a 8d78 f0ba
00000120: 744b 9e3a 37d8 53ba 212f 1f3b 2240 97bb
00000130: c801 403a 0940 243b 4ffc 2c3a a81a e6ba
00000140: 1e7c a5bb 21a6 daba 0e78 8a3a c940 3a3b
00000150: bf03 49bb 85db edba d60f 753a c883 483a
00000160: e841 243a 7405 443b d712 943a fd0f 28bb
00000170: 02a7 8cba f25d 87bb 1015 e6b9 14f6 05bb
00000180: 4d37 39bb c40e c439 893f d2ba e0fb 683b
00000190: 17dc 0abb 6eac 49bb 9f9a 5dba 0ec2 a2ba
000001a0: 672b cb3a a8fe 64b8 2e77 99bb d8d4 cdba
000001b0: 2ca2 07bb e862 ea3b 4c10 c1ba bc13 2c3a
000001c0: 674e 2bbb f8b2 93b9 44d2 fdba e687 dc3a
000001d0: 8df7 d33a 008b f139 797e 0a3b 8017 753a
000001e0: 607d 403a 5b10 bd3a 0aa2 fcba b842 77bb
000001f0: b60d c1ba 1412 8bba ca57 a238 f13e 213a
00000200: c578 41ba 02b5 c6bb a71b 47ba ac70 30bb
00000210: cca1 8b39 e8f6 0abb 7be8 02ba eb49 173b
00000220: af76 4abb 0f56 243b 3795 9437 98e0 9b3b
00000230: af1f 073b cb22 363a 2912 e33b 98d2 81ba
00000240: 6cba 6d3a bddf 88bb 6c36 74ba 9c50 a9b9
00000250: 65f6 08ba 1ef2 a0bb e809 96ba af14 623b
00000260: 6ec1 b4b9 9301 42bb 7685 943a 184f 2c3a
00000270: bb56 83b9 6257 1c3b 810d 0639 94cf 343a
00000280: 8993 b53a f605 303b 29d9 643a 77eb 293b
00000290: 9fce 80ba e02b 093b eac1 89b9 93c8 fc38
000002a0: 1ba7 4f3b fb1e 23bb 46dd 973b 9229 363b
000002b0: 2817 913b 6b06 8d3a f8ba b43b b424 2f3b
000002c0: cf25 00bb c51d 6e3a 5519 ce3a 2b94 c4ba
000002d0: 1cca b6ba be9e a7ba 1c1d 773a de87 ceba
000002e0: 25c9 76b9 d728 4c3b 08b9 4b3b 2685 a1ba
000002f0: ef6c d83a f14b 66bb 48ad c1bb 6431 2a3b
00000300: 24e3 05bb 4adb 4939 c3eb ddba bd6e 963b
00000310: d238 4cbb 14d8 6d3b 0364 493b fa9d 653a
00000320: 2f7c 22bb 3a85 663b b6e4 b5ba 5dee cabb
00000330: dc71 533b d8f4 2b38 fa26 533b 5587 ad3a
00000340: 6578 593a 4329 92bb e89e d5ba ded4 c33b
00000350: 5bc9 c6ba febe 47ba 1c57 dbba f622 6c3a
00000360: 716f 8f3b df76 553a 7bcf 1f3b 7410 2ebb
00000370: 2c44 1b3b 3e5b 083b b0ea 403b ca28 4ebb
00000380: 6313 47bb bec2 2f3a ee15 6bbb b237 463b
00000390: 0ee1 b737 b5f4 283b dc84 833b 8cc1 793b
000003a0: 57fd 66bb 8e35 8aba 3ea0 85ba baac f6b9
000003b0: ae5a 68ba b020 82bb 5147 f1b9 5959 6aba
000003c0: 478a f939 840d dc3a d1d2 f9b9 9d3c 08bb
000003d0: 2426 29ba bbc4 c33a de1e a73a 47ee 77bb
000003e0: f12f e5ba ff2a 123a c351 843b 2b0e ac3a
000003f0: 0ed8 56bb b9c1 f1b9 3a6c 683b f5ef 14bb
-0.0006989422 -0.0010828968 0.0026087847 0.0029805456 0.0008086336 -0.0016522377 -0.0002529259 0.00097127224
-0.00016566226 -0.0033222325 0.0033519873 -0.002142817 0.0037491943 0.00168254 0.001943759 -0.002486917
-0.0012110824 0.0050438456 -0.00055303983 0.0032363532 -0.0035724575 -0.0008069662 -0.00035769542 0.0048371954
-0.0013817603 -0.0007759156 -0.0007334394 -0.0007346842 -0.0006169785 -0.0027648807 0.0017776875 -0.0055344445
1.0923811e-05 -0.0004726258 0.0028418556 0.002232552 -0.0033066717 -0.000640475 -0.0009752194 0.004232382
-0.00015543956 -0.00074816425 -0.0022018363 0.0025028063 -0.003020811 0.001955975 -0.0015075633 0.002177631
0.004270363 -0.003949707 -0.00064033194 0.003884755 0.0026700967 -0.0001117633 0.002586791 0.0014165161
-0.0025517147 0.0007841387 0.0031196708 -0.007111776 0.0044725076 0.00092842284 -0.0035004397 0.00041065793
-0.00022529844 0.000689819 -0.00021143776 0.00029456787 -0.0023302631 0.0026584952 0.0018115987 -0.0018346474
0.001207693 -0.000808123 0.0024289566 -0.0046157995 0.0007324484 0.0025062582 0.0006598876 -0.0017555552
-0.0050501963 -0.001668159 0.0010564344 0.0028419963 -0.00306724 -0.0018147087 0.0009348368 0.00076490315
0.00062659243 0.0029910477 0.0011297119 -0.0025644295 -0.0010730925 -0.004131072 -0.0004388471 -0.0020440863
-0.0028261722 0.00037395034 -0.0016040663 0.003555052 -0.0021188313 -0.0030772942 -0.00084535213 -0.0012417452
0.0015500606 -5.4596603e-05 -0.004683397 -0.0015703691 -0.0020696027 0.007152904 -0.0014729588 0.000656422
-0.002613926 -0.00028171367 -0.0019365032 0.0016825169 0.0016171798 0.00046070665 0.0021132512 0.000934951
0.0007342901 0.001442443 -0.0019274366 -0.0037728976 -0.0014728818 -0.0010610246 7.741114e-05 0.00061510416
-0.0007380362 -0.0060640583 -0.0007595368 -0.0026922626 0.00026632694 -0.0021204296 -0.0004993749 0.002308483
-0.0030893495 0.002507571 1.7712458e-05 0.0047569983 0.002061825 0.00069479336 0.006929655 -0.0009904681
0.00090686115 -0.0041770623 -0.0009315971 -0.0003229425 -0.0005224704 -0.004911675 -0.0011447044 0.0034497192
-0.00034476392 -0.002960299 0.0011331278 0.0006573065 -0.00025050886 0.0023855795 0.00012784266 0.00068973866
0.0013853173 0.0026859022 0.0008729869 0.0025927701 -0.0009827203 0.0020930693 -0.00026275154 0.00012053656
0.0031685296 -0.0024890292 0.004634532 0.0027795774 0.0044278093 0.0010759359 0.0055154525 0.0026724758
-0.0019553786 0.00090834155 0.0015724102 -0.0014997771 -0.0013945731 -0.0012788398 0.000942664 -0.0015757044
-0.0002353532 0.0031152272 0.003108563 -0.0012323007 0.0016511957 -0.003514048 -0.0059105493 0.002596938
-0.0020429576 0.00019250545 -0.0016931224 0.0045908378 -0.0031161797 0.0036292123 0.0030729778 0.0008759197
-0.0024793257 0.0035174624 -0.0013877365 -0.006192966 0.003226391 4.0997606e-05 0.0032219277 0.0013239185
0.0008295833 -0.004460485 -0.0016297968 0.0059763035 -0.001516621 -0.00076197076 -0.0016734335 0.0009007895
0.0043772985 0.00081430183 0.0024385143 -0.00265601 0.0023691757 0.0020806338 0.002943676 -0.0031457418
-0.0030376546 0.0006704739 -0.0035871225 0.00302456 2.19201e-05 0.0025780622 0.004013641 0.0038109748
-0.0035246217 -0.0010544525 -0.0010194851 -0.00047049468 -0.000886361 -0.003971182 -0.00046020237 -0.00089397054
0.00047596006 0.0016788696 -0.0004765005 -0.0020788081 -0.0006452522 0.001493595 0.0012750288 -0.0037831233
-0.0017485601 0.0005575865 0.004038067 0.0013126781 -0.0032782587 -0.00046111437 0.0035464899 -0.0022726033

chords_tempNet.batchnorm_1.running_mean f4 [1024]
00000000: e68c e03c b73c 0dbd 2c9d 73ba 1f0d fdbc
00000010: f260 333d f4ca aa3d ab5e 31bd 6560 b0bc
00000020: f458 24bd 8634 14bd 0e6a f3b9 2f71 e5bb
00000030: a4b0 25bb e8bc 24b7 31d1 b0bc cfc4 423d
00000040: 035e 043d 82a3 89ba 7082 cebc 0f76 5fbd
00000050: 7182 7e3d 7d69 1abd dd0c 55bd 4c3a a5bd
00000060: b0ea 2b3d 592b 9d3c 7075 373c a306 c63c
00000070: cba6 723c 6bc4 0f3d 99aa 08bd d9d8 2d3d
00000080: a2e6 e93c 548c 7f3c 3ed8 04bd 4e51 e33c
00000090: 788e 843d a3bc c03c 615b 0d3d 0832 9c3c
000000a0: 09c0 2c3c 54cc 2ebd 1d61 1cbd 0b48 963b
000000b0: db8e 64bc 5c18 643c 276b 653d 0d7a dcbc
000000c0: 5d2f b1bc c83a 28bd defa cd39 2475 38bd
000000d0: b144 943d cd03 d5bc 8b2f 65bb 7492 253c
000000e0: df8a 423c 502a de3c 100d 86bc 2d28 f23b
000000f0: 28ff 4abc e6b1 fa3b 1dbb 4cbd cfb3 31bc
00000100: 7f75 8e3c ee8c 97bc c7c4 35bd e522 40bc
00000110: d064 c03c b303 813d 2bb5 723c 7b9e 033d
00000120: 9397 c73c 87ae cb3c 0bc4 de3a 084f 3b39
00000130: 1556 a8bc 8693 513c 3d40 31bd cc7d 3f3b
00000140: fcc3 363c a3a9 d43c 87be 6fbc 0830 623d
00000150: 818c b0bc 4321 c13b d422 7cbc 46ff 42bc
00000160: 19e9 f93c dc9b cb3b 7e1a 563d ed5b 1bbd
00000170: 92e2 91bc fd56 a23d ab4b 6cbd 8594 ca3a
00000180: fd81 44bd 3fa2 6f3b b78a 2a3d 5552 49bc
00000190: 9c06 96bc 02bf acbb b751 6e3c 00ce c93b
000001a0: 5787 6b3c ae4e f53c 7499 aebc 793f a0bc
000001b0: 135b 02bd 2189 8e3b 3b21 23bd 5c25 a33a
000001c0: 928b 1d3c d15f 3abd 126b f53c e84a 35bd
000001d0: 6ab8 13bd 660a a9bc d5a3 bd3c 72b4 723c
000001e0: 691d f4bc 018a cc3b c2b2 a9bc 5ade b8bc
000001f0: e851 db3a 3d24 8a3c 824b 2cbd b211 b0bc
00000200: a673 b4bc b73b 533d 2116 5e3c 79b3 7abd
00000210: 3809 bf3c 9198 6bbc 53bf 513d 08c2 6e3c
00000220: e5f7 373d 25c1 8a3c c2d0 c63c f58b 0d3d
00000230: 25bc d03b 67cb 813c a2f8 c2bc 0145 023d
00000240: c359 8fbc fad9 85bc 5199 213d 6e0c 02bc
00000250: 007b a6bc bf29 47bb defb b73a b141 d6ba
00000260: eccc 223d 957b 8d3c 64a1 d83a 6dc3 9d3c
00000270: bbf8 7dbc 4588 633d 2e13 253d a76b 3fbd
00000280: 4108 e63c f975 9bbb 8120 71bc a8b9 483c
00000290: 0f8b 373d 0e50 83bb a74d c3bb 6ac2 b33c
000002a0: 9106 ab3c d585 9cbc 40fb 86bd f83f 853d
000002b0: 024f 533c 3ce8 d83c ae42 d33b 31fa 0b3d
000002c0: 5de2 cebb 5b3d 4dbc 3ec2 76bb ed56 61bd
000002d0: c310 043d c9f5 893c 5248 203c cae3 b9bc
000002e0: 1a60 f93b fc4c 0abd 9847 b73c 097d e9bc
000002f0: 5e8b 123d c1ae 9abd d6d1 8b3c 70de ee3c
00000300: fc63 e8bb ba4f e5bc 1127 723c 79f9 ddbb
00000310: 012d 5c3d 44f4 5dbd 29a5 e53c 5c8f 0dbc
00000320: d8b1 08bd 8085 ca3d c4bc 893d 41d1 413c
00000330: 6015 f13c 760c acbd 732a 7b3d b9fd 85bd
00000340: cbc8 203d 484c ca3b fdb0 2ebc 61a4 6b3c
00000350: ad0a 51bc 49aa 123d d1d2 69bc c0cf 51bc
00000360: 841e 5e3c 050a c53c 4825 35bd c2d3 003d
00000370: d8ca ca3c 45a6 973c 9410 98bc c22c b83b
00000380: afd7 1d3d 36d2 00bd e6db c1bc 7182 413d
00000390: 1215 513c faef 7d3c 1dc3 02ba 4a6b ccbc
000003a0: 0154 a2bd d3da 2d3d 8622 2cbb 24a4 b2bc
000003b0: 23f5 03bd 3713 633c 0e21 a23b 1719 f13c
000003c0: f171 d9bc f317 4bba a04b 19bc d6ee 06bc
000003d0: 68a4 91bb ea5f 313d 579c ba3c 0a74 34bd
000003e0: 7733 28bb 0bb0 2cbd 2fe8 19bb 5fbc b6bc
000003f0: 166c da3c 7d37 00bc 8dbd dcba a2bb 75bd
0.027410936 -0.03448173 -0.0009293135 -0.030890046 0.043793626 0.083394915 -0.043303173 -0.02153034
-0.040123895 -0.036182903 -0.0004642759 -0.007002018 -0.0025282288 -9.819145e-06 -0.021584125 0.047550973
0.03231622 -0.0010501 -0.025208682 -0.05455595 0.062136117 -0.037698258 -0.05201422 -0.0806776
0.041971862 0.019185709 0.011197433 0.024173087 0.014810274 0.03509943 -0.03336582 0.04244313
0.028552357 0.015597422 -0.032432787 0.02774873 0.06472486 0.023527449 0.034510974 0.019066826
0.010543832 -0.04267533 -0.038178552 0.004586225 -0.013950075 0.013921823 0.05601039 -0.026913667
-0.02162903 -0.041071683 0.00039287558 -0.04503359 0.07239664 -0.026002789 -0.0034970965 0.010105718
0.01187393 0.027119786 -0.01636365 0.007390043 -0.012389936 0.0076506017 -0.049983133 -0.010846092
0.01739001 -0.018499818 -0.044377115 -0.0117270695 0.023485571 0.06299534 0.014813702 0.03213356
0.024364268 0.024863495 0.0016995681 0.00017863151 -0.02054886 0.01279152 -0.043274153 0.0029219268
0.011155125 0.025959795 -0.014632828 0.055221587 -0.021551372 0.0058938577 -0.015389163 -0.011901682
0.030506657 0.0062136482 0.05227136 -0.037929464 -0.017808232 0.07926748 -0.05768935 0.0015455639
-0.04797553 0.0036565212 0.041636195 -0.012287696 -0.018313698 -0.0052717933 0.0145458495 0.0061585903
0.014375529 0.029944744 -0.021313407 -0.019561516 -0.031825136 0.004349843 -0.039826613 0.0012447047
0.009615796 -0.045501534 0.029958282 -0.04426089 -0.036064543 -0.020634841 0.02314941 0.014813529
-0.02979918 0.0062420373 -0.020715121 -0.022566963 0.0016732784 0.016862983 -0.042064197 -0.021492813
-0.022027802 0.05157062 0.013555081 -0.061206315 0.023319826 -0.014379636 0.05120785 0.014572628
0.044914145 0.016937802 0.024269465 0.0345573 0.006370085 0.01584406 -0.023800198 0.03180409
-0.017498856 -0.01633929 0.039452855 -0.007937534 -0.020322323 -0.0030389873 0.0014036854 -0.0016346482
0.03974621 0.017270843 0.001652759 0.019258225 -0.0155011965 0.05554988 0.040301494 -0.046733525
0.028080108 -0.004744288 -0.014717222 0.012251295 0.04481035 -0.004007346 -0.0059601846 0.02194329
0.020877155 -0.019106785 -0.06590891 0.06506342 0.012897255 0.026477925 0.006447158 0.034174148
-0.0063136057 -0.012526835 -0.0037652398 -0.05501454 0.032242548 0.016840832 0.0097828675 -0.022691626
0.007610333 -0.033764824 0.022373006 -0.028502004 0.035777442 -0.07552863 0.017067831 0.0291588
-0.007091997 -0.027992118 0.014779822 -0.006774124 0.053753857 -0.054188028 0.028032856 -0.008640137
-0.03337273 0.09888744 0.06725457 0.011829675 0.029429138 -0.08400814 0.06131978 -0.065425344
0.03925399 0.006173644 -0.0106623145 0.014382453 -0.012758893 0.035806928 -0.014271454 -0.012805879
0.01355708 0.02405263 -0.044225007 0.031451948 0.024754927 0.0185119 -0.018562593 0.00562057
0.03853577 -0.031450473 -0.023664426 0.04724354 0.012761371 0.015499109 -0.00049881806 -0.024953503
-0.07926179 0.042445015 -0.0026265695 -0.021806784 -0.032216202 0.013859562 0.004947788 0.02943091
-0.02654359 -0.0007747404 -0.009356409 -0.008235654 -0.0044446476 0.04330436 0.022779627 -0.044055976
-0.002566544 -0.042160075 -0.002348434 -0.02230662 0.026662868 -0.007825729 -0.0016841159 -0.059993394

chords_tempNet.batchnorm_1.running_var f4 [1024]
00000000: d891 5b3c bd23 603c 2877 3f3c 02a2 aa3c
00000010: 5c3b 853c 3311 3f3c 8703 833c ca50 403c
00000020: 4220 2f3c 7d01 ff3b 0f93 d53b 31d4 803b
00000030: 783b 673c 9c00 123c ba96 703c 1a67 d03b
00000040: 229e 9a3b d063 223c 03af 333c 17e3 583c
00000050: 7ba0 773c 66a3 003c 0701 923c e752 933c
00000060: ccf2 9a3c 77e4 8d3c 9c4b 9f3b 9791 3b3c
00000070: 2d20 653c b874 293c 6100 0c3c c9c7 393c
00000080: 9f2a 273c 444b c23c 6d73 ca3b b861 683c
00000090: 64c2 573c cd9c 993c 2d06 543c f87f 293c
000000a0: d2c7 5c3c 671a 333c c3fc 943b 5474 183b
000000b0: 42cc 303c 4929 9b3c e1a9 413c 99ca 303c
000000c0: 5388 3a3c ab48 1c3c 270b ca3b 4d01 9b3c
000000d0: 15c4 ea3b a769 a53b 5e1a 373c 78a1 b43b
000000e0: 733d f73b 56e0 003c 85de 193c a352 063c
000000f0: 168d 3a3c 5781 783c 7a39 453c 71f9 3c3c
00000100: 833a 473c e7a5 fc3b 9cb6 273c 2bb7 7a3c
00000110: fd6c 973c 8473 333c f37b d63b a935 5d3c
00000120: cd51 873c 633c 073c 6a02 f73b c935 2a3c
00000130: 1713 8e3b 115f 863c 30e4 fc3b 57aa 093c
00000140: 681b 7d3c 7022 793c 7c13 b03c b002 4c3c
00000150: 152d 4c3c c0ec 853c 11c8 5a3c 0a60 cb3b
00000160: 62f8 b63b e6aa 093c 59e1 173c 05fb 983b
00000170: 8c13 e03b afff 203c e69a 123c f31b 153c
00000180: 1157 b63c 3196 453c 4144 ec3b 56e7 b43b
00000190: ec82 193c 7e1e d93c d269 4b3c 12ad 033c
000001a0: 3af9 b53c 3447 b33c 03c9 c33c 78ad 373c
000001b0: 7dc0 0b3b ca4b 3c3c 72e6 8d3b 8c49 823b
000001c0: ae2b 2a3c 0172 843b 04cc a43b d553 0b3c
000001d0: dc6d e53b 6485 303c e3d0 253c 22e4 393c
000001e0: c86a 963b b240 143c 7c67 f23b e5c7 5b3c
000001f0: 9960 ef3b 61aa bd3c 477c 9d3c 9186 553c
00000200: 4845 833c 4184 373c 033f 633c 0af5 a83c
00000210: 0b97 603c 1a0e f63b 9560 cc3c 4076 0f3c
00000220: 8593 2d3c 926c 423c 3583 7a3c fc53 7d3c
00000230: 6580 c33c edcd 043c 4fc6 3c3c dcc0 4c3c
00000240: e49d aa3c 7d72 263c c0d8 5c3c e363 b53c
00000250: 7e15 fd3b 9659 1e3c d569 573c c87b be3b
00000260: 8fcb eb3b b01c 6a3c 4454 5a3c 7a6f 543c
00000270: 99ed 223c 83ae 493c 685b eb3b dea0 753c
00000280: a7a7 683c 0019 593c 93a0 823c a0ba fd3b
00000290: 9240 5f3b 163d e63b 790f 7d3b 7460 5a3c
000002a0: d78e 043c a8ee 923c b466 da3b 0396 c83c
000002b0: bbff de3b bfa4 d93b 2c18 c63b 1939 fd3b
000002c0: 5972 003c 301a 5f3c a017 5c3c 00c5 923b
000002d0: 2abc 993c 12b0 2a3c ab50 1c3c 28b3 743c
000002e0: c799 c13b 0e61 bd3c b68f 133c 6fc1 273c
000002f0: 7538 453c d844 043c 3ec8 943c 86d6 223c
00000300: 8d13 cf3b 51be 1d3c 0ae7 d53b f695 0c3c
00000310: 1ead 433c e0e9 f53b f069 463c 61d7 233c
00000320: 18b9 6c3c df65 7c3c 465f 943c 00e1 723c
00000330: 6df6 ed3b b45a b53b 132a 263c 2ad4 3e3c
00000340: bb63 ea3b 2156 1a3c 9698 473c 5229 2f3c
00000350: 67f0 053c 2362 253c 3830 f73b a269 cf3b
00000360: dd4c 423b b23c 6e3c 5f85 2e3c ce3b 8c3c
00000370: 09a5 ca3b f433 4c3b b64e eb3b 92c3 573c
00000380: ca19 fb3b fe4c 833b c8a9 633c 7bb3 273c
00000390: a848 fa3b 1156 f93b 2216 f73b 8b69 603b
000003a0: 76d0 033c 9a2a 2c3c 3dda 4f3c 58a9 183c
000003b0: 71d9 8e3b e568 993c 24e9 3a3c 5208 e23b
000003c0: 2cc0 923c 3c25 693c da2b 353c 7879 4b3c
000003d0: 6349 1d3c 59ca b63b 9a03 e23b 6671 ef3b
000003e0: 04f4 153c 0b29 7c3c 3a1d 073c b85e 213c
000003f0: 5a1b 8a3b f9d4 823c 8980 e73b 73ff 4a3c
0.013401471 0.013680396 0.011686124 0.020829204 0.016263656 0.011661815 0.015992893 0.011738012
0.010688843 0.00778216 0.006517775 0.003931545 0.0141133 0.008911278 0.0146843735 0.006359947
0.004718558 0.0099114925 0.010967019 0.013237736 0.015113945 0.007851457 0.017822756 0.017983867
0.018914603 0.017320855 0.0048613083 0.011448286 0.013984722 0.010342769 0.008545012 0.011339136
0.010203033 0.02371753 0.0061783106 0.014183454 0.013168905 0.018751526 0.012940926 0.0103454515
0.013475375 0.010931588 0.004546733 0.0023262696 0.010790886 0.018940585 0.011820287 0.010790491
0.011385041 0.00953881 0.0061658802 0.018921519 0.007164488 0.005047995 0.01117572 0.0055124126
0.007545167 0.007865986 0.009391432 0.008198413 0.011386177 0.015167556 0.012037629 0.011534081
0.012159946 0.007710207 0.010236409 0.01530246 0.018484587 0.010952834 0.0065455376 0.013501563
0.016518498 0.008254143 0.0075381296 0.0103888 0.004335772 0.016402753 0.0077176318 0.008402429
0.015448429 0.015205964 0.021493666 0.012451813 0.01246192 0.016348243 0.013353364 0.006206517
0.0055838088 0.008402562 0.009270036 0.0046685957 0.0068382677 0.009826585 0.0089480635 0.009100902
0.022258313 0.012059734 0.007210285 0.0055207415 0.009369593 0.026503798 0.012415366 0.008036869
0.022213567 0.021884538 0.02389956 0.011210792 0.0021324449 0.011492679 0.0043304497 0.0039760526
0.010386391 0.0040419106 0.0050292034 0.008503874 0.0070016216 0.01077399 0.010120603 0.011345895
0.004590366 0.009048628 0.00739759 0.013414358 0.0073052165 0.023152532 0.0192243 0.013032571
0.016024247 0.011200965 0.013870004 0.020624656 0.013707886 0.0075090053 0.024948398 0.00875622
0.010594253 0.0118667055 0.015290071 0.015461918 0.023864934 0.008105737 0.01152189 0.012497153
0.020827241 0.010159132 0.013479412 0.022142356 0.0077235093 0.009664914 0.013147791 0.0058130957
0.007195897 0.014289066 0.013325755 0.012966031 0.009944343 0.012309673 0.0071825273 0.014991967
0.014200128 0.013250589 0.015945708 0.0077431947 0.0034065587 0.007026325 0.0038613959 0.01332866
0.008090696 0.017936066 0.006665075 0.024485594 0.006805388 0.0066419537 0.006045362 0.007727754
0.007839763 0.013617083 0.013433367 0.0044790506 0.018766481 0.010417955 0.009540717 0.014935292
0.0059082243 0.023117568 0.009006431 0.010238989 0.012037386 0.008073054 0.01816189 0.009938842
0.0063194693 0.0096278945 0.006527786 0.008580675 0.01194313 0.0075046867 0.012110218 0.010000081
0.014448427 0.015405147 0.018111836 0.014824152 0.0072620423 0.0055344943 0.010141867 0.011647264
0.007153002 0.009419949 0.012182375 0.010691004 0.008174992 0.010094198 0.00754359 0.006329731
0.0029647865 0.014540838 0.010651915 0.01711836 0.0061842245 0.0031158896 0.007181014 0.013169186
0.0076629864 0.004006981 0.0138954595 0.010235663 0.007638056 0.007609137 0.0075404802 0.0034242596
0.008045306 0.010508204 0.012686309 0.009317718 0.004359417 0.018726775 0.011408124 0.0068979645
0.0179139 0.014230069 0.011057818 0.012419097 0.009600016 0.005578321 0.006897402 0.0073072193
0.009152416 0.015390645 0.008246714 0.009849243 0.0042146863 0.015970694 0.007064883 0.012390005

chords_tempNet.batchnorm_2.weight f4 [32]
00000000: 29b1 e9bb b9a4 25bd 4013 d3bb 7111 12bd
00000010: 7041 22bd 8d63 8c3c 9964 c83c 72a6 0ebb
00000020: 368e 6fbd 7fa5 d63a 6d2b 5a3d 9410 093d
00000030: 1471 e8bc a358 c5bc fadd dd3c 9652 63bc
00000040: 2bdf 03b9 2dee bc3c f785 0d3d 2d89 7a3d
00000050: c931 9a3b 5227 2cbc d511 6abc 64d1 a1bc
00000060: fe4c 923d f59c 94bc 8090 483d b469 ebbc
00000070: 5669 c0bc 68e7 d23c b6c6 c1bb 9d97 153c
-0.007131715 -0.040440295 -0.0064415038 -0.035661165 -0.039613187 0.017137313 0.024462031 -0.002176669
-0.058485232 0.0016376226 0.05326407 0.033463076 -0.028374232 -0.024090117 0.027083386 -0.0138746705
-0.0001257627 0.02306279 0.034551587 0.061165977 0.004705642 -0.010507422 -0.014286478 -0.019753166
0.07143591 -0.01814125 0.04896593 -0.028736927 -0.023487728 0.025745109 -0.005913581 0.009130386

chords_tempNet.batchnorm_2.bias f4 [32]
00000000: 9a12 053b 6013 a63b 6e8c f53a 6433 1b3b
00000010: 1683 813b fa5b 533b 945c 483b 6920 83ba
00000020: 9109 e83b 7876 09bb f764 923b 066d 063c
00000030: 3348 b3ba 945b 91bb 74f2 d53b 31ab b83a
00000040: b28e 13bb 2261 26bb ba19 71b7 6fe2 193c
00000050: e87f c73a 8ab9 4a39 5e38 03ba 1f1d d83a
00000060: bc97 243c fd1c 823b 004f d23b f81f 9f3a
00000070: 9d88 2b3b 97ab 5c3a e9cf 4aba f15b 293a
0.0020305277 0.0050682276 0.0018733868 0.0023681754 0.0039523942 0.0032250867 0.003057276 -0.0010004166
0.0070812185 -0.0020975154 0.0044676024 0.008204704 -0.0013678133 -0.004435966 0.006529147 0.0014089105
-0.0022515473 -0.0025387486 -1.4370709e-05 0.009392365 0.0015220614 0.0001933334 -0.0005005653 0.0016488171
0.010045942 0.003970741 0.006418109 0.0012140265 0.0026173957 0.0008417903 -0.00077366695 0.0006460539

chords_tempNet.batchnorm_2.running_mean f4 [32]
00000000: 7c4b efbd 1a13 dd3b a40e 103e 9f6c 10be
00000010: 04f2 893d e531 3d3d 4fa2 0bbd b591 563d
00000020: e1ec fa3a dda5 253e 975a 0ebe 9e3e bebb
00000030: e41f 833d d4a9 6e3c efcf 3ebd fd60 143e
00000040: e4d4 8fbd 250b 14be ae5d 24bb 04ff 75bc
00000050: c4da 18bd d056 a23d 1d14 0dbe 6e65 f73d
00000060: 4a40 c33c 1f77 19bd 5180 b03c 454a d23c
00000070: 24ef 71bd c415 ee3b d031 1a3e e62c 2b3e
-0.116843194 0.006746662 0.14068085 -0.14103936 0.06735614 0.04619016 -0.034090336 0.05238505
0.0019144082 0.16176553 -0.13901745 -0.0058058044 0.06402567 0.014566857 -0.04658502 0.14490123
-0.070230275 -0.14457376 -0.0025080252 -0.015014414 -0.037318006 0.079267144 -0.13777204 0.12079893
0.023834366 -0.03746712 0.021545561 0.02567018 -0.059065953 0.0072657783 0.15058064 0.16716346

chords_tempNet.batchnorm_2.running_var f4 [32]
00000000: e5ee c038 0e3e b438 f8fa c638 e245 0c39
00000010: 03e0 1939 f3ee 2838 3cb2 3d38 90cb 0038
00000020: 9aae 1539 9ea3 8b38 8295 1e39 973b d738
00000030: 7906 e238 d28a 1039 19ab 1139 2b54 b238
00000040: acc0 e138 6333 0a39 89c6 5038 de06 1a39
00000050: de22 0938 aa6b 8138 673d 9138 0aa1 5e38
00000060: 8822 6b39 3abb e538 ecee 2a39 5ad9 3238
00000070: 4f55 5538 0782 cd38 6b96 6738 b8c8 de37
9.199771e-05 8.5946274e-05 9.488122e-05 0.00013377474 0.00014674668 4.027686e-05 4.5227105e-05 3.070716e-05
0.00014274791 6.6585126e-05 0.0001512375 0.000102630984 0.000107777254 0.00013784625 0.00013892016 8.503379e-05
0.00010764724 0.00013179849 4.9775965e-05 0.00014689143 3.2695818e-05 6.171253e-05 6.925576e-05 5.3078904e-05
0.0002242421 0.000109544446 0.00016301469 4.264093e-05 5.0862607e-05 9.799381e-05 5.521478e-05 2.655793e-05
