run_1/weights/weights-g-0.pth (torch, 418811 bytes, 12 tensors)

chords_tempNet.convT_in.weight f4 [32, 1024, 2, 1]
0	0x3c6aadc7	0.014323658
1	0xbc0ba292	-0.0085226465
2	0x3bdad403	0.006678106
3	0x3cfac9b2	0.030613754
4	0xbca84e5a	-0.020545173
5	0x3d062bef	0.032756742
6	0xbc38d960	-0.011282295
7	0xbb69d407	-0.0035679357
8	0x3ccdf0b8	0.025139198
9	0xbc6f29e0	-0.014597386
10	0xbb4114aa	-0.002946178
11	0xbc1d03fd	-0.00958347
12	0x3bb13913	0.005408415
13	0xbc6e0abd	-0.014528927
14	0x3cc6e5c3	0.02427948
15	0xbba284c7	-0.004959676
16	0x3d16db08	0.03682998
17	0x3ce9e9c7	0.028553857
18	0xbc826d04	-0.015921123
19	0xbc47c813	-0.0121936975
20	0x3c22ad0e	0.009928955
21	0xbc5f9856	-0.01364716
22	0x3c2ef7e3	0.010679218
23	0xbbd6d421	-0.0065560495
24	0xbbd17443	-0.0063920333
25	0x3c10b891	0.008833067
26	0x3c8ca56f	0.017168729
27	0xbd07a728	-0.033118397
28	0x3c5faf92	0.013652699
29	0xbb436216	-0.0029813102
30	0xbb7d1c24	-0.003862151
31	0xbd0d37af	-0.034476932
32	0x3b932f78	0.0044917427
33	0xb9819aff	-0.00024720278
34	0xbc3a371e	-0.01136568
35	0xbb96cc27	-0.0046019736
36	0x3c470321	0.012146742
37	0xbbe7a8be	-0.007069676
38	0x3d4b2bf6	0.04960247
39	0xbd012d77	-0.0315375
40	0x3c8a100a	0.016853351
41	0xbb8633f0	-0.004095547
42	0xbb98cace	-0.004662848
43	0xbbed3932	-0.007239484
44	0x3c96046f	0.018312661
45	0x3c220d77	0.009890906
46	0x3d1737f3	0.03691859
47	0x3c6df336	0.014523318
48	0xbd553304	-0.052050605
49	0xbd00fdc9	-0.03149203
50	0xbc48521d	-0.012226609
51	0xbce5b957	-0.028042478
52	0xbc6d1937	-0.014471344
53	0xbb17a07b	-0.0023136425
54	0xbc129f76	-0.008949151
55	0xbcb4a344	-0.022050507
56	0xbcab6e14	-0.020926513
57	0xbaeaccd8	-0.0017913831
58	0xbc923842	-0.017849091
59	0x3b282355	0.0025655825
60	0x3cc3affe	0.02388763
61	0xbca245be	-0.019808646
62	0xbc8d615b	-0.017258337
63	0x3c5a1e63	0.013312909
64	0x3b67e3c5	0.0035383564
65	0x3b2c22d8	0.0026265886
66	0x3c955f86	0.018234026
67	0x3cc1004f	0.023559717
68	0x3aecd214	0.0018067979
69	0xbca94cf9	-0.020666586
70	0x3cc876d6	0.024470728
71	0x3c5581fe	0.013031481
72	0xbb15ddb1	-0.0022867734
73	0xb98d31c5	-0.00026930697
74	0x3c44e90e	0.012018455
75	0xbcd3b74d	-0.02584424
76	0xbc603d08	-0.013686426
77	0xbc35e867	-0.011102772
78	0x3c77c408	0.015122421
79	0x3bbb21ec	0.005710831
80	0x3bb4de1f	0.005519643
81	0xbaf4a42b	-0.0018664649
82	0x3c214c44	0.009844843
83	0xba8683de	-0.0010262688
84	0x3c4ef5c2	0.012631835
85	0xb9d9eeba	-0.0004156733
86	0x3bb5168a	0.0055263685
87	0x3af3e8d9	0.0018608823
88	0xbd1f43e7	-0.038883116
89	0xbcba52d6	-0.022744577
90	0x3bc30f73	0.0059527694
91	0xbc795f5b	-0.015220488
92	0x3ce4fafa	0.027951706
93	0x3c630263	0.0138555495
94	0x3bdf7009	0.0068187756
95	0xbce49ff5	-0.027908305
96	0xbd0e0db2	-0.03468103
97	0x3c2c6e8b	0.010524402
98	0x3baf0495	0.0053411224
99	0xbbf8aee8	-0.00758921
100	0x3c67351c	0.014111783
101	0x3ca603b5	0.02026544
102	0xbc8d998e	-0.017285135
103	0xbce85dfb	-0.028365126
104	0x3c59dfcb	0.013297985
105	0xbc12c4b8	-0.008958034
106	0xbbace3fd	-0.0052762018
107	0x3d271232	0.040788837
108	0x3c9e8512	0.019350562
109	0xba0c8701	-0.00053606933
110	0xbbc57c84	-0.0060268063
111	0xbca4015f	-0.020020185
112	0x3c33fcb5	0.010985543
113	0x3d05577a	0.032554127
114	0x3ca3ea68	0.020009235
115	0x3bc3f5b9	0.00598022
116	0x3cb335ed	0.0218763
117	0x3cc81905	0.024425993
118	0x3ca38aa0	0.019963562
119	0xbc67696c	-0.014124256
120	0x3cc04849	0.023471968
121	0xbc4a6744	-0.012353722
122	0x3c143985	0.009046917
123	0xbb62a776	-0.0034584678
124	0x3c8fa758	0.01753585
125	0xbc9e7cf9	-0.019346701
126	0xbb7d62d8	-0.0038663652
127	0xbbefdd80	-0.007320106
128	0xbc19a96a	-0.00937877
129	0x3cf25f7a	0.029586542
130	0x3c0ef707	0.008725888
131	0xbc936f2d	-0.017997349
132	0xbca706ca	-0.02038898
133	0x3b16264e	0.0022911015
134	0xbbcd0d16	-0.0062576635
135	0x3ca0d43c	0.019632451
136	0xbb22404b	-0.002475756
137	0x3c76f1d1	0.015072302
138	0x3c949a3a	0.018139947
139	0xbce715e3	-0.028208679
140	0x3ce89e12	0.028395686
141	0xbaebdbbf	-0.0017994567
142	0x3d124cbe	0.03571772
143	0xbcc4550e	-0.023966338
144	0x3cd76741	0.026294352
145	0xbc367a20	-0.011137515
146	0x3ce712dc	0.028207235
147	0x3ce945a1	0.028475584
148	0x3adfd3b7	0.0017076646
149	0x3c9633a6	0.018335175
150	0x3c29bdc4	0.010360185
151	0xbb8a985e	-0.0042295894
152	0x3b851a6e	0.0040619886
153	0x3cbc02ce	0.022950556
154	0xbba6add2	-0.005086639
155	0xbb68a35c	-0.003549776
156	0xbcd44913	-0.02591375
157	0x3cae5680	0.02128148
158	0x3d010d27	0.031506684
159	0x3c9eae9a	0.019370366
160	0xbc7d6cfd	-0.015467879
161	0xbd343981	-0.044000152
162	0xbbc2f9a4	-0.0059501696
163	0x3b807a03	0.003920795
164	0xbc818746	-0.015811574
165	0x3b9ff94f	0.004882015
166	0xbd33830b	-0.043826144
167	0x3cc926c9	0.024554627
168	0xbb9d10ca	-0.004793261
169	0xbcae4ad7	-0.02127592
170	0xbc056901	-0.008142711
171	0x3c303857	0.01075562
172	0x3afd4a5d	0.001932453
173	0xbba40562	-0.0050055245
174	0x3c5ffc54	0.013671
175	0x3a9742ac	0.0011540256
176	0x3bae9b5e	0.00532858
177	0x3cab36b3	0.020900106
178	0xbad8fa89	-0.0016554157
179	0xbcac99c9	-0.021069424
180	0x3c4cf229	0.012508907
181	0x3c78b6c1	0.015180291
182	0xbadb43e7	-0.001672861
183	0xba3c39cf	-0.0007180245
184	0x3cdc4d9a	0.026892472
185	0x3b76cdcc	0.0037659286
186	0x3c370c07	0.011172301
187	0x39fbde7a	0.0004804021
188	0xbc2b8ef9	-0.010471099
189	0x3cbbb75c	0.022914581
190	0xbd063d30	-0.032773197
191	0xbd0a0b42	-0.033702143
192	0xbd0708cd	-0.032967377
193	0xbc33510c	-0.010944616
194	0x3d1b2f3a	0.037886836
195	0x3c897764	0.016780563
196	0xbabda0de	-0.0014467498
197	0xbd0498b9	-0.03237221
198	0x3ceeb3ef	0.029138533
199	0x3b59dbb1	0.0033242519
200	0xbb45f265	-0.0030204293
201	0x3c4c71c2	0.012478294
202	0xbc95d42e	-0.018289652
203	0xbd399abf	-0.045313593
204	0x3c99584a	0.018718857
205	0x3bd089a7	0.0063640657
206	0x3ceb3297	0.028710647
207	0x3b2dfe1d	0.0026549168
208	0x3bba2fb6	0.005681957
209	0xbc7e07a5	-0.015504752
210	0x3c897ed5	0.016784111
211	0xbce5b22c	-0.02803906
212	0x3a6b998c	0.0008987419
213	0xbcb9bf2d	-0.022674168
214	0xbc85d781	-0.016338112
215	0xbcc0adeb	-0.02352043
216	0x3d101132	0.03517265
217	0xbc9c575a	-0.019084621
218	0xbc2c87a3	-0.010530385
219	0xbd0f966b	-0.03505556
220	0xbae69eb5	-0.0017594906
221	0x3b02468a	0.001987847
222	0x3d743575	0.059621293
223	0x3c7263cf	0.014794304
224	0xbab5d3ee	-0.0013872364
225	0xbcbce92b	-0.023060402
226	0xbc6982c7	-0.014252371
227	0xbb25eaee	-0.002531703
228	0xbb71fa67	-0.0036922933
229	0xbbc405cf	-0.0059821378
230	0x3b9ac8ca	0.004723643
231	0x3d16a555	0.036778767
232	0x3c905bd1	0.017621906
233	0xbd02c3c2	-0.03192497
234	0x3be63b5f	0.0070261206
235	0x3c62f199	0.013851547
236	0xbd16c148	-0.03680542
237	0x3cc65963	0.024212545
238	0xbafce2d6	-0.0019293677
239	0x3b06cc78	0.002056865
240	0x3b05d685	0.0020422053
241	0x3c8831bb	0.016625276
242	0xbbeacfe0	-0.007165894
243	0x3c819987	0.015820278
244	0xbc19ba70	-0.009382829
245	0x3b16ca3b	0.0023008722
246	0xbbe8c60a	-0.007103686
247	0xbc1d5331	-0.009602354
248	0xbbb4dbaf	-0.0055193524
249	0xbcc37cb6	-0.023863178
250	0x3ccee3dc	0.025255136
251	0x3ce1932e	0.027536001
252	0x3c2c60c4	0.010521118
253	0x3b841948	0.004031334
254	0x3804e1dd	3.1681604e-05
255	0x3c14eab1	0.009089158

chords_tempNet.convT_in.bias f4 [1024]
0	0x3c965e4f	0.018355517
1	0xbc11c0c7	-0.008896059
2	0xbcb1e99a	-0.021717835
3	0xbc5596ec	-0.013036471
4	0x3c3faba6	0.011698639
5	0x3c7a75ee	0.015286906
6	0xb9fecdff	-0.00048600134
7	0xbcb1e59c	-0.021715932
8	0xbc3818fd	-0.011236426
9	0x39c76f01	0.00038038942
10	0x3c4df51e	0.0125706475
11	0x3c3ba7b6	0.01145356
12	0xbb9da52c	-0.00481095
13	0xbc4bb786	-0.012433892
14	0xbc046c47	-0.008082456
15	0x3aaf48f0	0.0013373177
16	0x3b93c12c	0.004509112
17	0xbc5f2363	-0.013619277
18	0x3b8d157c	0.0043055397
19	0xbca591dc	-0.020211153
20	0x3bb98984	0.005662145
21	0xbc4e058c	-0.012574565
22	0xbc1ac0e2	-0.009445401
23	0xbcab14b2	-0.020883892
24	0x3c685c7a	0.014182204
25	0x3bf520ac	0.0074807014
26	0x3bfa11cc	0.007631516
27	0x3cb4b867	0.022060586
28	0xbc0619c5	-0.008184855
29	0x3c87c45d	0.016573125
30	0xbc89a8b4	-0.016804077
31	0x3b31f4f0	0.002715405
32	0xbb6d4908	-0.003620686
33	0x3c5a2d9a	0.013316536
34	0xbc87836c	-0.016542159
35	0x3b9166b8	0.004437294
36	0x3c902d7f	0.01759982
37	0x3c416fd2	0.011806445
38	0xbc3b82a9	-0.011444726
39	0x3b27a470	0.002558019
40	0xbc8bd168	-0.017067626
41	0x3a0b0d20	0.0005304385
42	0xbc92aad6	-0.017903727
43	0xbcac5168	-0.021034911
44	0xbcb0626f	-0.021531312
45	0x3c5ba1aa	0.013405243
46	0xbc241c13	-0.010016459
47	0xbbbfb240	-0.0058501065
48	0x3b3c7e98	0.002876198
49	0xbc56489a	-0.013078833
50	0xbc89d545	-0.016825328
51	0x3c0a3320	0.008435041
52	0x3c92588d	0.01786449
53	0xbc98de55	-0.018660704
54	0x3c8210b3	0.015877103
55	0xbc99015a	-0.018677402
56	0x3be33a24	0.006934421
57	0xbb3ba0a8	-0.0028629694
58	0x3b86ace4	0.0041099656
59	0x3c0dfce4	0.008666251
60	0x3c8b75b1	0.017023893
61	0xbc583989	-0.013197311
62	0xbc7a2d26	-0.015269553
63	0xbc44fa15	-0.012022515
64	0xba5870c0	-0.0008256547
65	0xbc72efa2	-0.014827641
66	0xbc940465	-0.018068502
67	0xbc70ac96	-0.014689585
68	0x3c63c03e	0.013900815
69	0x3ca46c57	0.020071192
70	0x3b72ff98	0.0037078615
71	0x3cafcd19	0.021460103
72	0x3c94e1b5	0.018174032
73	0x3c0cc146	0.008591002
74	0xbab5d600	-0.0013872981
75	0x3a299e60	0.0006470438
76	0xbca7ff2c	-0.020507418
77	0x3c1b6b5e	0.009486048
78	0x3b365a68	0.0027824882
79	0x3c68845a	0.014191711
80	0x3c132348	0.00898058
81	0x3c34aa4a	0.011026928
82	0xbb6f6320	-0.003652759
83	0x3c806b5d	0.015676195
84	0xbb9d2270	-0.004795365
85	0xbaaa3d20	-0.0012988187
86	0xbc2df878	-0.010618322
87	0x3c6f981e	0.01462367
88	0x3aeab4b0	0.0017906632
89	0x3c030676	0.007997146
90	0x3bf9e738	0.0076264404
91	0xbc8f9bb9	-0.017530309
92	0x3c42f666	0.011899566
93	0x3c42d64a	0.011891911
94	0x3acebe51	0.0015773271
95	0xbaee75e0	-0.0018193088
96	0xbcaf2b08	-0.021382824
97	0xbca0c51f	-0.019625245
98	0x3ca912ad	0.020638788
99	0xbc25274b	-0.010080169
100	0xbb8cb2d8	-0.004293781
101	0xbc908043	-0.017639285
102	0xbc0fd90f	-0.008779778
103	0xbc40ec9d	-0.011775163
104	0xbc642f5a	-0.013927305
105	0x3ca4b1df	0.020104347
106	0x3c994f5f	0.018714605
107	0xbcafaca2	-0.021444622
108	0x3b5c67a0	0.0033631101
109	0xbc1eda38	-0.009695582
110	0xbcb1fc1d	-0.021726662
111	0xbb828b00	-0.0039838552
112	0x3bd8fce4	0.006621944
113	0xbc65dd5f	-0.01402983
114	0x3c1524bc	0.009102996
115	0xbcb345a0	-0.021883786
116	0xbc523216	-0.012829324
117	0x3c19a962	0.009378763
118	0x3ade0270	0.0016937982
119	0xbc506ae3	-0.012720796
120	0xbcacafc0	-0.021079898
121	0x3c658402	0.014008524
122	0xbc3c9fb7	-0.011512688
123	0xbb42aa80	-0.0029703677
124	0xbbd8f6ee	-0.006621233
125	0x3c98d33f	0.018655417
126	0x3ca8f047	0.020622386
127	0x3be39c1c	0.0069461
128	0x3b580160	0.0032959804
129	0x3c89f355	0.016839663
130	0x3c68da96	0.014212271
131	0xbc685014	-0.014179248
132	0x3c5cf56e	0.013486249
133	0xbab1e6a0	-0.001357276
134	0x3c9c7693	0.01909951
135	0x3c98c4b5	0.018648485
136	0x3cac1b43	0.021009093
137	0xbc9c17d6	-0.019054335
138	0x3bf7a2f4	0.0075572673
139	0x3cadfbe7	0.02123828
140	0x3c744606	0.014909273
141	0xbc140ffc	-0.009037014
142	0x3bd71290	0.006563492
143	0xbc81685f	-0.015796838
144	0xbc71da9a	-0.014761591
145	0xbca789a3	-0.020451372
146	0x3c586a6a	0.013208965
147	0xbbf2d78c	-0.007410949
148	0x3adc2880	0.0016796738
149	0x3c637856	0.013883671
150	0x3c2c0ace	0.010500623
151	0xbb6c6bc0	-0.0036074966
152	0xbc5f896f	-0.013643607
153	0xb9146280	-0.00014151074
154	0xbc6ceb74	-0.014460433
155	0xbbf16e48	-0.007367883
156	0xbca03533	-0.019556617
157	0x3c4ab21e	0.012371568
158	0xbbbe3670	-0.0058048293
159	0xbc17313c	-0.009228047
160	0x3bf8ae64	0.0075891484
161	0x3c59244a	0.013253281
162	0xbc43a13f	-0.0119402995
163	0xbc2b147e	-0.010441897
164	0xbbcfc3f4	-0.006340498
165	0x3c50869a	0.012727404
166	0xba3727df	-0.0006986837
167	0x3bd7fdc8	0.0065915324
168	0x3c992157	0.018692655
169	0x3c8b6543	0.017016059
170	0xbc729ab6	-0.014807394
171	0xba4f8dff	-0.00079175824
172	0xbca8d673	-0.02061007
173	0x3c9fac21	0.019491257
174	0xbbadecfc	-0.0053077918
175	0x3c2b1046	0.010440892
176	0xbcb1991f	-0.02167946
177	0xbc979d3f	-0.018507598
178	0xbc3c619f	-0.011497884
179	0xbbb72780	-0.0055894256
180	0x3c8a16c9	0.016856568
181	0x3ca0db3d	0.019635791
182	0x3bdf0c0c	0.006806856
183	0x3c640d52	0.013919191
184	0xbc93e253	-0.018052256
185	0x3c51224e	0.0127645265
186	0xbc908e34	-0.017645933
187	0xbbabe424	-0.0052457023
188	0xbb1fe4d0	-0.0024397857
189	0xbc50b07b	-0.012737389
190	0x3c9c4259	0.019074606
191	0x39631e7d	0.00021659765
192	0xbc7072f2	-0.014675843
193	0x3c147850	0.009061888
194	0x3c1fb9a6	0.009748852
195	0xbca8f9da	-0.020626951
196	0x3b526820	0.003210552
197	0xbc52f550	-0.01287587
198	0x3c41bf8e	0.011825455
199	0xbbb79e40	-0.0056035817
200	0xbca42583	-0.020037418
201	0x3c25d666	0.010121917
202	0x3cb1b56d	0.021692956
203	0x3ab386f0	0.0013696831
204	0x3c028c66	0.007968044
205	0xbc771af7	-0.0150821125
206	0x3c4cc322	0.012497695
207	0xbca98d72	-0.02069733
208	0x3c91db83	0.017804867
209	0xbbad515c	-0.00528924
210	0xbc47d91f	-0.012197762
211	0x3c26c616	0.010179063
212	0xbc885e80	-0.016646624
213	0x3c1af386	0.009457475
214	0xbc8a2302	-0.016862396
215	0x3c79d1f2	0.015247809
216	0x3c666f02	0.014064552
217	0xbc0fa52d	-0.008767408
218	0xbc9b08fa	-0.018925179
219	0xbca1e460	-0.019762218
220	0x3c5725ae	0.013131542
221	0xbc7dd024	-0.015491519
222	0xbbcb6c88	-0.0062080063
223	0x3c5b9a02	0.013403418
224	0xba86c350	-0.0010281596
225	0xbc87cfe2	-0.016578618
226	0x3c26b23a	0.010174328
227	0x3c810037	0.015747173
228	0xbc9a5aed	-0.018842185
229	0x3c828269	0.015931325
230	0x3aee3ef0	0.0018176716
231	0x3c8efc01	0.01745415
232	0x3b07beb0	0.0020713024
233	0xbc2dc383	-0.010605696
234	0xbbc8e2d0	-0.006130554
235	0x3bc12d38	0.005895283
236	0xbbc0c5a0	-0.0058829337
237	0x3c6ba8ba	0.014383489
238	0x3b5da650	0.0033821054
239	0x3c059e0c	0.008155357
240	0xbc7c39be	-0.015394626
241	0xba51b3c0	-0.0007999502
242	0x3b5f1c80	0.0034044087
243	0x3b7a9c90	0.0038240291
244	0x3b732df0	0.0037106238
245	0x3c838fdd	0.01605981
246	0x3abc3420	0.0014358796
247	0x3c848eaf	0.016181318
248	0x3a0124c0	0.00049264356
249	0xbc2c7b0a	-0.010527382
250	0xb98c2101	-0.0002672747
251	0xbc640e2f	-0.013919397
252	0xbc7bd07e	-0.015369533
253	0xbc997696	-0.018733304
254	0x3c6aa72e	0.014322085
255	0x3af50f90	0.0018696655

chords_tempNet.convT_out.weight f4 [1024, 32, 1, 1]
0	0xbbe51cfb	-0.00699198
1	0xbc19df2a	-0.009391585
2	0x3c6f88a5	0.014619981
3	0xbd465163	-0.04841746
4	0x3d1e4f61	0.03864992
5	0xbaa5614e	-0.00126175
6	0x3bd3c12a	0.006462236
7	0x3c92c221	0.017914834
8	0x3d16f306	0.03685286
9	0x3a2fbdee	0.0006704022
10	0xbb3e5cb4	-0.0029046955
11	0x3c95242c	0.018205725
12	0x3c5dcba2	0.013537319
13	0x3c588548	0.0132153705
14	0xbc52684b	-0.012842248
15	0xbcaef9e0	-0.021359384
16	0x3d265b65	0.040614504
17	0xbd104631	-0.03522319
18	0xbd0157c0	-0.031577826
19	0x3c9f538b	0.019449016
20	0xbcaa91b6	-0.020821434
21	0x3c250e17	0.01007416
22	0xbc8969b8	-0.016774043
23	0x3cc4703c	0.023979299
24	0xbc62faa7	-0.0138537055
25	0xbab6e991	-0.0013955106
26	0xbc99d181	-0.018776657
27	0xbcb3ae37	-0.021933658
28	0xbcde009b	-0.027099898
29	0x3c6445e7	0.013932682
30	0xbc8dc172	-0.017304156
31	0xbcc0deb9	-0.023543702
32	0x3c191be2	0.009345027
33	0x389210d3	6.964956e-05
34	0x3a17ba39	0.0005787942
35	0xbd2934bc	-0.041310057
36	0x3ca97b0e	0.02068856
37	0xbd0ee4b2	-0.03488607
38	0xbcaf9a4e	-0.021435883
39	0x3c254083	0.010086182
40	0x3c2c4ef2	0.010516869
41	0xbc04fcfd	-0.008116958
42	0x3ce953b7	0.028482301
43	0x3d3546f5	0.044257123
44	0xbc309788	-0.010778315
45	0xbc0b93f8	-0.008519165
46	0x3c8ecde0	0.017432153
47	0xb9ba5659	-0.0003554102
48	0x390f3839	0.00013658487
49	0x3cc40d93	0.023932254
50	0xbcf3d1b6	-0.029763084
51	0x3c61401b	0.013748194
52	0x3b2822b3	0.0025655448
53	0x3caef2ed	0.02135607
54	0x3cbb1790	0.022838384
55	0xbc1e43ee	-0.00965975
56	0xbc8e2d11	-0.017355474
57	0x3c21555f	0.009847014
58	0xbcf76b14	-0.030202426
59	0x3c07a2ba	0.008278543
60	0x3c045ea0	0.008079201
61	0x3c670b2c	0.014101785
62	0x3b22e8f8	0.0024858098
63	0xbc9ba66c	-0.019000255
64	0x3c46ebea	0.012141207
65	0xbc7c3bcc	-0.015395116
66	0xbc9ccd76	-0.01914094
67	0xbc5a3aee	-0.013319714
68	0x3c717efb	0.014739747
69	0xbbb0ca8e	-0.00539524
70	0x3c836e16	0.016043704
71	0x3bc3c32c	0.005974194
72	0xbcc5e7a6	-0.02415831
73	0xbcb4f357	-0.02208869
74	0xbc9fe9e7	-0.019520713
75	0xbcd107c6	-0.025516402
76	0x3cfedcc3	0.031111127
77	0x3c5133ec	0.012768727
78	0xbbb6bd7b	-0.005576787
79	0xbaa18402	-0.0012322667
80	0x3c167158	0.009182297
81	0xbb97fb5e	-0.0046381196
82	0xbc8f983a	-0.017528642
83	0x3cae7d32	0.021299932
84	0x3caadc11	0.020856889
85	0x3cb0f17c	0.021599524
86	0xbc48fdf1	-0.012267576
87	0xbb985890	-0.0046492293
88	0xbd9d7c4d	-0.07689724
89	0x3c606199	0.013695144
90	0x3cc5d55b	0.024149587
91	0x3d48b021	0.048996095
92	0xbc3ec082	-0.011642577
93	0xbcbe4794	-0.02322749
94	0x3b8005e8	0.003906954
95	0x3c63d18f	0.013904943
96	0x3c13e087	0.009025699
97	0xbc662760	-0.014047474
98	0xbc187854	-0.009306032
99	0xbbde8b06	-0.006791475
100	0xbc17f2d2	-0.0092742015
101	0x3ca715d7	0.020396156
102	0x3c84c502	0.016207222
103	0xbc05899f	-0.008150487
104	0x3ca3583c	0.019939534
105	0xb98a60ab	-0.00026393434
106	0x3ca5fdf3	0.020262694
107	0x3b5bc51e	0.003353424
108	0x3ca5ac24	0.020223685
109	0x3c151cad	0.009101075
110	0x3c110b99	0.008852863
111	0xbcb381f7	-0.021912558
112	0xbce25723	-0.02762944
113	0xbc19f7c5	-0.009397452
114	0xbc753f96	-0.014968773
115	0x3d1e1679	0.03859565
116	0xbc4695bd	-0.012120661
117	0x3ca18c1a	0.019720126
118	0xbcf7ccec	-0.030249082
119	0xbba9c111	-0.005180486
120	0xbc4c7299	-0.012478494
121	0x3c950078	0.0181887
122	0xbc4e9c17	-0.012610457
123	0xbbc36961	-0.00596349
124	0x3cb80e37	0.022467716
125	0x3c4090df	0.01175329
126	0x3c54d388	0.012989886
127	0x3ccef03b	0.025261035
128	0x3c9e2c29	0.019308167
129	0xbb6332f7	-0.0034667829
130	0x3c641f1b	0.013923432
131	0xbb05bc03	-0.0020406253
132	0xbc8546fe	-0.016269203
133	0x3d180f09	0.037123714
134	0xbc78cdf1	-0.015185819
135	0x3c608900	0.013704538
136	0x3ad9578c	0.0016581877
137	0x3ce02afc	0.027364247
138	0x3c3201e2	0.010864707
139	0x3bb54fe8	0.005533207
140	0xbbe0c49d	-0.0068593756
141	0x3cb810d7	0.022468967
142	0x3d0777bb	0.03307317
143	0xbbb07e1d	-0.0053861276
144	0x3c8f4d65	0.01749296
145	0x3c1d103d	0.009586391
146	0xbccbf24f	-0.024895815
147	0x3cc79a25	0.024365494
148	0x3b3a308c	0.0028410284
149	0x3a9a948e	0.001179354
150	0xbc496782	-0.012292745
151	0x3c2c2686	0.010507232
152	0xbc1e3c85	-0.009657984
153	0x3d0279e0	0.03185451
154	0xbcef42b4	-0.029206611
155	0x39793d5c	0.00023769349
156	0xbc195ee8	-0.009361006
157	0x3c02c045	0.007980411
158	0x3c8e833f	0.017396567
159	0x3c944160	0.01809758
160	0x39ff7afc	0.0004872902
161	0x3ab7c686	0.0014020957
162	0x3bff6114	0.007793555
163	0xbc8684ce	-0.016420748
164	0xbc55c1a9	-0.01304666
165	0xbbdb8e78	-0.006700333
166	0xbba6c9b2	-0.005089962
167	0x3d1e63b9	0.03866932
168	0xbcfe6caf	-0.031057684
169	0xbd24854c	-0.040166184
170	0x3cb515b8	0.022105083
171	0xbc18e0a5	-0.009330903
172	0x3c6fce93	0.0146366535
173	0x3c439503	0.011937383
174	0x3d26f78c	0.040763423
175	0xbd053c9a	-0.032528497
176	0x3cca5e1d	0.02470308
177	0x3b10ff31	0.0022124762
178	0x3c2338c2	0.009962263
179	0xbc9af75c	-0.018916778
180	0x3cb6118a	0.02222516
181	0xbb8b9997	-0.0042602527
182	0xbb9670f5	-0.0045911022
183	0xba219874	-0.000616438
184	0x3d48f78a	0.049064197
185	0xbc29cd9c	-0.0103639625
186	0x3ca832c8	0.020532027
187	0xbc4b537c	-0.012410041
188	0xbb9d5195	-0.004800985
189	0x3b48ef8f	0.0030660366
190	0xbcca2f66	-0.024680804
191	0xbd108012	-0.035278387
192	0xbcc3867d	-0.02386784
193	0x3c9e92cb	0.019357106
194	0x3c35d7cf	0.011098816
195	0x3b25dbe9	0.0025308079
196	0x3c5debb4	0.013544966
197	0x3ce41d47	0.027845992
198	0x3b079d6c	0.0020693196
199	0xbc845ec0	-0.016158462
200	0xbc604d85	-0.013690357
201	0x3cdbc415	0.026826898
202	0x3ca264ac	0.019823395
203	0xbd020563	-0.03174342
204	0xbc5a0e79	-0.013309115
205	0x3b51f0ec	0.003203447
206	0xbb013f88	-0.0019721705
207	0xbc1299d9	-0.008947813
208	0x3cd2c71c	0.025729708
209	0x3c8a1038	0.016853437
210	0xbccb2bb7	-0.024801118
211	0x3bc576ab	0.006026109
212	0xbd51ff9e	-0.051269166
213	0xbc8c16c5	-0.017100701
214	0x3bd31006	0.006441119
215	0x3c907aa7	0.01763661
216	0xbc9277cb	-0.017879387
217	0x3c21a7ac	0.009866636
218	0xbb9d797b	-0.0048057414
219	0xbca70fe1	-0.020393314
220	0xbccd18a0	-0.025036156
221	0x3c9260d3	0.017868435
222	0x3d135b51	0.035975758
223	0x3cb3e2ab	0.02195867
224	0xbc751fb8	-0.014961176
225	0x3beba6e0	0.007191524
226	0x3c804ef2	0.015662644
227	0x3c637251	0.013882236
228	0xbc68d4fc	-0.014210936
229	0xba5f7bc3	-0.0008525217
230	0x3bcf3a64	0.0063240994
231	0xbb2d88c5	-0.0026479226
232	0x3c769f60	0.015052646
233	0xbce15bc4	-0.027509578
234	0xbabd62a3	-0.0014448952
235	0x3c736626	0.014855897
236	0x3c03f275	0.008053412
237	0xbc823209	-0.015893
238	0xbc764470	-0.015030965
239	0x3d054802	0.032539375
240	0xbce4167b	-0.02784275
241	0xbd39b385	-0.04533722
242	0xbce9c1aa	-0.028534729
243	0x3cb5da45	0.022198806
244	0xbc3661fb	-0.011131759
245	0x3cc05d5f	0.023482023
246	0x3c6dbace	0.01450987
247	0xbc02c66b	-0.007981877
248	0xbcde7abe	-0.027158137
249	0x3cddcaf8	0.027074322
250	0xbc390d8d	-0.011294735
251	0xbc460dab	-0.01208822
252	0x3ca73e11	0.020415338
253	0xbb0eee24	-0.0021809423
254	0x3ba93a46	0.0051644174
255	0xbcd56857	-0.02605073

chords_tempNet.convT_out.bias f4 [32]
0	0xbde79553	-0.11307778
1	0x3b9110da	0.0044270577
2	0x3e177683	0.14791302
3	0xbe0ebdae	-0.13939545
4	0x3d87f8b6	0.06639235
5	0x3d33f2d4	0.04393275
6	0xbd05d005	-0.032669086
7	0x3d712c80	0.05888033
8	0x3c55cce2	0.013049336
9	0x3e2dfc3f	0.16990755
10	0xbe0a639e	-0.13514563
11	0x3aab170e	0.0013053135
12	0x3d8b9286	0.068150565
13	0x3b61037d	0.0034334355
14	0xbd5c1750	-0.05373317
15	0x3e14d5b5	0.14534648
16	0xbd972364	-0.07379797
17	0xbe0a452f	-0.13502954
18	0x3c3cc190	0.011520758
19	0xbc472a51	-0.012156085
20	0xbcf965e8	-0.0304441
21	0x3da9ed2a	0.082971886
22	0xbe117e53	-0.14208345
23	0x3df80fe1	0.12112404
24	0x3cdcd438	0.026956663
25	0xbd39ee14	-0.045393065
26	0x3c481ede	0.012214391
27	0x3cf20029	0.029541092
28	0xbd6a8ed2	-0.05726511
29	0x3bbf15e3	0.0058314665
30	0x3e10f14d	0.14154549
31	0x3e29a0d9	0.16565265

chords_tempNet.batchnorm_1.weight f4 [1024]
0	0xbbc6bdb9	-0.006065097
1	0xbcd76daf	-0.026297418
2	0x3c9598d1	0.018261345
3	0x3b29fbc5	0.002593742
4	0xbd1cdcb5	-0.03829642
5	0x3c102ef3	0.008800256
6	0xbd13647b	-0.035984498
7	0xbcc7f36b	-0.024408063
8	0x3c48c282	0.0122534055
9	0x3cbd4a92	0.023106847
10	0xbcce8749	-0.025210993
11	0xbc38d163	-0.01128039
12	0xba528ac0	-0.00080315396
13	0x3b93abfb	0.0045065857
14	0x3d1af8a1	0.037834767
15	0x3c1d17a7	0.009588159
16	0xbc37cf04	-0.01121879
17	0xbc657cd7	-0.014006815
18	0xbd13cc7d	-0.036083687
19	0x3d0a5a0e	0.03377729
20	0x3d2882ac	0.041140243
21	0xbae1d828	-0.0017230557
22	0x3c05c8f8	0.00816559
23	0x3c451fe6	0.012031531
24	0xbc256c5e	-0.0100966375
25	0xbc8394bd	-0.016062135
26	0x3cd0d321	0.0254913
27	0x3ac75be2	0.0015209878
28	0x3a17c031	0.00057888316
29	0xbcc6628f	-0.024216918
30	0x3d7edfaf	0.06222504
31	0xbbb1d1ae	-0.005426607
32	0xbb952254	-0.0045512114
33	0x3a3550ff	0.00069166714
34	0xbc9095c4	-0.017649539
35	0xbc86aea1	-0.016440691
36	0x3c34bcab	0.01103131
37	0x3cfd9da8	0.030958965
38	0x3c5162be	0.01277989
39	0x3cc59ca5	0.024122545
40	0xbc16d61a	-0.009206319
41	0x3c8aa1e5	0.0169229
42	0xbca57e63	-0.020201867
43	0x3afecd6f	0.0019439886
44	0xbcb1bfd1	-0.02169791
45	0xbbd794b0	-0.006579004
46	0xbc948992	-0.018132005
47	0x3b441392	0.0029918891
48	0xbc859fe5	-0.016311595
49	0x3bd767fb	0.0065736747
50	0x3d403402	0.0469246
51	0xbc95ca20	-0.018284857
52	0xbbf16896	-0.007367204
53	0x3d01b9c4	0.0316713
54	0x3bcf5201	0.0063269143
55	0x3c767b79	0.015044087
56	0xbc4f0e30	-0.01263766
57	0xbbb12853	-0.0054064183
58	0xbc5f395f	-0.013624518
59	0x3cb94689	0.022616642
60	0x3acd9ff9	0.0015687934
61	0x3c86cc0d	0.01645472
62	0x3cc43920	0.02395302
63	0x3ba51a9f	0.005038574
64	0xbb90c933	-0.004418516
65	0x3c49565f	0.012288659
66	0xbbc65ce5	-0.0060535544
67	0xba58eed8	-0.00082753366
68	0xbc7d43dd	-0.015458074
69	0xbcf001c8	-0.029297724
70	0xbc30eb66	-0.010798311
71	0xbc6c1860	-0.014410108
72	0x3c0e8287	0.008698112
73	0xbc8f4c34	-0.017492391
74	0x3ba81cbb	0.005130378
75	0xbcd665bb	-0.026171556
76	0xbc85e401	-0.016344072
77	0x3d0c90bf	0.034317728
78	0xbc36365f	-0.0111213615
79	0xbaf9f13e	-0.0019069088
80	0xbbbd5c78	-0.0057788454
81	0xbb359a85	-0.002771051
82	0x3bae2afd	0.005315183
83	0xbd2e73a8	-0.042590767
84	0x3c54d3ba	0.012989933
85	0x3c17c613	0.009263533
86	0xbc329566	-0.010899877
87	0x3d37a915	0.044838984
88	0x3cd32c09	0.025777834
89	0x3cf3f625	0.029780457
90	0x3c4dbec1	0.012557686
91	0x3bf347f6	0.00742435
92	0xba4c7ec5	-0.00078008726
93	0xbb8f39e1	-0.0043709134
94	0xbd01c8e6	-0.031685732
95	0x3bf95da9	0.007610042
96	0xbd21ec11	-0.03953177
97	0x3cdb4e7e	0.026770826
98	0x3c74cbb3	0.014941144
99	0xbb97a278	-0.004627522
100	0x3c90fcc4	0.017698653
101	0xbd01eeff	-0.031722065
102	0xbc3d2346	-0.011544054
103	0x3cc1b6df	0.02364677
104	0xbba877b4	-0.005141223
105	0xbd06beac	-0.032896683
106	0xbcc22491	-0.023699077
107	0x3d101053	0.035171818
108	0x3b80750f	0.0039202045
109	0xbb106824	-0.002203473
110	0x3abb6995	0.0014298434
111	0x3d0526ac	0.032507583
112	0xbb3eebb1	-0.0029132182
113	0xbaa508e9	-0.0012591156
114	0x3cd8cb07	0.026463998
115	0xbc4de01b	-0.012565638
116	0x3c903706	0.017604362
117	0x3d00a520	0.031407475
118	0x3bb8aafe	0.005635618
119	0xbbb32084	-0.0054665226
120	0x3c1d4a67	0.009600258
121	0x3c7fc73b	0.015611465
122	0x3bb7a934	0.0056048874
123	0x3c7b75c3	0.015347901
124	0x3c9fea84	0.019521005
125	0xbd006b31	-0.031352226
126	0x3d082956	0.033242546
127	0xbc8d1140	-0.01722014
128	0x3c3ca9c0	0.011515081
129	0x3d02fc8e	0.031979136
130	0x37f103ed	2.8731267e-05
131	0x3c351d2a	0.011054317
132	0x3ccc9147	0.024971617
133	0x3d010cdb	0.0315064
134	0xbc5da6c5	-0.0135285305
135	0xbcaa0efc	-0.020759098
136	0xbb7d299f	-0.0038629544
137	0x3c8263ee	0.01591679
138	0x3b75abc7	0.003748642
139	0xbccb4d12	-0.024817023
140	0x3cbddc4e	0.023176339
141	0xbcb4a70d	-0.022052312
142	0x3c63e4f1	0.013909564
143	0x3ca5cb47	0.020238532
144	0xbc39f234	-0.01134925
145	0x3c2362f3	0.009972322
146	0xbc3881e3	-0.011261436
147	0x3bd6e3f8	0.0065579377
148	0xbc933e87	-0.017974151
149	0x3ba5e148	0.005062256
150	0xbbcaefd1	-0.006193139
151	0x3d32da7c	0.043665394
152	0x3bf0b7f5	0.007346148
153	0xbbc020b9	-0.005863276
154	0xbc1eb17e	-0.009685872
155	0xbd1202fb	-0.035647374
156	0x3c82d3b8	0.015970096
157	0xbcca5bd6	-0.024701994
158	0x3c92f4c4	0.017938979
159	0x3c2d665d	0.010583487
160	0x3c3327e3	0.010934803
161	0xbab05cdc	-0.0013455409
162	0x3c8531bf	0.016259072
163	0xbb76201b	-0.0037555757
164	0x3ce8c941	0.028416278
165	0x3bc0a849	0.005879436
166	0x3d0963f8	0.033542603
167	0x3b32dd43	0.0027292527
168	0xbc38ed10	-0.011286989
169	0xbcdb9c91	-0.026808055
170	0x3d029edb	0.031889778
171	0x3d079889	0.033104453
172	0xbcb87e39	-0.022521125
173	0xbcae48e3	-0.02127499
174	0x3d720880	0.059090137
175	0x39d76045	0.00041079722
176	0x3c2e862e	0.010652108
177	0xbcab8a74	-0.020940043
178	0x3c20d5ec	0.009816628
179	0xbc87b735	-0.016566852
180	0xbd2a1a52	-0.041529007
181	0x3cb65f95	0.022262374
182	0x3c511b32	0.0127628315
183	0x3d4ce5f3	0.050023984
184	0x3c018ad9	0.007906639
185	0x3a8a879f	0.0010568983
186	0xbb10825c	-0.0022050356
187	0xba5a6bcd	-0.00083321036
188	0xbb2baf63	-0.0026197068
189	0xbce78add	-0.028264457
190	0xbc920118	-0.017822787
191	0xbc8e518d	-0.01737287
192	0x3c61752d	0.013760847
193	0xbc00398e	-0.007826222
194	0x3bb317a0	0.005465463
195	0x3bfec2f6	0.007774706
196	0x3ca089a0	0.019596875
197	0xbca35392	-0.01993731
198	0xba493c78	-0.0007676552
199	0xbd219da3	-0.039456975
200	0x3cd53b73	0.026029324
201	0x3c239105	0.009983306
202	0x3acd957c	0.0015684809
203	0x3c044b71	0.008074627
204	0xbd031c98	-0.03200969
205	0x3c5f1a5e	0.013617126
206	0x3cde5cde	0.027143892
207	0xbb29bce9	-0.0025899953
208	0xbc4fa6ef	-0.012674077
209	0xbc6ce300	-0.014458418
210	0xbcebdaad	-0.028790796
211	0xbcc3a9e8	-0.023884729
212	0x3b133a89	0.002246531
213	0xbd1f5fa3	-0.038909566
214	0x3c4f5f13	0.012656945
215	0x3d100f73	0.035170984
216	0x3c32f238	0.010922007
217	0xbc9ffe39	-0.019530402
218	0xbaaed954	-0.0013339915
219	0xbc6c1d06	-0.014411217
220	0xbd02d10f	-0.031937655
221	0x3ccc763d	0.024958724
222	0x3c799909	0.01523424
223	0x3d570dbf	0.052503344
224	0x3c72db60	0.014822811
225	0xbbfed870	-0.007777266
226	0x3c1d1456	0.009587368
227	0xbbd851c5	-0.0066015446
228	0xbcd2248d	-0.025652194
229	0xbb0a0aff	-0.0021063683
230	0xbc4b1c9f	-0.0123969605
231	0x3bb51949	0.005526696
232	0x3c0cdd30	0.008597657
233	0xbb0df004	-0.0021657953
234	0x3d05efd0	0.032699406
235	0xbc374bc5	-0.011187498
236	0x3c7ebd5c	0.0155480765
237	0x3c87ae8d	0.016562724
238	0xbcc0d6ff	-0.023540018
239	0xbc776297	-0.015099189
240	0xbd017476	-0.031605206
241	0xbc1b02ae	-0.009461088
242	0x3d0152cf	0.031573113
243	0xbbae1bdf	-0.005313381
244	0x3c98b0a9	0.018638926
245	0x3cd849ba	0.026402343
246	0x3c8a2d07	0.016867174
247	0xbbc1fc39	-0.00591996
248	0xbc7e25a4	-0.015511904
249	0x3cce6bf9	0.02519797
250	0x3cdcf8d5	0.026974121
251	0x3bdbd3b8	0.0067085885
252	0xbcea7a00	-0.028622627
253	0xba1c098a	-0.0005952349
254	0x3a42f491	0.0007436956
255	0x3ba60ef9	0.005067703

chords_tempNet.batchnorm_1.bias f4 [1024]
0	0xb9436206	-0.00018633166
1	0xb8c80ba0	-9.5389085e-05
2	0x398978da	0.00026220718
3	0x395aea3c	0.00020877359
4	0x3858567a	5.157895e-05
5	0x3949db46	0.0001925054
6	0x38f31b81	0.00011592266
7	0xb91092a1	-0.00013787534
8	0x3853c83e	5.049281e-05
9	0xb8a18ee6	-7.703695e-05
10	0xb964a9c4	-0.00021807017
11	0xb8d16d47	-9.986251e-05
12	0xb80eb93c	-3.402795e-05
13	0x37826600	1.5544705e-05
14	0xb792ddb3	-1.7507793e-05
15	0xb7fae649	-2.9909557e-05
16	0xb7c00790	-2.2891705e-05
17	0x395dc4ab	0.00021149467
18	0x38cb30e6	9.688902e-05
19	0xb90ef181	-0.00013632143
20	0x38d4e8cf	0.00010152312
21	0xb5d9b718	-1.6221047e-06
22	0xb902e08e	-0.00012481419
23	0xb93da91a	-0.0001808744
24	0x38c92f5f	9.5932504e-05
25	0xb8bea6b3	-9.090956e-05
26	0xb7df128b	-2.6592306e-05
27	0x38b2e9f3	8.531278e-05
28	0x391c2d23	0.00014894134
29	0x3608e065	2.0396194e-06
30	0x38d74396	0.00010264588
31	0x3958c9ba	0.00020674514
32	0x3980fe53	0.0002460355
33	0xb981443c	-0.00024655636
34	0xb92cb8b5	-0.00016472007
35	0x391394c8	0.00014074438
36	0x38a55b61	7.884834e-05
37	0xb74ee5a7	-1.2332027e-05
38	0xb8dee55a	-0.00010628505
39	0x38f571a4	0.000117036776
40	0xb88d3cab	-6.734704e-05
41	0xb9348566	-0.00017215832
42	0xb79edeff	-1.8938908e-05
43	0x39601d92	0.0002137332
44	0x38519201	4.996546e-05
45	0x386a1f07	5.5818844e-05
46	0xb6821ce1	-3.877664e-06
47	0x38b3b55d	8.569167e-05
48	0x39148f85	0.00014167845
49	0xb98186ae	-0.00024705142
50	0x38771e9b	5.8917893e-05
51	0x3895519f	7.120077e-05
52	0xb8551d56	-5.081048e-05
53	0xb836eaa9	-4.3610726e-05
54	0xb8e50c2c	-0.00010921838
55	0x383b995a	4.4727094e-05
56	0x38ecf05e	0.00011298129
57	0xb9517a1f	-0.00019977287
58	0xb88cf5ce	-6.721505e-05
59	0xb92f4b6a	-0.00016717394
60	0x3777a2d8	1.4760262e-05
61	0xb82fa0dd	-4.1873067e-05
62	0xb9786fd7	-0.00023692787
63	0xb80a85be	-3.302632e-05
64	0x38d9da5e	0.000103880404
65	0x38332154	4.2707965e-05
66	0x3967cfa7	0.00022107233
67	0x39145613	0.00014146445
68	0x391e75c1	0.00015111921
69	0xb85f7ac0	-5.3281663e-05
70	0xb8ddedf8	-0.00010582426
71	0xb97f6090	-0.00024354667
72	0xb6ebcc47	-7.027327e-06
73	0x39460428	0.000188843
74	0x39608708	0.00021412608
75	0xb97d0691	-0.00024130406
76	0x390cf0c4	0.00013441133
77	0xb7c1e97d	-2.311612e-05
78	0xb8843310	-6.3037616e-05
79	0x38c274ad	9.2723734e-05
80	0x391385ae	0.00014068812
81	0xb835a0ae	-4.3303407e-05
82	0x38879231	6.464532e-05
83	0x380ab788	3.307269e-05
84	0x37b097a1	2.1051443e-05
85	0xb97042f1	-0.00022913121
86	0x37934c85	1.7559398e-05
87	0xb959df79	-0.00020777983
88	0xb95e0f74	-0.00021177327
89	0xb758010f	-1.287485e-05
90	0x3946062d	0.00018885052
91	0x3866d8f6	5.5038334e-05
92	0xb62ac005	-2.5443744e-06
93	0xb8c10ad6	-9.2049755e-05
94	0x3797dac9	1.8102482e-05
95	0x3742b11c	1.1604538e-05
96	0xb8ca62aa	-9.650488e-05
97	0xb8e2f59e	-0.000108222695
98	0xb73baeb8	-1.1186748e-05
99	0xb96d1ca8	-0.00022612757
100	0xb7a45235	-1.9588604e-05
101	0xb853f915	-5.0538296e-05
102	0x38e3109d	0.00010827298
103	0xb890bd49	-6.901712e-05
104	0x385605bb	5.1026913e-05
105	0xb933ba90	-0.0001714027
106	0xb8505287	-4.9667924e-05
107	0x391540ca	0.00014233883
108	0xb8ac3b87	-8.212687e-05
109	0x3976145b	0.00023467971
110	0xb8811089	-6.154279e-05
111	0x3971a7f4	0.00023046118
112	0x388a8b1a	6.6062625e-05
113	0xb77aad1e	-1.4941468e-05
114	0xb8fa95b5	-0.00011948814
115	0xb909d974	-0.00013146346
116	0x382d5820	4.1328487e-05
117	0x388b62fd	6.6464745e-05
118	0xb87f7ec9	-6.0914816e-05
119	0xb52f0887	-6.520499e-07
120	0xb75379a9	-1.2604906e-05
121	0x38b230a3	8.496761e-05
122	0xb9470605	-0.00018980361
123	0x3964ef40	0.00021832902
124	0xb95bef1e	-0.00020974546
125	0x394baa3c	0.00019423006
126	0xb8761919	-5.8674344e-05
127	0xb8e9b20f	-0.00011143472
128	0xb88555a5	-6.357887e-05
129	0x386c3c71	5.6323075e-05
130	0xb92c48ba	-0.00016430291
131	0xb821ac5e	-3.854592e-05
132	0xb89a9c75	-7.3724346e-05
133	0xb8e3643c	-0.000108428736
134	0xb93f15bd	-0.00018223278
135	0x393ac445	0.00017811458
136	0x39571408	0.0002051146
137	0x38cb2f80	9.688642e-05
138	0x38d413b0	0.00010112615
139	0xb924093d	-0.000156437
140	0xb89052d8	-6.881886e-05
141	0xb927f7b1	-0.00016018633
142	0xb8383222	-4.391571e-05
143	0xb8f74464	-0.000117906166
144	0xb8e5ed3b	-0.000109637585
145	0x3816fad9	3.5996407e-05
146	0xb8120a87	-3.4818917e-05
147	0xb931b168	-0.00016946124
148	0x3923fbc3	0.0001563868
149	0xb68b2b8b	-4.147592e-06
150	0x3792f455	1.7518332e-05
151	0x38c426e2	9.353251e-05
152	0xb91764bd	-0.0001443801
153	0x3664b12f	3.4077782e-06
154	0x392bea45	0.00016395103
155	0xb902b6d1	-0.0001246587
156	0xb95581c1	-0.000203616
157	0x3892ca82	6.9995425e-05
158	0xb900c96f	-0.00012282071
159	0xb8b624a6	-8.6852626e-05
160	0x38ff6794	0.000121786405
161	0x38cd6958	9.7947835e-05
162	0xb8bafcf4	-8.916287e-05
163	0x38ac211c	8.207766e-05
164	0xb888d8ca	-6.5253655e-05
165	0x38012b28	3.079619e-05
166	0x38f8ff07	0.00011873064
167	0x38a3bd9d	7.807764e-05
168	0xb9294abf	-0.00016144941
169	0xb93fea68	-0.00018302503
170	0xb8722af1	-5.773729e-05
171	0x390aae1d	0.00013225568
172	0x394caa0a	0.000195183
173	0xb81f80fc	-3.802868e-05
174	0x37cf90f8	2.474383e-05
175	0xb6c884ba	-5.975916e-06
176	0xb8922b27	-6.96986e-05
177	0x392e8034	0.00016641692
178	0xb8fad7ab	-0.000119611
179	0x38d0c290	9.954453e-05
180	0xb7e6295b	-2.7437394e-05
181	0x37e73870	2.7563627e-05
182	0xb8adbf52	-8.284919e-05
183	0xb9247648	-0.00015684322
184	0xb7372e34	-1.09184075e-05
185	0xb73a0218	-1.1086951e-05
186	0x398362d2	0.00025059894
187	0x3635234c	2.6991647e-06
188	0xb63e52e2	-2.836045e-06
189	0xb8bd0dc4	-9.014786e-05
190	0x390e6507	0.00013579811
191	0x370a583a	8.245983e-06
192	0x38feae88	0.00012144173
193	0x38b2275c	8.495033e-05
194	0x38ab871b	8.179081e-05
195	0xb840e4eb	-4.5989564e-05
196	0x392f1972	0.0001669878
197	0x3808642e	3.2518226e-05
198	0xb6e3384e	-6.771682e-06
199	0xb8c66fa6	-9.462172e-05
200	0x37e978da	2.783204e-05
201	0xb9194ca4	-0.00014619768
202	0x39037754	0.00012537587
203	0xb7b99d97	-2.2127102e-05
204	0x391a33df	0.00014705908
205	0x37cf5b41	2.4718816e-05
206	0xb90c9c58	-0.00013409683
207	0x38b19c7e	8.469167e-05
208	0xb8dd59f4	-0.00010554856
209	0x3931f70a	0.00016972065
210	0xb5c6b81d	-1.4805734e-06
211	0xb8c04462	-9.168011e-05
212	0x388a2d36	6.588774e-05
213	0x38bd350b	9.022102e-05
214	0x39495519	0.00019200555
215	0x3952fbe2	0.00020120994
216	0x392e447d	0.00016619447
217	0x3756b1f0	1.2796823e-05
218	0x39472115	0.00018990443
219	0x38a32f48	7.7812525e-05
220	0x390d40af	0.00013470904
221	0xb83e3136	-4.534536e-05
222	0x386e8756	5.6869663e-05
223	0xb8d86431	-0.00010318345
224	0xb71df2d1	-9.414464e-06
225	0x3808aa54	3.2583557e-05
226	0xb8f5a3aa	-0.00011712995
227	0xb84f7d4e	-4.9469345e-05
228	0x39648cc4	0.00021796214
229	0x38e925b5	0.00011117329
230	0xb842993c	-4.6395915e-05
231	0x370bf49a	8.341996e-06
232	0xb8a86fe9	-8.031709e-05
233	0xb8592181	-5.1768035e-05
234	0x38cf66f9	9.889709e-05
235	0xb7b992fe	-2.2122167e-05
236	0x38c9568a	9.600546e-05
237	0x3857f2b9	5.1486048e-05
238	0x38e62a78	0.00010975165
239	0x38b0ddb5	8.43363e-05
240	0xb6d71f5a	-6.411149e-06
241	0xb3141448	-3.447738e-08
242	0x389cdf98	7.480307e-05
243	0x378af4ea	1.6564929e-05
244	0x38d120db	9.9720164e-05
245	0xb8ea8cee	-0.0001118424
246	0xb7fcde9e	-3.0144405e-05
247	0xb971baaa	-0.00023053089
248	0xb90aea02	-0.0001324788
249	0x38409434	4.5914392e-05
250	0xb8889a6e	-6.51375e-05
251	0xb867502f	-5.514937e-05
252	0xb97dda15	-0.00024209202
253	0xb90613c8	-0.00012786605
254	0x390a28fe	0.00013175976
255	0x377e4674	1.5155983e-05

chords_tempNet.batchnorm_1.running_mean f4 [1024]
0	0xbb0c09c6	-0.002136813
1	0xbd29794a	-0.041375436
2	0xbd971013	-0.07376113
3	0x3d3a80eb	0.045533102
4	0xbc8e465d	-0.017367536
5	0x3c887f21	0.016662182
6	0xbd3f2d50	-0.046674073
7	0x3b15e39c	0.0022871261
8	0x3ce19072	0.027534697
9	0xbd0ac704	-0.033881202
10	0x3caf8618	0.021426246
11	0x3d672962	0.05643595
12	0xbde26b59	-0.11055631
13	0x3bb1966e	0.005419544
14	0xbcdc3091	-0.026878627
15	0x3c5bb00c	0.013408672
16	0xbcc0fb1f	-0.023557244
17	0xbd4dead3	-0.050272774
18	0x3bf356ae	0.0074261045
19	0xbdcd64d5	-0.10028998
20	0x3c8d3a2c	0.017239653
21	0xbc5554eb	-0.013020734
22	0xbd927df5	-0.07152931
23	0xbcfb31ed	-0.030663455
24	0x3d7f1a11	0.06228072
25	0x3d19c2b2	0.03753919
26	0xbcb7e075	-0.022445897
27	0x3d0b2d9a	0.033979036
28	0xbbd1d8df	-0.006404027
29	0x3d96990d	0.07353411
30	0x3c58ca79	0.013231867
31	0x3d2cc931	0.04218406
32	0xbcec2792	-0.028827462
33	0xbdd54f50	-0.10415518
34	0xbca1e0d0	-0.01976052
35	0x3d0a41f9	0.033754323
36	0x3dd7f5d6	0.10544936
37	0x3c990e75	0.018683651
38	0x3bc69f99	0.006061506
39	0xbd964537	-0.073374204
40	0x3d0e00ce	0.034668736
41	0xbd80f144	-0.06296018
42	0xbce88b3b	-0.028386703
43	0x3b884c30	0.004159473
44	0x3cb26a18	0.021779105
45	0x3d7c3ac5	0.061579484
46	0xbb0ac898	-0.0021176692
47	0x3b76b667	0.0037645341
48	0x3dab002a	0.08349641
49	0xbcec0857	-0.02881257
50	0xbc7a0e0a	-0.015262136
51	0x3cab9aee	0.0209479
52	0x3d0207b1	0.031745616
53	0x3d2ca551	0.042149846
54	0x3d3c7191	0.046006743
55	0xbc470335	-0.012146761
56	0x3da267dc	0.07929966
57	0xbd42103a	-0.047378756
58	0xbb4aff3e	-0.003097489
59	0x3ccb40f9	0.024811255
60	0x3bc65118	0.0060521476
61	0x3d105664	0.03523864
62	0xbbb727b9	-0.005589452
63	0xbd4233d8	-0.047412723
64	0x3da0f44c	0.07859096
65	0xbde37dc1	-0.1110797
66	0xbcc5ce77	-0.024146302
67	0xbd90ec81	-0.070763595
68	0x3da895c2	0.08231689
69	0xbd3971c4	-0.04527451
70	0x3c05e09b	0.008171226
71	0xbc18441a	-0.00929358
72	0x3d15177c	0.03639935
73	0x3ba0dcdf	0.0049091424
74	0xbaa33a6c	-0.0012453324
75	0x3cf3ab21	0.029744687
76	0xbd22b6f4	-0.03972526
77	0xbd71cb00	-0.059031487
78	0xbb17afae	-0.0023145485
79	0x3d1943bb	0.03741811
80	0x3b711a3d	0.003678932
81	0xbd0256dd	-0.03182112
82	0xbcd9c4b2	-0.02658305
83	0xbbd0baf8	-0.0063699447
84	0xbd410084	-0.047119632
85	0xbc4061a0	-0.011742026
86	0xbc79db7d	-0.015250084
87	0x3be1f22d	0.0068953247
88	0x3c5dd01c	0.013538387
89	0x3d5654d9	0.05232701
90	0x3ce6e021	0.028183045
91	0xbda5e61d	-0.08100531
92	0x3d860f78	0.06545919
93	0x3d90a579	0.070628114
94	0xbd185d5a	-0.037198402
95	0xbb481c15	-0.0030534316
96	0xbd19e51f	-0.037572023
97	0x3bdea71b	0.006794823
98	0x3d4f9352	0.050677605
99	0xbcb176cd	-0.021663094
100	0x3c58b9e3	0.013227913
101	0x3d11e80e	0.035621695
102	0xbc4f97c3	-0.01267046
103	0x3c94349d	0.018091494
104	0x3cdb3265	0.026757428
105	0x393af41c	0.0001782928
106	0x3d8f86dd	0.07008145
107	0xbd9efe0c	-0.07763299
108	0xbd1e1167	-0.038590815
109	0xbc966e24	-0.018363066
110	0xbbc78820	-0.0060892254
111	0xbd1bfb77	-0.038081612
112	0xbb00451d	-0.0019572445
113	0xbc0f6102	-0.008751156
114	0xb8878300	-6.461702e-05
115	0x3cc7c6a9	0.02438672
116	0xbd7ef74c	-0.06224756
117	0x3ce17fac	0.027526699
118	0x3d89ee33	0.06734886
119	0xbc7fca07	-0.015612132
120	0x3c2937b9	0.010328227
121	0xbc060e24	-0.008182082
122	0xbb68e92b	-0.003553937
123	0xbb44dace	-0.0030037644
124	0x3c6ab2e9	0.014324882
125	0x3d01f42c	0.031727
126	0x3c371d31	0.011176393
127	0x39b96eb6	0.00035368436
128	0xbd907033	-0.0705265
129	0x3d590ad9	0.05298886
130	0x3d832eaa	0.06405385
131	0xbd74a069	-0.05972329
132	0x3ce938b3	0.02846942
133	0xbc23cec0	-0.0099980235
134	0x3d8779d3	0.06615033
135	0x3dd68be2	0.10475899
136	0x3d330681	0.043707374
137	0x3d5cf1ca	0.053941526
138	0xba88fdd8	-0.0010451628
139	0x3da0ad11	0.0784551
140	0xbd646120	-0.055756688
141	0x3cd02d6e	0.025412288
142	0x3a9ece54	0.0012115934
143	0x3c800e56	0.015631836
144	0xbd1f172f	-0.03884047
145	0xbcaf0e7f	-0.021369217
146	0x3ca2f0f6	0.01989029
147	0xbd25a89e	-0.04044401
148	0xbc9b4099	-0.018951701
149	0x3c9b350e	0.018946197
150	0x3d2fa883	0.042885315
151	0xbd034e79	-0.03205726
152	0xbd18ebec	-0.037334368
153	0xbd40994a	-0.047021188
154	0x3b93b013	0.0045070737
155	0xbc9903b0	-0.018678516
156	0x3caefa7d	0.021359676
157	0x3daa21e7	0.083072476
158	0xbcea9cac	-0.02863916
159	0xbdaaa94a	-0.083330706
160	0x3d170db0	0.036878288
161	0x3aba3582	0.001420662
162	0xbc911748	-0.017711297
163	0x3b997bbe	0.0046839407
164	0x3ba7b399	0.0051178453
165	0x3cc4cd39	0.024023639
166	0xbc9cba6a	-0.019131858
167	0x3a6e745e	0.00090963196
168	0x3c90a14b	0.017655035
169	0xbced0b4f	-0.028936056
170	0xbd0e97be	-0.03481268
171	0xbb8209dc	-0.0039684605
172	0xbbd0fae8	-0.0063775666
173	0x3d7820cd	0.060578156
174	0x3cebb26c	0.028771602
175	0x3d774ea4	0.060377732
176	0xbbeb8a5a	-0.0071881237
177	0xbd99c8ef	-0.07509028
178	0xbc3a23f9	-0.011361116
179	0xbcc64c71	-0.024206372
180	0xbd2e9256	-0.042620026
181	0xbcdf093c	-0.027226083
182	0x3d1445b0	0.03619927
183	0x3dbe37f0	0.09288013
184	0x3cbb15e1	0.022837581
185	0xbd5ddde2	-0.054166682
186	0xbd48b9d8	-0.04900536
187	0xbcc63532	-0.024195287
188	0xbc5cb446	-0.013470715
189	0xbd3f74d4	-0.046742275
190	0x3d77b3b7	0.060474124
191	0xbd3dffd9	-0.046386573
192	0xbdbdbb62	-0.09264256
193	0xbc827f3a	-0.015929807
194	0x3d26ab7a	0.040690877
195	0xbbac49b6	-0.0052578105
196	0xbcc600ce	-0.024170306
197	0xbdbebf80	-0.093138695
198	0xbcb25d7d	-0.021773094
199	0xbd0f4798	-0.034980386
200	0xbd4d6f68	-0.050155073
201	0x3d4c0a9d	0.04981481
202	0x3d6e2a61	0.058145884
203	0xbc054a14	-0.008135337
204	0x3d2f9af1	0.042872373
205	0xbda7b5df	-0.08188986
206	0x3be0afa1	0.006856874
207	0xbda9d56e	-0.082926616
208	0x3d7e200e	0.06204229
209	0x3c67f5fa	0.0141577665
210	0xbd2320b1	-0.0398261
211	0x3bd619d7	0.006533842
212	0x3bc79cb0	0.0060916767
213	0x3cd46b13	0.025929963
214	0xbd54e1b9	-0.05197308
215	0xbb02191b	-0.001985139
216	0x3cd090c2	0.02545965
217	0xbcfc6ca2	-0.030813519
218	0xbbce431b	-0.0062946207
219	0x3cea6959	0.028614687
220	0xbc4828ba	-0.012216741
221	0xbd4830e2	-0.048874743
222	0x3a48f897	0.00076664373
223	0x3bd28879	0.00642496
224	0x3b3b7e6a	0.0028609284
225	0xbd20d325	-0.039263863
226	0x3b24f71f	0.002517171
227	0x3d6f099d	0.058358777
228	0xbd1f00cc	-0.03881912
229	0x3d33ec27	0.043926384
230	0xbc83ffd9	-0.016113209
231	0x3df9dd84	0.12200454
232	0xbca35b76	-0.019941073
233	0xbd012b29	-0.0315353
234	0xbc75be7a	-0.014999026
235	0x3c7569a4	0.0149788
236	0x3d29ad96	0.04142531
237	0x3c86a4d8	0.016436026
238	0xbb2d52b2	-0.0026446995
239	0xbca5f05f	-0.02025622
240	0xbd1560a0	-0.036469102
241	0xbb1914b4	-0.0023358287
242	0x3d329ca7	0.043606427
243	0x3ce3ff5f	0.027831731
244	0xbd15dc59	-0.036587093
245	0x3a1ad79b	0.00059067615
246	0xbcd2a71a	-0.025714446
247	0x3bb11e86	0.00540525
248	0xbc7c8d6e	-0.015414579
249	0xbd355033	-0.044265937
250	0x3cdb6143	0.026779776
251	0xbc92b132	-0.017906759
252	0xbc3f51bc	-0.011677202
253	0xbc1d659e	-0.009606747
254	0x3b3c292f	0.002871107
255	0xbd36edc7	-0.044660356

chords_tempNet.batchnorm_1.running_var f4 [1024]
0	0x3cbe953a	0.023264516
1	0x3c0f07ee	0.008729918
2	0x3c613df3	0.01374768
3	0x3b91e532	0.004452371
4	0x3c0daa63	0.00864658
5	0x3bbeb4f3	0.0058199107
6	0x3c7875dc	0.015164819
7	0x3b878c75	0.004136617
8	0x3c8af46c	0.016962253
9	0x3c3f5733	0.011678505
10	0x3bdd1a60	0.006747529
11	0x3c4021e4	0.01172683
12	0x3c8258cc	0.015911482
13	0x3b88b2d3	0.004171708
14	0x3c09cb0f	0.008410229
15	0x3c91a5e2	0.017779294
16	0x3c6ee194	0.014580149
17	0x3c8d63b5	0.017259458
18	0x3c3e5375	0.011616577
19	0x3cde7434	0.02715502
20	0x3be08fa3	0.0068530603
21	0x3c5e9463	0.013585183
22	0x3c3b7c8f	0.011443271
23	0x3c42953c	0.011876401
24	0x3c79b09d	0.015239862
25	0x3c094706	0.00837875
26	0x3c57df3a	0.01317578
27	0x3bf96889	0.0076113385
28	0x3c4d68a2	0.012537153
29	0x3c8e61ed	0.017380679
30	0x3c1872ec	0.009304743
31	0x3c65156c	0.013982158
32	0x3c91cfd6	0.0177993
33	0x3c10d7e8	0.008840539
34	0x3cd0a7a4	0.025470562
35	0x3ca86b0c	0.020558856
36	0x3cd07703	0.025447374
37	0x3c2de5fa	0.010613913
38	0x3bcb01a1	0.0061952625
39	0x3c3d622c	0.0115590505
40	0x3cb250b7	0.021767003
41	0x3c2d4c97	0.0105773425
42	0x3c267faf	0.010162278
43	0x3c434132	0.011917399
44	0x3b948e42	0.00453356
45	0x3c459a36	0.0120606925
46	0x3bcd57c2	0.006266565
47	0x3bdedf6e	0.0068015372
48	0x3c6133ae	0.013745232
49	0x3c181fd3	0.009284931
50	0x3c098ed9	0.008395874
51	0x3c440e61	0.011966319
52	0x3c74f41d	0.014950779
53	0x3cb93591	0.02260855
54	0x3c15ff0f	0.009155049
55	0x3b5537d4	0.0032534497
56	0x3c20d36b	0.009816031
57	0x3bac2b18	0.0052541606
58	0x3c4edd1d	0.01262596
59	0x3c5ffb09	0.013670691
60	0x3caf5b6b	0.021405896
61	0x3beabfef	0.0071639935
62	0x3c59ac06	0.0132856425
63	0x3bdfc060	0.006828353
64	0x3cc99a7a	0.024609793
65	0x3c22659e	0.009911923
66	0x3c9117c3	0.017711526
67	0x3c28573e	0.010274706
68	0x3bcc2862	0.0062304
69	0x3ba1d3e6	0.0049385903
70	0x3c14cb5a	0.009081686
71	0x3c6722d4	0.014107425
72	0x3c97f3ba	0.018548835
73	0x3c5d9851	0.013525085
74	0x3c382ef5	0.011241664
75	0x3c51c083	0.012802246
76	0x3be30557	0.006928127
77	0x3c911646	0.017710816
78	0x3c1c0d5d	0.00952467
79	0x3c3a3825	0.011365925
80	0x3ba6ce88	0.0050905384
81	0x3c152b39	0.009104543
82	0x3ce0662e	0.027392473
83	0x3bd7362f	0.0065677385
84	0x3cb28b85	0.021795044
85	0x3c67a1e3	0.014137718
86	0x3c25b2a4	0.010113392
87	0x3c24fc22	0.010069879
88	0x3c8bd790	0.017070562
89	0x3c17b217	0.0092587685
90	0x3c4d4f23	0.012531075
91	0x3c0c00b6	0.008545091
92	0x3c6a2008	0.014289863
93	0x3c12a194	0.008949656
94	0x3c6939e1	0.014234991
95	0x3bf585a0	0.007492736
96	0x3c424686	0.011857634
97	0x3c93bcfe	0.018034454
98	0x3c351d62	0.011054369
99	0x3c42b38d	0.011883629
100	0x3cb107d5	0.02161018
101	0x3c8d48a5	0.017246554
102	0x3bd5f4fd	0.006529449
103	0x3bd9c33d	0.0066455887
104	0x3ccb0c18	0.02478604
105	0x3c27752d	0.010220808
106	0x3c4945bb	0.012284691
107	0x3c0eac40	0.00870806
108	0x3c405d66	0.011741018
109	0x3cb4403f	0.022003291
110	0x3ce45757	0.027873678
111	0x3c430c65	0.011904811
112	0x3c85ba4d	0.016324187
113	0x3c8d30ca	0.017235179
114	0x3be14d49	0.006875668
115	0x3c621eb3	0.013801265
116	0x3c17682a	0.009241143
117	0x3c89997a	0.016796816
118	0x3c8e4a18	0.017369315
119	0x3c80b3a0	0.015710652
120	0x3c80b003	0.015708929
121	0x3c591f5a	0.013252104
122	0x3c147fbb	0.009063656
123	0x3c31b1aa	0.010845581
124	0x3c27810a	0.010223636
125	0x3ca3f2db	0.020013263
126	0x3ca14bc5	0.01968945
127	0x3c45dcf8	0.012076609
128	0x3cb03338	0.021508798
129	0x3bb74e18	0.0055940263
130	0x3bbf930c	0.005846387
131	0x3cb6753d	0.0222727
132	0x3c698fab	0.0142554445
133	0x3c42dc49	0.01189334
134	0x3c25e317	0.010124943
135	0x3bd06431	0.0063596
136	0x3cd45ebc	0.02592408
137	0x3c3205a0	0.010865599
138	0x3c51b965	0.012800549
139	0x3c7b4341	0.015335859
140	0x3d0198ac	0.03163974
141	0x3c069ac6	0.008215612
142	0x3c32b07e	0.010906337
143	0x3cb5042e	0.02209672
144	0x3ca30916	0.019901793
145	0x3c0554b1	0.008137868
146	0x3c8c7f8f	0.017150668
147	0x3c8eb648	0.017420903
148	0x3c891519	0.016733693
149	0x3b7764ad	0.0037749216
150	0x3bcc0a52	0.006226816
151	0x3c9cd10f	0.019142656
152	0x3c06016e	0.008179052
153	0x3ccf670e	0.025317695
154	0x3be4fcd3	0.006988147
155	0x3c637c90	0.0138846785
156	0x3cb8a2b4	0.02253852
157	0x3cbb29d1	0.022847088
158	0x3c33940b	0.010960589
159	0x3cdf1486	0.027231466
160	0x3be9ad51	0.0071312566
161	0x3c08598f	0.008322134
162	0x3c6594a3	0.014012489
163	0x3c3b8097	0.011444232
164	0x3c8bbf76	0.01705907
165	0x3c232871	0.009958372
166	0x3c2329cb	0.009958695
167	0x3be2515e	0.0069066724
168	0x3c47f542	0.01220447
169	0x3c995607	0.018717779
170	0x3ba981b4	0.0051729325
171	0x3c97d57f	0.01853442
172	0x3cb6e1c1	0.022324445
173	0x3be1c9a6	0.0068904934
174	0x3c506eeb	0.012721757
175	0x3c219bd6	0.009863814
176	0x3c0eb38b	0.008709799
177	0x3c1649b4	0.009172846
178	0x3c997805	0.018733988
179	0x3c955c06	0.018232357
180	0x3bdf748a	0.0068193125
181	0x3c131164	0.008976314
182	0x3c169ce4	0.009192679
183	0x3c499a2d	0.012304825
184	0x3bce41fb	0.0062944866
185	0x3c674322	0.014115127
186	0x3c73c6a3	0.014878902
187	0x3c17e040	0.009269774
188	0x3cbe055a	0.023195911
189	0x3c254fbd	0.010089812
190	0x3ca8c92a	0.020603735
191	0x3cca6738	0.024707422
192	0x3c2f9ea0	0.0107189715
193	0x3c09bd2c	0.0084069185
194	0x3c37a5a5	0.011208926
195	0x3bc3659d	0.005963041
196	0x3c8853e7	0.01664157
197	0x3c2889ee	0.010286791
198	0x3c38c17a	0.011276597
199	0x3c4e89ed	0.012606126
200	0x3c248513	0.010041493
201	0x3c831390	0.016000539
202	0x3c5af548	0.013364144
203	0x3c78241c	0.015145328
204	0x3c90ed0d	0.01769116
205	0x3c2c4f5a	0.010516966
206	0x3bf7e146	0.0075646965
207	0x3ca70087	0.020385994
208	0x3c294847	0.010332174
209	0x3ccd644f	0.025072245
210	0x3c1c460b	0.009538184
211	0x3c2e2bed	0.01063059
212	0x3c79f904	0.015257124
213	0x3c538436	0.0129099395
214	0x3c0d41e8	0.00862167
215	0x3c3240d4	0.010879714
216	0x3bc36dd8	0.005964022
217	0x3c2e3cea	0.01063464
218	0x3c017ac0	0.007902801
219	0x3c3dfae9	0.011595466
220	0x3c2018b7	0.0097715175
221	0x3c876200	0.016526222
222	0x3c5074dd	0.012723175
223	0x3c454062	0.012039276
224	0x3bcc8b55	0.0062421956
225	0x3bf3bd94	0.007438371
226	0x3c3cf691	0.011533395
227	0x3c1cc263	0.00956783
228	0x3c97cd5e	0.018530544
229	0x3cf7a4a5	0.030229876
230	0x3cbecbc9	0.023290532
231	0x3c9ca85c	0.019123249
232	0x3c93c589	0.018038528
233	0x3bbc6d23	0.005750315
234	0x3c5f882d	0.013643307
235	0x3c017bef	0.007903083
236	0x3c23c922	0.009996684
237	0x3c5f3c9a	0.013625288
238	0x3c145bf7	0.009055129
239	0x3c0dd27f	0.008656143
240	0x3c91062a	0.017703135
241	0x3c24e6db	0.010064806
242	0x3ca12549	0.0196711
243	0x3c73997f	0.014868139
244	0x3c2da2b5	0.010597874
245	0x3bca4438	0.006172683
246	0x3cc57b1b	0.024106553
247	0x3c810d2c	0.015753351
248	0x3bcd0e28	0.006257791
249	0x3c22dd4d	0.0099404575
250	0x3c49d963	0.012319895
251	0x3c93ae84	0.018027551
252	0x3c781632	0.0151420105
253	0x3c3ff64c	0.011716437
254	0x3b7cde27	0.0038584562
255	0x3c699e7f	0.01425898
