run/weights/weights-g-400.pth (torch, 418811 bytes, 12 tensors)

chords_tempNet.convT_in.weight f4 [32, 1024, 2, 1]
000000 39 33 4c bc da a1 b4 bc 14 a4 97 3c 85 66 9d 3c
       -0.012463384 -0.022049833 0.018510856 0.019213924
000010 bf 61 e1 bc aa 45 19 bb 8b 81 7d 3c 6c 47 60 bb
       -0.02751243 -0.002338747 0.01547278 -0.0034222258
000020 71 0d ac 3c 2c da 91 bc 1c e1 1b 3b 91 58 fd bc
       0.021002503 -0.017804228 0.0023785299 -0.03092602
000030 f9 f0 6c b9 2a 7c bd 3b b3 5c fd bc 41 4c 48 3c
       -0.00022596483 0.005782624 -0.030927991 0.012225212
000040 76 de 6c 3c 24 33 64 bc 95 b8 c1 bc 9f 0d 8c 3c
       0.014457336 -0.0139282085 -0.023647586 0.017096339
000050 0b a8 f9 bc 92 f5 ab 3c 07 b3 19 3d 44 41 0f bc
       -0.030475637 0.02099112 0.03752425 -0.008743588
000060 19 4f b7 bb 99 d2 02 3d 88 8b df 3c 28 7c 04 bc
       -0.005594146 0.031939123 0.027288213 -0.008086242
000070 bb de 3b bd f4 1b 8c bc 6f 54 00 3b 57 a6 90 bb
       -0.04586671 -0.017103173 0.0019581576 -0.0044143605
000080 81 4b a8 bc e0 37 80 bc 92 c4 23 3d a5 60 19 bb
       -0.020543816 -0.015651643 0.039982386 -0.0023403552
000090 28 55 95 bc 4e 25 51 bc 26 b9 9e 3a d7 ea bb bc
       -0.018229082 -0.012765242 0.0012109622 -0.022939129
0000a0 7c c6 45 3d b6 de 73 3b b7 08 44 3c 50 1d 41 3c
       0.048284993 0.0037211603 0.011964968 0.011786774
0000b0 76 2e 39 3c 5c d4 29 bc 4a 72 53 3c 8b 71 43 bc
       0.011302581 -0.010365572 0.012905667 -0.011928926
0000c0 b1 8e cd 3c 9d 21 02 bc 9c c0 6b 3c cf d3 28 bc
       0.025092455 -0.007942584 0.014389183 -0.010304405
0000d0 31 c8 89 bc 5d 80 07 bd 5a 04 0f 3d b9 a2 d0 bc
       -0.016819092 -0.0330814 0.03491626 -0.025468217
0000e0 5b 54 27 bd 9c 62 99 3c 9f 15 71 3c db 39 ba 3c
       -0.040851932 0.018723778 0.0147146275 0.022732666
0000f0 31 e2 4d 3d cd d7 e3 bc 78 3a 63 bb 41 8e 33 bd
       0.05026454 -0.027812863 -0.0034672301 -0.043836836
000100 37 46 7b bd e3 ad dd 3c d3 da b4 ba f5 8f 03 3d
       -0.06134626 0.027060455 -0.0013798125 0.03211971
000110 0c aa c0 3c 96 2b af 3c 28 a4 55 bc 37 77 42 39
       0.023518585 0.021383088 -0.013039626 0.00018545693
000120 67 86 9b bc aa f3 13 3b 46 1e ef 3c a2 d9 9f ba
       -0.018984986 0.0022575655 0.02918924 -0.0012195597
000130 b0 a2 54 bd 08 e6 0e 3c f8 2d 65 3c c4 12 5c bc
       -0.051912963 0.008721836 0.013988011 -0.013432208
000140 26 55 dd ba 08 54 99 3b 72 46 0e 3d 2a f9 8e bc
       -0.0016886338 0.0046792068 0.03473515 -0.017452795
000150 1a 2f c9 bc 00 aa b0 3c 54 98 91 bc 05 8c 78 3c
       -0.024558593 0.021565437 -0.017772831 0.015170102
000160 67 5d fe 3c ff cc d4 bb df 0f 17 bc b0 f9 89 bc
       0.031050397 -0.006494164 -0.009220093 -0.016842693
000170 eb 7f a5 bc 3f 54 c4 3b ca 62 89 3c bd 64 6f bc
       -0.020202598 0.005991488 0.01677074 -0.01461142
000180 84 14 ce bc f5 5a a7 3c bc 8a 9d bc 6c e8 63 3c
       -0.025156267 0.020429114 -0.019231193 0.013910394
000190 7a 81 eb bc 56 c2 3b 3d f7 57 d9 bc 12 6c 05 bb
       -0.028748263 0.04583963 -0.026531203 -0.0020358604
0001a0 d4 5d a2 3b e5 58 0b bc 13 ad ae bc 44 54 c0 3b
       0.004955033 -0.008505081 -0.021322763 0.0058694202
0001b0 76 a3 83 3d 16 1e 13 bd c1 80 9c bc 71 8d 02 3d
       0.06427662 -0.035917364 -0.019104363 0.03187317
0001c0 e2 ff 9e 3d e1 33 63 bc a6 34 06 bd d6 1d 6e 3c
       0.077636495 -0.013867349 -0.032765053 0.014533481
0001d0 8d b6 c9 3c 7d 10 17 bc cb b4 1d bc 17 69 7a 3c
       0.02462318 -0.00922024 -0.009625624 0.015283844
0001e0 79 b5 14 bd 9c e1 77 3b 48 ed 3e bb 31 42 b7 3c
       -0.03630588 0.0037823683 -0.002913313 0.02237043
0001f0 b5 cf e5 3c 21 e8 2f 3b d8 a4 ac bc 11 0c ba 3c
       0.028053144 0.002684124 -0.021074697 0.022710832
000200 f6 4d 4e 3c a3 6d b1 3b 87 be 79 3c 5a ad d9 3c
       0.0125918295 0.005414681 0.015243179 0.026571918
000210 b7 c6 11 3d 3f 51 8a 3c 70 67 46 bd fc 2c 2b 3c
       0.0355899 0.016884444 -0.04843849 0.010447737
000220 fd cb 95 3c 80 96 52 bc 8a 5a d3 3c e9 37 58 bb
       0.018285746 -0.012853265 0.025800008 -0.003299231
000230 eb 60 6c bc 6a 99 f0 bb b8 9b 30 bc b7 dd 1c bc
       -0.014427404 -0.007342507 -0.010779314 -0.009574345
000240 9d 32 de ba 5e fc a2 3c b8 57 a8 3b 82 9b ae b8
       -0.001695234 0.019895729 0.00513741 -8.325932e-05
000250 69 7a 07 3d d0 67 27 bd 57 b9 d0 bc 51 ce 50 bd
       0.033075724 -0.040870488 -0.025479002 -0.05097801
000260 bb 2d fe bc 2f c4 7b bc 77 f4 21 3b 07 74 c6 3c
       -0.031027665 -0.015366598 0.0024712363 0.024225248
000270 a4 13 04 bd d7 7b b7 3c 91 56 0d bb b9 02 83 3c
       -0.032245293 0.022397919 -0.002156649 0.01599251
000280 82 ed f4 bc 64 d5 0c bd ba 14 cf bc 6d 52 3f 3c
       -0.029898409 -0.034383193 -0.025278438 0.011677367
000290 79 5d 58 bc ad e0 89 3c 61 de 78 bc 30 59 2e bb
       -0.013205879 0.016830767 -0.015189738 -0.0026603453
0002a0 ae 93 a6 3d bd 52 a8 bc a6 7f 46 3c 75 fb 2e 3d
       0.081336364 -0.020547265 0.012115395 0.042720277
0002b0 14 ea 4d bc e6 7b 0d 3d 2d d8 c1 bc 74 f3 e2 3c
       -0.012568016 0.034541987 -0.023662651 0.027703978
0002c0 61 bd b0 bc 4a 37 c3 bb 09 bc b2 3c 87 01 e7 3c
       -0.021574678 -0.0059575187 0.021818178 0.02819897
0002d0 aa 23 84 bd 24 88 86 3c 98 24 95 3c d5 4f 67 3b
       -0.06452115 0.016422339 0.018205926 0.0035295386
0002e0 60 61 cc 3b ee c9 52 3c d6 71 08 bd a2 8c cf 3c
       0.006237194 0.012865527 -0.033311687 0.025335614
0002f0 39 b3 1f bc 03 76 a0 3c b1 60 c0 bc a0 40 2e 3d
       -0.00974732 0.019587522 -0.023483606 0.0425421
000300 55 f7 1a bc 0c fe f3 3c 9d 2f 26 3d 33 f2 7b bc
       -0.009458383 0.029784225 0.04057275 -0.015377569
000310 66 00 0b bb 3e 69 ed 3b 7a 00 9a 3c 7f d3 9a bc
       -0.0021209954 0.007245212 0.018799055 -0.018899677
000320 f3 48 d1 bb 27 c3 71 bc 32 d7 f7 bb 68 7e 9e 3b
       -0.00638687 -0.014756001 -0.007563495 0.004836846
000330 1b 4f 8c bc 2d 94 3b bc 38 60 10 bd 25 9c a2 ba
       -0.017127564 -0.011448902 -0.03524801 -0.0012406154
000340 1a e9 b9 bc b0 02 e5 bb 8e 85 16 bd 82 f1 fe bc
       -0.02269416 -0.0069888458 -0.03674846 -0.03112102
000350 13 ad 5f bc aa 98 2a bc f7 a3 bd bc 27 88 83 3c
       -0.013652104 -0.0104123745 -0.023149474 0.016056133
000360 d4 df 36 3d af 3a ff 3c 57 31 2d bc e5 90 27 3c
       0.044647053 0.031155912 -0.010570846 0.010227417
000370 b4 2f 24 3c 14 43 4b bd 44 50 74 3c 31 cc 72 bc
       0.010021139 -0.049624518 0.014911715 -0.014819191
000380 31 91 da bc 61 38 da bc 0c 1a 15 3d 0b bc 91 3c
       -0.02668056 -0.026638212 0.036401793 0.017789861
000390 4e 5c 0d bd d5 13 80 3b c8 a3 99 bc 70 39 55 3c
       -0.034511857 0.003908614 -0.018754855 0.013014182
0003a0 1f ad b5 3b f8 3f 2d 3b 84 ba 5a bc 0a a0 5d 3c
       0.0055443193 0.0026435833 -0.013350133 0.013526926
0003b0 aa 19 e3 3b 48 a6 f1 3c d8 6a fc 3c 22 bf 5a 3c
       0.0069305496 0.029498234 0.030812666 0.013351234
0003c0 5e 64 15 3d 2b 0b ef bb 32 c2 eb 3c 2d bf 2f bc
       0.03647267 -0.0072950325 0.028779123 -0.010726732
0003d0 74 2a 84 3c 91 24 44 3c 5b 39 34 3c 8e 31 1f bc
       0.016133524 0.011971609 0.011000003 -0.009716405
0003e0 5a e9 66 bd 73 85 b9 3b 6b fd 5d 3d 6c be 8b 3c
       -0.056374885 0.0056616603 0.054196756 0.017058574
0003f0 31 22 b4 bb c0 3b 8a 3a 65 2a 81 3c 33 3d aa ba
       -0.00549724 0.0010546371 0.015767286 -0.001298821

chords_tempNet.convT_in.bias f4 [1024]
000000 e9 b7 c9 bc 18 ce 1f bb 84 29 97 bd fb 0a 6d 3c
       -0.024623828 -0.0024384316 -0.07380965 0.01446795
000010 47 17 3f 3d 3f 17 49 3c 22 08 9a 3c d3 c6 1c bd
       0.04665306 0.012273609 0.018802706 -0.03827555
000020 58 e4 2a bc ee 67 b6 ba ed 81 aa bd 6a 8f 9f bb
       -0.010430418 -0.0013916472 -0.083255626 -0.004869391
000030 0e 76 5e bb 11 b4 d8 bc 96 77 d0 bc 5e 52 99 bd
       -0.0033944878 -0.02645305 -0.025447648 -0.074864134
000040 85 a9 7a bb 14 3f a8 bc 9d 0d 05 bc 88 8b 0f bd
       -0.0038248014 -0.02053789 -0.008120921 -0.035045177
000050 b6 62 be bb c9 44 9c 3c 89 2f fc bc 49 8f 9e bb
       -0.005810107 0.019075768 -0.030784385 -0.0048388583
000060 a8 8d ab bc 83 be 40 3b b4 aa c1 bb d9 ca 52 3c
       -0.02094157 0.0029410429 -0.005910242 0.012865745
000070 45 ba 25 3c c0 f4 d1 ba 48 5f 56 bb 5e 49 07 3b
       0.010115211 -0.0016018376 -0.00327106 0.0020643095
000080 90 17 bf bd f6 69 aa bd 36 1b 98 bb 42 c8 63 bd
       -0.09330666 -0.08320992 -0.0046419157 -0.055610903
000090 47 ed d4 3b 11 a2 a1 3c a9 17 9e bc ca d2 89 bb
       0.006498012 0.0197306 -0.019298391 -0.004206036
0000a0 f7 f4 fc 3b 96 80 8a bc 5d 23 ba bd ee 17 16 bd
       0.007719632 -0.016907018 -0.09088776 -0.036643915
0000b0 23 06 ba 3b 32 0c 0b 3c 08 e6 8a 39 ff 6b e7 bc
       0.005677001 0.008486794 0.00026492798 -0.028249739
0000c0 da 2e 60 bc f6 39 30 bd d3 e7 6c bd bd 31 2d bd
       -0.013683045 -0.043024026 -0.057838272 -0.042283762
0000d0 5a df a4 bc e9 c2 aa 3d 1b 43 a4 3d 96 46 4b bd
       -0.020126034 0.083379574 0.08020612 -0.049627863
0000e0 98 3b 49 3d de 08 36 3d 82 cc 0b 3c cf 82 5c bd
       0.0491291 0.04444205 0.008532645 -0.053835686
0000f0 a5 95 9f 3c 12 ab ff 3c 02 af 7b 3c 00 94 2c 3d
       0.019480536 0.031209502 0.015361549 0.04213333
000100 cf a6 3e bc 85 87 c0 3d 7e 36 d4 3c 4f aa bb 3b
       -0.01163645 0.09400848 0.02590489 0.0057270895
000110 d8 3c ec bb 2b 5c 26 bb ed c6 85 3b e3 db 80 bc
       -0.0072094016 -0.0025384526 0.0040825517 -0.01572985
000120 0e 75 c6 bc ea 95 f2 bc ad e6 9d 3b 26 b2 84 3d
       -0.024225738 -0.0296125 0.0048187585 0.064792916
000130 14 be c1 bd 1c 0d 28 bc bc 92 73 3c 6a 23 46 bd
       -0.09460083 -0.010257032 0.014866527 -0.048373617
000140 3b c0 3a bd fc 88 84 3d 9a b5 ac bc 30 16 e8 bb
       -0.04559348 0.0647144 -0.021082688 -0.007082723
000150 24 db 53 bb cc 60 06 bd a5 bd af bd 53 8d e8 3c
       -0.0032326663 -0.032807156 -0.08581094 0.028387701
000160 f0 75 43 bd fc 9f 4c bb 8e 87 c0 bd 13 c1 f9 3b
       -0.047719896 -0.0031223288 -0.09400855 0.007621893
000170 b1 40 92 3c ac f8 0c bd d8 b6 16 bd 30 4b ca bc
       0.017853113 -0.03441684 -0.036795467 -0.024694055
000180 5f ef 8f 3c e9 90 bd bc f6 4e ac 3c 78 c3 dc 3b
       0.017570196 -0.023140388 0.021033745 0.006737169
000190 97 2e 10 3c c7 21 b9 3c 22 d2 06 3d 4b ba e3 bc
       0.00880017 0.022599114 0.032915242 -0.027798792
0001a0 05 dc 12 3c f8 14 b0 ba ab e8 8d 3c fe 12 6e bc
       0.00896359 -0.0013433984 0.017322859 -0.014530895
0001b0 c0 32 63 3d 26 e6 a9 3d 3b f8 6c bd 7d 8b f2 3b
       0.05546832 0.082958505 -0.05785392 0.007401882
0001c0 4e 19 5f bd 8b b7 18 3c 85 8a 71 bd 99 5f 73 3c
       -0.05446749 0.009321104 -0.058969993 0.014854335
0001d0 c2 07 27 bc b1 ea 3d bb 54 77 4b 3c 9b fc 4b 3c
       -0.010194721 -0.0028978998 0.012418587 0.012450363
0001e0 b9 8c 92 3b ea 8d a6 bc da 83 31 3c ce e8 0e 3b
       0.004472342 -0.020331342 0.0108346585 0.0021806243
0001f0 03 d2 a4 3c af 2e 98 bc 20 b8 d9 3b 97 58 9c 3c
       0.020119673 -0.018576948 0.006644264 0.019085212
000200 88 17 dc 3a d9 39 94 bd 96 5e 84 ba f2 35 72 bd
       0.0016791681 -0.07237596 -0.001009899 -0.059133478
000210 42 a7 92 3c 14 ac 5b 3b 30 6f 4f bc e9 27 d1 bb
       0.01790202 0.0033519315 -0.0126607865 -0.0063829315
000220 4c 6b 40 bb 21 44 be 3d 82 60 80 3d 86 5a b5 3d
       -0.002936083 0.09290338 0.062684074 0.088551566
000230 04 ce 3a 3d ca c4 30 bd 9e 50 1b bb e7 f0 4c 3c
       0.045606628 -0.043156423 -0.0023699175 0.0125086075
000240 7b 8d 08 bc 82 65 52 bd e0 08 d4 3c 29 03 66 3d
       -0.008334513 -0.051366337 0.025883138 0.056155358
000250 78 66 12 bd 81 5e 55 3c 32 b0 20 bd c4 74 03 bc
       -0.035742253 0.01302302 -0.039230533 -0.008023445
000260 94 04 ad 3c 56 a5 d7 bb 4c 20 43 3c 59 95 c0 bc
       0.021120347 -0.006580989 0.011909556 -0.023508715
000270 e2 cb ef bb 5a 5e 6c bc ae ea 15 bc df 38 b9 bc
       -0.007318006 -0.014426792 -0.00915019 -0.022610126
000280 e0 45 85 3d 01 b1 65 bb cf 36 7c bc 17 b4 8d 3c
       0.06507468 -0.003504813 -0.015393927 0.017297788
000290 74 43 4a bd 0a ef b8 3c 5e 06 42 3d 6e 9f 32 3c
       -0.049380735 0.02257492 0.047369353 0.010902269
0002a0 43 10 53 bd 5e 60 f4 3a 39 b4 59 38 cf 51 50 3d
       -0.05152918 0.0018644442 5.1904677e-05 0.05085927
0002b0 eb d0 b9 b9 b1 72 96 bd 44 44 a0 3a e2 15 ef 3b
       -0.00035441606 -0.073460944 0.0012227376 0.00729631
0002c0 4a 5c 75 3d 7d 8a 75 3c 8e bc 3c 3d f8 1a 02 3c
       0.059902467 0.014986631 0.046078257 0.007941
0002d0 90 3c 92 3b e9 d8 34 bb b0 0d d1 bc e0 12 1a bb
       0.004462786 -0.002759511 -0.025519222 -0.0023509786
0002e0 2e 0a 8c bd dd d9 7f 3d c8 34 21 bc 5b dc 78 ba
       -0.06837879 0.06246363 -0.009839244 -0.0009493285
0002f0 33 6f 14 3d 3d 0b 53 3b c9 02 ed 3b 08 01 79 3a
       0.03623886 0.0032202743 0.007232998 0.000949875
000300 76 bd 82 bc 93 82 af bc 7b 5b 6c 3c 25 1b ea bc
       -0.015959483 -0.021424567 0.0144261075 -0.028577397
000310 7b 40 8e bb 0f c8 1e bd 9f 5a 0b bc 4a 45 41 bd
       -0.0043411828 -0.03876501 -0.0085054925 -0.04718522
000320 d4 2c b4 3c 71 ac c9 3c 41 22 48 bd 3a 94 50 ba
       0.021994032 0.02461836 -0.048860792 -0.0007956658
000330 3e 1b 79 3c d1 d8 00 3c 2e 81 8c 3b 02 b2 f5 bc
       0.015204249 0.007864193 0.0042878604 -0.029992107
000340 f2 21 0b 3c 0c 68 e2 bb 8b 17 b9 3d 28 fe 80 3c
       0.00849198 -0.006909376 0.090376936 0.015746191
000350 f3 db b6 bc 1d 5a c2 3b 1b 44 90 bd f1 ff ce bc
       -0.022321677 0.0059311525 -0.0704424 -0.025268527
000360 f6 06 01 bc 44 c8 1e 3d a8 84 99 bb a7 4b 6b 3c
       -0.007875195 0.038765207 -0.0046850033 0.014361299
000370 02 1f c9 3c 11 e7 a5 bc b1 6c 52 3c d5 ed 9a bd
       0.024550918 -0.020251783 0.012843297 -0.07564894
000380 1b ea 76 3c a1 96 5e bc 16 81 2d 3c 17 47 49 bd
       0.0150704635 -0.013585717 0.0105898585 -0.049140062
000390 dd 57 5c bc f0 ea b5 bc 40 8d 82 3d 51 d5 2e 3d
       -0.013448683 -0.022206753 0.063745975 0.042683903
0003a0 3b e3 12 bd 91 a7 e6 bb cf 8b c1 ba db a4 1b bd
       -0.035861235 -0.0070390184 -0.0014766398 -0.037999015
0003b0 e0 57 54 3c 1f 2c af bd bf bf 58 3d 96 fe b1 bc
       0.012960404 -0.08553337 0.05291724 -0.021727841
0003c0 ce d7 73 3d ec 4b af 3c f3 3a 9d 3b 79 62 b6 bb
       0.05953198 0.021398507 0.004798287 -0.005565938
0003d0 59 94 7e bd 68 72 61 3c 3b d9 45 3d 49 e2 8f bc
       -0.062153194 0.013760187 0.04830287 -0.017563956
0003e0 a2 de 9e 3c 22 75 6a bd ae 2c be bc 04 da 98 bb
       0.019393269 -0.057240613 -0.023214664 -0.0046646614
0003f0 41 7d 5d bc d9 be 4c 3c d0 a8 f5 ba fd 13 e9 3c
       -0.013518632 0.0124966735 -0.0018742327 0.028451914

chords_tempNet.convT_out.weight f4 [1024, 32, 1, 1]
000000 f2 15 80 3b b5 49 41 3b 3c 2d 00 bc db 1e 21 bd
       0.003908866 0.0029493396 -0.007823285 -0.039336067
000010 b8 a6 0b bc 34 ae 59 3c 4e 40 e1 3b 62 1b 94 3d
       -0.008523636 0.013286162 0.006874121 0.07231785
000020 18 a5 44 3b 2d 1c 3a bc 09 c7 6f bc eb 31 8f bc
       0.003000563 -0.011359257 -0.014634856 -0.017479857
000030 e2 b3 8d 3c 82 ff 81 ba 1b fb bc bc cd 43 7c bc
       0.017297689 -0.0009918066 -0.023068955 -0.015397024
000040 1a 89 70 3d 42 27 cd 3c fa b4 26 bd 40 ff cf 3c
       0.0587245 0.025043134 -0.040699936 0.025390267
000050 10 9f 02 bc 9a 03 07 bd 0d 79 52 3b ce 4e 39 3c
       -0.007972494 -0.03296242 0.003211561 0.011310292
000060 81 8e 54 3d e7 92 1f bc 58 a7 f4 3b 9d 71 40 bb
       0.051893715 -0.009739614 0.007466238 -0.0029364594
000070 d8 cc 05 bd 3d 25 6a 3c 80 34 be bb 14 74 03 bd
       -0.032666057 0.014291105 -0.0058045983 -0.032093123
000080 f1 05 e4 3d dd d5 d5 ba da b1 45 bd 23 e5 d7 3c
       0.11133946 -0.0016314347 -0.048265316 0.026354378
000090 4e 9e ad 3d 6b c3 43 bc 04 dd 41 3c d2 ef 18 bc
       0.0847746 -0.011948447 0.011832479 -0.009334521
0000a0 14 ca 0a bd 73 a8 13 3c 32 7d 05 3c a6 d9 08 bd
       -0.033884123 0.009012329 0.008147525 -0.03341069
0000b0 12 ca d4 3c 69 d1 e5 3c aa f8 eb 3c c5 0e bf bb
       0.02597526 0.028053956 0.028805096 -0.005830618
0000c0 dd ca e6 bc 10 84 b9 bb c8 20 0d bd 07 41 97 bd
       -0.028172905 -0.005661495 -0.03445509 -0.0738545
0000d0 9f a6 11 3a 5d 77 59 3c eb c7 5c 3b ab 24 5d bc
       0.00055561395 0.013273087 0.0033688496 -0.013497512
0000e0 32 4d b9 3c 07 c3 96 3b e2 b5 d3 ba 9a 1b 7c 3b
       0.022619817 0.004600886 -0.0016152228 0.00384686
0000f0 89 ce 9e 3c ef 00 9b b9 d3 b4 6e 3b ea cc f7 bc
       0.019385593 -0.000295646 0.0036423698 -0.030249078
000100 89 45 3f bd a6 da 89 bc 0a a8 29 bb b6 a8 57 bc
       -0.046697173 -0.016827893 -0.0025887513 -0.013162782
000110 73 18 e8 bb 83 1d c6 bc 93 3e be 3c 5f 12 e3 3c
       -0.0070829927 -0.024183994 0.023223197 0.027718721
000120 6f 3c 47 3c 42 54 91 3c 5a f3 a0 3c 09 70 a4 3c
       0.012160405 0.017740373 0.019647289 0.020072954
000130 7e 44 67 3b 7c 4e 3c 3c 90 62 73 bc 99 61 89 3c
       0.0035288627 0.0114933215 -0.014855042 0.016770171
000140 f0 b2 a3 3d 7b f6 94 38 52 09 cc 3c 4c 9a a6 3c
       0.07993114 7.1031005e-05 0.024906788 0.020337246
000150 09 e2 77 3d c4 c0 4d 3c 15 82 0f 3d c1 94 79 3c
       0.0605183 0.012558166 0.035036165 0.01523322
000160 31 f2 63 3c 92 c1 85 3b d4 64 df bc 12 b9 5a bd
       0.013912723 0.0040819133 -0.027269758 -0.053399153
000170 f5 53 1d 3c e2 4b 4d 3d 7f 74 50 bc 93 a8 72 3c
       0.009602536 0.050121196 -0.012723087 0.014810699
000180 e3 e1 9b bc 94 4d 91 3c c2 e2 37 3d bc 2b ce bb
       -0.01902861 0.017737187 0.044893987 -0.0062918346
000190 32 27 ae bb 23 8d 6d 3c 8c 43 49 3c e4 53 9f bc
       -0.005314731 0.014498982 0.012284171 -0.019449182
0001a0 71 06 01 3c 7e 53 03 3d c9 e3 02 bd 15 d9 67 ba
       0.007875071 0.032062046 -0.031955514 -0.00088442984
0001b0 f7 f8 02 bb 18 55 e7 bc ca 8f 51 bb ff 9c 8c bc
       -0.001998482 -0.028238818 -0.0031976574 -0.017164705
0001c0 7f 99 5e bd 1f 86 5c 3c 29 ac fc 3b 67 16 ce 3c
       -0.054345604 0.013459711 0.007710953 0.025157167
0001d0 82 ef 10 bd 42 de 97 bb e0 68 46 bc 24 b9 b5 3c
       -0.035384662 -0.0046346495 -0.012109965 0.022183008
0001e0 1b 65 2c 3a e7 c2 9a 3c 51 1c cd bc db 7b 3b 3c
       0.0006576345 0.018891765 -0.025037916 0.011443104
0001f0 e3 65 1d bc af f5 2d 3c ec 1c fe bc 11 88 80 3c
       -0.009606811 0.010617658 -0.03101965 0.015689882
000200 e5 82 64 bc a6 e8 0a ba 00 fa dc 3c 2a 3f 83 b9
       -0.013947223 -0.00052989495 0.026974678 -0.00025033328
000210 45 51 a8 bc b6 f8 de 3c 88 66 f6 3b e3 d5 19 3d
       -0.020546565 0.027218204 0.007519547 0.037557494
000220 66 ea d9 bc 5e 08 af 3c 32 2c 28 3c 6f 79 57 3d
       -0.026601028 0.021366294 0.010264443 0.052606042
000230 5f a2 40 3d 30 3a c6 bc c1 7c 0f 3d 5e f7 9d bb
       0.04702985 -0.024197668 0.035031084 -0.004820748
000240 e6 49 21 3d da 1f 48 bb 7e 52 fe bc af 7b 78 3c
       0.039377116 -0.0030536563 -0.031045195 0.015166207
000250 c2 8a 39 3a 81 ea f6 3b 36 d5 39 bb 6d 86 a5 3c
       0.00070778665 0.0075352793 -0.0028355843 0.0202057
000260 b2 ca 8d 3b e5 b1 ad bb 77 f8 fa bc c4 53 87 bd
       0.0043271417 -0.0053007477 -0.030636055 -0.06607774
000270 80 4d a6 bc 1c c7 2c bc 00 7e 56 3b 45 f7 f4 bb
       -0.020300627 -0.010545518 0.003272891 -0.007475766
000280 15 19 73 3d 7c 5e 18 3c 26 4b e9 bc 00 73 64 bd
       0.059350092 0.009299871 -0.028478216 -0.055773735
000290 47 b9 af bc 0c 82 3a bc 3f bf 9c 3c 9a a0 3f bc
       -0.021450652 -0.011383545 0.019134162 -0.011696005
0002a0 b3 5e fd 3c 93 0b 76 3c 86 eb fd bc 69 3b c3 3c
       0.030928945 0.015017408 -0.030996095 0.02383204
0002b0 1b ea e8 bb e8 af 6b 3d a3 e9 76 3c 70 8f 71 bc
       -0.0071079857 0.057540804 0.015070352 -0.014743671
0002c0 b6 bf dd 3c 62 6e 63 bc 59 e0 88 3b 09 24 dd bb
       0.027068954 -0.013881298 0.004177135 -0.0067486805
0002d0 2d 6a fc bb 4d d7 ac bc 62 d3 ad bc 2a 06 ad ba
       -0.007703087 -0.021098757 -0.02121896 -0.001320069
0002e0 f4 12 20 3d 59 d5 c8 bc c6 b0 b0 3c b7 33 1f 3d
       0.039080575 -0.024515795 0.021568667 0.03886768
0002f0 b5 d8 05 bc c1 d7 04 3c 8a ee b8 3b a1 72 70 bd
       -0.008169343 0.00810808 0.0056436704 -0.05870307
000300 b5 2e aa bc f0 db 31 bb 41 85 4d 3c 51 3a 42 3d
       -0.020774225 -0.002713915 0.012543977 0.047418896
000310 2c 6f 85 bb 03 20 eb bc 47 ef 82 3c 82 7c c2 3c
       -0.0040720906 -0.028701788 0.015983237 0.02374101
000320 d9 4d 44 bc ba f1 49 3c ea a1 4d 3d 7f 2f 09 3d
       -0.011981451 0.0123256985 0.05020324 0.03349256
000330 ce d9 94 3b ca d6 d3 bb dc 0d 01 3d 4f 8c 0d 3c
       0.004542566 -0.006464814 0.031507358 0.008639409
000340 72 51 63 3c c4 c8 77 bc 71 2a 9d 3c bc 6b bc 3b
       0.013874399 -0.01512355 0.019185277 0.0057501476
000350 fb 89 78 3b 88 ba 30 bd 45 9f 2c bd 1b c9 03 3c
       0.003792404 -0.04314664 -0.04214408 0.008043553
000360 54 73 66 3c 36 b0 fc 3b 16 c0 f2 bc 8a 35 3e bd
       0.014065582 0.0077114357 -0.02963261 -0.046437778
000370 54 84 0e 3d f6 90 35 3c 17 65 21 bd bf 33 dd 3b
       0.034794167 0.011081925 -0.039403047 0.0067505534
000380 0c d8 7e bd 7d a0 24 bd 53 72 da 3c 70 6d e7 3b
       -0.062217757 -0.040192116 0.026665842 0.0070626065
000390 79 3d e2 3b b5 a2 8e bb 10 45 19 bd d5 d8 02 3d
       0.006904301 -0.0043528923 -0.03741938 0.03194507
0003a0 d9 1b c6 bc 9b e6 d5 bc 9d b0 83 ba ae 5e 57 bb
       -0.0241832 -0.026110938 -0.0010047142 -0.003286283
0003b0 32 c4 07 3c ba b7 4b 3b 99 56 eb bb ac 33 10 bc
       0.008286523 0.0031084851 -0.007181954 -0.008801382
0003c0 f2 3e 8e 3d 68 59 ed bc 95 cf 81 39 37 69 9e 3c
       0.069455996 -0.028973296 0.00024759458 0.01933728
0003d0 bd 2c 0a 3d 08 3d dc 3b c2 99 86 bc af 8d 9f 3c
       0.033734072 0.0067211427 -0.01643074 0.01947674
0003e0 81 50 26 bb f5 2a 6a 3a 85 3b e0 3b 77 e9 96 bb
       -0.0025377574 0.00089327927 0.006843033 -0.004605468
0003f0 58 de 19 3d 1f 05 3d bb 97 d1 8c 3b 49 f6 a5 bc
       0.03756556 -0.0028842164 0.004297446 -0.02025904

chords_tempNet.convT_out.bias f4 [32]
000000 2a 9b 36 3e 2f de 13 be b3 a9 05 bc a4 1a 0b be
       0.17832628 -0.14440225 -0.008158135 -0.13584381
000010 e5 1f 18 be 78 46 ca 3b 5d a8 09 bd b3 41 46 3e
       -0.14855917 0.0061729513 -0.03360783 0.19361
000020 0c d1 ce 3c a3 f2 b8 bd 87 93 19 be 6b 84 6c bd
       0.025246166 -0.09030654 -0.14997683 -0.05774347
000030 be 6c be bc e1 e2 c8 bd 7e 1d 25 3e ce 20 33 3e
       -0.023245212 -0.09808899 0.16124532 0.17492983
000040 13 f8 1f 3d b9 99 d4 3d d7 32 1a 3a 76 05 87 bd
       0.03905494 0.10380883 0.00058822095 -0.065928385
000050 dc 1e 9e bd 90 8c 0a be d9 a3 44 be 53 f0 54 3c
       -0.0772073 -0.13530183 -0.19203128 0.012996751
000060 31 cf e0 bd 80 6d 7c bc 07 85 de 3d 9f 97 89 3d
       -0.109770186 -0.015406966 0.10865217 0.067183726
000070 b5 33 69 bd a8 c1 01 be c1 6f 9d bc 25 42 75 3d
       -0.056934077 -0.1267153 -0.019218327 0.059877533

chords_tempNet.batchnorm_1.weight f4 [1024]
000000 6f be 90 bc 85 84 b5 bd f7 29 08 be fc 51 b6 35
       -0.01766893 -0.08863167 -0.13297258 1.3583917e-06
000010 d8 c9 5a 3d 5d 8e 6f bd b9 f5 4e 3d ff b9 68 bd
       0.05341515 -0.058485378 0.050527308 -0.056818005
000020 ba e8 96 bd 6f 5a 7e 3d 86 c9 e5 bd 0b 0f 76 bd
       -0.07368608 0.062097963 -0.11220078 -0.06007294
000030 f7 f5 92 38 dd ba b6 bd 06 26 21 3d 60 c5 66 bd
       7.007637e-05 -0.0892236 0.039342903 -0.056340575
000040 bf e1 b5 3d a4 42 9e bd 64 bd 4d ba 51 46 ec bc
       0.08880948 -0.077275544 -0.0007848351 -0.028842123
000050 ac 87 ca bd a7 03 ed bc e6 6b c9 bd 85 55 74 35
       -0.098891586 -0.028932406 -0.09835033 9.102153e-07
000060 20 ba d1 bd 81 e1 83 ba c7 40 9d 3d a3 e3 ad bd
       -0.10240579 -0.0010061712 0.07678371 -0.08490684
000070 09 10 4b 3d 4d b5 24 bd 2d fd a7 bd 35 cd 26 bd
       0.04957584 -0.040211964 -0.08202586 -0.040723044
000080 02 36 c8 bd 55 f5 f2 bd 09 38 bc bd ee 40 a2 bd
       -0.09775926 -0.118631996 -0.09190375 -0.079225406
000090 5b 6c 28 3d b0 90 6f bd dc 27 95 3d cb 49 c7 bc
       0.04111896 -0.058487594 0.07282993 -0.02432718
0000a0 a0 cb 22 3d 71 a5 a8 bd 11 06 c5 bd 63 ba 66 bd
       0.039744973 -0.082346804 -0.09620298 -0.056330096
0000b0 53 21 d4 b8 1a 0e 11 39 de c9 07 3b e8 25 e5 bd
       -0.00010115155 0.00013833531 0.0020719687 -0.11188871
0000c0 57 63 90 3d 3a 90 b9 bd f2 49 cb bd 62 69 90 bd
       0.070501976 -0.09060712 -0.09926213 -0.0705135
0000d0 ce be 27 bd 6d 58 9c 3d 36 6f 06 3e f9 dc 3d bd
       -0.04095345 0.076340534 0.13128361 -0.046353314
0000e0 78 27 81 3d da 46 68 3d c1 c2 1e 3b 59 35 82 bd
       0.06306356 0.056708194 0.002422497 -0.063578315
0000f0 e7 7a 57 ba d1 0b c0 3d 3c 11 57 bd f8 d0 8f 3d
       -0.0008219913 0.09377254 -0.05250667 0.070222795
000100 6f 0e c3 39 4e 39 b5 3d 51 ad e4 3c c7 0c a6 3d
       0.00037204052 0.088488206 0.027914675 0.08107906
000110 ca f0 d5 b8 8a 22 93 bd 3d 12 56 bb 65 b7 06 39
       -0.00010201482 -0.07184322 -0.003266468 0.00012847556
000120 81 a2 8f 3d 60 b2 ff bb f2 4d 96 bd 6b a1 b5 3d
       0.07013417 -0.0078032464 -0.07339086 0.08868679
000130 52 8d af bd b8 01 7f ba 61 29 5d ba 34 85 8a bd
       -0.085718766 -0.0009727734 -0.0008436647 -0.06763688
000140 8e 63 44 bd 55 52 ad 3d 89 bd 8a 3d 7b a1 11 b9
       -0.047946505 0.08462969 0.06774432 -0.00013888434
000150 9a 17 c8 bd 2a 7d 8c bd d1 22 a7 bd b7 49 b5 3d
       -0.09770127 -0.06859811 -0.081609376 0.088519506
000160 6e 15 30 bd 5f 6f 8a 3c 41 07 8f bd 5c f7 9b bd
       -0.042989187 0.016898809 -0.069838054 -0.076155394
000170 d1 54 42 3d 3c 09 8a bd 27 8d 7a bd 56 95 87 3d
       0.04744417 -0.067400426 -0.06116977 0.066202804
000180 fa 47 32 bb 23 ac be bd 61 0d a8 ba 99 db 75 bd
       -0.0027203546 -0.09310176 -0.001282137 -0.060023878
000190 d6 8e 27 b9 6c 67 30 3d ac 83 df 3c 9e 23 46 3d
       -0.00015979572 0.04306738 0.027284466 0.04837381
0001a0 d2 99 7b bd 8e c8 8e 3d 3b 1e b5 3d 23 7a 82 3d
       -0.06142599 0.069718465 0.08843657 0.06370952
0001b0 f3 39 af 3d 7a 16 60 3d 75 bf a3 bd a4 b1 bc 3c
       0.08555975 0.054708935 -0.07995502 0.023033924
0001c0 1b 30 a1 bd 81 aa 16 3b db 87 c5 bd 15 ca 41 b9
       -0.078705035 0.0022989812 -0.09645053 -0.00018481196
0001d0 ad 74 a9 bd ee 78 e4 3d b2 44 fc 3d 74 26 56 3a
       -0.08274207 0.11155878 0.1231779 0.0008169182
0001e0 90 0e a1 bd 25 55 99 bd 57 69 68 3c 68 f3 73 bd
       -0.07864106 -0.07486943 0.014185271 -0.059558302
0001f0 34 10 b4 3d c2 b9 b4 bd 37 0f 90 3d 4f 61 90 ba
       0.08792153 -0.08824493 0.07034152 -0.0011015328
000200 7e 07 8d 3d 34 f8 f9 bd ee af 4b bd 98 67 b5 bd
       0.06886195 -0.12205544 -0.049728326 -0.088576496
000210 d0 62 67 3d fc e7 40 3d bf 7b d1 b7 e7 c3 e0 bd
       0.05649072 0.047096238 -2.4972365e-05 -0.109748654
000220 ac f2 8c 3d 3f fd 9d 3d 6d 81 a5 3d a5 d2 e8 3d
       0.068822235 0.077143185 0.08081327 0.11368302
000230 40 59 35 3d 3f f1 91 bd c6 ae 6b 3d ca 45 c1 3d
       0.04427457 -0.07126092 0.057539724 0.09437139
000240 ae c7 99 bd ea 5a 89 bd 1c 0e cb 3d da 40 99 3d
       -0.07508789 -0.067067936 0.099148005 0.074830726
000250 0f 5c 8e bd 27 23 5c 3d dc 2f 28 bd 12 fd f5 bc
       -0.069511525 0.05374446 -0.041061267 -0.0300279
000260 5c 34 52 3c be e9 4d 3d 54 1d 9c 39 72 a8 9d bd
       0.012829866 0.050271742 0.0002977649 -0.07698144
000270 60 99 67 3d de 5c ad 3d 95 7c b1 3d d3 80 81 bd
       0.056542754 0.08464979 0.0866634 -0.063233994
000280 3e 99 8f 3d 24 16 8d 3d 9c 90 8c 3d 49 e7 28 3d
       0.070116505 0.068889886 0.068635195 0.041236196
000290 08 11 c9 bd fe d1 66 bd fa 03 2a 3d 88 fc d5 3c
       -0.098177016 -0.056352608 0.0415077 0.026121393
0002a0 08 52 2e bd ac 7e 03 b9 78 fe 9d 3d 0c 43 bf 3d
       -0.0425587 -0.00012540322 0.07714552 0.0933896
0002b0 a1 4d 95 b8 0e 7d c7 bd fe c3 f7 bd ae 21 63 bd
       -7.119333e-05 -0.09740649 -0.120979294 -0.05545204
0002c0 18 cd 9f 3d 5f ef 09 3c 5c f5 14 3d 20 62 21 bd
       0.078027904 0.008418887 0.036366805 -0.03940022
0002d0 5c 5c c7 bd 49 2c c3 bd 50 d9 77 bd b9 21 17 bd
       -0.09734413 -0.09529931 -0.06050998 -0.036897395
0002e0 d9 b9 67 bd 7b 42 56 3d 56 02 5c 3d 88 6f 8d bd
       -0.056573723 0.052309494 0.053713165 -0.069060385
0002f0 b2 d0 3e 3d 35 c6 c3 bc 08 d8 58 3d 8e 21 71 bd
       0.046585746 -0.023898223 0.0529404 -0.05886989
000300 81 87 b7 bd e6 43 03 39 83 12 cd 3d 9a 1f 8f bd
       -0.08961392 0.00012518428 0.100132965 -0.069884494
000310 f6 a9 92 3d 4e b3 5e bd 32 4f cc 3c 47 06 42 bd
       0.07161324 -0.054370217 0.024940107 -0.047369268
000320 ce 65 78 bd 42 de 9b 3d be 8d 99 bd 9c 04 8f b9
       -0.060643964 0.07610752 -0.07497738 -0.0002727852
000330 a2 cc 64 bc 7c 66 8a 3d 2a 3f b7 3d bb 65 5f bd
       -0.013964804 0.067578286 0.089475945 -0.054540377
000340 02 f4 86 39 b5 03 46 3d 92 37 a3 3d 13 ab 91 bd
       0.00025740272 0.04834338 0.079695836 -0.07112708
000350 e0 5a 4d 3d 5e 1f ad 3d f0 98 8f bd ba 43 8c bd
       0.050135493 0.084532484 -0.070115924 -0.06848855
000360 0f b1 a2 3d 06 8f 65 3d 47 89 64 bd 20 2a b1 bd
       0.079439275 0.0560446 -0.05579498 -0.08650613
000370 e7 03 1d 3d de d6 e4 3a 5a a0 55 3d 5c 96 8b bd
       0.0383338 0.0017459055 0.052154876 -0.06815788
000380 56 61 54 bd 03 51 eb ba 74 ae e5 3d 12 1f 92 bd
       -0.05185064 -0.001795322 0.11214915 -0.071348324
000390 13 6a 94 bd 31 2a db bd e1 b5 a4 3d 28 54 77 3d
       -0.072467946 -0.10701407 0.08042503 0.060382992
0003a0 b0 cb c1 bd 9b 8c 2c bd fe 93 52 3d f1 09 8e bd
       -0.094626784 -0.04212628 0.051410668 -0.0693549
0003b0 1a a0 ad 3d 5b 67 92 bd 4f 1f a2 3d 62 8f 9a bd
       0.084778026 -0.0714862 0.07916128 -0.07546879
0003c0 f0 aa 88 3d 61 e0 bc 39 a8 6b 94 ba 3a f7 bd bd
       0.06673229 0.0003602533 -0.0011323588 -0.0927567
0003d0 15 25 a9 bd 84 ca 04 b9 f8 73 77 3d 5e 34 28 bd
       -0.08259026 -0.00012663944 0.06041333 -0.041065566
0003e0 4a a7 0a b9 b4 da 8c bd eb 00 7c 3d 23 80 b5 3c
       -0.00013223026 -0.06877652 0.061524313 0.022155827
0003f0 fd 36 83 bd 39 b1 9c bd ea 06 92 bd eb 91 ca 3d
       -0.064069726 -0.0765099 -0.07130225 0.09891113

chords_tempNet.batchnorm_1.bias f4 [1024]
000000 3b 12 e9 3c 14 23 b8 3c 3b 6f 97 3d 6b 73 08 ba
       0.028451076 0.022477664 0.073942624 -0.0005205187
000010 28 d6 0a 3d 56 da 87 bb 74 83 92 3c 53 62 28 3d
       0.03389564 -0.0041459007 0.017884947 0.041109394
000020 dc 16 9f 3b e5 0f fa 3b 5c 57 95 3d 7f e6 19 3b
       0.00485502 0.0076312893 0.07292053 0.0023483334
000030 5f 6f 71 ba ca 50 9d 3c 1d da 80 bc 61 fe 44 3d
       -0.0009210016 0.019203562 -0.015729005 0.048094157
000040 cf c7 1f 3c 13 64 1f 3b b2 3e 74 bb a4 6d d4 3c
       0.009752228 0.0024321123 -0.0037268815 0.025931187
000050 04 e4 b2 3b 9a 6b ad bb f9 e5 82 3c c0 94 35 b9
       0.0054593105 -0.005292368 0.0159788 -0.00017316919
000060 b2 43 3a 3c 44 8c ad bb 86 ef dd 3b 20 d4 2b 3c
       0.011368679 -0.005296262 0.006772938 0.010487586
000070 ae a4 0c bc e7 be d1 3c 60 aa 00 3c 67 22 5d 3c
       -0.008584185 0.025603725 0.007853121 0.013496972
000080 a7 fb 95 3d f8 7d a3 3d 07 be 1e 3c c6 8e 76 3d
       0.073233895 0.07983011 0.009688861 0.060194753
000090 65 94 3b bc 3e 2b ea bb 94 c8 1a bc 48 59 7c bc
       -0.011448954 -0.007146268 -0.009447236 -0.015402146
0000a0 d2 19 b8 ba ee 9e 18 3b 46 89 8a 3d 13 2b 6b 3d
       -0.0014045781 0.002328809 0.06764464 0.057414126
0000b0 04 98 48 ba 29 76 45 ba 0c b3 0c bc cc 8d 85 3c
       -0.00076520466 -0.0007532561 -0.00858761 0.016302966
0000c0 64 72 56 3b 9c 3a 6f 3d 09 3c a3 3d ac 35 31 3d
       0.003272199 0.058405504 0.07970435 0.043264076
0000d0 08 07 74 3b b8 46 8e 3d ca ef 9b 3d b4 41 87 3d
       0.0037235636 0.06947082 0.076140955 0.06604329
0000e0 c7 a6 47 3d 1d 49 45 3d f0 f2 59 bc 31 b8 5d 3d
       0.048743036 0.04816543 -0.01330255 0.054130737
0000f0 49 74 c0 bb 22 01 2c 3c 56 06 04 bc 36 b6 48 3d
       -0.0058732373 0.010498317 -0.008058151 0.049001895
000100 cc d2 00 bb 4b 35 a3 3d 51 13 e6 3c 78 57 96 3a
       -0.0019656895 0.07969149 0.028085383 0.001147016
000110 85 3f a8 ba fc f7 2e bb fd 15 45 bb f8 9a 2a ba
       -0.0012836313 -0.0026698103 -0.003007292 -0.00065080775
000120 7f 47 1d bb f4 14 d9 3c b8 da 63 bb 79 fb 8a 3d
       -0.0023998914 0.026499249 -0.0034767818 0.06786246
000130 35 32 93 3d b9 80 9d bb bb 74 95 bb c7 6d 3e 3d
       0.071873106 -0.0048066047 -0.0045610345 0.04649141
000140 80 c7 78 3d 6b 67 9e 3d 72 ad 9f bb 14 ff b1 ba
       0.060737133 0.07734569 -0.004872971 -0.0013580048
000150 d3 1c 29 3c eb 42 ac 3c dc 5b 86 3d d7 76 3d 3c
       0.010321814 0.021028003 0.065604895 0.011563978
000160 98 63 0c 3d d1 91 f9 3b b0 c7 95 3d ef c9 94 ba
       0.034274668 0.0076162596 0.07313478 -0.0011351685
000170 7c 87 fb 3c b6 73 4d 3d b6 35 4e 3d e1 e6 d3 ba
       0.030704252 0.05015918 0.05034419 -0.001616683
000180 d5 d9 d8 bb 45 40 92 3a cf bf 0e bc 53 7e 5d 3b
       -0.0066177645 0.001115807 -0.008712723 0.003379722
000190 bd 5b 15 bb 59 69 c1 3c d4 7c a8 3c 0b 71 3b bc
       -0.0022790276 0.023609804 0.020567335 -0.011440526
0001a0 d6 47 9b bb 1e 34 f1 3b 1d 3c 42 3b 22 40 2a ba
       -0.004738788 0.007360949 0.002963788 -0.0006494542
0001b0 08 da 95 3d f4 b3 9f 3d e9 86 7a 3d 1a 28 35 bc
       0.07316977 0.07797995 0.061163817 -0.011056924
0001c0 29 3c 71 3d bf 8f 09 bc fa 6a 9d 3d f4 d6 75 ba
       0.058895264 -0.008396088 0.0768642 -0.0009378039
0001d0 3a 64 d9 3b f9 90 4d 3c c7 93 83 3c 2f b8 a1 bb
       0.0066342624 0.012546771 0.016061677 -0.0049352865
0001e0 f0 ba 7a 3b 2b 9c 07 3c 2e 82 20 3c 8f df 79 bb
       0.0038258396 0.008276979 0.009796662 -0.0038127636
0001f0 42 51 92 3c 72 6f 19 3c f7 8c b8 3b f6 88 bd bb
       0.017861012 0.00936495 0.0056320387 -0.0057841493
000200 17 a6 90 bb ce e5 a8 3d ce 88 7e bc a6 f0 66 3d
       -0.0044143307 0.08246957 -0.0155355465 0.056381844
000210 87 cd 82 3b ca 30 43 3c 02 c4 5c ba aa 82 6a 3c
       0.003991786 0.011913488 -0.00084215414 0.014313379
000220 1e 09 8f bb b6 9a 99 3d 74 8b 4f 3d a4 dc 99 3d
       -0.0043651005 0.07500212 0.050670102 0.07512787
000230 b6 3a 04 3d 76 f8 79 3d 26 9d 2c 3c 2b ea c7 b8
       0.032282554 0.061027966 0.010535514 -9.5326766e-05
000240 73 38 97 bb 76 6d 15 3d 65 eb bf 3b f5 ab 3f 3d
       -0.0046148836 0.036481343 0.0058569186 0.04679485
000250 e2 0a 5c 3d 99 35 de 3a f4 c5 f5 3c 68 ef f9 bb
       0.053721316 0.0016953229 0.030001618 -0.0076274164
000260 b3 0d 11 bb 1f e6 6f b9 ae a0 2c bb fb e0 0a 3c
       -0.002213341 -0.00022878543 -0.002634089 0.008476491
000270 6b d3 60 3b 33 7a 00 3c 9c 6a c2 3b 44 d1 02 3c
       0.0034305702 0.007841635 0.005933119 0.007984463
000280 6b 0a 68 3d ad 97 70 ba b1 8a 8c 3b 7c b9 22 bb
       0.05665056 -0.0009177875 0.0042889942 -0.0024829796
000290 35 0a 2c 3d e0 77 a1 bb 99 c7 28 3d 79 8f b9 3c
       0.04200192 -0.0049276203 0.041205976 0.02265142
0002a0 c3 e6 2f 3d b0 b3 cf ba 34 c4 5a 3b 18 cd 57 3d
       0.04294468 -0.0015846398 0.0033381106 0.052685827
0002b0 da 07 c2 b9 64 33 7c 3d 6e 60 2e 3c de 99 27 bc
       -0.00037008413 0.061572447 0.010643108 -0.010229556
0002c0 81 9f 82 3d 16 3f 3f ba 28 81 80 3d 29 2e 3f bb
       0.06378079 -0.00072954723 0.062746346 -0.00291718
0002d0 08 e6 40 3b d6 73 65 3c d4 45 13 3d df 8c 30 bb
       0.0029433984 0.014004668 0.035955265 -0.0026939434
0002e0 93 26 6d 3d 21 44 69 3d 5c 00 71 3a b2 30 4b 3c
       0.057898115 0.05694974 0.0009193474 0.012401747
0002f0 cd 86 15 3d d7 af 32 3c cb 8f 01 bc 52 88 f4 ba
       0.03650551 0.010906181 -0.007907818 -0.0018656349
000300 4e cd bd 3b 80 32 a6 ba b6 42 45 3c e2 a0 44 3d
       0.0057922965 -0.0012679845 0.012039831 0.048004992
000310 eb b7 8d bb 1c 92 00 3d cc 4b 10 3c fc 7b 41 3d
       -0.0043249032 0.03138934 0.008807134 0.04723738
000320 7c 17 26 ba 5c c9 9b 3b 69 09 77 3d 8c 44 45 bb
       -0.0006335897 0.0047542285 0.06031171 -0.0030100672
000330 4f a7 9b b8 06 7a c7 b8 e1 0d 9b 3b 7f 20 39 3d
       -7.4221396e-05 -9.511788e-05 0.004731879 0.045197006
000340 41 7b c1 ba 85 63 4d bc c9 16 8d 3d f9 d9 6c bb
       -0.0014761464 -0.012535934 0.068891115 -0.0036140664
000350 17 88 1d bb af f3 ef 3b e7 b5 85 3d 3e 4e c4 3b
       -0.0024037415 0.0073227505 0.06528836 0.0059907725
000360 43 bd 1f 3b 15 44 d2 3c 49 95 2e bc a7 5f c6 3b
       0.0024374283 0.02566723 -0.01065571 0.006053883
000370 ae 46 f7 3c a0 e8 f8 bb cf f6 86 bb 6d 4d 62 3d
       0.03018507 -0.0075960904 -0.0041187773 0.05524962
000380 3a 44 2c bc b0 8e e0 bb cd b4 22 3c c9 22 57 3d
       -0.010514313 -0.006852947 0.009930802 0.052523408
000390 3f 6a 92 ba 00 68 74 3c 9f da 89 3d b3 9b 5d 3d
       -0.001117058 0.014917374 0.06731152 0.054103564
0003a0 4a 74 20 3d 86 b5 6a ba 28 2c 42 bc e3 29 27 3d
       0.039173402 -0.00089534407 -0.011851348 0.04081143
0003b0 f5 40 e1 3b cb 74 7c 3d 9e 9e 3b 3d dc b3 29 3b
       0.0068741986 0.06163482 0.045805566 0.0025894558
0003c0 b4 87 2f 3d a5 69 39 bb 1a 61 cc bb 10 05 2b 3b
       0.042854026 -0.0028291729 -0.0062371613 0.0026095547
0003d0 c6 eb 2f 3d a5 b8 26 bb 0c c9 55 3d 3a ce c8 b9
       0.04294946 -0.0025439647 0.052193686 -0.00038300623
0003e0 fa 2b 51 ba c5 6c 61 3d b5 5b 82 3a 38 54 a4 bb
       -0.00079792703 0.05503537 0.0009945544 -0.0050149225
0003f0 65 8d 43 3a 76 61 87 3b 15 a9 bb ba 3a a3 83 3c
       0.0007459729 0.0041314913 -0.0014317358 0.016069043

chords_tempNet.batchnorm_1.running_mean f4 [1024]
000000 66 34 25 3d cf 37 c9 3c bd 23 0a bc f9 2d d1 bc
       0.040333174 0.024562744 -0.008431372 -0.025534617
000010 a9 c3 6a 3c e3 d7 b2 3c 5b 0d 0b bd de e0 09 3c
       0.014328876 0.021831458 -0.033948284 0.008415429
000020 83 3a 54 bc 83 23 ae 3d 2a 49 4a 3c 0f e6 ee bc
       -0.012953403 0.08502867 0.012346545 -0.029162435
000030 c0 16 6b 3c 5c 4f 81 bd db b0 25 bd 09 5f b1 3b
       0.014348686 -0.06313965 -0.040451866 0.0054129404
000040 35 e4 e2 bc 82 19 7d bc 7a 6c 5c 3d ce 5e 7f bd
       -0.027696708 -0.015447976 0.05381439 -0.062346272
000050 3f 7e 37 3d 51 d4 e5 3c 07 14 cc ba 15 21 9b 39
       0.044798132 0.028055342 -0.0015569933 0.00029588552
000060 59 1d fc bb 0f 71 4c bd 66 9a 79 3c 10 d1 62 3d
       -0.007693928 -0.04991251 0.015234565 0.05537516
000070 c5 20 8c bc 5b 9b ad bb aa e9 9d 3d df 5e 9e 3b
       -0.01710547 -0.005298061 0.077105835 0.004833087
000080 04 cc ac bc 78 5f 16 bb 73 68 c5 3c 78 3f 76 bc
       -0.021093376 -0.0022945087 0.024097657 -0.015029781
000090 5c 9c d0 3a 12 ef de bb a6 e7 28 bd c6 34 5c 3d
       0.0015915739 -0.0068034017 -0.041236542 0.053761266
0000a0 a1 fa e5 3c fb eb 36 bc 83 2a 90 3b 0e 3a 64 bb
       0.02807361 -0.011164661 0.004399599 -0.0034824642
0000b0 29 1b 57 3d ae e7 10 3d 95 13 fd 3c 9b d9 00 bd
       0.052516136 0.035377197 0.030893127 -0.031457525
0000c0 a6 f6 3e bd f0 bb a0 3c f0 fe 5a 3c 61 c0 23 3d
       -0.04662194 0.019620866 0.013366446 0.03997839
0000d0 52 da 2b bd aa 93 63 3c 1c 3d fb bc 0d 20 0b bd
       -0.041956253 0.013890186 -0.030668788 -0.033966113
0000e0 cd 8f a9 bc 93 8f 33 bc 95 21 3c bd 2a bc e9 3a
       -0.020698452 -0.010959524 -0.045930464 0.0017832567
0000f0 a7 76 de bc 93 ff 98 3c 0a 0d 25 3c 05 ff 67 3d
       -0.027156187 0.018676555 0.01007391 0.05663969
000100 45 97 fd bb bd 56 d1 3c 07 18 08 3d ee 05 a2 bc
       -0.00773898 0.025554055 0.03322604 -0.019778218
000110 74 f7 67 bd c4 10 3d 3c 8f 8e ae bc 8f 58 1b bc
       -0.056632474 0.011539642 -0.021308212 -0.009481563
000120 e5 41 2a bd 2c 92 e4 bc 05 b7 c8 bc b5 df 19 3d
       -0.04156675 -0.027901731 -0.024501333 0.03756686
000130 62 c5 cd 3b 8c e3 cc bc aa fa ba bc e2 59 3d 3c
       0.0062796334 -0.025010847 -0.022824604 0.011557074
000140 cb 10 bb 3b 49 c8 b1 bc 3e 62 dc bd ff 54 22 3d
       0.005708789 -0.021701949 -0.10760926 0.03963184
000150 62 5e 0e bd d2 3b 78 bb c9 ad 1d bd 76 bd 46 3c
       -0.03475798 -0.0037877453 -0.038495813 0.012130132
000160 22 1d 07 bd f0 8b 11 3b 28 49 6f bd cc 1e 2c bc
       -0.032986768 0.0022208653 -0.058419377 -0.010505389
000170 2b ca 56 3b 71 fb 45 3b 91 b3 05 3d 64 50 46 bd
       0.003277431 0.0030209685 0.03264195 -0.04841651
000180 c1 1b 6b bd c1 fa 3e 3d 26 db 36 bd ed 21 0c bd
       -0.057399515 0.046625856 -0.04464259 -0.03421204
000190 68 93 d2 3b cc cf df bb 94 b8 e5 3c a0 69 fa bc
       0.0064262636 -0.0068301912 0.028042115 -0.030567944
0001a0 bb fb 07 3d f5 a1 69 3d 1a 04 99 3d 99 43 cb bc
       0.033199053 0.05703922 0.074714854 -0.024812507
0001b0 76 62 95 3b dd a5 2e bc ba 41 48 3b c2 f2 75 bd
       0.0045588566 -0.010659662 0.0030556754 -0.060045965
0001c0 62 d7 1e 3c 33 d8 85 bc e1 27 ab 3d ec c3 41 3c
       0.009694906 -0.016338443 0.08357216 0.011826497
0001d0 25 ff 8b bc 52 ac 63 3c 3c b0 dd 3b 4f ba 7d bb
       -0.017089436 0.013896065 0.0067653935 -0.0038715785
0001e0 e7 b2 13 bd 6e b5 0b bc 09 44 7c 3c 58 e2 df 3c
       -0.036059286 -0.008527143 0.01539708 0.027329609
0001f0 6b 13 e5 bc 29 57 68 bd 59 d1 ee 3c 88 99 eb 3c
       -0.02796336 -0.056723747 0.02915256 0.028759733
000200 12 b7 d9 bc 55 73 4d 3d bb a3 fc 3c 44 71 e7 3c
       -0.026576553 0.050158817 0.030839792 0.028252251
000210 83 2a 1a bc 14 46 12 bc ed a9 b1 3c a1 cd 2f bb
       -0.00940955 -0.008927841 0.021687472 -0.0026825445
000220 fc ed c3 3c 53 bc f7 3b 09 07 cf 3c 63 c5 e5 bc
       0.02391719 0.007560292 0.02527191 -0.028048223
000230 60 06 d7 3b 38 76 40 3d ef 5e 86 3d c7 a1 1a 3d
       0.0065620393 0.046987742 0.06561076 0.03775194
000240 62 b6 05 bc 40 16 c1 bb ba be b2 3d 05 fd 24 3c
       -0.008161159 -0.005892545 0.087277845 0.01007009
000250 ea bf f3 3c f6 36 85 3c 53 c3 fd bc 90 eb 17 3c
       0.029754598 0.016261559 -0.030976927 0.009272471
000260 c7 49 b5 3c dd 52 68 bd 96 44 57 3d bd 18 aa b9
       0.022129906 -0.05671965 0.052555643 -0.00032443358
000270 84 af 81 3c 14 7a 70 bd fc 4e 69 3a 25 47 8a 3c
       0.015830763 -0.058710173 0.0008900014 0.016879627
000280 4a 8a 2e 3d ea a1 ce 3b 43 07 b9 3c a5 fd 97 3d
       0.04261235 0.0063059228 0.02258647 0.07421426
000290 6f 3f 4e 3c bc 93 ca 3c e1 fb 50 3d 29 c9 52 3c
       0.012588366 0.024728648 0.05102146 0.012865343
0002a0 f0 f2 14 3c fc 18 80 3c c3 6a 5d 3d 6f 02 23 bd
       0.009091124 0.015636913 0.054056894 -0.039797243
0002b0 9c 98 bc 3c 8a 1b a6 bb 72 b9 6e 3b 0a 6d 2a bc
       0.023021989 -0.005069201 0.0036426452 -0.0104019735
0002c0 33 73 ff bc 5b 68 ab bc 72 55 56 3c e1 fa 4d 3c
       -0.031182861 -0.020923784 0.013081895 0.012572021
0002d0 fb 0f ea 3c 3d 06 47 3c c8 a6 56 3b f9 2b 8d bd
       0.028572073 0.012147483 0.0032753218 -0.06893153
0002e0 2d de 3b bd eb 8c 90 3d 38 df 42 3d 0f 1f 2d 38
       -0.04586618 0.07058128 0.04757616 4.127534e-05
0002f0 da 63 35 3c 03 15 b5 38 6c 67 c2 3c a6 72 11 bd
       0.01107117 8.634666e-05 0.023730956 -0.035509728
000300 e9 27 fe 3b 18 81 5c bd 4b 01 3c 3d 45 49 18 3d
       0.0077562225 -0.05383405 0.04589967 0.03717925
000310 10 0d 61 ba 45 8f c5 3c 13 18 4a bd 35 9a 60 3d
       -0.00085850153 0.024116168 -0.049339365 0.054834563
000320 b1 b7 f2 3b b1 d4 26 3d 07 e0 58 bb f3 ec 0f bd
       0.0074071516 0.040730182 -0.0033092515 -0.03513808
000330 5c 9a 71 3d 97 a1 5f 3d f5 d3 bf bc 1b 4f e5 bc
       0.0589851 0.054597463 -0.023416499 -0.027991822
000340 35 13 44 3d 66 55 c5 bc 58 31 40 3d a0 c1 30 3d
       0.04786988 -0.024088573 0.046922058 0.043153405
000350 b1 ca 43 bd d1 e2 4e 3c 71 ff 03 bd 34 bd 1d bd
       -0.047800723 0.012627319 -0.03222603 -0.038510516
000360 28 5f 85 bc dc 75 cf 3d b9 22 cb 3b 27 c7 5d 3d
       -0.016280726 0.10129902 0.0061992076 0.054145005
000370 61 49 09 bc 50 b6 3c bc 79 dd 49 3d c5 d5 2d bd
       -0.008379311 -0.011518076 0.04928348 -0.042440195
000380 22 94 02 3d 22 07 75 bd c4 f5 fe bb 62 c7 50 3b
       0.03187955 -0.059821256 -0.0077807624 0.0031857123
000390 88 71 df bb 5a f8 05 bd 23 f2 b8 bc 44 54 7e 3c
       -0.006818954 -0.03270755 -0.022576397 0.01552302
0003a0 cb 18 5d 3d 9f f0 5f bc 23 68 07 bc e2 bc 29 bc
       0.053978723 -0.013668208 -0.008264574 -0.010359975
0003b0 75 e2 cf 3b 34 1b ae bc d9 83 93 3c 4d 13 38 bc
       0.0063441345 -0.021253206 0.018007206 -0.01123507
0003c0 90 01 c0 3d 88 da 09 3d 29 de 75 bc d8 91 90 bc
       0.09375298 0.033655673 -0.01500658 -0.017647669
0003d0 ed 68 af 3b b9 66 19 3d 12 8b d6 3c d4 3b 2c bd
       0.0053530843 0.03745148 0.02618936 -0.042049244
0003e0 8e cb a5 bc 0c 5e f5 ba f3 9c 98 bc d4 89 ac 3a
       -0.020238664 -0.0018720045 -0.018629527 0.0013163635
0003f0 20 21 95 bc 38 e4 26 3d 6e 8b 45 3d 2c e4 2b bc
       -0.018204272 0.04074499 0.048228674 -0.010491412
