run/weights/weights-g-100.pth (torch, 418811 bytes, 12 tensors)

chords_tempNet.convT_in.weight f4 [32, 1024, 2, 1]
0	0xbc5905b5	-0.01324599
1	0xbcac73e0	-0.021051347
2	0x3ca251f5	0.01981447
3	0x3c95d554	0.0182902
4	0xbccff332	-0.02538452
5	0xbb4a7f4a	-0.0030898624
6	0x3c7d818b	0.01547278
7	0xbb60476c	-0.0034222258
8	0x3c958de0	0.018256128
9	0xbcb12a6c	-0.021626674
10	0x3bd64fae	0.0065402603
11	0xbcf02894	-0.029316224
12	0xbb829b3f	-0.003985792
13	0x3b980e60	0.0046403855
14	0xbd006360	-0.03134477
15	0x3c24a6a7	0.010049499
16	0x3c89e556	0.016832989
17	0xbc7fee88	-0.015620835
18	0xbcd790fb	-0.02631425
19	0x3c951b6c	0.018201552
20	0xbcdf2c11	-0.027242692
21	0x3ca7addf	0.02046865
22	0x3d1f80c3	0.038941156
23	0xbc2568e9	-0.010095813
24	0xbbb74f19	-0.005594146
25	0x3d02d299	0.031939123
26	0x3cea46fe	0.028598305
27	0xbc28fd3c	-0.010314282
28	0xbd37ef7d	-0.04490613
29	0xbc593f2a	-0.013259688
30	0x3b95b879	0.00456911
31	0xbbbdd3b9	-0.0057930616
32	0xbcaabf8b	-0.020843288
33	0xbc612363	-0.013741347
34	0x3d24f6f6	0.040274583
35	0xbb5b7449	-0.003348606
36	0xbc955528	-0.018229082
37	0xbc51254e	-0.012765242
38	0xb9a5c5a1	-0.00031618497
39	0xbcca90b3	-0.024727201
40	0x3d48c8b7	0.04901954
41	0x3b091db5	0.0020922248
42	0x3c41dc76	0.011832347
43	0x3c80587a	0.015667189
44	0x3c3db017	0.011577628
45	0xbc32ea60	-0.010920137
46	0x3c53724a	0.012905667
47	0xbc43718b	-0.011928926
48	0x3cd6e39b	0.026231578
49	0xbc14ccfa	-0.009082073
50	0x3c6bc09c	0.014389183
51	0xbc28d3cf	-0.010304405
52	0xbc9e10b5	-0.019295076
53	0xbce1c89d	-0.02756148
54	0x3d12532e	0.035723858
55	0xbcd0ce55	-0.025489012
56	0xbd28e9d7	-0.041238632
57	0x3ca17a0d	0.019711519
58	0x3c5be65d	0.013421622
59	0x3cd7d6da	0.026347566
60	0x3d4ed521	0.050496224
61	0xbce34f02	-0.027747635
62	0x39714767	0.0002301015
63	0xbd3cdc94	-0.046108797
64	0xbd733bbb	-0.059383135
65	0x3ce3884d	0.027774954
66	0x3ba6be2f	0.0050885896
67	0x3d00f556	0.03148397
68	0x3cca6b95	0.024709502
69	0x3ca9bb10	0.020719081
70	0xbc3db84f	-0.011579587
71	0xbb21e8ae	-0.0024705338
72	0xbcb385bb	-0.021914354
73	0x3bb89b18	0.005633723
74	0x3cf8be72	0.030364249
75	0xbbb54e06	-0.0055329828
76	0xbd5360d6	-0.05160602
77	0x3c2b3024	0.010448489
78	0x3c898ddd	0.016791278
79	0xbc583432	-0.013196038
80	0xbbcf411f	-0.0063249017
81	0x3bfb0db9	0.007661548
82	0x3d114b25	0.035472054
83	0xbc945634	-0.018107511
84	0xbcaa3891	-0.020778926
85	0x3ca8383c	0.020534627
86	0xbc861325	-0.01636655
87	0x3c65617b	0.014000292
88	0x3cfe5d67	0.031050397
89	0xbbd4ccff	-0.006494164
90	0xbc170fdf	-0.009220093
91	0xbc89f9b0	-0.016842693
92	0xbca57feb	-0.020202598
93	0x3bc4543f	0.005991488
94	0x3c990280	0.01867795
95	0xbc7322b1	-0.014839814
96	0xbcd7d6d3	-0.026347553
97	0x3cb07e45	0.021544585
98	0xbc840285	-0.016114483
99	0x3c833efa	0.01602124
100	0xbcd2bd6c	-0.025725089
101	0x3d3d3601	0.04619408
102	0xbcc142f1	-0.02359149
103	0xbb14798e	-0.002265546
104	0x3bd435ab	0.0064761243
105	0xbc3e9e8d	-0.011634481
106	0xbce7223a	-0.028214563
107	0x3ba91292	0.0051596845
108	0x3d820290	0.06348145
109	0xbd0e2421	-0.034702424
110	0xbc967143	-0.018364554
111	0x3d088112	0.033326216
112	0x3d9a62a3	0.07538345
113	0xbc536f5f	-0.012904971
114	0xbd04a927	-0.03238788
115	0x3c693f22	0.014236243
116	0x3cc9b68d	0.02462318
117	0xbc17107d	-0.00922024
118	0xbbe8f5d6	-0.007109384
119	0x3c697c3a	0.014250809
120	0xbd14b579	-0.03630588
121	0x3b77e19c	0.0037823683
122	0xbbc472c3	-0.005995126
123	0x3cb91870	0.02259466
124	0x3cf7e8fe	0.030262467
125	0x37ac2da0	2.0525244e-05
126	0xbcd3f89c	-0.025875382
127	0x3cdc930d	0.026925588
128	0x3c4e4df6	0.0125918295
129	0x3bb16da3	0.005414681
130	0x3c3127d2	0.010812717
131	0x3cf6eb16	0.030141395
132	0x3d1599c8	0.03652361
133	0x3c835031	0.01602945
134	0xbd476268	-0.048677832
135	0x3c39836d	0.011322838
136	0x3c95cbfd	0.018285746
137	0xbc529680	-0.012853265
138	0x3ce30ded	0.027716601
139	0xbb90ad74	-0.0044152085
140	0xbc770f8a	-0.015079388
141	0xbbc9737a	-0.006147799
142	0xbc309bb8	-0.010779314
143	0xbc1cddb7	-0.009574345
144	0xbbaac0b2	-0.0052109594
145	0x3ca11bf6	0.019666653
146	0x3bcc2ea4	0.006231146
147	0x3ae868b9	0.0017731405
148	0x3d0a8a60	0.03382337
149	0xbd2080df	-0.0391854
150	0xbd0358e6	-0.032067202
151	0xbd57ae9e	-0.052656762
152	0xbccf3495	-0.025293628
153	0xbc89c85e	-0.016819175
154	0x3b21f477	0.0024712363
155	0x3cc67407	0.024225248
156	0xbd0413a4	-0.032245293
157	0x3cb77bd7	0.022397919
158	0x3a84365d	0.0010087002
159	0x3c642b24	0.013926301
160	0xbcd66897	-0.02617292
161	0xbd0afc38	-0.03393194
162	0xbcf3f240	-0.0297786
163	0x3c6616d3	0.014043528
164	0xbc63c246	-0.013901299
165	0x3c8edbc1	0.017438771
166	0xbc78de61	-0.015189738
167	0xbb2e5930	-0.0026603453
168	0x3da1eadb	0.07906123
169	0xbca962a0	-0.02067691
170	0x3c49a2eb	0.012306909
171	0x3d3f484d	0.04669981
172	0xbc0ccbb7	-0.008593491
173	0x3d0a9a9d	0.033838857
174	0xbccd17cf	-0.025035767
175	0x3ce195fd	0.02753734
176	0xbca4a508	-0.020098224
177	0xbb8cedc2	-0.004300804
178	0x3c944955	0.018101374
179	0x3cdad083	0.026710754
180	0xbd7fd1f3	-0.062456083
181	0x3c7c07a3	0.01538268
182	0x3ca9bacb	0.020718953
183	0x3a97bdc3	0.0011576939
184	0x3b604357	0.0034219825
185	0x3c3f2d25	0.011668478
186	0xbcfeda1d	-0.031109864
187	0x3cceaec5	0.025229821
188	0xbbdfe1aa	-0.006832321
189	0x3c8c451f	0.017122803
190	0xbcd10990	-0.025517255
191	0x3d2a8284	0.041628376
192	0xbc1af755	-0.009458383
193	0x3cf1438d	0.029451156
194	0x3d27e6f2	0.04099173
195	0xbc873389	-0.016504066
196	0xbb0b0066	-0.0021209954
197	0x3bed693e	0.007245212
198	0x3cb61b81	0.022229912
199	0xbc9aed1b	-0.018911889
200	0xbbd148f3	-0.00638687
201	0xbc71c327	-0.014756001
202	0xbc05d427	-0.008168257
203	0x3c02bf85	0.007980232
204	0xbc59d3a5	-0.013295089
205	0xbc42a753	-0.0118807135
206	0xbd18f90c	-0.037346885
207	0x3b52c3d5	0.0032160182
208	0xbc8739e5	-0.016507098
209	0xbc10a5b2	-0.008828567
210	0xbd1cdaff	-0.03829479
211	0xbcc0b4cb	-0.023523709
212	0xbc8d98a0	-0.017284691
213	0xbbc52983	-0.0060169115
214	0xbcc94d85	-0.024573097
215	0x3c8483c9	0.016176121
216	0x3d341124	0.04396166
217	0x3d1ed481	0.03877688
218	0xbc29fa7f	-0.010374664
219	0x3c12cfb4	0.008960653
220	0x3c605f50	0.013694599
221	0xbd51bc43	-0.05120493
222	0x3c2b8efc	0.010471102
223	0xbc7d031e	-0.015442638
224	0xbcc995f7	-0.024607642
225	0xbce91dc6	-0.02845658
226	0x3d151a0c	0.036401793
227	0x3c91bc0b	0.017789861
228	0xbd040715	-0.032233316
229	0x3b57303e	0.003283515
230	0xbc99a3c8	-0.018754855
231	0x3c553970	0.013014182
232	0x3bf0ef45	0.007352742
233	0x3974c53f	0.00023343133
234	0xbc872cb9	-0.016500818
235	0x3c748a41	0.01492554
236	0x3b512890	0.0031915046
237	0x3cf31499	0.029672908
238	0x3cfc6ad8	0.030812666
239	0x3c5abf22	0.013351234
240	0x3d10a26f	0.03531116
241	0xbc1c2a68	-0.009531595
242	0x3cf364f0	0.029711217
243	0xbc3e6a6a	-0.011622051
244	0x3c871c71	0.016493054
245	0x3c3b5cd8	0.01143571
246	0x3c513d26	0.012770927
247	0xbc337b4e	-0.010954691
248	0xbd680001	-0.05664063
249	0x3be13b1b	0.006873501
250	0x3d5e4b50	0.054271042
251	0x3c411ff6	0.011787405
252	0xbc1daed6	-0.009624204
253	0x3b826ba6	0.003980118
254	0x3c812a65	0.015767286
255	0xbaaa3d33	-0.001298821

chords_tempNet.convT_in.bias f4 [1024]
0	0xbd4a84ee	-0.049443178
1	0x3caff528	0.021479204
2	0xbdcaacfb	-0.09896275
3	0x3c6d0afb	0.01446795
4	0x3d8c77ff	0.06858825
5	0x3cefc32c	0.02926787
6	0x3d2b2237	0.041780677
7	0xbd811ff2	-0.06304921
8	0x3c1f3c0a	0.009718904
9	0xbc617c5b	-0.013762559
10	0xbde14a81	-0.110005386
11	0x3c6ae8a7	0.014337695
12	0xbb5e760e	-0.0033944878
13	0xbb9efce3	-0.004851924
14	0xbd14843b	-0.036258917
15	0xbdcdfc6f	-0.100579135
16	0xbce0c245	-0.027436385
17	0x3b4f8352	0.0031663966
18	0xbc050d9d	-0.008120921
19	0xbd6642c4	-0.056216016
20	0x3c8af0bb	0.016960492
21	0x3b97c019	0.004631054
22	0xbbb5f726	-0.005553144
23	0xbb9e8f49	-0.0048388583
24	0x3b458f53	0.0030145242
25	0x3b40be83	0.0029410429
26	0xbce67ae1	-0.028134765
27	0x3d146b7c	0.036235318
28	0xbc0b6042	-0.008506836
29	0xbca1b8e4	-0.019741483
30	0x3cac2ea5	0.021018336
31	0x394e159e	0.00019653744
32	0xbdf2d417	-0.11856859
33	0xbddf5f78	-0.10906881
34	0x3c9b51d4	0.018959917
35	0xbda52a4e	-0.080647096
36	0xbb2ad236	-0.0026065237
37	0x3d19b61d	0.037527192
38	0xbd26d69e	-0.04073202
39	0x3c3edbd4	0.011649091
40	0xbb957f8d	-0.0045623244
41	0x3b84d834	0.0040540937
42	0xbdedcb0b	-0.11610993
43	0xbd7f04e2	-0.062260516
44	0x3bba0623	0.005677001
45	0x3c0b0c32	0.008486794
46	0x398ae608	0.00026492798
47	0xbba539f9	-0.0050423113
48	0xbd17568b	-0.03694777
49	0xbd8a04fb	-0.06739231
50	0xbdab0c1e	-0.083519205
51	0xbd8ac639	-0.06776089
52	0xbc9455af	-0.018107263
53	0x3ddeefd3	0.108855866
54	0x3dd79b27	0.1052764
55	0xbd9859b3	-0.07438984
56	0x3d98c3ff	0.07459258
57	0x3d8f4bef	0.06996905
58	0x3c0bcc82	0.008532645
59	0xbda0f8a8	-0.078599274
60	0x3c9f95a5	0.019480536
61	0x3c009602	0.007848265
62	0x3cf325e6	0.029681157
63	0x3d86570c	0.065595716
64	0xbc3ea6cf	-0.01163645
65	0x3df4dcc4	0.1195617
66	0x3d4650a5	0.048416752
67	0xbc889056	-0.016670387
68	0xbbec3cd8	-0.0072094016
69	0x3c943010	0.018089324
70	0x3bc81ac2	0.0061067054
71	0xbc80dbe3	-0.01572985
72	0xbd3a797a	-0.045526005
73	0xbd1193cc	-0.03554134
74	0x3cbc484b	0.02298369
75	0x3db78d23	0.089624666
76	0xbdf82f45	-0.12118391
77	0xbc280d1c	-0.010257032
78	0x3c7392bc	0.014866527
79	0xbd971d54	-0.07378641
80	0xbd9070e9	-0.07052786
81	0x3dbb555e	0.09147142
82	0xbd34ee6b	-0.044172686
83	0xbbe81630	-0.007082723
84	0x3c94c859	0.01816194
85	0xbd5d4c6c	-0.05402796
86	0xbde39885	-0.11113075
87	0x3b994ba4	0.0046782065
88	0xbd92da4c	-0.07170543
89	0x3b406473	0.0029356747
90	0xbdf275e6	-0.118388936
91	0x3cfbdb9f	0.030744372
92	0x3d2768b0	0.040871322
93	0xbd749504	-0.059712425
94	0xbd805515	-0.06266228
95	0xbd3f4209	-0.046693835
96	0x3c92a8af	0.0179027
97	0x39c5b820	0.00037711952
98	0x3cac4ef6	0.021033745
99	0x3cb6b745	0.022304187
100	0x3c102e97	0.00880017
101	0x3d3cf582	0.046132572
102	0x3d653b2f	0.055964645
103	0xbd26ceda	-0.040724613
104	0x3ccaa074	0.024734713
105	0xbc96ecc9	-0.018423455
106	0xbb3bc854	-0.002865334
107	0xbd08ae0d	-0.033369113
108	0x3da3b1fc	0.07992932
109	0x3ddee171	0.10882843
110	0xbda939a1	-0.08262945
111	0x3b3813d1	0.0028087983
112	0xbda21b69	-0.07915384
113	0x3c18b78b	0.009321104
114	0xbdae49d1	-0.08510173
115	0x3c735f99	0.014854335
116	0x3c65819d	0.014007953
117	0xbccd8c08	-0.025091186
118	0xbc12da50	-0.008963183
119	0x3c4bfc9b	0.012450363
120	0x3cc807e6	0.024417829
121	0x3aeb37b3	0.0017945677
122	0x3cf2b91a	0.029629279
123	0x3cc8532d	0.024453724
124	0xbb75dea7	-0.0037516744
125	0x3af7623d	0.0018873882
126	0xbc10e463	-0.008843514
127	0x3c9c5897	0.019085212
128	0xbcb38dee	-0.021918263
129	0xbdcc3941	-0.09971858
130	0x3c7b0447	0.015320844
131	0xbdad9d22	-0.08477236
132	0x3aec3c0a	0.0018023264
133	0xba7a19a2	-0.0009540563
134	0xbc4f6f30	-0.0126607865
135	0x3c8c7e29	0.017150002
136	0xbcc272a8	-0.023736313
137	0x3df4b41c	0.11948416
138	0x3db24bb0	0.087058425
139	0x3deb03af	0.11475312
140	0x3d8ebf17	0.06970041
141	0xbd8ccbad	-0.068747856
142	0xbc4f4f19	-0.012653136
143	0xbbe73b9c	-0.0070566665
144	0x3c0f6fff	0.008754729
145	0xbd9c1c29	-0.076225586
146	0x3c2de61b	0.010613943
147	0x3da318ab	0.079636894
148	0xbd7b1590	-0.06129986
149	0xbb03c2db	-0.0020105157
150	0xbd8296bb	-0.06376406
151	0x3af27dbd	0.0018500608
152	0x3d06a22e	0.03286951
153	0xbcc1b16b	-0.02364417
154	0x3c43204c	0.011909556
155	0xb9b53166	-0.00034559815
156	0xbc619e36	-0.013770631
157	0xbd1fb0f3	-0.03898711
158	0xbcf9628a	-0.030442495
159	0x39ea6c60	0.00044712704
160	0x3db7270d	0.08942995
161	0xbcb52592	-0.022112641
162	0xbce8656e	-0.028368678
163	0x3c58d232	0.013233708
164	0xbd956b87	-0.072959
165	0x3d2448a4	0.040108338
166	0x3d92e3b8	0.0717234
167	0x3d081611	0.03322417
168	0xbd9970d4	-0.074922234
169	0x3af4605e	0.0018644442
170	0xbc856811	-0.016284974
171	0x3d9e40b1	0.07727183
172	0xb9b9d0eb	-0.00035441606
173	0xbdc85e4e	-0.09783612
174	0x3cc84b57	0.024449987
175	0x3cc0a563	0.023516363
176	0x3db02bc8	0.086021006
177	0x3d1d95fc	0.038473114
178	0x3d942603	0.07233813
179	0x3ccf58e1	0.025310935
180	0x3ce7675a	0.028247524
181	0x3ca98518	0.020693347
182	0xbd486b81	-0.04893065
183	0x3b9b0cad	0.0047317357
184	0xbdbfab0f	-0.09358799
185	0x3db22327	0.08698111
186	0xbcbc4303	-0.022981172
187	0x3c97081d	0.018436486
188	0x3d78285c	0.060585365
189	0xbc9a0235	-0.01879988
190	0xbc01287e	-0.007883189
191	0x3c5e7c21	0.013579399
192	0x3bc4dc55	0.006007711
193	0xbcaf8293	-0.021424567
194	0xbb49502e	-0.0030717957
195	0xbd5ae701	-0.05344296
196	0xbcbec192	-0.02328566
197	0xbd7ea809	-0.06217197
198	0xbcbc627f	-0.022996185
199	0xbd94709a	-0.072480395
200	0x3d20664e	0.039160065
201	0x3bfc9807	0.0077085528
202	0xbd971853	-0.07377686
203	0xba50943a	-0.0007956658
204	0xbb92014e	-0.004455722
205	0xbbef25cf	-0.0072982083
206	0xbcaa7bd9	-0.020811008
207	0xbd57f048	-0.052719384
208	0x3c0b21f2	0.00849198
209	0xbcbff419	-0.023431825
210	0x3deb43b1	0.114875205
211	0x3d232676	0.0398316
212	0xbd20cf48	-0.03926018
213	0xbc84c0c0	-0.016205192
214	0xbdc2de2d	-0.09515033
215	0xbb498560	-0.0030749664
216	0xbcfdfa93	-0.031003272
217	0x3d64490b	0.05573372
218	0x3c4d1fb4	0.012519766
219	0x3d1c3088	0.03813222
220	0x3d487623	0.04894079
221	0xbca5e711	-0.020251783
222	0x3a895c12	0.001047971
223	0xbdcc21f3	-0.09967413
224	0x3cba52dd	0.02274459
225	0xbc5e96a1	-0.013585717
226	0xbc3ca998	-0.011515044
227	0xbd96f4de	-0.073709235
228	0x3bce853e	0.006302505
229	0x3adcb481	0.0016838462
230	0x3db62325	0.08893422
231	0x3d88e077	0.06683438
232	0xbd78e501	-0.06076527
233	0x3b0da3a1	0.0021612423
234	0xbc85770e	-0.016292121
235	0xbd7afea2	-0.061277993
236	0xbc2441fb	-0.010025497
237	0xbde13c7c	-0.109978646
238	0x3d9ac70f	0.07557499
239	0xbb343ed3	-0.0027503266
240	0x3da26a12	0.079303876
241	0x3caf4bec	0.021398507
242	0x3b9d3af3	0.004798287
243	0x3c5777a3	0.013151082
244	0xbdb26d38	-0.08712238
245	0x3c617268	0.013760187
246	0x3d951b25	0.07280568
247	0xbbc417d4	-0.005984286
248	0x3c9edea2	0.019393269
249	0xbda9bf1e	-0.08288406
250	0xbd324cd3	-0.043530297
251	0xba662c2f	-0.00087803876
252	0x3adf5202	0.001703799
253	0x3d163bf1	0.03667826
254	0x3ca50487	0.02014376
255	0x3ba79ffd	0.0051155076

chords_tempNet.convT_out.weight f4 [1024, 32, 1, 1]
0	0xbc8b631d	-0.017015034
1	0xb8396bed	-4.420795e-05
2	0xbc237671	-0.009976969
3	0xbd11d404	-0.035602584
4	0xbca4f206	-0.020134937
5	0x3cbe54fb	0.023233881
6	0x3a8dc56a	0.001081628
7	0x3d9bb58d	0.076029874
8	0x3bac225d	0.00525312
9	0xbc3394cd	-0.01096077
10	0xbc6734b2	-0.014111685
11	0xba701051	-0.0009157705
12	0x3c6aa10c	0.014320623
13	0xbc947c13	-0.01812557
14	0xbc63929c	-0.013889935
15	0xbb5871e3	-0.0033026866
16	0x3d8afb31	0.06786192
17	0x3caea8e0	0.02132076
18	0xbd15f890	-0.036614
19	0x3cd66609	0.026171701
20	0xbc0724db	-0.008248533
21	0xbd09d746	-0.033652566
22	0xbb34cda7	-0.0027588399
23	0x3be4056d	0.0069586546
24	0x3d761ad5	0.060084183
25	0x3bb3656f	0.0054747383
26	0x3c2735ae	0.010205669
27	0xbc5c9d0e	-0.013465179
28	0xbd121131	-0.035660926
29	0x3ce2806c	0.027649127
30	0xbc4c83a3	-0.0124825565
31	0xbca2008f	-0.019775657
32	0x3e05999a	0.13046876
33	0xbca2b3c7	-0.019861115
34	0xbd3ea5f9	-0.046545003
35	0x3c9662f9	0.01835774
36	0x3da3b6b5	0.07993833
37	0x3b4bd068	0.0031099562
38	0x3cc9febf	0.024657605
39	0xbc19a514	-0.009377737
40	0xbd02b6e6	-0.031912707
41	0x3bebe3a5	0.007198768
42	0xba384fe2	-0.00070309464
43	0xbc92df73	-0.017928815
44	0x3d068a0c	0.032846496
45	0x3c0c061c	0.008546378
46	0x3cf0d81c	0.029399924
47	0xbc247da7	-0.0100397235
48	0xbc8bf118	-0.017082736
49	0x3b7dee2a	0.0038746693
50	0xbd50337e	-0.050830357
51	0xbd82259d	-0.063548304
52	0xbc0c95f8	-0.008580677
53	0x3c89f040	0.016838193
54	0xbcabbd69	-0.020964341
55	0xbcb35cb7	-0.021894796
56	0x3d3f2b17	0.046671953
57	0x3c692e3d	0.0142322155
58	0x3bbccf00	0.005761981
59	0xbbd05470	-0.006357722
60	0x3c5f0517	0.013612053
61	0x3b1a4e64	0.002354526
62	0x3b9d8fd3	0.004808405
63	0xbd1b7904	-0.037957206
64	0xbd932e04	-0.07186511
65	0xbc4e61e8	-0.012596585
66	0xbaf5ae9e	-0.0018744057
67	0xbb6452d2	-0.0034839404
68	0xbcabde2d	-0.020979965
69	0xbcd591e0	-0.026070535
70	0x3c19bc14	0.00938322
71	0x3ca747ee	0.020420041
72	0x3c46dd6c	0.012137752
73	0x3c665499	0.014058256
74	0x3cd13d06	0.025541794
75	0x3ce672ba	0.028130878
76	0x3c141973	0.009039271
77	0x3c32d89d	0.010915902
78	0xbcb8faf3	-0.0225806
79	0x3c3f9674	0.011693586
80	0x3dc88226	0.09790449
81	0xbc03046b	-0.007996659
82	0x3c458d76	0.012057653
83	0x3c37acba	0.011210615
84	0x3d9e3df8	0.07726663
85	0x3c94eef3	0.018180346
86	0x3d16b723	0.036795747
87	0x3cc0a42b	0.023515781
88	0x3bf37e9d	0.007430865
89	0x3c3bf839	0.011472755
90	0xbcc9d009	-0.024635332
91	0xbd78cac4	-0.060740247
92	0x3be7a71c	0.0070694815
93	0x3d58fd50	0.052975953
94	0xbc7a7761	-0.015287251
95	0x3c4c93e3	0.012486431
96	0xbc9be1e3	-0.01902861
97	0x3c914d94	0.017737187
98	0x3d37e2c2	0.044893987
99	0xbbce2bbc	-0.0062918346
100	0xbbae2732	-0.005314731
101	0x3c6d8d23	0.014498982
102	0x3c49438c	0.012284171
103	0xbc9f53e4	-0.019449182
104	0x3c010671	0.007875071
105	0x3d03537e	0.032062046
106	0xbd02e3c9	-0.031955514
107	0xba67d915	-0.00088442984
108	0xbb02f8f7	-0.001998482
109	0xbce75518	-0.028238818
110	0xbb518fca	-0.0031976574
111	0xbc8c9cff	-0.017164705
112	0xbd5e997f	-0.054345604
113	0x3c5c861f	0.013459711
114	0x3bfcac29	0.007710953
115	0x3cce1667	0.025157167
116	0xbd10ef82	-0.035384662
117	0xbb97de42	-0.0046346495
118	0xbc4668e0	-0.012109965
119	0x3cb5b924	0.022183008
120	0x3a2c651b	0.0006576345
121	0x3c9ac2e7	0.018891765
122	0xbccd1c51	-0.025037916
123	0x3c3b7bdb	0.011443104
124	0xbc1d65e3	-0.009606811
125	0x3c2df5af	0.010617658
126	0xbcfe1cec	-0.03101965
127	0x3c808811	0.015689882
128	0xbd1145d3	-0.03546698
129	0x3a29878d	0.0006467037
130	0x3cd98213	0.026551282
131	0x3c0297c7	0.007970757
132	0xbd1b386c	-0.037895605
133	0x3cfbd41a	0.030740786
134	0xbb5af32b	-0.00334091
135	0x3d165653	0.03670342
136	0xbcd01964	-0.025402732
137	0x3c7faa33	0.0156045435
138	0x3c34fc4a	0.0110464785
139	0x3d76791e	0.0601741
140	0x3d436127	0.047700074
141	0xbd0a941d	-0.033832658
142	0x3d05fda5	0.032712597
143	0xbbc7f08c	-0.0061016735
144	0x3d56e591	0.052465025
145	0xbbf4eab2	-0.007474267
146	0xbd207b1e	-0.039179914
147	0x3bdc9db7	0.0067326683
148	0x3c567833	0.013090181
149	0x3c1368e2	0.008997174
150	0xbba115c8	-0.0049159266
151	0x3cc22dfd	0.02370357
152	0x3b5e0a6d	0.0033880726
153	0x3b24e1f0	0.0025159083
154	0xbcf8c4c8	-0.03036727
155	0xbd97b0a8	-0.074067414
156	0xbcad1a4c	-0.021130703
157	0x39cd7b80	0.00039192662
158	0xbb97d866	-0.004633951
159	0xbbd1f469	-0.00640731
160	0x3d9e674e	0.077345476
161	0xbc07188e	-0.0082456
162	0xbd0dcbcf	-0.034618195
163	0xbd928689	-0.07154567
164	0xbcb39ac8	-0.021924391
165	0x3ae87075	0.001773371
166	0x3ce3f95c	0.027828865
167	0xbc51720e	-0.01278354
168	0x3d08d221	0.03340352
169	0x3c619b6d	0.013769967
170	0xbd18c246	-0.03729465
171	0x3d0d8283	0.034548294
172	0xbc085695	-0.008321424
173	0x3d1c59de	0.03817164
174	0x3c72604b	0.014793466
175	0xbc1475dd	-0.009061304
176	0x3d0f73e5	0.035022635
177	0xbbc2b4a3	-0.0059419437
178	0xbc162145	-0.0091632055
179	0xbb8207fe	-0.003968238
180	0xbcb6b485	-0.022302875
181	0xbc8db394	-0.017297544
182	0xbd1fcf92	-0.039016314
183	0xbc080982	-0.008303048
184	0x3d6c8ff0	0.057754457
185	0xbc462201	-0.012093068
186	0x3cccc7c3	0.024997598
187	0x3d416893	0.04721887
188	0xbc0a16cf	-0.00842829
189	0x3c3c7a43	0.011503759
190	0x3b8c9853	0.0042906194
191	0xbd837f43	-0.064207576
192	0xbd2cfd20	-0.042233586
193	0x3aa1458a	0.001230405
194	0x3c3bc7d7	0.01146122
195	0x3d303e5a	0.043028213
196	0xbc83df58	-0.01609771
197	0xbcc120e6	-0.023575258
198	0x3b702665	0.0036643979
199	0x3ca464a1	0.020067515
200	0xbc12461c	-0.008927848
201	0x3be0209a	0.006839824
202	0x3d4fd02b	0.050735634
203	0x3d3ed030	0.04658526
204	0x3b9a3b54	0.0047067795
205	0xbc80458c	-0.015658163
206	0x3d16fa58	0.03685984
207	0x3c46b224	0.012127433
208	0x3cde491f	0.027134476
209	0xbca28105	-0.019836912
210	0x3c7ed016	0.015552541
211	0x3bdee173	0.006801778
212	0x3c464fb0	0.01210396
213	0xbd2c619b	-0.04208527
214	0xbd1b36f5	-0.037894208
215	0x3c115f21	0.008872778
216	0x3c697960	0.014250129
217	0x3c69f6e4	0.014280055
218	0xbccdbf34	-0.025115587
219	0xbd48fdf5	-0.049070317
220	0x3d0d38a4	0.034477845
221	0x3c4c395a	0.012464846
222	0xbd2c1da3	-0.04202045
223	0x3c2030d9	0.009777271
224	0xbdb23b82	-0.087027565
225	0xbcf923cb	-0.030412575
226	0x3ccfb932	0.025356863
227	0x3c59586e	0.013265712
228	0xbbcd729d	-0.0062697665
229	0xbadf02db	-0.0017014401
230	0xbd576e14	-0.052595213
231	0x3cca1ad5	0.024670998
232	0xbca022da	-0.019547869
233	0xbcd789ee	-0.026310887
234	0x3bd0f8e2	0.0063773254
235	0x3c294ea1	0.010333688
236	0x3b85089d	0.0040598647
237	0xbb510025	-0.0031890955
238	0xbc2672a9	-0.010159173
239	0xbb566d7b	-0.0032719064
240	0x3dae3770	0.085066676
241	0xbd160fa5	-0.036636014
242	0x39bbfc9b	0.00035855625
243	0x3c7b541a	0.015339876
244	0x3d4077e0	0.04698932
245	0x3be0327e	0.0068419566
246	0xbc6d79d5	-0.014494379
247	0x3cc8a8ef	0.024494616
248	0xbba87c45	-0.005141767
249	0x3bf530ed	0.007482639
250	0x3c0e76b3	0.008695292
251	0xbc82ab59	-0.015950846
252	0x3d0c2f11	0.034224574
253	0x3a627a82	0.0008639471
254	0x3aaa0394	0.0012971037
255	0xbc53f33f	-0.012936412

chords_tempNet.convT_out.bias f4 [32]
0	0x3e1eb1f1	0.15497567
1	0xbe136566	-0.14394149
2	0xbc0b3f4a	-0.008498976
3	0xbe0c7f8d	-0.13720532
4	0xbe240a86	-0.1601964
5	0x3c829298	0.015939042
6	0xbd1f1b3c	-0.038844332
7	0x3e47985c	0.19491714
8	0x3cd34aab	0.02579244
9	0xbdbee0a6	-0.09320192
10	0xbe1790ce	-0.14801332
11	0xbd23e4bb	-0.040013056
12	0xbcc36740	-0.023852944
13	0xbdea7d83	-0.11449721
14	0x3e34e084	0.17663771
15	0x3e395ca2	0.18101743
16	0x3d789e04	0.06069757
17	0x3dceab98	0.10091323
18	0x3b2de356	0.0026533208
19	0xbd8f79cf	-0.07005655
20	0xbd7baf5c	-0.061446533
21	0xbe0b490c	-0.13602084
22	0xbe521b86	-0.20518312
23	0x3c8c410b	0.017120859
24	0xbdc91e77	-0.09820264
25	0x385ff863	5.339867e-05
26	0x3de7349c	0.11289331
27	0x3d403df8	0.046934098
28	0xbd78998d	-0.060693312
29	0xbdcfb76a	-0.10142405
30	0xbcc185c1	-0.02362335
31	0x3d8a73df	0.06760382

chords_tempNet.batchnorm_1.weight f4 [1024]
0	0xbc9d561e	-0.019206103
1	0xbddeedf3	-0.10885229
2	0xbe1d40d7	-0.15356766
3	0x35b651fc	1.3583917e-06
4	0x3d8e72fa	0.06955524
5	0xbd9dba25	-0.0770152
6	0x3d8b16eb	0.06791481
7	0xbd9b7e28	-0.07592422
8	0xbdbc563d	-0.09196136
9	0x3db2c924	0.08729771
10	0xbe077117	-0.13226734
11	0xbda8b924	-0.08238438
12	0x3892f5f7	7.007637e-05
13	0xbde56fce	-0.11202966
14	0x3d679993	0.056542944
15	0xbd9ac43f	-0.07556962
16	0x3ddadf7e	0.10687159
17	0xbdc70316	-0.097173855
18	0xba4dbd64	-0.0007848351
19	0xbd053a94	-0.032526568
20	0xbdea952b	-0.11454233
21	0xbd2edd8d	-0.042691756
22	0xbde9c882	-0.11415197
23	0x35745585	9.102153e-07
24	0xbdf97319	-0.12180156
25	0xba83e181	-0.0010061712
26	0x3dc5745f	0.09641337
27	0xbdd0cba8	-0.10195094
28	0x3d7ab7dd	0.061210502
29	0xbd46a942	-0.04850126
30	0xbdb7350d	-0.089456655
31	0xbd2ca54b	-0.042149823
32	0xbdf265d3	-0.11835828
33	0xbe0f384c	-0.1398632
34	0xbde0b9f7	-0.1097297
35	0xbdbfa651	-0.09357894
36	0x3d8096df	0.062787764
37	0xbda65abb	-0.08122774
38	0x3db52915	0.088457264
39	0xbd176c7b	-0.03696869
40	0x3d77dba0	0.060512185
41	0xbdcbf699	-0.09959144
42	0xbded6a7c	-0.11592576
43	0xbd98e6ef	-0.07465922
44	0xb8d42153	-0.00010115155
45	0x39110e1a	0.00013833531
46	0x3b07c9de	0.0020719687
47	0xbe06ec00	-0.13175964
48	0x3db5db9a	0.08879776
49	0xbde81d92	-0.11333765
50	0xbdf624e5	-0.12018756
51	0xbdb88ca8	-0.09011203
52	0xbd43b746	-0.047782205
53	0x3dc756e7	0.09733372
54	0x3e1c8c7d	0.15287967
55	0xbd6fb022	-0.058517583
56	0x3da9355e	0.08262132
57	0x3d9a450d	0.07532702
58	0x3b1ec2c1	0.002422497
59	0xbdb04be2	-0.086082235
60	0xba577ae7	-0.0008219913
61	0x3de84d51	0.11342872
62	0xbd92f94e	-0.07176457
63	0x3daa31fb	0.08310314
64	0x39c30e6f	0.00037204052
65	0x3ddac88f	0.10682785
66	0x3d1b0c5b	0.03785358
67	0x3dccae23	0.099941514
68	0xb8d5f0ca	-0.00010201482
69	0xbdb90ac0	-0.090352535
70	0xba82ba67	-0.0009973765
71	0x3906b765	0.00012847556
72	0x3daccaa8	0.08437091
73	0xbbc6eb3e	-0.0060705235
74	0xbdc6e498	-0.097115695
75	0x3ddb7f11	0.10717595
76	0xbddcdcba	-0.10784288
77	0xba7f01b8	-0.0009727734
78	0xba5d2961	-0.0008436647
79	0xbdb5718c	-0.08859548
80	0xbd875a7b	-0.06609055
81	0x3dde2b9c	0.108481616
82	0x3d9b3f6c	0.07580456
83	0xb911a17b	-0.00013888434
84	0xbdf29c27	-0.1184619
85	0xbdaaee32	-0.083462134
86	0xbdcbf62a	-0.099590614
87	0x3ddf37de	0.10899328
88	0xbd651ab5	-0.055933673
89	0x3ce5bc13	0.028043782
90	0xbdacd363	-0.08438756
91	0xbdca9fa8	-0.09893733
92	0x3d843071	0.06454552
93	0xbdb15909	-0.0865956
94	0xbda77f87	-0.08178621
95	0x3dad3918	0.084581554
96	0xbb1c5f60	-0.002386056
97	0xbddc48d8	-0.10756081
98	0xbaa80d61	-0.001282137
99	0xbda96043	-0.082703136
100	0xb9278ed6	-0.00015979572
101	0x3d7e33fd	0.0620613
102	0x3d21b7ab	0.0394818
103	0x3d8afed5	0.067868866
104	0xbda19a00	-0.07890701
105	0x3dc0736c	0.09397015
106	0x3deaec09	0.114708014
107	0x3dae4771	0.0850972
108	0x3dd7ba0e	0.10533534
109	0x3d9d98aa	0.07695134
110	0xbdd06c9d	-0.10176966
111	0x3cd41ed1	0.0258936
112	0xbdcbe564	-0.09955862
113	0x3b16aa81	0.0022989812
114	0xbdf724b5	-0.12067548
115	0xb941ca15	-0.00018481196
116	0xbdd3ad77	-0.1033582
117	0x3e083f5b	0.13305418
118	0x3e127da7	0.14305745
119	0x3a562674	0.0008169182
120	0xbdcfe5b6	-0.10151236
121	0xbdc22ed2	-0.094815865
122	0x3cc0d138	0.023537263
123	0xbd9b5c2b	-0.07585939
124	0x3dd1df81	0.10247708
125	0xbde3302a	-0.11093171
126	0x3db7928c	0.089634985
127	0xba90614f	-0.0011015328
128	0x3da58b7b	0.080832444
129	0xbe126c8b	-0.14299218
130	0xbd837bd9	-0.064201064
131	0xbde00f6f	-0.10940444
132	0x3d8e7b35	0.069570936
133	0x3d7ea0a2	0.06216491
134	0xb7d17bbf	-2.4972365e-05
135	0xbe0525b6	-0.13002667
136	0x3dbc3265	0.091892995
137	0x3dc7706b	0.09738239
138	0x3dcff1ae	0.101535186
139	0x3e0d6534	0.13808137
140	0x3d8163fc	0.06317899
141	0xbdc2358f	-0.09482872
142	0x3da79804	0.081832916
143	0x3ded1d55	0.1157786
144	0xbdb94057	-0.09045475
145	0xbdac52e7	-0.0841425
146	0x3dfd5704	0.123701125
147	0x3dbeffc0	0.09326124
148	0xbdb5f689	-0.088849135
149	0x3d9ab3c5	0.075538196
150	0xbd58eabd	-0.05295824
151	0xbd2e4f46	-0.04255607
152	0x3c969a83	0.018384224
153	0x3d6d78ae	0.057976417
154	0x399c1d54	0.0002977649
155	0xbdbd486d	-0.0924233
156	0x3da002a5	0.078130044
157	0x3dcbba67	0.09947663
158	0x3dde1158	0.10843152
159	0xbd9ff3b7	-0.07810157
160	0x3db09d28	0.08623725
161	0x3db552f8	0.08853716
162	0x3db4a056	0.08819644
163	0x3d847e94	0.06469455
164	0xbdf4c131	-0.11950911
165	0xbd931f55	-0.071837105
166	0x3d5aa8cd	0.053383637
167	0x3d1f3c7c	0.03887604
168	0xbd7b745d	-0.06139027
169	0xb9037eac	-0.00012540322
170	0x3dd10e97	0.10207861
171	0x3debf2a3	0.11520889
172	0xb8954da1	-7.119333e-05
173	0xbdf651fc	-0.12027356
174	0xbe106d46	-0.14104185
175	0xbd9d6d9c	-0.07686922
176	0x3dcbdf4d	0.099547006
177	0x3cdbcb34	0.026830293
178	0x3d5d1894	0.053978518
179	0xbd6ca713	-0.057776522
180	0xbde944fa	-0.11390109
181	0xbde8797d	-0.11351297
182	0xbda4be1c	-0.08044073
183	0xbd531f0f	-0.05154329
184	0xbd907132	-0.0705284
185	0x3d81a3b8	0.06330055
186	0x3da0a4c2	0.07843925
187	0xbdb13ba4	-0.08653954
188	0x3d8486b6	0.064710066
189	0xbd22b360	-0.039721847
190	0x3d9c5ad8	0.076345146
191	0xbda8ab5c	-0.08235809
192	0xbddf45a4	-0.10901955
193	0x390343e6	0.00012518428
194	0x3df8fdbb	0.1215777
195	0xbdb996c4	-0.090619594
196	0x3dbd7471	0.09250725
197	0xbd952a08	-0.072834074
198	0x3d0b9fd2	0.034087963
199	0xbd8e141c	-0.06937429
200	0xbda5f500	-0.08103371
201	0x3dc9bc0c	0.0985032
202	0xbdc13c0d	-0.09435282
203	0xb98f049c	-0.0002727852
204	0xbcf1be61	-0.029509725
205	0x3db72151	0.089419015
206	0x3dde436f	0.10852706
207	0xbd8c522e	-0.06851612
208	0x3986f402	0.00025740272
209	0x3d847a05	0.06468586
210	0x3dcaca35	0.09901849
211	0xbdb9627a	-0.09051986
212	0x3d87a20c	0.06622705
213	0x3dd828b9	0.10554642
214	0xbdb23b09	-0.08702666
215	0xbdb4f69c	-0.088360995
216	0x3dc852ab	0.09781393
217	0x3d90dc07	0.07073217
218	0xbd996c51	-0.07491363
219	0xbdcdf2e6	-0.10056095
220	0x3d48e0fb	0.049042683
221	0x3ae4d6de	0.0017459055
222	0x3d90feee	0.07079874
223	0xbdb69655	-0.08915392
224	0xbd86adda	-0.06576128
225	0xbaeb5103	-0.001795322
226	0x3e06f3d7	0.13178955
227	0xbdbd88de	-0.09254621
228	0xbdb60984	-0.08888534
229	0xbe04a23e	-0.12952515
230	0x3dcf8c9a	0.101342395
231	0x3d9da586	0.07697587
232	0xbdf0aec1	-0.11752082
233	0xbd67a4e7	-0.056553748
234	0x3d8d8a8c	0.06911191
235	0xbdb44322	-0.08801867
236	0x3dd9a668	0.106274426
237	0xbdbecf80	-0.09316921
238	0x3dce83b1	0.10083712
239	0xbdc28e38	-0.09499782
240	0x3da923c3	0.08258774
241	0x39bce061	0.0003602533
242	0xba946ba8	-0.0011323588
243	0xbde94c40	-0.11391497
244	0xbdd678d6	-0.104722664
245	0xb904ca84	-0.00012663944
246	0x3da10252	0.07861771
247	0xbd6b2b05	-0.057414073
248	0xb90aa74a	-0.00013223026
249	0xbdb8bb50	-0.09020102
250	0x3dab2e27	0.08358412
251	0x3cfee7fb	0.031116476
252	0xbdad8be6	-0.08473949
253	0xbdbd36d9	-0.09238977
254	0xbda98ab5	-0.082784094
255	0x3ded9fc4	0.116027385

chords_tempNet.batchnorm_1.bias f4 [1024]
0	0x3d59e1a9	0.053193722
1	0xbaad48b7	-0.0013220523
2	0x3dcac4f5	0.09900848
3	0xba08736b	-0.0005205187
4	0x3d6418d8	0.055687755
5	0xbcac382b	-0.021022877
6	0x3d26b70f	0.040701922
7	0x3d86923b	0.0657086
8	0xbc78d397	-0.015187166
9	0xbb98390f	-0.004645474
10	0x3dcbe75d	0.099562384
11	0xbc88ed2a	-0.016714651
12	0xba716f5f	-0.0009210016
13	0xbb15816d	-0.002281274
14	0xbcd8ac15	-0.026449243
15	0x3d96cbbe	0.073630795
16	0xbc615ebc	-0.013755497
17	0xbcad3619	-0.02114396
18	0xbb743eb2	-0.0037268815
19	0x3d40aed4	0.04704173
20	0xbc8d2811	-0.01723102
21	0x3c141ce7	0.009040094
22	0xbc161f9e	-0.009162812
23	0xb93594c0	-0.00017316919
24	0xbc4c94a1	-0.012486608
25	0xbbad8c44	-0.005296262
26	0xbc7b3d46	-0.015334433
27	0xbc516184	-0.012779597
28	0xbcde184c	-0.027111195
29	0x3d32d795	0.043662626
30	0xbc863a8d	-0.016385341
31	0x3c7ba41e	0.015358953
32	0x3dc97a4e	0.09837781
33	0x3dd83cd9	0.10558481
34	0xbc62522e	-0.0138135385
35	0x3dae57c2	0.08512832
36	0xbca7a24c	-0.020463131
37	0xbccb404d	-0.024810934
38	0xbcfc2a18	-0.03078179
39	0xbcfee4bd	-0.03111493
40	0xbc5e3c6b	-0.013564209
41	0xbc97de1b	-0.018538525
42	0x3dbdf392	0.09274973
43	0x3da9b150	0.08285773
44	0xba489804	-0.00076520466
45	0xba457629	-0.0007532561
46	0xbc0cb30c	-0.00858761
47	0xbbdf4dc6	-0.0068146912
48	0xbca2bcc5	-0.019865403
49	0x3da93f62	0.082640424
50	0x3dd79571	0.105265506
51	0x3d8c77be	0.068587765
52	0x3ae0ff71	0.0017165971
53	0x3dc2236b	0.09479412
54	0x3dcf16cc	0.1011177
55	0x3db9acdf	0.09066176
56	0x3d97a1d6	0.07403915
57	0x3d96903f	0.073517315
58	0xbc59f2f0	-0.01330255
59	0x3da132a7	0.07870989
60	0xbbc07449	-0.0058732373
61	0xbc510096	-0.012756487
62	0xbcb67fcd	-0.022277737
63	0x3d9435b1	0.07236803
64	0xbb00d2cc	-0.0019656895
65	0x3dd74d6a	0.105128124
66	0x3d4e9272	0.05043263
67	0xbcad2900	-0.021137714
68	0xbaa83f85	-0.0012836313
69	0xbcbdef75	-0.023185471
70	0xbba3e6dd	-0.0050018863
71	0xba2a9af8	-0.00065080775
72	0xbcc1676f	-0.023608891
73	0x3d053d73	0.032529306
74	0xbcb04fb7	-0.021522386
75	0x3dbd9a90	0.09257996
76	0x3dc95551	0.09830726
77	0xbb9d80b9	-0.0048066047
78	0xbb9574bb	-0.0045610345
79	0x3d92ed0c	0.07174119
80	0x3daf0f62	0.08547856
81	0x3dd4de3f	0.103939526
82	0xbce495b6	-0.027903419
83	0xbab1ff14	-0.0013580048
84	0xbc33cd18	-0.010974191
85	0x3d2ca8fa	0.042153336
86	0x3db9f5e7	0.09080105
87	0xbc45102b	-0.0120277805
88	0x3d6e027b	0.058107834
89	0x3c5e947d	0.013585207
90	0x3dc77a99	0.097401805
91	0xbcc588b7	-0.024113042
92	0x3d5b5972	0.0535521
93	0x3d9a36dc	0.07529995
94	0x3d9bb469	0.0760277
95	0xbcc06c18	-0.023489043
96	0xbbe3cdf6	-0.0069520427
97	0xbcb6d94a	-0.022320408
98	0xbc0ebfcf	-0.008712723
99	0xbc45e115	-0.0120775895
100	0xbb155bbd	-0.0022790276
101	0x3d403f2c	0.046935245
102	0x3d31d1a7	0.04341283
103	0xbcc6b8ec	-0.0242581
104	0xbca7402a	-0.020416338
105	0xbc1d49ab	-0.009600083
106	0xbc8c13a9	-0.017099218
107	0xbc9e9c91	-0.019361766
108	0x3dc7b128	0.09750587
109	0x3dd442d8	0.10364312
110	0x3dafb443	0.08579304
111	0xbc8004b3	-0.01562724
112	0x3daae120	0.083437204
113	0xbc098fbf	-0.008396088
114	0x3dd2a4ea	0.10285361
115	0xba75d6f4	-0.0009378039
116	0xbc8edd9f	-0.017439662
117	0xbc1c86f0	-0.009553656
118	0xbbabd318	-0.00524367
119	0xbba1b82f	-0.0049352865
120	0xbc830e13	-0.015997922
121	0xbc60e354	-0.013726074
122	0x3ce8771a	0.028377105
123	0xbcd49e4d	-0.02595439
124	0xbbc213bf	-0.005922764
125	0xbc340731	-0.010988043
126	0xbc20178e	-0.009771241
127	0xbbbd88f6	-0.0057841493
128	0xbce4c16d	-0.027924264
129	0x3de0ae24	0.10970715
130	0xbd021eab	-0.03176753
131	0x3da7b435	0.08188669
132	0xbc450758	-0.012025677
133	0x3bfa5e81	0.0076406603
134	0xba5cc402	-0.00084215414
135	0xbc157b4f	-0.009123637
136	0xbccd0750	-0.025027901
137	0x3dcfbb6d	0.101431705
138	0x3d9969ff	0.0749092
139	0x3dcf4395	0.10120312
140	0x3d660b27	0.05616298
141	0x3db10766	0.08643989
142	0x39a96212	0.0003230726
143	0xbca049c2	-0.01956642
144	0xbcb1366a	-0.021632392
145	0x3d7ab2b4	0.06120558
146	0xbc18df7f	-0.009330629
147	0x3d8faadb	0.0701501
148	0x3da20c93	0.079125546
149	0xbc589e8f	-0.013221397
150	0x3d5ec7e9	0.054389868
151	0xbc8eba41	-0.017422797
152	0x3c1ac98e	0.009447468
153	0xbc8d321f	-0.017235814
154	0xbb2ca0ae	-0.002634089
155	0xbc6ef6f9	-0.01458525
156	0xbb43541d	-0.0029804774
157	0xbc883126	-0.016624998
158	0xbc79c046	-0.0152435955
159	0xbc750676	-0.014955154
160	0x3da5a4a1	0.08088041
161	0xbc9f1581	-0.019419434
162	0xbc0d099c	-0.008608248
163	0xbbd4dfe0	-0.0064964145
164	0x3d861423	0.065468095
165	0xbcb72aa4	-0.0223592
166	0x3d85f797	0.06541365
167	0x3d375614	0.044759825
168	0x3d876c59	0.066124626
169	0xbacfb3b0	-0.0015846398
170	0xbc532d89	-0.012889274
171	0x3da1b69a	0.078961566
172	0xb9c207da	-0.00037008413
173	0x3dafc401	0.08582307
174	0xbc4cbe41	-0.012496532
175	0xbcd79e41	-0.026320579
176	0x3db7cb11	0.08974279
177	0x3cb5aede	0.02217811
178	0x3db5c816	0.08876054
179	0xbca4f55d	-0.02013653
180	0xbcaa02b0	-0.020753235
181	0xbc19361d	-0.0093512805
182	0x3d727e68	0.05920258
183	0xbc1f7faa	-0.009735027
184	0x3da9eda3	0.08297279
185	0x3da69cd2	0.0813538
186	0xbc466775	-0.012109627
187	0xbbe17373	-0.0068802177
188	0x3d7878a3	0.060661923
189	0x3d05d1a1	0.03267062
190	0xbcbb8efa	-0.022895325
191	0xbc6bde9d	-0.014396337
192	0xbc83abad	-0.016073072
193	0xbaa63280	-0.0012679845
194	0xbbb02402	-0.005375386
195	0x3d94ea76	0.072712824
196	0xbcbdb98a	-0.023159761
197	0x3d5fcaae	0.05463665
198	0xbbb6b62d	-0.0055759163
199	0x3d9411c4	0.07229951
200	0xbc90e281	-0.01768613
201	0xbc4576a2	-0.01205221
202	0x3dae40e4	0.08508471
203	0xbb45448c	-0.0030100672
204	0x3c9db6b9	0.019252168
205	0xbc7873f9	-0.015164369
206	0xbca5e542	-0.02025092
207	0x3d8ad63f	0.067791454
208	0xbac17b41	-0.0014761464
209	0xbced1e79	-0.028945195
210	0x3dbf0035	0.09326211
211	0xbce1bf4d	-0.02755704
212	0xbc9d8caf	-0.019232122
213	0xbc70ca82	-0.014696719
214	0x3db80cdf	0.0898683
215	0xbc839dc5	-0.016066441
216	0xbca88b88	-0.020574346
217	0x3d2e4220	0.04254353
218	0xbce34d75	-0.027746895
219	0xbc907055	-0.01763169
220	0x3d5ef3c9	0.05443171
221	0xbbf8e8a0	-0.0075960904
222	0xbc81bcc5	-0.015837083
223	0x3da20699	0.07911415
224	0xbc94a7c2	-0.0181464
225	0xbbe08eb0	-0.006852947
226	0xbc460f2b	-0.012088577
227	0x3d9d9024	0.07693508
228	0xbcaa25ea	-0.020770032
229	0xbc113cc0	-0.008864582
230	0x3dbd2474	0.092354685
231	0x3d9ff6af	0.07810723
232	0x3d82f743	0.06394818
233	0xbc245769	-0.010030606
234	0xbcd9a3f8	-0.026567444
235	0x3d82f6f6	0.0639476
236	0xbc82f6f9	-0.015986906
237	0x3daff8ce	0.085923776
238	0x3d8bf090	0.06832993
239	0xbc856b96	-0.016286653
240	0x3d800f12	0.062528744
241	0xbb3969a5	-0.0028291729
242	0xbbcc611a	-0.0062371613
243	0xbc833338	-0.016015634
244	0x3d8acec9	0.067777224
245	0xbb26b8a5	-0.0025439647
246	0x3d9cc209	0.07654197
247	0xbc428d1b	-0.0118744625
248	0xba512bfa	-0.00079792703
249	0x3da4e29b	0.08051034
250	0xbc9d1537	-0.019175155
251	0xbaa3b7cf	-0.0012490692
252	0xbc6b8f2c	-0.014377397
253	0xbca35eca	-0.01994266
254	0xbcbf783a	-0.023372758
255	0xbbeb3491	-0.0071778973

chords_tempNet.batchnorm_1.running_mean f4 [1024]
0	0x3d253466	0.040333174
1	0x3cc937cf	0.024562744
2	0xbc0a23bd	-0.008431372
3	0xbcd12df9	-0.025534617
4	0x3c6ac3a9	0.014328876
5	0x3cb2d7e3	0.021831458
6	0xbd0b0d5b	-0.033948284
7	0x3c09e0de	0.008415429
8	0xbc543a83	-0.012953403
9	0x3dae2383	0.08502867
10	0x3c4a492a	0.012346545
11	0xbceee60f	-0.029162435
12	0x3c6b16c0	0.014348686
13	0xbd814f5c	-0.06313965
14	0xbd25b0db	-0.040451866
15	0x3bb15f09	0.0054129404
16	0xbce2e435	-0.027696708
17	0xbc7d1982	-0.015447976
18	0x3d5c6c7a	0.05381439
19	0xbd7f5ece	-0.062346272
20	0x3d377e3f	0.044798132
21	0x3ce5d451	0.028055342
22	0xbacc1407	-0.0015569933
23	0x399b2115	0.00029588552
24	0xbbfc1d59	-0.007693928
25	0xbd4c710f	-0.04991251
26	0x3c799a66	0.015234565
27	0x3d62d110	0.05537516
28	0xbc8c20c5	-0.01710547
29	0xbbad9b5b	-0.005298061
30	0x3d9de9aa	0.077105835
31	0x3b9e5edf	0.004833087
32	0xbcaccc04	-0.021093376
33	0xbb165f78	-0.0022945087
34	0x3cc56873	0.024097657
35	0xbc763f78	-0.015029781
36	0x3ad09c5c	0.0015915739
37	0xbbdeef12	-0.0068034017
38	0xbd28e7a6	-0.041236542
39	0x3d5c34c6	0.053761266
40	0x3ce5faa1	0.02807361
41	0xbc36ebfb	-0.011164661
42	0x3b902a83	0.004399599
43	0xbb643a0e	-0.0034824642
44	0x3d571b29	0.052516136
45	0x3d10e7ae	0.035377197
46	0x3cfd1395	0.030893127
47	0xbd00d99b	-0.031457525
48	0xbd3ef6a6	-0.04662194
49	0x3ca0bbf0	0.019620866
50	0x3c5afef0	0.013366446
51	0x3d23c061	0.03997839
52	0xbd2bda52	-0.041956253
53	0x3c6393aa	0.013890186
54	0xbcfb3d1c	-0.030668788
55	0xbd0b200d	-0.033966113
56	0xbca98fcd	-0.020698452
57	0xbc338f93	-0.010959524
58	0xbd3c2195	-0.045930464
59	0x3ae9bc2a	0.0017832567
60	0xbcde76a7	-0.027156187
61	0x3c98ff93	0.018676555
62	0x3c250d0a	0.01007391
63	0x3d67ff05	0.05663969
64	0xbbfd9745	-0.00773898
65	0x3cd156bd	0.025554055
66	0x3d081807	0.03322604
67	0xbca205ee	-0.019778218
68	0xbd67f774	-0.056632474
69	0x3c3d10c4	0.011539642
70	0xbcae8e8f	-0.021308212
71	0xbc1b588f	-0.009481563
72	0xbd2a41e5	-0.04156675
73	0xbce4922c	-0.027901731
74	0xbcc8b705	-0.024501333
75	0x3d19dfb5	0.03756686
76	0x3bcdc562	0.0062796334
77	0xbccce38c	-0.025010847
78	0xbcbafaaa	-0.022824604
79	0x3c3d59e2	0.011557074
80	0x3bbb10cb	0.005708789
81	0xbcb1c849	-0.021701949
82	0xbddc623e	-0.10760926
83	0x3d2254ff	0.03963184
84	0xbd0e5e62	-0.03475798
85	0xbb783bd2	-0.0037877453
86	0xbd1dadc9	-0.038495813
87	0x3c46bd76	0.012130132
88	0xbd071d22	-0.032986768
89	0x3b118bf0	0.0022208653
90	0xbd6f4928	-0.058419377
91	0xbc2c1ecc	-0.010505389
92	0x3b56ca2b	0.003277431
93	0x3b45fb71	0.0030209685
94	0x3d05b391	0.03264195
95	0xbd465064	-0.04841651
96	0xbd6b1bc1	-0.057399515
97	0x3d3efac1	0.046625856
98	0xbd36db26	-0.04464259
99	0xbd0c21ed	-0.03421204
100	0x3bd29368	0.0064262636
101	0xbbdfcfcc	-0.0068301912
102	0x3ce5b894	0.028042115
103	0xbcfa69a0	-0.030567944
104	0x3d07fbbb	0.033199053
105	0x3d69a1f5	0.05703922
106	0x3d99041a	0.074714854
107	0xbccb4399	-0.024812507
108	0x3b956276	0.0045588566
109	0xbc2ea5dd	-0.010659662
110	0x3b4841ba	0.0030556754
111	0xbd75f2c2	-0.060045965
112	0x3c1ed762	0.009694906
113	0xbc85d833	-0.016338443
114	0x3dab27e1	0.08357216
115	0x3c41c3ec	0.011826497
116	0xbc8bff25	-0.017089436
117	0x3c63ac52	0.013896065
118	0x3bddb03c	0.0067653935
119	0xbb7dba4f	-0.0038715785
120	0xbd13b2e7	-0.036059286
121	0xbc0bb56e	-0.008527143
122	0x3c7c4409	0.01539708
123	0x3cdfe258	0.027329609
124	0xbce5136b	-0.02796336
125	0xbd685729	-0.056723747
126	0x3ceed159	0.02915256
127	0x3ceb9988	0.028759733
128	0xbcd9b712	-0.026576553
129	0x3d4d7355	0.050158817
130	0x3cfca3bb	0.030839792
131	0x3ce77144	0.028252251
132	0xbc1a2a83	-0.00940955
133	0xbc124614	-0.008927841
134	0x3cb1a9ed	0.021687472
135	0xbb2fcda1	-0.0026825445
136	0x3cc3edfc	0.02391719
137	0x3bf7bc53	0.007560292
138	0x3ccf0709	0.02527191
139	0xbce5c563	-0.028048223
140	0x3bd70660	0.0065620393
141	0x3d407638	0.046987742
142	0x3d865eef	0.06561076
143	0x3d1aa1c7	0.03775194
144	0xbc05b662	-0.008161159
145	0xbbc11640	-0.005892545
146	0x3db2beba	0.087277845
147	0x3c24fd05	0.01007009
148	0x3cf3bfea	0.029754598
149	0x3c8536f6	0.016261559
150	0xbcfdc353	-0.030976927
151	0x3c17eb90	0.009272471
152	0x3cb549c7	0.022129906
153	0xbd6852dd	-0.05671965
154	0x3d574496	0.052555643
155	0xb9aa18bd	-0.00032443358
156	0x3c81af84	0.015830763
157	0xbd707a14	-0.058710173
158	0x3a694efc	0.0008900014
159	0x3c8a4725	0.016879627
160	0x3d2e8a4a	0.04261235
161	0x3bcea1ea	0.0063059228
162	0x3cb90743	0.02258647
163	0x3d97fda5	0.07421426
164	0x3c4e3f6f	0.012588366
165	0x3cca93bc	0.024728648
166	0x3d50fbe1	0.05102146
167	0x3c52c929	0.012865343
168	0x3c14f2f0	0.009091124
169	0x3c8018fc	0.015636913
170	0x3d5d6ac3	0.054056894
171	0xbd23026f	-0.039797243
172	0x3cbc989c	0.023021989
173	0xbba61b8a	-0.005069201
174	0x3b6eb972	0.0036426452
175	0xbc2a6d0a	-0.0104019735
176	0xbcff7333	-0.031182861
177	0xbcab685b	-0.020923784
178	0x3c565572	0.013081895
179	0x3c4dfae1	0.012572021
180	0x3cea0ffb	0.028572073
181	0x3c47063d	0.012147483
182	0x3b56a6c8	0.0032753218
183	0xbd8d2bf9	-0.06893153
184	0xbd3bde2d	-0.04586618
185	0x3d908ceb	0.07058128
186	0x3d42df38	0.04757616
187	0x382d1f0f	4.127534e-05
188	0x3c3563da	0.01107117
189	0x38b51503	8.634666e-05
190	0x3cc2676c	0.023730956
191	0xbd1172a6	-0.035509728
192	0x3bfe27e9	0.0077562225
193	0xbd5c8118	-0.05383405
194	0x3d3c014b	0.04589967
195	0x3d184945	0.03717925
196	0xba610d10	-0.00085850153
197	0x3cc58f45	0.024116168
198	0xbd4a1813	-0.049339365
199	0x3d609a35	0.054834563
200	0x3bf2b7b1	0.0074071516
201	0x3d26d4b1	0.040730182
202	0xbb58e007	-0.0033092515
203	0xbd0fecf3	-0.03513808
204	0x3d719a5c	0.0589851
205	0x3d5fa197	0.054597463
206	0xbcbfd3f5	-0.023416499
207	0xbce54f1b	-0.027991822
208	0x3d441335	0.04786988
209	0xbcc55566	-0.024088573
210	0x3d403158	0.046922058
211	0x3d30c1a0	0.043153405
212	0xbd43cab1	-0.047800723
213	0x3c4ee2d1	0.012627319
214	0xbd03ff71	-0.03222603
215	0xbd1dbd34	-0.038510516
216	0xbc855f28	-0.016280726
217	0x3dcf75dc	0.10129902
218	0x3bcb22b9	0.0061992076
219	0x3d5dc727	0.054145005
220	0xbc094961	-0.008379311
221	0xbc3cb650	-0.011518076
222	0x3d49dd79	0.04928348
223	0xbd2dd5c5	-0.042440195
224	0x3d029422	0.03187955
225	0xbd750722	-0.059821256
226	0xbbfef5c4	-0.0077807624
227	0x3b50c762	0.0031857123
228	0xbbdf7188	-0.006818954
229	0xbd05f85a	-0.03270755
230	0xbcb8f223	-0.022576397
231	0x3c7e5444	0.01552302
232	0x3d5d18cb	0.053978723
233	0xbc5ff09f	-0.013668208
234	0xbc076823	-0.008264574
235	0xbc29bce2	-0.010359975
236	0x3bcfe275	0.0063441345
237	0xbcae1b34	-0.021253206
238	0x3c9383d9	0.018007206
239	0xbc38134d	-0.01123507
240	0x3dc00190	0.09375298
241	0x3d09da88	0.033655673
242	0xbc75de29	-0.01500658
243	0xbc9091d8	-0.017647669
244	0x3baf68ed	0.0053530843
245	0x3d1966b9	0.03745148
246	0x3cd68b12	0.02618936
247	0xbd2c3bd4	-0.042049244
248	0xbca5cb8e	-0.020238664
249	0xbaf55e0c	-0.0018720045
250	0xbc989cf3	-0.018629527
251	0x3aac89d4	0.0013163635
252	0xbc952120	-0.018204272
253	0x3d26e438	0.04074499
254	0x3d458b6e	0.048228674
255	0xbc2be42c	-0.010491412

chords_tempNet.batchnorm_1.running_var f4 [1024]
0	0x3c5ecf2c	0.013599198
1	0x3d03aac2	0.03214527
2	0x3c070ea4	0.008243237
3	0x3c841428	0.016122892
4	0x3bdb1ae4	0.006686555
5	0x3c71ecc7	0.014765925
6	0x3ba70997	0.0050975787
7	0x3cae789b	0.021297744
8	0x3c2c76fa	0.010526413
9	0x3ca8e201	0.02061558
10	0x3c99582e	0.018718805
11	0x3c328655	0.010896285
12	0x3b911cda	0.004428488
13	0x3c847c17	0.016172452
14	0x3cac5a8d	0.021039272
15	0x3ccdf07a	0.025139082
16	0x3c36eb06	0.011164432
17	0x3c021731	0.0079401
18	0x3cfe4f69	0.031043725
19	0x3c42dedb	0.011893953
20	0x3cc6bd4d	0.024260188
21	0x3c921dba	0.01783644
22	0x3c636667	0.013879395
23	0x3c6c43d9	0.014420473
24	0x3c30a279	0.010780924
25	0x3be954b7	0.0071206945
26	0x3bf14cc0	0.0073638856
27	0x3c592f02	0.013255836
28	0x3bb9b310	0.005667098
29	0x3c359a27	0.011084116
30	0x3bd428b9	0.006474581
31	0x3c6558a9	0.013998189
32	0x3c1e6e43	0.009669843
33	0x3c420d9b	0.011844064
34	0x3bc9c2f8	0.0061572753
35	0x3c75a3fc	0.01499271
36	0x3cd80eb9	0.026374208
37	0x3ca1fc33	0.019773578
38	0x3c807da9	0.01568492
39	0x3bc5f2b0	0.0060408935
40	0x3c40d853	0.011770326
41	0x3bda4bf9	0.0066618887
42	0x3c055aa2	0.008139284
43	0x3c38e431	0.011284874
44	0x3c7a83b7	0.015290192
45	0x3bf648c1	0.007515997
46	0x3c35d44e	0.011097981
47	0x3cc23a1b	0.023709347
48	0x3c30d71d	0.0107934745
49	0x3b97d893	0.004633972
50	0x3c71e446	0.014763897
51	0x3c8eac1a	0.017416049
52	0x3c01d633	0.007924604
53	0x3c090d70	0.00836502
54	0x3ca5c20c	0.02023413
55	0x3c6a46f4	0.014299143
56	0x3c9ad719	0.018901395
57	0x3cc4bc1e	0.024015483
58	0x3c5ea844	0.013589922
59	0x3beaf4c5	0.007170292
60	0x3c39d8bc	0.011343177
61	0x3be624d9	0.0070234356
62	0x3cabb4af	0.02096018
63	0x3c9a2fd5	0.018821636
64	0x3cbcdee4	0.023055501
65	0x3c4d81fa	0.012543196
66	0x3c5c864d	0.013459754
67	0x3c9af691	0.0189164
68	0x3c39783f	0.011320173
69	0x3c40aab2	0.011759447
70	0x3c0e1cb5	0.0086738365
71	0x3c3b1a5d	0.01141986
72	0x3c99daad	0.01878103
73	0x3c3e3e02	0.0116114635
74	0x3c9cd8db	0.019146373
75	0x3ca26e70	0.019828051
76	0x3c8061db	0.015671661
77	0x3c1d814f	0.009613349
78	0x3c248568	0.010041572
79	0x3c882ac9	0.016621964
80	0x3bc3a626	0.005970734
81	0x3c139eff	0.009010076
82	0x3c316533	0.01082735
83	0x3c1c20ee	0.009529335
84	0x3c447d51	0.011992768
85	0x3cad6931	0.021168323
86	0x3c8cb6f5	0.017177084
87	0x3c152169	0.009102204
88	0x3d03cce9	0.03217784
89	0x3c8735a2	0.016505066
90	0x3c3498e6	0.011022782
91	0x3c33da7c	0.010977384
92	0x3c545e09	0.012961873
93	0x3c612cca	0.013743589
94	0x3ca37427	0.019952847
95	0x3c99aa4a	0.018757958
96	0x3cb8688d	0.022510791
97	0x3bacbe94	0.005271742
98	0x3c0a35da	0.008435691
99	0x3c34118e	0.0109905135
100	0x3c22971c	0.009923723
101	0x3c410472	0.011780845
102	0x3c904769	0.017612176
103	0x3ce129b1	0.0274857
104	0x3c017c93	0.007903236
105	0x3c50231a	0.012703681
106	0x3cc0b8e6	0.023525666
107	0x3bc1ea38	0.0059178136
108	0x3bd95652	0.0066326046
109	0x3c6f1f81	0.014594913
110	0x3c522c70	0.012827978
111	0x3c959ef7	0.018264277
112	0x3c62e7d7	0.01384922
113	0x3d0834f7	0.033253636
114	0x3ca720d1	0.02040139
115	0x3c404da8	0.011737265
116	0x3c580df2	0.013186919
117	0x3cc5e12e	0.024155226
118	0x3c9f1692	0.019419942
119	0x3c42e421	0.0118952105
120	0x3bea9603	0.007158996
121	0x3cb829f0	0.022480935
122	0x3ba953ae	0.005167446
123	0x3c139bea	0.009009341
124	0x3c3bdbf7	0.011466018
125	0x3c9b4636	0.018954378
126	0x3c80e2b9	0.01573311
127	0x3c5b276d	0.013376099
128	0x3be75068	0.0070591457
129	0x3ca091a6	0.0196007
130	0x3cde6d37	0.027151687
131	0x3c843765	0.016139695
132	0x3c99ae0e	0.018759754
133	0x3ce2b5ca	0.027674574
134	0x3c36cd73	0.011157381
135	0x3c7cb787	0.015424616
136	0x3c53642e	0.012902303
137	0x3c8743f7	0.0165119
138	0x3be00196	0.0068361266
139	0x3bfc39d3	0.007697323
140	0x3c5451bc	0.01295894
141	0x3bc3f217	0.005979787
142	0x3bdcb968	0.0067359693
143	0x3cb4dbe8	0.022077516
144	0x3d26ce77	0.040724244
145	0x3c9dd2a6	0.019265484
146	0x3c724bb5	0.014788558
147	0x3c3b4c3d	0.011431751
148	0x3c2459ad	0.010031146
149	0x3c2a638b	0.010399709
150	0x3c901bcb	0.017591378
151	0x3c3d767a	0.011563892
152	0x3cb2f230	0.021844
153	0x3c9739ea	0.018460233
154	0x3c610497	0.013734004
155	0x3c5643fb	0.013077731
156	0x3ba1d4f4	0.004938716
157	0x3cc74a4f	0.024327425
158	0x3cd79303	0.026315218
159	0x3c2b21f3	0.010445106
160	0x3c83c9b8	0.016087398
161	0x3cb0fa25	0.021603653
162	0x3cb18ee3	0.021674579
163	0x3c4a4408	0.0123453215
164	0x3c065be1	0.008200617
165	0x3bed0e79	0.0072343913
166	0x3c91c9d4	0.017796434
167	0x3c1f0fa6	0.009708321
168	0x3c078c4c	0.0082731955
169	0x3c843984	0.016140707
170	0x3bd21523	0.006411211
171	0x3c8e830f	0.017396478
172	0x3c670b1d	0.014101771
173	0x3ba877aa	0.005141218
174	0x3c3e25c1	0.011605681
175	0x3c46cada	0.0121333245
176	0x3c833845	0.016018042
177	0x3c52647f	0.012841343
178	0x3cb54b21	0.02213055
179	0x3c159b07	0.0091312
180	0x3c4503b7	0.0120248115
181	0x3c2987b7	0.010347298
182	0x3c74eede	0.0149495285
183	0x3c7c330c	0.01539303
184	0x3c26c3dc	0.010178532
185	0x3c1ae5c5	0.009454195
186	0x3c4c0860	0.012453169
187	0x3cb7756b	0.022394856
188	0x3bf01333	0.0073265075
189	0x3cae4651	0.021273764
190	0x3bc19d31	0.0059086313
191	0x3c74581d	0.014913586
192	0x3c1ab600	0.009442806
193	0x3c1f6f9b	0.009731199
194	0x3c814caa	0.015783627
195	0x3c3d2048	0.011543341
196	0x3c1e8ca6	0.009677088
197	0x3c34707e	0.011013148
198	0x3b94cf2e	0.0045412993
199	0x3c5f23d5	0.013619383
200	0x3c1e9e18	0.009681247
201	0x3bb57783	0.0055379285
202	0x3c5780db	0.01315328
203	0x3c1b80f7	0.009491197
204	0x3c676051	0.014122085
205	0x3caae3e2	0.020860616
206	0x3c1ca81e	0.009561567
207	0x3c796021	0.015220673
208	0x3c201d73	0.009772646
209	0x3c88088d	0.01660564
210	0x3bb76a7b	0.0055974103
211	0x3be9b938	0.0071326755
212	0x3c15e51f	0.009148865
213	0x3c1237b0	0.00892441
214	0x3c24dbdb	0.010062183
215	0x3c3ed2b2	0.011646913
216	0x3bc36368	0.005962778
217	0x3bca0dd5	0.0061661997
218	0x3cd13a69	0.025540547
219	0x3bd79f33	0.0065802573
220	0x3ccdd16b	0.025124272
221	0x3c7d536a	0.015461782
222	0x3c6d430f	0.01448132
223	0x3c2474c8	0.010037608
224	0x3b798812	0.003807549
225	0x3c8f92ef	0.017526118
226	0x3c02999c	0.007971194
227	0x3b9dde15	0.004817734
228	0x3cb3836a	0.021913249
229	0x3c9adc59	0.018903898
230	0x3c0ad5a4	0.008473787
231	0x3c163a4f	0.009169175
232	0x3c90d964	0.017681785
233	0x3c463808	0.01209832
234	0x3c96767d	0.018367046
235	0x3c8b4b71	0.017003747
236	0x3c836d50	0.016043335
237	0x3c22798c	0.009916674
238	0x3c1c7fd0	0.009551957
239	0x3c7a31f5	0.0152707
240	0x3c388311	0.011261717
241	0x3b8b1bc9	0.0042452556
242	0x3c0b0f81	0.008487583
243	0x3c3713de	0.01117417
244	0x3ca6f060	0.020378292
245	0x3c265901	0.010153056
246	0x3c5401fe	0.012939928
247	0x3c09d467	0.008412457
248	0x3c4dfb7e	0.012572167
249	0x3c2cadae	0.010539455
250	0x3c26a91d	0.010172156
251	0x3c7f3064	0.015575502
252	0x3c927554	0.017878212
253	0x3c86df46	0.016463887
254	0x3c24e99e	0.010065464
255	0x3ce6b202	0.028161053

chords_tempNet.batchnorm_2.weight f4 [32]
0	0x3e4aee45	0.19817455
1	0xbcdad446	-0.026712548
2	0xbdb0d2f5	-0.08633987
3	0xbd669f7a	-0.056304432
4	0x3d8213f4	0.06351462
5	0xbd192fb6	-0.037399016
6	0x3d460815	0.04834755
7	0x3c8cd4c3	0.017191296
8	0x3c91afaa	0.017783958
9	0x3c9e0cc4	0.019293196
10	0xbdcb7891	-0.099351056
11	0xbd71f8f4	-0.05907531
12	0x3d232977	0.039834466
13	0x3c88add9	0.01668446
14	0x3ca1c409	0.019746797
15	0x3cf8d38c	0.03037431
16	0x3e1e75a5	0.15474565
17	0x3d20553d	0.03914379
18	0xbd6d6c5b	-0.057964664
19	0xbd6ed569	-0.058308993
20	0x3dc35af1	0.0953883
21	0xbcd40ccb	-0.025885006
22	0xbd8f2ad2	-0.06990589
23	0x3c9d821a	0.019227076
24	0x3db2a139	0.08722157
25	0xbd789ef0	-0.06069845
26	0xbd0a46b3	-0.03375883
27	0xbde7bd1b	-0.11315366
28	0x3d471ee8	0.04861346
29	0x3d62d6c7	0.05538061
30	0xbceca60f	-0.028887777
31	0xbdd96379	-0.10614676
