run/weights/weights-g-200.pth (torch, 418811 bytes, 12 tensors)

chords_tempNet.convT_in.weight f4 [32, 1024, 2, 1]
-0.014082457 -0.02484055 0.0029092615 0.028827807 -0.01270515 -0.0076804436 0.01547278 -0.0034222258
0.010286356 -0.01790505 -0.014340595 -0.028687837 -0.0049620545 0.0066495277 -0.023237662 0.004655075
0.0001197016 -0.008762581 -0.007887242 0.011340493 -0.019614361 0.013162453 0.023623506 -0.001403859
-0.005594146 0.031939123 0.011797342 0.000102101876 -0.04046976 -0.02716279 0.012476392 -0.009757326
-0.00590175 -0.025075367 0.027488003 0.0062578307 -0.018229082 -0.012765242 0.008986467 -0.029458253
0.034468405 0.013361133 0.007248605 0.013538326 -0.00047236812 -0.004702416 0.012905667 -0.011928926
0.011052805 -0.0020032225 0.015087996 -0.011434592 -0.0006321379 -0.044800416 0.020619405 -0.020015871
-0.031186838 0.0113343755 0.016580895 0.025086103 0.037638 -0.020334091 -0.005471334 -0.04119847
-0.04742812 0.019343168 0.0064252936 0.024914159 0.008777462 0.029146347 0.0012821002 -0.005992972
-0.0095608495 -0.0056350636 0.015086244 0.0068480507 -0.041704975 0.001667698 0.001982061 -0.0017803177
0.012285228 -0.0018004421 0.020145604 -0.013690037 -0.0144623965 0.016034307 -0.010678809 0.008533874
0.031050397 -0.006494164 -0.009220093 -0.016842693 -0.019920573 0.005991488 0.003323632 -0.005921215
-0.010404757 0.0155750755 -0.007970431 0.008250198 -0.0215776 0.03864318 -0.0136519885 -0.009944729
0.001350065 -0.0033143952 -0.03146772 0.013259212 0.054102357 -0.028495582 -0.0065735076 0.02573931
0.06795745 -0.010569511 -0.0393812 0.021471102 0.024290033 -0.00920476 -0.00838521 0.011512162
-0.037279136 0.003739773 0.014644445 0.016968058 0.013614489 0.009990142 -0.032610945 0.027546786
0.0125918295 0.005414681 0.012402772 0.024253009 0.028048532 0.012307753 -0.03590049 0.006081461
0.018285746 -0.012853265 0.010578451 0.0044724667 -0.01608692 -0.010205179 -0.010779314 -0.009574345
0.013808765 0.014046839 0.0044227624 -0.00040303858 0.020213194 -0.03974457 -0.026914494 -0.041635912
-0.027470222 -0.020591041 0.0050220117 0.025711318 -0.032245293 0.022397919 0.0070083807 0.010382657
-0.01803168 -0.036123723 -0.018587751 0.017249836 -0.0021297915 0.012854433 -0.015189738 -0.0026603453
0.0714769 -0.016324345 0.015188816 0.03396167 -0.004148616 0.02741749 -0.011477135 0.021641245
-0.017751105 -0.009379349 0.02468899 0.0288986 -0.053293563 0.014766533 0.0016948106 0.011414927
0.0022683183 0.011989321 -0.024927849 0.019100424 0.0030659796 0.011767998 -0.010138495 0.03829392
-0.009155325 0.028052216 0.028009487 -0.008763803 -0.0021209954 0.007245212 -0.0006805003 -0.012761387
-0.00638687 -0.014756001 -0.005098113 0.0008417768 -0.025371823 -0.0030240386 -0.023406062 -0.010971118
-0.040392864 -0.0031439748 -0.023674978 -0.048168004 0.005627095 -0.020337772 -0.008209393 0.012403826
0.036855552 0.026725827 -0.02250544 0.016056253 0.015945006 -0.053963408 0.026070187 -0.013285771
-0.017349035 -0.031332184 0.03683051 0.016651785 -0.022331702 -0.002945682 -0.018754855 0.013014182
-0.012112347 0.010417674 0.0040045977 0.009024206 0.026835434 0.024396826 0.030678477 0.0138162915
0.025176885 -0.0042471127 0.013587751 -0.0018946227 0.017705139 0.008242802 -0.0064620487 -0.0042455764
-0.04385758 -0.002270949 0.04149817 0.029623361 0.013299766 -0.008801301 0.015767286 -0.001298821
00000000: 1bba 66bc 697e cbbc 4fa9 3e3b 4b28 ec3c
00000010: 4329 50bc 3bac fbbb 8b81 7d3c 6c47 60bb
00000020: 1b88 283c 9dad 92bc d1f4 6abc c102 ebbc
00000030: bb98 a2bb 48e4 d93b e95c bebc 9989 983b
00000040: 4f08 fb38 ee90 0fbc 7e39 01bc 7acd 393c
00000050: 4cae a0bc 54a7 573c 1586 c13c b101 b8ba
00000060: 194f b7bb 99d2 023d a449 413c 871f d638
00000070: 9ec3 25bd 8084 debc c869 4c3c 31dd 1fbc
00000080: 7863 c1bb db6a cdbc 852e e13c 7d0e cd3b
00000090: 2855 95bc 4e25 51bc f93b 133c 6f52 f1bc
000000a0: be2e 0d3d a7e8 5a3c b585 ed3b dbcf 5d3c
000000b0: 2da8 f7b9 b916 9abb 4a72 533c 8b71 43bc
000000c0: d316 353c 7f48 03bb a433 773c 2858 3bbc
000000d0: 0eb6 25ba a480 37bd 07ea a83c 53f8 a3bc
000000e0: 8a7b ffbc d1b3 393c a8d4 873c 5f81 cd3c
000000f0: 4e2a 1a3d ae93 a6bc e048 b3bb babf 28bd
00000100: fd43 42bd 9075 9e3c 458b d23b c718 cc3c
00000110: 58cf 0f3c 52c4 ee3c 250c a83a b160 c4bb
00000120: 1ca5 1cbc 57a6 b8bb 4b2c 773c 9d65 e03b
00000130: d6d2 2abd a996 da3a 77e5 013b 8d59 e9ba
00000140: fb47 493c d0fc ebba 6508 a53c 2d4c 60bc
00000150: b0f3 6cbc 615a 833c 2cf6 2ebc a9d1 0b3c
00000160: 675d fe3c ffcc d4bb df0f 17bc b0f9 89bc
00000170: 7830 a3bc 3f54 c43b 4bd1 593b c006 c2bb
00000180: b778 2abc 9a2e 7f3c 6996 02bc d72b 073c
00000190: 82c3 b0bc 5048 1e3d 97ac 5fbc 37ef 22bc
000001a0: aaf4 b03a 5336 59bb 4ce4 00bd 2a3d 593c
000001b0: 6f9a 5d3d 916f e9bc 9466 d7bb 3fdb d23c
000001c0: 472d 8b3d be2b 2dbc 2e4e 21bd 2ae4 af3c
000001d0: e4fb c63c 90cf 16bc 1f62 09bc 829d 3c3c
000001e0: 02b2 18bd fb16 753b 41ef 6f3c 9900 8b3c
000001f0: 4e0f 5f3c b1ad 233c 0e93 05bd cca9 e13c
00000200: f64d 4e3c a36d b13b ff34 4b3c 3fae c63c
00000210: 09c6 e53c 75a6 493c 640c 13bd fe46 c73b
00000220: fdcb 953c 8096 52bc 3d51 2d3c c58d 923b
00000230: b7c8 83bc a033 27bc b89b 30bc b7dd 1cbc
00000240: 293e 623c b724 663c d2ec 903b ec4e d3b9
00000250: 2496 a53c 34cb 22bd c97b dcbc 6b8a 2abd
00000260: 3b09 e1bc 8bae a8bc b08f a43b 8ba0 d23c
00000270: a413 04bd d77b b73c 8fa6 e53b 051c 2a3c
00000280: 2cb7 93bc 78f6 13bd 5745 98bc 874f 8d3c
00000290: f993 0bbb 669b 523c 61de 78bc 3059 2ebb
000002a0: 7b62 923d a2ba 85bc 83da 783c 641b 0b3d
000002b0: 1df1 87bb a59a e03c 980a 3cbc fb48 b13c
000002c0: c46a 91bc d7ab 19bc 9140 ca3c c2bc ec3c
000002d0: 5a4a 5abd 54ef 713c 6824 de3a ad05 3b3c
000002e0: 11a8 143b db6e 443c 7d35 ccbc 7e78 9c3c
000002f0: 9aee 483b 90ce 403c ee1b 26bc 16da 1c3d
00000300: 3700 16bc c3cd e53c 2774 e53c 0e96 0fbc
00000310: 6600 0bbb 3e69 ed3b 9a63 32ba 2315 51bc
00000320: f348 d1bb 27c3 71bc 120e a7bb afaa 5c3a
00000330: 92d8 cfbc f32e 46bb 12be bfbc 34c0 33bc
00000340: fd72 25bd 250b 4ebb 07f2 c1bc d04b 45bd
00000350: 7e63 b83b 669b a6bc b180 06bc 6b39 4b3c
00000360: d9f5 163d 1ff0 da3c 545d b8bc 6788 833c
00000370: 1a9f 823c bc08 5dbd 2591 d53c 90ac 59bc
00000380: 901f 8ebc 2d56 00bd 97db 163d 5369 883c
00000390: f9f0 b6bc 580c 41bb c8a3 99bc 7039 553c
000003a0: de72 46bc e4ae 2a3c 0039 833b 43da 133c
000003b0: fcd5 db3c dadb c73c 6e51 fb3c ba5d 623c
000003c0: c13f ce3c 5d2b 8bbb 299f 5e3c fd54 f8ba
000003d0: 5e0a 913c d10c 073c 98bf d3bb 7a1e 8bbb
000003e0: 01a4 33bd 34d4 14bb fcf9 293d b1ac f23c
000003f0: 43e7 593c 5533 10bc 652a 813c 333d aaba

chords_tempNet.convT_in.bias f4 [1024]
-0.017449902 -0.016451376 -0.025790997 0.01446795 0.019232491 -0.0019578454 0.0033499666 0.0054056775
-0.022280036 -0.0028148124 -0.028271006 -0.01676051 -0.0033944878 -0.038577836 -0.0069698365 -0.02739759
0.0076744156 -0.031352937 -0.008120921 -0.014892848 -0.021052841 0.014777 -0.041288268 -0.0048388583
-0.026163556 0.0018143363 0.003365298 -0.002689993 0.023535695 0.0066295844 -0.014816586 0.0016439611
-0.039999325 -0.02760966 -0.01827208 -0.0035971452 0.0169823 0.0058344817 -0.007030188 -0.01719362
0.017903695 -0.026761156 -0.035611875 0.0076087746 0.005677001 0.008486794 0.00039141826 -0.040962864
-0.00046780147 0.0049880245 -0.0030538999 0.0017936082 -0.024471762 0.02934524 0.027405262 -0.008917247
0.004029451 0.006588935 0.008866932 -0.005328092 0.018457327 0.040009517 0.0029117968 0.0030700983
-0.01163645 0.038823515 -0.007061929 0.02130039 -0.0072094016 -0.015372547 -0.0040063253 -0.01572985
-0.016224725 -0.032968108 -0.0039819055 0.01003561 -0.03750746 -0.011957558 0.014866527 -0.0042585246
-0.0010641414 0.008117453 -0.0058463216 -0.007082723 -0.008328855 -0.017321791 -0.03284389 0.03946166
-0.013659873 -0.007979109 -0.03876161 -0.0055502113 -0.016670465 0.012033959 0.012933778 -0.008017711
0.016712489 -0.04169806 0.021033745 0.00059449946 0.00880017 -0.009255189 0.017542074 -0.013575528
-0.0024636898 0.0032448315 0.027404267 0.00053299434 0.0017157018 0.029585622 -0.007390236 0.020217517
-0.0022961593 0.01099405 -0.0063461983 0.014854335 -0.020980999 0.010139973 0.023503413 0.013168767
0.0031521267 -0.034139294 0.0048691435 -0.011666567 0.033418823 -0.030668033 0.017386712 0.019085212
0.007864146 -0.0155568775 -0.0142563665 -0.013404549 0.030690776 0.00835626 -0.0126607865 -0.017708538
0.007876557 0.03733676 0.011911776 0.034684543 0.007031442 0.010341009 -0.0052797995 0.019386861
-0.02374665 -0.016150042 0.03099217 0.017221464 0.010247031 0.02800297 -0.0055567194 -0.020512179
0.022374036 0.008404811 0.011909556 -0.032543153 0.0028238832 -0.00031434646 0.0005358015 -0.036756612
0.018398508 0.00687622 -0.0051595927 0.019006371 -0.011762039 0.010013524 0.009917723 -0.018085957
-0.010322256 0.0015581129 0.0013751556 -0.0020451301 -0.00035441606 -0.020865208 -0.011414247 -0.007586286
0.006048717 0.01003332 -0.006139128 -0.0043568346 -0.007112135 -0.0137998825 0.013846761 -0.00779513
-0.02086324 0.012113842 -0.011193174 -0.013993813 -0.0031664923 0.01867305 0.017015459 -0.010604101
-0.030698782 -0.02175674 0.022610107 0.016675849 0.0044693043 -0.00978097 0.001863646 -0.002608211
0.010077416 0.0347076 0.0029019548 -0.0007956658 0.012628361 0.013345007 0.015098308 0.014852857
0.00849198 0.00533926 0.03515864 0.003377451 -0.0076996274 0.012733728 -0.020579483 -0.031949397
0.0017889867 0.019178456 -0.020059597 0.0012802434 0.010675168 -0.01929303 0.019592267 -0.029829707
0.0043240376 -0.013585717 0.021496281 -0.002192746 -0.026952423 -0.031921953 0.008693378 -0.0015359804
0.008307668 -0.018285424 0.014262459 -0.0025844807 0.022624852 -0.03348101 0.008905536 -0.038193464
0.020335924 0.021398507 0.004798287 -0.017447308 -0.01723428 0.013760187 0.00473302 -0.012560905
0.019393269 -0.0070622065 -0.012759494 0.0037031013 -0.026583657 -0.0027939833 -0.014586302 0.0436373
00000000: 19f3 8ebc 09c5 86bc a447 d3bc fb0a 6d3c
00000010: 758d 9d3c 324f 00bb 1d8b 5b3b 1c22 b13b
00000020: 9f84 b6bc b778 38bb 9998 e7bc 564d 89bc
00000030: 0e76 5ebb cb03 1ebd 3a63 e4bb e970 e0bc
00000040: aa79 fb3b f06b 00bd 9d0d 05bc 2201 74bc
00000050: 0277 acbc 3b1b 723c e31d 29bd 498f 9ebb
00000060: f454 d6bc 06cf ed3a 558c 5c3b 984a 30bb
00000070: eecd c03c fc3c d93b 44c1 72bc 2e7a d73a
00000080: 55d6 23bd a72d e2bc 54af 95bc 15be 6bbb
00000090: 771e 8b3c 2e2f bf3b 7e5d e6bb a2d9 8cbc
000000a0: c5aa 923c 363a dbbc c2dd 11bd 0753 f93b
000000b0: 2306 ba3b 320c 0b3c 4537 cd39 adc8 27bd
000000c0: 4043 f5b9 9572 a33b f023 48bb 8117 eb3a
000000d0: 0179 c8bc 6e65 f03c 0081 e03c a519 12bc
000000e0: 7c09 843b fee7 d73b 9c46 113c 4697 aebb
000000f0: d233 973c 05e1 233d d8d3 3e3b b433 493b
00000100: cfa6 3ebc 6805 1f3d c167 e7bb 287e ae3c
00000110: d83c ecbb 23dd 7bbc 7e47 83bb e3db 80bc
00000120: b7e9 84bc 9109 07bd a57a 82bb 666c 243c
00000130: 6ca1 19bd a2e9 43bc bc92 733c 188b 8bbb
00000140: a97a 8bba 11ff 043c 8092 bfbb 3016 e8bb
00000150: c075 08bc 6ee6 8dbc 5187 06bd 8da2 213d
00000160: a9cd 5fbc cfba 02bc 7ec4 1ebd 8cde b5bb
00000170: 8090 88bc 152a 453c 32e8 533c b85c 03bc
00000180: a1e8 883c 96cb 2abd f64e ac3c 2fd8 1b3a
00000190: 972e 103c 14a3 17bc 65b4 8f3c e46b 5ebc
000001a0: db75 21bb 3da7 543b ea7e e03c a5b8 0b3a
000001b0: 66e1 e03a 8c5d f23c cb29 f2bb 359f a53c
000001c0: 297b 16bb 6320 343c c5f3 cfbb 995f 733c
000001d0: 58e0 abbc 2122 263c 3b8a c03c d0c1 573c
000001e0: e993 4e3b a5d5 0bbd 568d 9f3b 2125 3fbc
000001f0: 2de2 083d 873b fbbc 946e 8e3c 9758 9c3c
00000200: 9ed8 003c 46e2 7ebc 8993 69bc c19e 5bbc
00000210: 396b fb3c b2e8 083c 306f 4fbc 7f11 91bc
00000220: ad0c 013c 6eee 183d 9c29 433c 6111 0e3d
00000230: 0368 e63b 566d 293c 2b02 adbb 32d1 9e3c
00000240: 5688 c2bc 184d 84bc 4be3 fd3c 0714 8d3c
00000250: 2ae3 273c 7c66 e53c 2415 b6bb 2809 a8bc
00000260: c149 b73c 55b4 093c 4c20 433c f84b 05bd
00000270: e610 393b dece a4b9 0875 0c3a 1a8e 16bd
00000280: 78b8 963c ea51 e13b cd11 a9bb 40b3 9b3c
00000290: 91b5 40bc c40f 243c f27d 223c 0029 94bc
000002a0: ae1e 29bc 9839 cc3a 913e b43a 9707 06bb
000002b0: ebd0 b9b9 83ed aabc d202 3bbc 6196 f8bb
000002c0: 5134 c63b cb62 243c bd2a c9bb c7c3 8ebb
000002d0: ea0c e9bb e718 62bc 86dd 623c 4a6e ffbb
000002e0: 63e9 aabc 2379 463c 9363 37bc 4e46 65bc
000002f0: ed84 4fbb 39f8 983c 0164 8b3c d3bc 2dbc
00000300: 037c fbbc 313b b2bc d538 b93c ca9b 883c
00000310: 3e73 923b 5d40 20bc 9545 f43a 85ee 2abb
00000320: bf1b 253c 8e29 0e3d b92e 3e3b 3a94 50ba
00000330: 2fe7 4e3c 04a5 5a3c e55e 773c 6659 733c
00000340: f221 0b3c f6f4 ae3b 8202 103d 3a58 5d3b
00000350: 284d fcbb 20a1 503c 4e96 a8bc 5fdd 02bd
00000360: 6f7c ea3a 231c 9d3c 0654 a4bc d7cd a73a
00000370: e6e6 2e3c 6b0c 9ebc f67f a03c 6e5d f4bc
00000380: a8b0 8d3b a196 5ebc f818 b03c 2cb4 0fbb
00000390: 54cb dcbc 98c0 02bd ac6e 0e3c f352 c9ba
000003a0: e31c 083c 50cb 95bc 17ad 693c 6460 29bb
000003b0: c157 b93c 6223 09bd 86e8 113c c070 1cbd
000003c0: 8697 a63c ec4b af3c f33a 9d3b a8ed 8ebc
000003d0: e82e 8dbc 6872 613c 7317 9b3b 41cc 4dbc
000003e0: a2de 9e3c 156a e7bb 320d 51bc bbaf 723b
000003f0: f8c5 d9bc 431b 37bb 63fb 6ebc 07bd 323d

chords_tempNet.convT_out.weight f4 [1024, 32, 1, 1]
0.017177742 0.013417899 -0.0136881955 -0.0377379 -0.0024055263 0.0103612505 0.0094558885 0.05590603
0.005108659 -0.013854901 -0.01604542 -0.026004383 0.008453358 -0.0050377212 -0.039015602 -0.025618427
0.030620879 0.013863751 -0.037716098 0.033065658 -0.013453806 -0.031619314 0.00095304096 0.010967271
0.04598057 -0.003734829 0.009938919 0.017458128 -0.03009074 0.015599904 -0.004427152 -0.024890622
0.06701079 -0.0034505082 -0.03744466 0.02944761 0.06987699 -0.003661498 0.004106355 -0.010971697
-0.039880045 0.0040788534 0.0041918983 -0.008062073 0.015305838 0.006788393 0.032319844 -0.011215914
-0.017913757 -0.0073299618 -0.035457082 -0.06363828 9.719319e-05 0.015314552 0.0015114878 -0.017339393
0.0026757305 0.023040114 0.0035457439 -0.0031419492 0.021924391 0.012278178 0.0051063458 -0.012641761
-0.00047298768 -0.013619241 -0.019733539 -0.02716831 0.013879926 -0.033254407 0.035651017 0.033982873
0.017632114 0.010187647 0.012701332 -0.009095911 0.012408665 0.027116744 -0.018770756 0.035253
0.028074149 0.0027765739 0.03040897 0.021287711 0.046601158 0.016874127 0.035313763 0.015870078
0.018619794 -0.0016841341 -0.025597462 -0.012223293 0.014104634 0.035395123 -0.022610646 0.021960303
-0.01902861 0.017737187 0.044893987 -0.0062918346 -0.005314731 0.014498982 0.012284171 -0.019449182
0.007875071 0.032062046 -0.031955514 -0.00088442984 -0.001998482 -0.028238818 -0.0031976574 -0.017164705
-0.054345604 0.013459711 0.007710953 0.025157167 -0.035384662 -0.0046346495 -0.012109965 0.022183008
0.0006576345 0.018891765 -0.025037916 0.011443104 -0.009606811 0.010617658 -0.03101965 0.015689882
0.0073136496 0.005475686 0.018584399 -0.00078123296 -0.007654978 0.026053581 0.015089089 0.027551355
-0.02548791 0.016464984 0.0037173226 0.043929998 0.049219366 -0.021031268 0.023134202 0.0021614726
0.009391519 -0.005403458 -0.027359247 0.016858159 -0.0046837106 0.0072483304 -0.00018961253 0.021179618
0.0058603957 -0.005785539 -0.026111502 -0.045091975 -0.027832055 -0.018844325 0.00021871718 0.0012903766
0.02928932 0.0028051948 -0.017791115 -0.04887196 -0.031801105 -0.010610461 0.014644253 -0.010226101
0.02431378 0.01117181 -0.026114238 0.025790967 -0.0029988633 0.03989146 0.012664447 -0.019512502
0.022133434 -0.027150398 -0.0022941795 -0.0020239502 -0.00612422 -0.01831059 -0.025812713 0.0016461699
0.024065854 -0.02052391 0.022187673 0.03875614 -0.0042645037 0.015153784 0.002325988 -0.04897386
-0.0022285748 0.007751189 0.0033973942 0.054695133 0.0036251412 -0.03508834 0.016562652 0.017449228
-0.0050003324 0.006071246 0.051065482 0.02464685 -0.0008444507 -0.005840618 0.012818313 0.008576299
-0.004462054 -0.02171964 0.016657501 0.0047591934 -0.001707947 -0.040294614 -0.048539076 0.008871758
0.011332043 0.0062749223 -0.034544915 -0.042440593 0.033555128 0.009162421 -0.040517837 0.005653339
-0.022882665 -0.03435942 0.015379534 0.007550135 0.023188826 -0.010874768 -0.028803157 0.03186448
-0.021100337 -0.026410475 -0.0004649809 -0.024581859 0.010592093 0.010940273 -0.021915358 -0.005649511
0.021775056 -0.029063752 0.0062249117 0.016208468 0.025083954 0.012103616 -0.01877516 0.018332774
0.0014683867 0.002090282 0.004774927 0.024903154 0.041248016 -0.012047525 0.000109947236 -0.022384267
00000000: 56b8 8c3c bfd6 5b3c 7444 60bc 0e93 1abd
00000010: 09a6 1dbb 3cc2 293c dfec 1a3c b9fd 643d
00000020: 8a66 a73b abff 62bc af71 83bc 2507 d5bc
00000030: f47f 0a3c 7813 a5bb d3ce 1fbd bcdd d1bc
00000040: a3d8 fa3c c924 633c 327c 1abd db6f 073d
00000050: 5a6d 5cbc 4183 01bd 7fd5 793a 12b0 333c
00000060: 1f56 3c3d 08c4 74bb d9d6 223c 5904 8f3c
00000070: db80 f6bc bd96 7f3c a511 91bb 6be7 cbbc
00000080: f43c 893d ec21 62bb 925f 19bd 1d3c f13c
00000090: ab1b 8f3d bef5 6fbb 9a8e 863b a2c2 33bc
000000a0: 4259 23bd e7a7 853b 315c 893b c916 04bc
000000b0: 56c5 7a3c 2b71 de3b d061 043d f4c2 37bc
000000c0: dfbf 92bc 2d30 f0bb 723b 11bd c954 82bd
000000d0: 32d4 cb38 e3e9 7a3c 1d1d c63a 580b 8ebc
000000e0: 4f5b 2f3b 9fbe bc3c b65f 683b 29e9 4dbb
000000f0: c89a b33c 692a 493c 2253 a73b 641f 4fbc
00000100: 55fb f7b9 3d23 5fbc 3ba8 a1bc 1390 debc
00000110: a168 633c c635 08bd cd06 123d a031 0b3d
00000120: 3971 903c 17ea 263c 3f19 503c 0407 15bc
00000130: b74d 4b3c ef23 de3c 21c5 99bc 7365 103d
00000140: c2fb e53c 2ef7 353b 3b1c f93c 9163 ae3c
00000150: dbe0 3e3d 9c3b 8a3c 2aa5 103d f701 823c
00000160: 8a88 983c 2abe dcba c5b1 d1bc 3544 48bc
00000170: 1f17 673c 7afa 103d f639 b9bc 18e6 b33c
00000180: e3e1 9bbc 944d 913c c2e2 373d bc2b cebb
00000190: 3227 aebb 238d 6d3c 8c43 493c e453 9fbc
000001a0: 7106 013c 7e53 033d c9e3 02bd 15d9 67ba
000001b0: f7f8 02bb 1855 e7bc ca8f 51bb ff9c 8cbc
000001c0: 7f99 5ebd 1f86 5c3c 29ac fc3b 6716 ce3c
000001d0: 82ef 10bd 42de 97bb e068 46bc 24b9 b53c
000001e0: 1b65 2c3a e7c2 9a3c 511c cdbc db7b 3b3c
000001f0: e365 1dbc aff5 2d3c ec1c febc 1188 803c
00000200: 57a7 ef3b 626d b33b 4f3e 983c a8cb 4cba
00000210: 9cd6 fabb 526e d53c 3a38 773c 61b3 e13c
00000220: 05cc d0bc 93e1 863c 539e 733b f1ef 333d
00000230: 3f9a 493d c449 acbc f083 bd3c 7ea7 0d3b
00000240: e3de 193c 7e0f b1bb 8020 e0bc 1f1a 8a3c
00000250: d079 99bb 6783 ed3b bad2 46b9 e180 ad3c
00000260: 9008 c03b 9e94 bdbb cae7 d5bc 5db2 38bd
00000270: 0d00 e4bc 6a5f 9abc 7257 6539 db21 a93a
00000280: 28f0 ef3c 5cd7 373b acbe 91bc f72d 48bd
00000290: e041 02bd 80d7 2dbc 73ee 6f3c 608b 27bc
000002a0: b12d c73c f809 373c 87ed d5bc 9447 d33c
000002b0: 9488 44bb 3a65 233d 8a7e 4f3c afd8 9fbc
000002c0: 2d51 b53c 836a debc f259 16bb 40a4 04bb
000002d0: aead c8bb 1700 96bc 2f75 d3bc 4cc4 d73a
000002e0: c125 c53c c221 a8bc ecc2 b53c c2be 1e3d
000002f0: 40bd 8bbb 9447 783c 9a6f 183b d098 48bd
00000300: 480d 12bb b0fd fd3b d1a6 5e3b 0108 603d
00000310: c793 6d3b cbb8 0fbd 66ae 873c aff1 8e3c
00000320: d4d9 a3bb 4ef1 c63b 0a2a 513d 31e8 c93c
00000330: 215e 5dba a862 bfbb e703 523c 9b83 0c3c
00000340: 6c36 92bb 63ed b1bc 5075 883c 02f3 9b3b
00000350: 31dd dfba f70b 25bd e9d0 46bd da5a 113c
00000360: 09aa 393c dd9d cd3b f87e 0dbd 30d6 2dbd
00000370: 1a71 093d fb1d 163c 08f6 25bd a53f b93b
00000380: 6d74 bbbc 77bc 0cbd 71fa 7b3c 1f67 f73b
00000390: 7ef6 bd3c 152c 32bc 99f4 ebbc 5484 023d
000003a0: 9dda acbc c85a d8bc aec8 f3b9 e55f c9bc
000003b0: 758a 2d3c d53e 333c d687 b3bc 881f b9bb
000003c0: 9a61 b23c 1b17 eebc 58fa cb3b 9fc7 843c
000003d0: dd7c cd3c 3f4e 463c 5dce 99bc 9d2e 963c
000003e0: e276 c03a 1dfd 083b fe76 9c3b b301 cc3c
000003f0: aef3 283d fb62 45bc 7993 e638 365f b7bc

chords_tempNet.convT_out.bias f4 [32]
0.19664659 -0.12111086 -0.02200559 -0.11913184 -0.13933009 -0.004401663 -0.030867456 0.1632718
0.025455717 -0.09350201 -0.15099125 -0.06737703 -0.0528893 -0.099975616 0.1345581 0.1624329
-0.0035702707 0.08978176 0.0069179907 -0.051342767 -0.085131496 -0.13445838 -0.1842549 0.006629568
-0.1195813 -0.0004726465 0.119815595 0.098177016 -0.05283847 -0.13565949 -0.014584764 0.083374985
00000000: b95d 493e f808 f8bd 1145 b4bc 65fb f3bd
00000010: 8cac 0ebe d33b 90bb bfdd fcbc b930 273e
00000020: 8288 d03c fb7d bfbd 739d 1abe f8fc 89bd
00000030: 73a2 58bd 04c0 ccbd 99c9 093e cf54 263e
00000040: 34fb 69bb 80df b73d 50b0 e23b cb4c 52bd
00000050: 6c59 aebd 75af 09be 51ad 3cbe d93c d93b
00000060: 0ae7 f4bd 8acd f7b9 e161 f53d 0811 c93d
00000070: 276d 58bd 52ea 0abe eff4 6ebc 81c0 aa3d

chords_tempNet.batchnorm_1.weight f4 [1024]
-0.012987369 -0.037383083 -0.08369705 1.3583917e-06 0.030686034 -0.024619829 0.039704975 -0.016737914
-0.028888647 0.019383527 -0.05728174 -0.013428173 7.007637e-05 -0.03962944 0.019690817 -0.012191696
0.03970576 -0.027661623 -0.0007848351 -0.009354273 -0.05522903 -0.029865658 -0.0523579 9.102153e-07
-0.056568634 -0.0018475816 0.027828412 -0.036084447 0.024263566 -0.04054748 -0.043447025 -0.03817584
-0.045308642 -0.06389387 -0.043348055 -0.03054253 0.012840019 -0.01418835 0.029993398 -0.0100675905
0.011659174 -0.03943206 -0.04136864 -0.017277155 -0.00010115155 0.00013833531 0.0021619191 -0.06402589
0.022136012 -0.04054451 -0.04768642 -0.026001858 -0.03557142 0.025099967 0.07887857 -0.019307612
0.020690555 0.024917737 0.0027562112 -0.018703505 -0.0018391742 0.043457918 -0.019799883 0.039903026
0.00037204052 0.03669897 0.007128073 0.03912133 -0.00010201482 -0.027937936 -0.012932185 0.00012847556
0.033835925 -0.003029771 -0.02586063 0.039638698 -0.030778108 -0.0027217136 -0.0008436647 -0.024883306
-0.015850162 0.032031238 0.036480065 -0.00013888434 -0.048432566 -0.05587816 -0.033481475 0.040029563
-0.023967024 0.0078187445 -0.021251356 -0.022737022 0.018786913 -0.023155443 -0.011396308 0.021810228
-0.0029757095 -0.051085316 -0.001282137 -0.018923668 -0.00015979572 0.014422005 0.015318507 0.01204967
-0.033186615 0.021392591 0.033450723 0.023342812 0.034565877 0.015050667 -0.031560887 0.023118185
-0.029038766 0.0037976082 -0.04630015 -0.00018481196 -0.030879503 0.05951051 0.073035635 0.0015446712
-0.033524387 -0.0265502 0.010887155 -0.018273987 0.042933613 -0.035939228 0.032006834 -0.0011015328
0.030431164 -0.0660803 -0.024008619 -0.044150636 0.036922652 0.02553861 -2.4972365e-05 -0.058197755
0.016935067 0.02504543 0.031229468 0.059722982 0.00943847 -0.018645542 0.019807482 0.0479784
-0.037595145 -0.026929392 0.04947649 0.042254202 -0.026873846 0.023953743 -0.011727955 -0.014678235
0.013374616 0.036733907 0.0002977649 -0.03806873 0.036423143 0.038495168 0.03854819 -0.023560358
0.026948765 0.026871588 0.040531464 0.010500412 -0.058779147 -0.022838507 0.012734414 0.004622094
-0.009150207 -0.00036563785 0.030837446 0.040607866 -7.119333e-05 -0.04609074 -0.069264494 -0.015739663
0.025328102 0.0051822877 0.0071385256 -0.013737044 -0.05093209 -0.04533476 -0.022945622 -0.021250334
-0.01470116 0.011054555 0.012404424 -0.026055083 0.009726696 -0.012018649 0.017233156 -0.01870176
-0.040977176 -0.00020912621 0.056464497 -0.023636451 0.028981462 -0.027375909 0.0040241187 -0.015088584
-0.022886261 0.031720173 -0.025351208 -0.0002727852 -0.012079146 0.03242418 0.03889327 -0.016241383
0.00025740272 0.014365102 0.024432383 -0.02429414 0.021865567 0.039922945 -0.02817848 -0.019224966
0.029571228 0.04282974 -0.025435802 -0.04369695 0.0316975 0.0026954215 0.024525648 -0.027512738
-0.041676696 -0.001795322 0.066537544 -0.024383593 -0.037562523 -0.05559099 0.027071431 0.018582879
-0.050192356 -0.023137726 0.014171393 -0.036060434 0.033957694 -0.021385442 0.037856914 -0.040659126
0.034274004 0.0003602533 -0.0011323588 -0.04826373 -0.040318564 -0.00012663944 0.028249381 -0.01581413
-0.00013223026 -0.020203825 0.019907638 0.03088975 -0.025676165 -0.027196173 -0.036225446 0.052343402
00000000: f9c8 54bc 011f 19bd 5c69 abbd fc51 b635
00000010: 4761 fb3c 86af c9bc afa1 223d f31d 89bc
00000020: e2a7 ecbc 34ca 9e3c 42a0 6abd d701 5cbc
00000030: f7f5 9238 7b52 22bd a34e a13c aebf 47bc
00000040: 82a2 223d a19a e2bc 64bd 4dba aa42 19bc
00000050: d637 62bd d3a8 f4bc 3d75 56bd 8555 7435
00000060: 83b4 67bd 8d2a f2ba 69f8 e33c 49cd 13bd
00000070: 63c4 c63c 1d15 26bd 82f5 31bd 455e 1cbd
00000080: 8e95 39bd cada 82bd bb8d 31bd 5434 fabc
00000090: f15e 523c 4176 68bc b7b4 f53c 89f2 24bc
000000a0: 1f06 3f3c 8383 21bd 2a72 29bd d288 8dbc
000000b0: 5321 d4b8 1a0e 1139 fcae 0d3b 0120 83bd
000000c0: 9556 b53c 0012 26bd d652 43bd d901 d5bc
000000d0: 56b3 11bd 729e cd3c 168b a13d ff2a 9ebc
000000e0: 3d7f a93c 4820 cc3c 8da1 343b 1838 99bc
000000f0: 7210 f1ba ee00 323d 5d33 a2bc 5b71 233d
00000100: 6f0e c339 a951 163d 9c92 e93b b03d 203d
00000110: caf0 d5b8 19de e4bc 84e1 53bc 65b7 0639
00000120: 8a97 0a3d 1f8f 46bb acd9 d3bc 305c 223d
00000130: 5f22 fcbc c75e 32bb 6129 5dba 13d8 cbbc
00000140: 33d8 81bc 3033 033d 1f6c 153d 7ba1 11b9
00000150: 3a61 46bd 7fe0 64bd df23 09bd 0af6 233d
00000160: 7e56 c4bc 311a 003c 5317 aebc fe42 babc
00000170: 03e7 993c 7cb0 bdbc 95b7 3abc 5dab b23c
00000180: 1f04 43bb d63e 51bd 610d a8ba cf05 9bbc
00000190: d68e 27b9 464a 6c3c 7afa 7a3c fb6b 453c
000001a0: b0ee 07bd 843f af3c a003 093d 6d39 bf3c
000001b0: f394 0d3d 1397 763c fd45 01bd 5962 bd3c
000001c0: b5e2 edbc 4be1 783b 3aa5 3dbd 15ca 41b9
000001d0: 03f7 fcbc 4bc1 733d b593 953d 9176 ca3a
000001e0: de50 09bd ce7f d9bc 0a60 323c 54b3 95bc
000001f0: 28db 2f3d 0335 13bd 9919 033d 4f61 90ba
00000200: c74a f93c 1c55 87bd b9ad c4bc 4cd7 34bd
00000210: 353c 173d 5936 d13c bf7b d1b7 c560 6ebd
00000220: 69bb 8a3c 132c cd3c f1d4 ff3c 16a0 743d
00000230: d0a3 1a3c 89be 98bc 4d43 a23c 0085 443d
00000240: 5efd 19bd 079b dcbc dca7 4a3d be12 2d3d
00000250: 8a26 dcbc a43a c43c 9c26 40bc fb7c 70bc
00000260: 3521 5b3c 4b76 163d 541d 9c39 f5ed 1bbd
00000270: 6f30 153d 1cad 1d3d b5e4 1d3d a701 c1bc
00000280: a8c3 dc3c ce21 dc3c 5204 263d ec09 2c3c
00000290: 67c2 70bd d217 bbbc 01a4 503c ef74 973b
000002a0: c0ea 15bc 15b3 bfb9 d09e fc3c 6f54 263d
000002b0: a14d 95b8 a5c9 3cbd 8bda 8dbd 77f0 80bc
000002c0: e17c cf3c 2ed0 a93b 4bea e93b 5711 61bc
000002d0: 2b9e 50bd f1b0 39bd 75f8 bbbc 2e15 aebc
000002e0: 22dd 70bc 2a1e 353c ed3b 4b3c 7871 d5bc
000002f0: b85c 1f3c dee9 44bc 8c2c 8d3c 6f34 99bc
00000300: afd7 27bd e448 5bb9 5147 673d 3ba1 c1bc
00000310: 886a ed3c 7143 e0bc c1dc 833b 1c36 77bc
00000320: f87b bbbc 03ed 013d 56ad cfbc 9c04 8fb9
00000330: 9ce7 45bc 38cf 043d 8d4e 1f3d a60c 85bc
00000340: 02f4 8639 9b5b 6b3c 6c26 c83c 8104 c7bc
00000350: 6b1f b33c 3e86 233d 8ed6 e6bc ad7d 9dbc
00000360: 5c3f f23c 3d6e 2f3d be5e d0bc 93fb 32bd
00000370: 3dd5 013d aba5 303b 03ea c83c 6562 e1bc
00000380: 2fb5 2abd 0351 ebba d644 883d 1ac0 c7bc
00000390: 29db 19bd 61b3 63bd e8c4 dd3c 1f3b 983c
000003a0: 8096 4dbd 548b bdbc 212f 683c 1bb4 13bd
000003b0: 3917 0b3d 8630 afbc da0f 1b3d 2f8a 26bd
000003c0: e662 0c3d 61e0 bc39 a86b 94ba 30b0 45bd
000003d0: 1425 25bd 84ca 04b9 3f6b e73c a28c 81bc
000003e0: 4aa7 0ab9 7e82 a5bc 5815 a33c 800c fd3c
000003f0: d256 d2bc 82ca debc 2261 14bd 0966 563d

chords_tempNet.batchnorm_1.bias f4 [1024]
0.021856314 0.036543433 0.026204435 -0.0005205187 0.0066804234 0.0101279775 0.0025829368 -0.0019683852
0.016754549 0.006344505 0.018387353 0.014356622 -0.0009210016 0.03135854 0.00266908 0.0014445224
0.021327509 0.013342176 -0.0037268815 0.006081495 0.020738963 -0.0009947928 0.026564926 -0.00017316919
0.01670242 -0.004315833 0.01617514 0.026100205 0.004973582 0.017484948 0.019546838 0.014074135
0.020432284 0.024662029 0.023371654 0.008776491 -0.0009860818 0.0067747384 0.0029228213 -0.0021698761
0.008620597 0.012240576 0.012942025 0.013778738 -0.00076520466 -0.0007532561 -0.00848156 0.029031504
0.016658908 0.010855608 0.025413634 -0.00029338102 0.008096549 0.016181156 0.02367191 0.025719358
0.004222374 0.010713431 -0.012968688 0.0063212398 -0.0048404024 0.019388184 0.0044487566 0.010233273
-0.0019656895 0.025098214 -0.0042237802 0.016776131 -0.0012836313 0.01023682 0.005696022 -0.00065080775
0.005713393 0.030698556 0.005387794 0.013645086 0.015478675 -0.0030517755 -0.0045610345 0.0028907738
0.016813995 0.021406835 0.010485574 -0.0013580048 0.01550138 0.0056510316 0.013202193 0.022720855
0.00052310736 0.0031333035 0.018673634 0.012153317 -0.0033136492 0.004289996 0.0015110878 0.015118426
-0.0058235247 0.019720428 -0.008712723 0.009624825 -0.0022790276 -0.0076556127 0.0054076184 0.0028260066
0.0067576137 0.012068688 0.013109419 0.014437416 0.020013971 0.025446566 0.011253226 0.0020293423
0.0073334803 -0.0067441887 0.024711905 -0.0009378039 0.01752528 0.025597436 0.027167348 -0.004215287
0.0052421475 0.022163788 0.0040324964 0.010204464 0.031250123 0.021476764 0.016355697 -0.0057841493
0.0019723412 0.026081229 -0.002240574 0.011034435 0.01690589 0.016978128 -0.00084215414 0.025684427
0.0066032805 0.02018556 0.0004596816 0.021682605 -0.0054920856 0.008361236 0.007725367 0.0068233367
0.0108047845 0.00165048 0.010985327 0.008149335 0.008255122 0.016610261 -0.0030910354 0.0050207064
-0.00075116754 0.014968621 -0.002634089 0.017633034 0.0135725625 0.022036737 0.015678428 0.022312801
0.010498147 0.009530538 0.014543818 -0.0007423817 0.004656174 0.007710211 0.004261441 -0.00560943
0.0025375008 -0.0014179597 0.0047131255 0.00030404792 -0.00037008413 0.009459127 0.02329389 0.004638537
0.010637333 -0.005419488 0.011497859 0.009467131 0.014571712 0.025104135 -0.002900076 0.0027260697
0.011123855 0.0075170677 -0.00022381854 0.025550667 -0.00215015 -0.004336847 0.0017782729 0.009658362
0.020567136 -0.0009336778 0.020228833 0.0033123766 0.004547707 0.002698512 0.019850263 0.0033047802
0.011315138 0.014859933 0.009213228 -0.0030100672 0.0029367595 0.0053976527 0.015648926 0.0009944624
-0.0014761464 -0.00014943122 0.014478773 0.008898779 0.012345674 0.014235007 0.015957998 0.012905956
0.012227666 0.0061594034 0.0047397832 0.019218113 0.0164547 -0.0066400236 0.0026736886 0.009932917
0.0003123304 -0.006852947 0.02086883 0.006171506 0.01240426 0.024664147 0.012986514 0.01051541
-0.0046534333 0.010360757 0.0038942937 0.0057365447 0.016634524 0.010311463 0.0022002812 0.019083662
0.003992886 -0.0028291729 -0.0062371613 0.014505719 -0.0015620283 -0.0025439647 0.009045133 -0.005311561
-0.00079792703 0.0055490294 0.0115777785 0.0035705748 0.013848907 0.019497652 0.011395681 0.031281788
00000000: 030c b33c 91ae 153d afaa d63c 6b73 08ba
00000010: 74e7 da3b d1ef 253c 7d46 293b 0600 01bb
00000020: d640 893c 91e5 cf3b 13a1 963c 0938 6b3c
00000030: 5f6f 71ba d071 003d bbeb 2e3b 2156 bd3a
00000040: 07b7 ae3c 2499 5a3c b23e 74bb 4747 c73b
00000050: c2e4 a93c b563 82ba b09e d93c c094 35b9
00000060: 83d3 883c d56b 8dbb ba81 843c 19d0 d53c
00000070: 6ef9 a23b 983c 8f3c b120 a03c 3397 663c
00000080: 9b61 a73c 0608 ca3c e975 bf3c 45cb 0f3c
00000090: 6a3f 81ba a0fe dd3b ce8c 3f3b 7b34 0ebb
000000a0: 683d 0d3c b28c 483c ca0a 543c 37c0 613c
000000b0: 0498 48ba 2976 45ba 3ef6 0abc 7ad3 ed3c
000000c0: 4378 883c b8db 313c 4130 d03c efd0 99b9
000000d0: 63a7 043c 588e 843c 98eb c13c 67b1 d23c
000000e0: d75b 8a3b 6387 2f3c 9f7a 54bc 6722 cf3b
000000f0: 3d9c 9ebb f8d3 9e3c e0c6 913b 75a9 273c
00000100: ccd2 00bb c59a cd3c a367 8abb 196e 893c
00000110: 853f a8ba 56b8 273c b2a5 ba3b f89a 2aba
00000120: 6a37 bb3b 8a7b fb3c 188c b03b a48f 5f3c
00000130: 459a 7d3c 4c00 48bb bb74 95bb 2373 3d3b
00000140: 81bd 893c 635d af3c afcb 2b3c 14ff b1ba
00000150: 80f9 7d3c 4a2c b93b 034e 583c 1621 ba3c
00000160: 2421 093a 1c58 4d3b 73f9 983c b51e 473c
00000170: cf29 59bb 1893 8c3b b10f c63a 46b3 773c
00000180: 44d3 bebb bc8c a13c cfbf 0ebc 71b1 1d3c
00000190: bd5b 15bb efdb fabb 6432 b13b 8634 393b
000001a0: f96e dd3b bfbb 453c e3c8 563c e98a 6c3c
000001b0: 57f4 a33c 5175 d03c 735f 383c b7fe 043b
000001c0: b14d f03b 5bfe dcbb 9f70 ca3c f4d6 75ba
000001d0: 2d91 8f3c b7b1 d13c 0f8e de3c 6420 8abb
000001e0: 52c6 ab3b d590 b53c 0823 843b a030 273c
000001f0: 2100 003d 0af0 af3c 62fc 853c f688 bdbb
00000200: 6542 013b 4da8 d53c 98d6 12bb c6c9 343c
00000210: 397e 8a3c b715 8b3c 02c4 5cba 2668 d23c
00000220: 5560 d83b 305c a53c 6c01 f139 b89f b13c
00000230: f4f6 b3bb 91fd 083c 1325 fd3b 4c96 df3b
00000240: 8d06 313c eb54 d83a cdfb 333c ca84 053c
00000250: 7e40 073c 3e12 883c f892 4abb bd84 a43b
00000260: 00ea 44ba f23e 753c aea0 2cbb 2773 903c
00000270: 745f 5e3c 6386 b43c 0c70 803c 56c9 b63c
00000280: 6c00 2c3c f925 1c3c 3249 6e3c 649c 42ba
00000290: d292 983b f0a5 fc3b 8fa3 8b3b 4fcf b7bb
000002a0: 334c 263b d5da b9ba 9070 9a3b 9f68 9f39
000002b0: da07 c2b9 74fa 1a3c d4d2 be3c defe 973b
000002c0: 3548 2e3c f695 b1bb 8461 3c3c 071c 1b3c
000002d0: 31be 6e3c 30a7 cd3c 340f 3ebb dca7 323b
000002e0: d440 363c bc51 f63b d5b0 6ab9 a24f d13c
000002f0: 88e9 0cbb 1c1c 8ebb f014 e93a 1b3e 1e3c
00000300: 697c a83c 0ec2 74ba f0b6 a53c 7514 593b
00000310: ee04 953b 85d9 303b 059d a23c 0395 583b
00000320: 2163 393c 1477 733c 14f3 163c 8c44 45bb
00000330: a676 403b cbde b03b 2d32 803c 9f58 823a
00000340: 417b c1ba a3b0 1cb9 6038 6d3c 2fcc 113c
00000350: 8345 4a3c f239 693c 59ba 823c 8173 533c
00000360: 8c56 483c d2d4 c93b 2f50 9b3b 4e6f 9d3c
00000370: 02cc 863c 8e94 d9bb 0d39 2f3b acbd 223c
00000380: 47c0 a339 b08e e0bb 1cf5 aa3c 583a ca3b
00000390: 3d3b 4b3c 770c ca3c 63c5 543c d448 2c3c
000003a0: d47b 98bb 2ac0 293c 6837 7f3b a0f9 bb3b
000003b0: 2045 883c 69f1 283c 9832 103b 5755 9c3c
000003c0: c1d6 823b a569 39bb 1a61 ccbb 65a9 6d3c
000003d0: f9bc ccba a5b8 26bb 0a32 143c 9a0c aebb
000003e0: fa2b 51ba a2d4 b53b b9b0 3d3c 4e00 6a3b
000003f0: 87e6 623c 8ab9 9f3c f3b4 3a3c 5521 003d

chords_tempNet.batchnorm_1.running_mean f4 [1024]
0.040333174 0.024562744 -0.008431372 -0.025534617 0.014328876 0.021831458 -0.033948284 0.008415429
-0.012953403 0.08502867 0.012346545 -0.029162435 0.014348686 -0.06313965 -0.040451866 0.0054129404
-0.027696708 -0.015447976 0.05381439 -0.062346272 0.044798132 0.028055342 -0.0015569933 0.00029588552
-0.007693928 -0.04991251 0.015234565 0.05537516 -0.01710547 -0.005298061 0.077105835 0.004833087
-0.021093376 -0.0022945087 0.024097657 -0.015029781 0.0015915739 -0.0068034017 -0.041236542 0.053761266
0.02807361 -0.011164661 0.004399599 -0.0034824642 0.052516136 0.035377197 0.030893127 -0.031457525
-0.04662194 0.019620866 0.013366446 0.03997839 -0.041956253 0.013890186 -0.030668788 -0.033966113
-0.020698452 -0.010959524 -0.045930464 0.0017832567 -0.027156187 0.018676555 0.01007391 0.05663969
-0.00773898 0.025554055 0.03322604 -0.019778218 -0.056632474 0.011539642 -0.021308212 -0.009481563
-0.04156675 -0.027901731 -0.024501333 0.03756686 0.0062796334 -0.025010847 -0.022824604 0.011557074
0.005708789 -0.021701949 -0.10760926 0.03963184 -0.03475798 -0.0037877453 -0.038495813 0.012130132
-0.032986768 0.0022208653 -0.058419377 -0.010505389 0.003277431 0.0030209685 0.03264195 -0.04841651
-0.057399515 0.046625856 -0.04464259 -0.03421204 0.0064262636 -0.0068301912 0.028042115 -0.030567944
0.033199053 0.05703922 0.074714854 -0.024812507 0.0045588566 -0.010659662 0.0030556754 -0.060045965
0.009694906 -0.016338443 0.08357216 0.011826497 -0.017089436 0.013896065 0.0067653935 -0.0038715785
-0.036059286 -0.008527143 0.01539708 0.027329609 -0.02796336 -0.056723747 0.02915256 0.028759733
-0.026576553 0.050158817 0.030839792 0.028252251 -0.00940955 -0.008927841 0.021687472 -0.0026825445
0.02391719 0.007560292 0.02527191 -0.028048223 0.0065620393 0.046987742 0.06561076 0.03775194
-0.008161159 -0.005892545 0.087277845 0.01007009 0.029754598 0.016261559 -0.030976927 0.009272471
0.022129906 -0.05671965 0.052555643 -0.00032443358 0.015830763 -0.058710173 0.0008900014 0.016879627
0.04261235 0.0063059228 0.02258647 0.07421426 0.012588366 0.024728648 0.05102146 0.012865343
0.009091124 0.015636913 0.054056894 -0.039797243 0.023021989 -0.005069201 0.0036426452 -0.0104019735
-0.031182861 -0.020923784 0.013081895 0.012572021 0.028572073 0.012147483 0.0032753218 -0.06893153
-0.04586618 0.07058128 0.04757616 4.127534e-05 0.01107117 8.634666e-05 0.023730956 -0.035509728
0.0077562225 -0.05383405 0.04589967 0.03717925 -0.00085850153 0.024116168 -0.049339365 0.054834563
0.0074071516 0.040730182 -0.0033092515 -0.03513808 0.0589851 0.054597463 -0.023416499 -0.027991822
0.04786988 -0.024088573 0.046922058 0.043153405 -0.047800723 0.012627319 -0.03222603 -0.038510516
-0.016280726 0.10129902 0.0061992076 0.054145005 -0.008379311 -0.011518076 0.04928348 -0.042440195
0.03187955 -0.059821256 -0.0077807624 0.0031857123 -0.006818954 -0.03270755 -0.022576397 0.01552302
0.053978723 -0.013668208 -0.008264574 -0.010359975 0.0063441345 -0.021253206 0.018007206 -0.01123507
0.09375298 0.033655673 -0.01500658 -0.017647669 0.0053530843 0.03745148 0.02618936 -0.042049244
-0.020238664 -0.0018720045 -0.018629527 0.0013163635 -0.018204272 0.04074499 0.048228674 -0.010491412
00000000: 6634 253d cf37 c93c bd23 0abc f92d d1bc
00000010: a9c3 6a3c e3d7 b23c 5b0d 0bbd dee0 093c
00000020: 833a 54bc 8323 ae3d 2a49 4a3c 0fe6 eebc
00000030: c016 6b3c 5c4f 81bd dbb0 25bd 095f b13b
00000040: 35e4 e2bc 8219 7dbc 7a6c 5c3d ce5e 7fbd
00000050: 3f7e 373d 51d4 e53c 0714 ccba 1521 9b39
00000060: 591d fcbb 0f71 4cbd 669a 793c 10d1 623d
00000070: c520 8cbc 5b9b adbb aae9 9d3d df5e 9e3b
00000080: 04cc acbc 785f 16bb 7368 c53c 783f 76bc
00000090: 5c9c d03a 12ef debb a6e7 28bd c634 5c3d
000000a0: a1fa e53c fbeb 36bc 832a 903b 0e3a 64bb
000000b0: 291b 573d aee7 103d 9513 fd3c 9bd9 00bd
000000c0: a6f6 3ebd f0bb a03c f0fe 5a3c 61c0 233d
000000d0: 52da 2bbd aa93 633c 1c3d fbbc 0d20 0bbd
000000e0: cd8f a9bc 938f 33bc 9521 3cbd 2abc e93a
000000f0: a776 debc 93ff 983c 0a0d 253c 05ff 673d
00000100: 4597 fdbb bd56 d13c 0718 083d ee05 a2bc
00000110: 74f7 67bd c410 3d3c 8f8e aebc 8f58 1bbc
00000120: e541 2abd 2c92 e4bc 05b7 c8bc b5df 193d
00000130: 62c5 cd3b 8ce3 ccbc aafa babc e259 3d3c
00000140: cb10 bb3b 49c8 b1bc 3e62 dcbd ff54 223d
00000150: 625e 0ebd d23b 78bb c9ad 1dbd 76bd 463c
00000160: 221d 07bd f08b 113b 2849 6fbd cc1e 2cbc
00000170: 2bca 563b 71fb 453b 91b3 053d 6450 46bd
00000180: c11b 6bbd c1fa 3e3d 26db 36bd ed21 0cbd
00000190: 6893 d23b cccf dfbb 94b8 e53c a069 fabc
000001a0: bbfb 073d f5a1 693d 1a04 993d 9943 cbbc
000001b0: 7662 953b dda5 2ebc ba41 483b c2f2 75bd
000001c0: 62d7 1e3c 33d8 85bc e127 ab3d ecc3 413c
000001d0: 25ff 8bbc 52ac 633c 3cb0 dd3b 4fba 7dbb
000001e0: e7b2 13bd 6eb5 0bbc 0944 7c3c 58e2 df3c
000001f0: 6b13 e5bc 2957 68bd 59d1 ee3c 8899 eb3c
00000200: 12b7 d9bc 5573 4d3d bba3 fc3c 4471 e73c
00000210: 832a 1abc 1446 12bc eda9 b13c a1cd 2fbb
00000220: fced c33c 53bc f73b 0907 cf3c 63c5 e5bc
00000230: 6006 d73b 3876 403d ef5e 863d c7a1 1a3d
00000240: 62b6 05bc 4016 c1bb babe b23d 05fd 243c
00000250: eabf f33c f636 853c 53c3 fdbc 90eb 173c
00000260: c749 b53c dd52 68bd 9644 573d bd18 aab9
00000270: 84af 813c 147a 70bd fc4e 693a 2547 8a3c
00000280: 4a8a 2e3d eaa1 ce3b 4307 b93c a5fd 973d
00000290: 6f3f 4e3c bc93 ca3c e1fb 503d 29c9 523c
000002a0: f0f2 143c fc18 803c c36a 5d3d 6f02 23bd
000002b0: 9c98 bc3c 8a1b a6bb 72b9 6e3b 0a6d 2abc
000002c0: 3373 ffbc 5b68 abbc 7255 563c e1fa 4d3c
000002d0: fb0f ea3c 3d06 473c c8a6 563b f92b 8dbd
000002e0: 2dde 3bbd eb8c 903d 38df 423d 0f1f 2d38
000002f0: da63 353c 0315 b538 6c67 c23c a672 11bd
00000300: e927 fe3b 1881 5cbd 4b01 3c3d 4549 183d
00000310: 100d 61ba 458f c53c 1318 4abd 359a 603d
00000320: b1b7 f23b b1d4 263d 07e0 58bb f3ec 0fbd
00000330: 5c9a 713d 97a1 5f3d f5d3 bfbc 1b4f e5bc
00000340: 3513 443d 6655 c5bc 5831 403d a0c1 303d
00000350: b1ca 43bd d1e2 4e3c 71ff 03bd 34bd 1dbd
00000360: 285f 85bc dc75 cf3d b922 cb3b 27c7 5d3d
00000370: 6149 09bc 50b6 3cbc 79dd 493d c5d5 2dbd
00000380: 2294 023d 2207 75bd c4f5 febb 62c7 503b
00000390: 8871 dfbb 5af8 05bd 23f2 b8bc 4454 7e3c
000003a0: cb18 5d3d 9ff0 5fbc 2368 07bc e2bc 29bc
000003b0: 75e2 cf3b 341b aebc d983 933c 4d13 38bc
000003c0: 9001 c03d 88da 093d 29de 75bc d891 90bc
000003d0: ed68 af3b b966 193d 128b d63c d43b 2cbd
000003e0: 8ecb a5bc 0c5e f5ba f39c 98bc d489 ac3a
000003f0: 2021 95bc 38e4 263d 6e8b 453d 2ce4 2bbc

chords_tempNet.batchnorm_1.running_var f4 [1024]
0.013599198 0.03214527 0.008243237 0.016122892 0.006686555 0.014765925 0.0050975787 0.021297744
0.010526413 0.02061558 0.018718805 0.010896285 0.004428488 0.016172452 0.021039272 0.025139082
0.011164432 0.0079401 0.031043725 0.011893953 0.024260188 0.01783644 0.013879395 0.014420473
0.010780924 0.0071206945 0.0073638856 0.013255836 0.005667098 0.011084116 0.006474581 0.013998189
0.009669843 0.011844064 0.0061572753 0.01499271 0.026374208 0.019773578 0.01568492 0.0060408935
0.011770326 0.0066618887 0.008139284 0.011284874 0.015290192 0.007515997 0.011097981 0.023709347
0.0107934745 0.004633972 0.014763897 0.017416049 0.007924604 0.00836502 0.02023413 0.014299143
0.018901395 0.024015483 0.013589922 0.007170292 0.011343177 0.0070234356 0.02096018 0.018821636
0.023055501 0.012543196 0.013459754 0.0189164 0.011320173 0.011759447 0.0086738365 0.01141986
0.01878103 0.0116114635 0.019146373 0.019828051 0.015671661 0.009613349 0.010041572 0.016621964
0.005970734 0.009010076 0.01082735 0.009529335 0.011992768 0.021168323 0.017177084 0.009102204
0.03217784 0.016505066 0.011022782 0.010977384 0.012961873 0.013743589 0.019952847 0.018757958
0.022510791 0.005271742 0.008435691 0.0109905135 0.009923723 0.011780845 0.017612176 0.0274857
0.007903236 0.012703681 0.023525666 0.0059178136 0.0066326046 0.014594913 0.012827978 0.018264277
0.01384922 0.033253636 0.02040139 0.011737265 0.013186919 0.024155226 0.019419942 0.0118952105
0.007158996 0.022480935 0.005167446 0.009009341 0.011466018 0.018954378 0.01573311 0.013376099
0.0070591457 0.0196007 0.027151687 0.016139695 0.018759754 0.027674574 0.011157381 0.015424616
0.012902303 0.0165119 0.0068361266 0.007697323 0.01295894 0.005979787 0.0067359693 0.022077516
0.040724244 0.019265484 0.014788558 0.011431751 0.010031146 0.010399709 0.017591378 0.011563892
0.021844 0.018460233 0.013734004 0.013077731 0.004938716 0.024327425 0.026315218 0.010445106
0.016087398 0.021603653 0.021674579 0.0123453215 0.008200617 0.0072343913 0.017796434 0.009708321
0.0082731955 0.016140707 0.006411211 0.017396478 0.014101771 0.005141218 0.011605681 0.0121333245
0.016018042 0.012841343 0.02213055 0.0091312 0.0120248115 0.010347298 0.0149495285 0.01539303
0.010178532 0.009454195 0.012453169 0.022394856 0.0073265075 0.021273764 0.0059086313 0.014913586
0.009442806 0.009731199 0.015783627 0.011543341 0.009677088 0.011013148 0.0045412993 0.013619383
0.009681247 0.0055379285 0.01315328 0.009491197 0.014122085 0.020860616 0.009561567 0.015220673
0.009772646 0.01660564 0.0055974103 0.0071326755 0.009148865 0.00892441 0.010062183 0.011646913
0.005962778 0.0061661997 0.025540547 0.0065802573 0.025124272 0.015461782 0.01448132 0.010037608
0.003807549 0.017526118 0.007971194 0.004817734 0.021913249 0.018903898 0.008473787 0.009169175
0.017681785 0.01209832 0.018367046 0.017003747 0.016043335 0.009916674 0.009551957 0.0152707
0.011261717 0.0042452556 0.008487583 0.01117417 0.020378292 0.010153056 0.012939928 0.008412457
0.012572167 0.010539455 0.010172156 0.015575502 0.017878212 0.016463887 0.010065464 0.028161053
00000000: 2ccf 5e3c c2aa 033d a40e 073c 2814 843c
00000010: e41a db3b c7ec 713c 9709 a73b 9b78 ae3c
00000020: fa76 2c3c 01e2 a83c 2e58 993c 5586 323c
00000030: da1c 913b 177c 843c 8d5a ac3c 7af0 cd3c
00000040: 06eb 363c 3117 023c 694f fe3c dbde 423c
00000050: 4dbd c63c ba1d 923c 6766 633c d943 6c3c
00000060: 79a2 303c b754 e93b c04c f13b 022f 593c
00000070: 10b3 b93b 279a 353c b928 d43b a958 653c
00000080: 436e 1e3c 9b0d 423c f8c2 c93b fca3 753c
00000090: b90e d83c 33fc a13c a97d 803c b0f2 c53b
000000a0: 53d8 403c f94b da3b a25a 053c 31e4 383c
000000b0: b783 7a3c c148 f63b 4ed4 353c 1b3a c23c
000000c0: 1dd7 303c 93d8 973b 46e4 713c 1aac 8e3c
000000d0: 33d6 013c 700d 093c 0cc2 a53c f446 6a3c
000000e0: 19d7 9a3c 1ebc c43c 44a8 5e3c c5f4 ea3b
000000f0: bcd8 393c d924 e63b afb4 ab3c d52f 9a3c
00000100: e4de bc3c fa81 4d3c 4d86 5c3c 91f6 9a3c
00000110: 3f78 393c b2aa 403c b51c 0e3c 5d1a 3b3c
00000120: adda 993c 023e 3e3c dbd8 9c3c 706e a23c
00000130: db61 803c 4f81 1d3c 6885 243c c92a 883c
00000140: 26a6 c33b ff9e 133c 3365 313c ee20 1c3c
00000150: 517d 443c 3169 ad3c f5b6 8c3c 6921 153c
00000160: e9cc 033d a235 873c e698 343c 7cda 333c
00000170: 095e 543c ca2c 613c 2774 a33c 4aaa 993c
00000180: 8d68 b83c 94be ac3b da35 0a3c 8e11 343c
00000190: 1c97 223c 7204 413c 6947 903c b129 e13c
000001a0: 937c 013c 1a23 503c e6b8 c03c 38ea c13b
000001b0: 5256 d93b 811f 6f3c 702c 523c f79e 953c
000001c0: d7e7 623c f734 083d d120 a73c a84d 403c
000001d0: f20d 583c 2ee1 c53c 9216 9f3c 21e4 423c
000001e0: 0396 ea3b f029 b83c ae53 a93b ea9b 133c
000001f0: f7db 3b3c 3646 9b3c b9e2 803c 6d27 5b3c
00000200: 6850 e73b a691 a03c 376d de3c 6537 843c
00000210: 0eae 993c cab5 e23c 73cd 363c 87b7 7c3c
00000220: 2e64 533c f743 873c 9601 e03b d339 fc3b
00000230: bc51 543c 17f2 c33b 68b9 dc3b e8db b43c
00000240: 77ce 263d a6d2 9d3c b54b 723c 3d4c 3b3c
00000250: ad59 243c 8b63 2a3c cb1b 903c 7a76 3d3c
00000260: 30f2 b23c ea39 973c 9704 613c fb43 563c
00000270: f4d4 a13b 4f4a c73c 0393 d73c f321 2b3c
00000280: b8c9 833c 25fa b03c e38e b13c 0844 4a3c
00000290: e15b 063c 790e ed3b d4c9 913c a60f 1f3c
000002a0: 4c8c 073c 8439 843c 2315 d23b 0f83 8e3c
000002b0: 1d0b 673c aa77 a83b c125 3e3c daca 463c
000002c0: 4538 833c 7f64 523c 214b b53c 079b 153c
000002d0: b703 453c b787 293c deee 743c 0c33 7c3c
000002e0: dcc3 263c c5e5 1a3c 6008 4c3c 6b75 b73c
000002f0: 3313 f03b 5146 ae3c 319d c13b 1d58 743c
00000300: 00b6 1a3c 9b6f 1f3c aa4c 813c 4820 3d3c
00000310: a68c 1e3c 7e70 343c 2ecf 943b d523 5f3c
00000320: 189e 1e3c 8377 b53b db80 573c f780 1b3c
00000330: 5160 673c e2e3 aa3c 1ea8 1c3c 2160 793c
00000340: 731d 203c 8d08 883c 7b6a b73b 38b9 e93b
00000350: 1fe5 153c b037 123c dbdb 243c b2d2 3e3c
00000360: 6863 c33b d50d ca3b 693a d13c 339f d73b
00000370: 6bd1 cd3c 6a53 7d3c 0f43 6d3c c874 243c
00000380: 1288 793b ef92 8f3c 9c99 023c 15de 9d3b
00000390: 6a83 b33c 59dc 9a3c a4d5 0a3c 4f3a 163c
000003a0: 64d9 903c 0838 463c 7d76 963c 714b 8b3c
000003b0: 506d 833c 8c79 223c d07f 1c3c f531 7a3c
000003c0: 1183 383c c91b 8b3b 810f 0b3c de13 373c
000003d0: 60f0 a63c 0159 263c fe01 543c 67d4 093c
000003e0: 7efb 4d3c aead 2c3c 1da9 263c 6430 7f3c
000003f0: 5475 923c 46df 863c 9ee9 243c 02b2 e63c

chords_tempNet.batchnorm_2.weight f4 [32]
0.10833041 -0.0041091675 -0.06862954 -0.07421241 0.01926932 -0.04232821 0.034012865 0.037724838
0.02462199 0.020830933 -0.08080218 -0.017939424 0.051677313 0.008126695 0.010873781 0.06656599
0.06958459 0.022145458 -0.029289987 -0.05316813 0.055120315 -0.018780492 -0.052784756 0.017413296
0.038043376 -0.04756234 -0.03880252 -0.042951677 0.06308195 0.014585087 -0.024996845 -0.07917829
00000000: 56dc dd3d 32a6 86bb a58d 8cbd adfc 97bd
00000010: b1da 9d3c 5860 2dbd 1351 0b3d 5c85 1a3d
00000020: 0eb4 c93c a2a5 aa3c 9d7b a5bd b3f5 92bc
00000030: 97ab 533d d425 053c f127 323c c053 883d
00000040: 5e82 8e3d 646a b53c 8ef1 efbc d3c6 59bd
00000050: d7c5 613d 8cd9 99bc d434 58bd 54a6 8e3c
00000060: 5fd3 1b3d bad0 42bd 64ef 1ebd 19ee 2fbd
00000070: 1c31 813d 4af6 6e3c 2fc6 ccbc 3a28 a2bd

chords_tempNet.batchnorm_2.bias f4 [32]
0.044053465 -0.004411302 0.024422972 0.020373404 0.00786944 0.010366415 0.01367513 0.0120720435
0.011581467 0.006203739 0.023975417 0.011705881 0.020644445 0.0040233443 0.010416778 0.024538107
0.043058276 0.0052890438 0.016631186 0.021597398 0.017081568 0.0022192365 0.021235071 0.0036310009
0.014874701 0.011313189 0.013317727 0.009629134 0.016501341 0.0075045205 0.0054098973 0.027075091
00000000: 6871 343d af8c 90bb af12 c83c 20e6 a63c
00000010: d3ee 003c e5d7 293c a70d 603c d2c9 453c
00000020: 32c0 3d3c bc48 cb3b 1868 c43c 06ca 3f3c
00000030: 8a1e a93c 42d6 833b 22ab 2a3c 2404 c93c
00000040: e05d 303d b74f ad3b 203e 883c 07ed b03c
00000050: a5ee 8b3c 9c70 113b 2cf5 ad3c 16f6 6d3b
00000060: 05b5 733c f45a 393c 9832 5a3c 84c3 1d3c
00000070: d22d 873c 7be8 f53b 8245 b13b 95cc dd3c

chords_tempNet.batchnorm_2.running_mean f4 [32]
0.16687071 -0.12713423 -0.012119553 -0.11460234 -0.13846956 -0.015372498 -0.036190167 0.15466875
0.012450964 -0.09627066 -0.1404598 -0.052472692 -0.058258526 -0.100172944 0.123658895 0.15480167
-0.024726015 0.0950094 0.02033797 -0.039380156 -0.09020073 -0.14481105 -0.17740217 0.003122901
-0.14171156 0.0015243214 0.120209076 0.107011154 -0.06456302 -0.121417396 -0.0100292135 0.099080354
00000000: 28e0 2a3e 7a2f 02be 1791 46bc a2b4 eabd
00000010: f7ca 0dbe eedc 7bbc 243c 14bd 7c61 1e3e
00000020: 21ff 4b3c 8d29 c5bd b2d4 0fbe 9bed 56bd
00000030: 7ea0 6ebd 7927 cdbd e040 fd3d 5484 1e3e
00000040: 368e cabc 4a94 c23d d19b a63c 164d 21bd
00000050: 29bb b8bd 5949 14be eaa8 35be 96a9 4c3b
00000060: d61c 11be bdcb c73a 2d30 f63d aa28 db3d
00000070: 9e39 84bd afa9 f8bd 9251 24bc a4ea ca3d

chords_tempNet.batchnorm_2.running_var f4 [32]
0.00012961806 0.00010888965 0.0002445107 0.0001671293 5.4510143e-05 0.0001373697 5.889966e-05 4.136364e-05
0.00016293848 0.00018842629 0.00044740748 5.612031e-05 0.00020590065 5.9046226e-05 0.00012747454 0.000107788816
0.00019655252 0.00010428943 0.00017732226 0.00011327351 0.00019861726 7.3146e-05 9.292779e-05 6.939046e-05
0.00018838693 0.00049733656 0.00024842896 5.844623e-05 0.0002046588 7.055253e-05 0.0002024763 0.0002140077
00000000: 15ea 0739 b05b e438 ac31 8039 6e3f 2f39
00000010: d2a1 6438 e60a 1039 070b 7738 df7d 2d38
00000020: 77da 2a39 4c94 4539 0492 ea39 b962 6b38
00000030: 09e7 5739 67a8 7738 b0aa 0539 ae0c e238
00000040: aa19 4e39 f6b5 da38 95ef 3939 418d ed38
00000050: ea43 5039 f665 9938 3ae2 c238 b885 9138
00000060: bb89 4539 b15f 023a 923f 8239 2924 7538
00000070: ae99 5639 9af5 9338 d14f 5439 4167 6039
