run/weights/weights-g-300.pth (torch, 418811 bytes, 12 tensors)

chords_tempNet.convT_in.weight f4 [32, 1024, 2, 1]
0	0xbc4331af	-0.011913701
1	0xbcde454c	-0.027132653
2	0x3c6b45c5	0.014359896
3	0x3cb14c61	0.021642866
4	0xbca06456	-0.019579094
5	0xbbb6b61a	-0.0055759074
6	0x3c7d818b	0.01547278
7	0xbb60476c	-0.0034222258
8	0x3c7d5dd0	0.015464261
9	0xbc7aec50	-0.01531513
10	0xbbd19f3d	-0.0063971565
11	0xbd020755	-0.031745274
12	0xbb77753c	-0.0037759086
13	0x3c0617e8	0.008184411
14	0xbce9daff	-0.028546808
15	0x3c007039	0.007839256
16	0x3c1d920b	0.009617339
17	0xbc54b84e	-0.012983395
18	0xbc8a7189	-0.01689984
19	0x3c810a7c	0.01575207
20	0xbcf698ac	-0.030102096
21	0x3c9c6a32	0.019093607
22	0x3d04f4a1	0.03245986
23	0xbbccff69	-0.006256033
24	0xbbb74f19	-0.005594146
25	0x3d02d299	0.031939123
26	0x3cbb1633	0.022837734
27	0xbba9503a	-0.0051670345
28	0xbd3687b9	-0.04456303
29	0xbcb4be5e	-0.02206343
30	0x3beb575f	0.0071820463
31	0xbbe0dd94	-0.0068623517
32	0xbc8a7f22	-0.016906325
33	0xbc9c8c42	-0.019109849
34	0x3d1846c9	0.03717688
35	0xb6e9d2ff	-6.9685043e-06
36	0xbc955528	-0.018229082
37	0xbc51254e	-0.012765242
38	0x3c008195	0.007843395
39	0xbcf93e2f	-0.03042516
40	0x3d38fef3	0.045165014
41	0x3bb5cb30	0.0055479035
42	0x3c261eaa	0.010139147
43	0x3c2b32d7	0.010449133
44	0x3c2f1fea	0.010688761
45	0xbc16b605	-0.00919867
46	0x3c53724a	0.012905667
47	0xbc43718b	-0.011928926
48	0x3cb61012	0.02222446
49	0xbbd5b048	-0.0065212585
50	0x3c6bc09c	0.014389183
51	0xbc28d3cf	-0.010304405
52	0xbc337d78	-0.010955207
53	0xbd1f86ff	-0.0389471
54	0x3cfd3b79	0.030912148
55	0xbcc88764	-0.024478622
56	0xbd1a5bd8	-0.037685245
57	0x3c8a465d	0.016879255
58	0x3c922fad	0.017845
59	0x3cb2d04b	0.021827837
60	0x3d420c23	0.047374856
61	0xbcd4bd59	-0.025969194
62	0xbbdffb24	-0.006835358
63	0xbd2a2a3e	-0.04154419
64	0xbd6079fe	-0.05480384
65	0x3cbbceac	0.022925697
66	0xbb37513b	-0.0027972
67	0x3ce69cca	0.028150935
68	0x3c9e7883	0.019344574
69	0x3cb7cad6	0.022435587
70	0xbc0ed53c	-0.008717831
71	0xbab58553	-0.0013848938
72	0xbc6e909a	-0.014560843
73	0xbaad6e14	-0.0013231658
74	0x3ccbe3ff	0.02488899
75	0x3b5b1590	0.00334296
76	0xbd4f4a1b	-0.05060778
77	0x3beb360f	0.007178075
78	0x3c2ca727	0.010537899
79	0xbc272b50	-0.010203198
80	0x3bed70e5	0.007246124
81	0x3b3a49a5	0.0028425243
82	0x3ceec211	0.029145272
83	0xbc8ec815	-0.01742939
84	0xbcc2978e	-0.023753908
85	0x3ca503c6	0.0201434
86	0xbc595846	-0.013265675
87	0x3c32d0a9	0.010914006
88	0x3cfe5d67	0.031050397
89	0xbbd4ccff	-0.006494164
90	0xbc170fdf	-0.009220093
91	0xbc89f9b0	-0.016842693
92	0xbca5ead5	-0.020253578
93	0x3bc4543f	0.005991488
94	0x3c4d8723	0.012544426
95	0xbc41fa13	-0.0118394075
96	0xbcb11a68	-0.021619037
97	0x3c9a61a8	0.018845394
98	0xbc8c3f8a	-0.017120142
99	0x3c29a825	0.01035503
100	0xbce4a0a5	-0.027908633
101	0x3d2b84cb	0.041874688
102	0xbcb7f6ea	-0.022456605
103	0xbbc45143	-0.0059911325
104	0x3b53b57c	0.0032304218
105	0xbbb1f06c	-0.005430272
106	0xbcb225b6	-0.021746498
107	0x3c0fc14e	0.008774115
108	0x3d7cb1d7	0.06169304
109	0xbd045f6a	-0.032317556
110	0xbc3a16ea	-0.011358002
111	0x3ce07d25	0.027403424
112	0x3d963b45	0.073355235
113	0xbc33321c	-0.01093724
114	0xbd0f011a	-0.03491316
115	0x3c91e60e	0.017809894
116	0x3cc6fbe4	0.024290033
117	0xbc16cf90	-0.00920476
118	0xbc35aaf6	-0.011088124
119	0x3c650a3a	0.013979489
120	0xbd14b579	-0.03630588
121	0x3b77e19c	0.0037823683
122	0x3b5494d9	0.0032437353
123	0x3cab0959	0.02087848
124	0x3cb1020f	0.021607427
125	0x3bba44b0	0.0056844577
126	0xbcce4b79	-0.025182473
127	0x3cd480b1	0.025940271
128	0x3c4e4df6	0.0125918295
129	0x3bb16da3	0.005414681
130	0x3c88d8ac	0.01670488
131	0x3cc442c0	0.02395761
132	0x3d017d27	0.031613495
133	0x3c740127	0.014892853
134	0xbd3e9dc4	-0.046537176
135	0x3c2490ce	0.01004429
136	0x3c95cbfd	0.018285746
137	0xbc529680	-0.012853265
138	0x3ca12360	0.019670188
139	0xba805240	-0.0009790137
140	0xbc54c832	-0.012987183
141	0xbc2589a3	-0.010103616
142	0xbc309bb8	-0.010779314
143	0xbc1cddb7	-0.009574345
144	0x3b881fa1	0.004154161
145	0x3c9b0b03	0.01892615
146	0x3bf3458a	0.007424061
147	0xbb7ffd6b	-0.003906096
148	0x3cec6a7e	0.028859373
149	0xbd330dcf	-0.04371434
150	0xbcafd30d	-0.021462942
151	0xbd3d2a2f	-0.046182808
152	0xbd0b5d1d	-0.034024347
153	0xbc7d73a1	-0.015469463
154	0x3b21f477	0.0024712363
155	0x3cc67407	0.024225248
156	0xbd0413a4	-0.032245293
157	0x3cb77bd7	0.022397919
158	0x3a108141	0.00055124244
159	0x3c652c9f	0.013987689
160	0xbcc5cd03	-0.024145609
161	0xbd169473	-0.036762666
162	0xbc8da308	-0.017289653
163	0x3c424832	0.011858033
164	0xbc0a4436	-0.008439114
165	0x3c894d30	0.016760439
166	0xbc78de61	-0.015189738
167	0xbb2e5930	-0.0026603453
168	0x3da7d978	0.08195776
169	0xbca1af11	-0.019736798
170	0x3c422315	0.0118491845
171	0x3d14d7b4	0.036338523
172	0xbc440c86	-0.011965876
173	0x3cff7eab	0.03118833
174	0xbcb1ef6a	-0.021720607
175	0x3cd6add0	0.026205927
176	0xbc92f034	-0.017936803
177	0xbbfe6114	-0.0077630375
178	0x3cc48ff9	0.023994433
179	0x3cfcebde	0.030874189
180	0xbd738716	-0.059455
181	0x3c7fdf8c	0.015617263
182	0x3c591ec5	0.013251965
183	0x3bdcc1ad	0.006736955
184	0x3bb4bb20	0.005515471
185	0x3c539755	0.012914498
186	0xbcf778a3	-0.030208891
187	0x3cab5341	0.020913722
188	0xbbfecad2	-0.007775643
189	0x3c89dc69	0.016828733
190	0xbc9d0e9a	-0.019172002
191	0x3d2c8b3e	0.04212498
192	0xbc0a9137	-0.0084574735
193	0x3cf5ceec	0.030005895
194	0x3d1b2a48	0.03788212
195	0xbc683213	-0.014172095
196	0xbb0b0066	-0.0021209954
197	0x3bed693e	0.007245212
198	0x3c26e8f2	0.010187374
199	0xbc8ddec2	-0.017318133
200	0xbbd148f3	-0.00638687
201	0xbc71c327	-0.014756001
202	0xbb699f07	-0.0035647766
203	0x3b0c08bd	0.0021367513
204	0xbcbd1372	-0.023080561
205	0xbb992d73	-0.0046746074
206	0xbd01d1dc	-0.031694278
207	0xbbb3f070	-0.005491309
208	0xbd09814c	-0.033570573
209	0xbbf6b80b	-0.007529264
210	0xbd0adb2e	-0.033900432
211	0xbd28394a	-0.04107026
212	0xbbc10367	-0.005890298
213	0xbc843f20	-0.016143382
214	0xbc8f7354	-0.017511047
215	0x3c7cb197	0.0154232
216	0x3d2a68a9	0.041603718
217	0x3ccd7e85	0.025084743
218	0xbc808b96	-0.01569156
219	0x3c692376	0.014229646
220	0x3c0fbb42	0.008772673
221	0xbd4854ef	-0.048909124
222	0x3cb57e70	0.022155017
223	0xbc3e5b40	-0.011618435
224	0xbcca232e	-0.024674978
225	0xbcdd9deb	-0.02705284
226	0x3d167767	0.036734965
227	0x3c91bc0b	0.017789861
228	0xbcf7c978	-0.030247435
229	0xb88af018	-6.625074e-05
230	0xbc99a3c8	-0.018754855
231	0x3c553970	0.013014182
232	0x39ee0430	0.00045398017
233	0x3bc377da	0.005965215
234	0xbbe2d9ad	-0.0069229216
235	0x3c433b25	0.011915957
236	0x3c693f9f	0.01423636
237	0x3cee7e16	0.029112857
238	0x3cfc6ad8	0.030812666
239	0x3c5abf22	0.013351234
240	0x3d0b3f27	0.033995774
241	0xbbe672ab	-0.0070327125
242	0x3cba702c	0.022758566
243	0xbc0b4e91	-0.008502618
244	0x3c948a11	0.018132241
245	0x3c23523a	0.009968335
246	0x3bc1b8fe	0.0059119454
247	0xbc074d4f	-0.008258178
248	0xbd5ed8d5	-0.054406006
249	0x3b875f4f	0.0041312347
250	0x3d50c65e	0.050970428
251	0x3cbb1871	0.022838803
252	0x3b51073d	0.0031895183
253	0xbb0db70d	-0.0021624
254	0x3c812a65	0.015767286
255	0xbaaa3d33	-0.001298821

chords_tempNet.convT_in.bias f4 [1024]
0	0xbd05a9ad	-0.03263252
1	0xbcffb556	-0.031214397
2	0xbd406fca	-0.04698161
3	0x3c6d0afb	0.01446795
4	0x3ce74675	0.028231839
5	0xbc5aeac6	-0.013361638
6	0x3b673a00	0.0035282373
7	0xbc23c280	-0.009995103
8	0xbd185fa3	-0.03720058
9	0x3c717bba	0.014738971
10	0xbd5cb8d2	-0.053887196
11	0xbcff4adf	-0.031163631
12	0xbb5e760e	-0.0033944878
13	0xbd5b1835	-0.053489882
14	0xbb5f8383	-0.0034105487
15	0xbd3c1755	-0.04592069
16	0x3cc3ba30	0.023892492
17	0xbd445f09	-0.047942195
18	0xbc050d9d	-0.008120921
19	0xbccaac92	-0.024740491
20	0xbd0b20c7	-0.033966806
21	0x3c7728f1	0.015085445
22	0xbd71f7e3	-0.059074294
23	0xbb9e8f49	-0.0048388583
24	0xbd3d7c50	-0.04626113
25	0x3b40be83	0.0029410429
26	0x3caeea76	0.021352034
27	0xbc82e7ad	-0.015979612
28	0x3d16ad88	0.036786586
29	0xbb506ced	-0.0031803206
30	0xbd0014fb	-0.03127001
31	0xbc1f991f	-0.009741097
32	0xbd84cbf7	-0.06484216
33	0xbd613536	-0.054982387
34	0xbd07866d	-0.033087183
35	0xbcdf4609	-0.027255075
36	0x3cbd1eb3	0.023085928
37	0xbba94066	-0.0051651476
38	0x3bfdbfeb	0.0077438257
39	0xbccf5253	-0.02530781
40	0x3ce7b292	0.028283391
41	0xbd309c22	-0.04311765
42	0xbd7dc7fc	-0.061958298
43	0xbc054f96	-0.008136651
44	0x3bba0623	0.005677001
45	0x3c0b0c32	0.008486794
46	0x3a3e2f47	0.00072549697
47	0xbd6608b0	-0.05616063
48	0x3c74b6ba	0.0149361435
49	0xbc6d7764	-0.014493797
50	0xbceb3227	-0.028710438
51	0xbc658033	-0.014007616
52	0xbcfdacc3	-0.030966168
53	0x3d626a93	0.05527742
54	0x3d53504d	0.051590253
55	0xbce5aa42	-0.028035287
56	0x3ca8af21	0.02059132
57	0x3c82ea8f	0.015980987
58	0x3c11469c	0.008866932
59	0xbccc10c0	-0.02491033
60	0x3c9f95a5	0.019480536
61	0x3d7071ea	0.058702387
62	0xbc093b79	-0.008375996
63	0x3c85f11e	0.016350325
64	0xbc3ea6cf	-0.01163645
65	0x3d858fb4	0.0652155
66	0xba2e447d	-0.0006647779
67	0x3d0bb1e8	0.03410521
68	0xbbec3cd8	-0.0072094016
69	0xbcf1bdc0	-0.029509425
70	0xbbb466ad	-0.005505404
71	0xbc80dbe3	-0.01572985
72	0x3a26e5da	0.0006366648
73	0xbd4f49c0	-0.050607443
74	0xbca058a9	-0.019573526
75	0x3d142bbc	0.03617452
76	0xbd84d4bd	-0.06485889
77	0xbc280d1c	-0.010257032
78	0x3c7392bc	0.014866527
79	0xbca375e0	-0.019953668
80	0xbc9763a5	-0.018480131
81	0x3d106a37	0.035257544
82	0x3bdd5dd7	0.0067555713
83	0xbbe81630	-0.007082723
84	0xbcef15ad	-0.02918514
85	0xbc6385d0	-0.013886884
86	0xbd69d370	-0.05708641
87	0x3d6682ca	0.056277074
88	0xbcaa10ff	-0.020760057
89	0x3c0067b5	0.007837226
90	0xbd85e52d	-0.065378524
91	0xbca81f1f	-0.020522652
92	0xbc1b5372	-0.009480344
93	0xbbcd28b5	-0.006260956
94	0xbbfa8d11	-0.007646211
95	0x3b6d6222	0.0036221822
96	0x3c814151	0.015778216
97	0xbd55b42b	-0.052173775
98	0x3cac4ef6	0.021033745
99	0xbc8218cf	-0.01588097
100	0x3c102e97	0.00880017
101	0xbb9c19f4	-0.004763836
102	0x3cbf44e4	0.02334828
103	0xbb696621	-0.0035613852
104	0xbc836db0	-0.016043514
105	0x3cb29847	0.021801127
106	0x3d32c37e	0.043643467
107	0x3c4b4181	0.012405754
108	0x3cdcb2ca	0.026940722
109	0x3d5ca3f9	0.053867314
110	0xbcefef49	-0.029288905
111	0x3ccc22df	0.024918972
112	0xbcd3b99c	-0.025845341
113	0x3c1e2c5c	0.009654131
114	0xbcf1ab2f	-0.029500572
115	0x3c735f99	0.014854335
116	0xbd1a223b	-0.0376303
117	0x3ccdac5f	0.025106607
118	0x3d24d1f9	0.040239308
119	0x3c4bfc9b	0.012450363
120	0xbc7ad0d4	-0.015308578
121	0xbd45d2b8	-0.04829666
122	0x3c041e42	0.008063855
123	0xbcd0feab	-0.02551206
124	0x3d474519	0.04864988
125	0xbd3a6928	-0.04551044
126	0x3d02987d	0.031883705
127	0x3c9c5897	0.019085212
128	0x3cdb32c0	0.026757598
129	0xbd3081b8	-0.04309246
130	0xbccf97fe	-0.02534103
131	0xbcf78f5f	-0.030219732
132	0x3d348311	0.044070307
133	0x3c98eccc	0.018667601
134	0xbc4f6f30	-0.0126607865
135	0xbd0ddc38	-0.034633845
136	0x3cc28e6e	0.023749556
137	0x3d8212dd	0.06351254
138	0x3d0b5750	0.034018815
139	0x3d73a062	0.059479125
140	0x3c930580	0.017946959
141	0xbc6429c8	-0.013925977
142	0x3c30fe7e	0.010802863
143	0x3d12a026	0.03579726
144	0xbd0dc1a6	-0.034608506
145	0xbcee7c28	-0.029111937
146	0x3d42d005	0.047561664
147	0x3cf78306	0.030213844
148	0xbc03d1b9	-0.008045607
149	0x3d1e5587	0.038655784
150	0xbc485e9c	-0.012229588
151	0xbd03f79b	-0.032218557
152	0x3cbea43a	0.023271669
153	0x3ca52054	0.020157017
154	0x3c43204c	0.011909556
155	0xbd496200	-0.049165726
156	0x3c2eeb6c	0.010676246
157	0x3c642676	0.013925185
158	0x3c8ac669	0.016940312
159	0xbd507321	-0.050891045
160	0x3d174af4	0.036936715
161	0x3cb66cb6	0.022268634
162	0x3beb85a4	0.007187562
163	0x3ccf913e	0.025337812
164	0xbcb18966	-0.021671962
165	0xbb522bb5	-0.0032069508
166	0x3c9d0ac5	0.019170174
167	0xbc55cdb1	-0.013049529
168	0xbcbdd84d	-0.02317443
169	0x3af4605e	0.0018644442
170	0x3c9bb888	0.01900889
171	0x3cb27bf8	0.021787629
172	0xb9b9d0eb	-0.00035441606
173	0xbd397da8	-0.04528585
174	0xbcdd158f	-0.026987819
175	0xbc849e33	-0.016188717
176	0x3cfd5fba	0.030929435
177	0x3c014d54	0.007891972
178	0x3c8de5ac	0.01732143
179	0xbc89d99c	-0.016827397
180	0xbcbde4dc	-0.023180418
181	0xbcf5fba6	-0.030027222
182	0x3b24ef42	0.0025167023
183	0xbc60617e	-0.013695119
184	0xbd25ab90	-0.040446818
185	0x3d0df7ad	0.03466003
186	0x3bdc6a0f	0.0067265104
187	0xbced6f80	-0.028983831
188	0x3bf5376a	0.0074834125
189	0x3c5f0b1a	0.013613487
190	0x3cdb089e	0.026737507
191	0xbcb10e6f	-0.021613328
192	0xbd347fa0	-0.044067025
193	0xbcb23b31	-0.02175674
194	0x3d1ff8ad	0.039055515
195	0x39838a58	0.0002508934
196	0x3ca15f44	0.019698747
197	0xbc57476d	-0.013139588
198	0x3c88ad1c	0.016684107
199	0xbcae37e3	-0.021266883
200	0xbb4fdb86	-0.003171654
201	0x3d4854a7	0.048908856
202	0xbca6de3c	-0.020369641
203	0xba50943a	-0.0007956658
204	0x3bec013b	0.007202295
205	0x3cdeeff0	0.02721402
206	0x3d06ae87	0.032881286
207	0xbb2441fb	-0.0025063741
208	0x3c0b21f2	0.00849198
209	0x3c962bfc	0.01833152
210	0x3d800a81	0.062520035
211	0xbc44738b	-0.011990438
212	0x3b972828	0.0046129413
213	0x3d043ac0	0.03228259
214	0xbd2ab822	-0.04167951
215	0xbd52ac93	-0.05143411
216	0x3ca08123	0.019592827
217	0x3cc02ff2	0.023460362
218	0xbcf87d42	-0.030333165
219	0xbc60c67a	-0.0137191955
220	0x3cc49a9a	0.023999501
221	0xbca32c93	-0.019918716
222	0x3cfd6e1f	0.030936299
223	0xbd42deb1	-0.047575656
224	0xbb908009	-0.004409794
225	0xbc5e96a1	-0.013585717
226	0x3d1c2065	0.03811683
227	0xbcabb925	-0.020962307
228	0xbd214e93	-0.039381575
229	0xbd4a35ce	-0.04936772
230	0x3d0e4919	0.03473768
231	0x3c868900	0.016422749
232	0xbc053113	-0.008129376
233	0xbcf24cc4	-0.02957762
234	0x3cbb3980	0.022854567
235	0xbc32654d	-0.01088841
236	0x3d2636f5	0.040579755
237	0xbd671927	-0.05642047
238	0x3cca21cd	0.02467432
239	0xbd48c8e0	-0.049019694
240	0x3d0982ec	0.033572122
241	0x3caf4bec	0.021398507
242	0x3b9d3af3	0.004798287
243	0xbd013906	-0.031548522
244	0xbd09339b	-0.03349648
245	0x3c617268	0.013760187
246	0x3c9fc803	0.019504553
247	0xbc970d90	-0.018439084
248	0x3c9edea2	0.019393269
249	0xbce69e87	-0.028151764
250	0x3b201628	0.0024427269
251	0x3bfe89dc	0.007767899
252	0xbd1f6707	-0.038916614
253	0xbc81e830	-0.015857786
254	0xbcefae8d	-0.029258037
255	0x3d69eecb	0.057112496

chords_tempNet.convT_out.weight f4 [1024, 32, 1, 1]
0	0x3cf6fb3c	0.030149095
1	0x3c621f24	0.01380137
2	0xbc54e46e	-0.012993915
3	0xbd2567db	-0.040382247
4	0xbb3be21c	-0.0028668707
5	0x3c271cbd	0.010199723
6	0x3c32ce8a	0.010913501
7	0x3d784266	0.060610197
8	0x3ba54a58	0.005044263
9	0xbc4aa628	-0.012368716
10	0xbc6a40c8	-0.014297672
11	0xbd02e790	-0.031959116
12	0x3c7465b9	0.014916831
13	0x3ac2c72d	0.0014860384
14	0xbd1b9554	-0.037984207
15	0xbcad089a	-0.021122266
16	0x3d3ff343	0.04686285
17	0x3c7bc7d9	0.015367472
18	0xbd246e52	-0.040144272
19	0x3cc4da5a	0.0240299
20	0xbc1dadad	-0.009623927
21	0xbceaf2d9	-0.028680252
22	0xbaa4b29d	-0.0012565438
23	0x3c58a496	0.013222834
24	0x3d3aee7b	0.04563759
25	0xbb4ba64e	-0.0031074467
26	0x3c31228c	0.010811459
27	0x3c23d4ad	0.009999436
28	0xbd0773eb	-0.033069532
29	0x3c81baca	0.015836138
30	0xbba33c88	-0.004981581
31	0xbcf11659	-0.029429602
32	0x3dc3133d	0.09525154
33	0xbb0de18c	-0.002164933
34	0xbd27462a	-0.040838398
35	0x3cf8a55f	0.030352293
36	0x3d9b21ae	0.07574783
37	0xbbf2d21e	-0.007410302
38	0x3bc6f7fd	0.006072043
39	0xbc487971	-0.012235985
40	0xbd1cf629	-0.038320694
41	0x3bec742f	0.0072159986
42	0x3bba1f24	0.005679982
43	0xbcebb9bf	-0.028775094
44	0x3c817262	0.015801612
45	0x3c9aca6a	0.018895347
46	0x3cf658be	0.030071612
47	0xbc592ff3	-0.013256061
48	0xbd1fe5aa	-0.039037384
49	0xbc23e88a	-0.010004172
50	0xbd07c378	-0.033145398
51	0xbd97fdbe	-0.07421444
52	0xbbf83e9f	-0.0075758244
53	0x3c967ab6	0.01836906
54	0xbb0e62c9	-0.002172636
55	0xbc70dbbc	-0.014700826
56	0x3bd64c49	0.0065398556
57	0x3cb352bc	0.021890037
58	0xbae0a83a	-0.0017139979
59	0x3c0025b6	0.007821491
60	0x3cc54ddb	0.024084976
61	0x3be35e38	0.006938722
62	0x3bc808eb	0.0061045787
63	0xbcb77748	-0.022395745
64	0xbc9ce19f	-0.019150553
65	0xbc83dce7	-0.016096545
66	0xbc6f6472	-0.01461135
67	0xbcf02ff9	-0.02931975
68	0x3bd1a916	0.0063983304
69	0xbcfb671a	-0.030688811
70	0x3d09fde2	0.033689387
71	0x3d14ea70	0.03635639
72	0x3c75d0a2	0.015003355
73	0x3c3d3c45	0.011550014
74	0x3c6af625	0.014340912
75	0x3b059f38	0.0020389091
76	0x3c8bb570	0.01705429
77	0x3cb61c98	0.022230431
78	0xbc9c2641	-0.01906121
79	0x3d0b2be1	0.033977393
80	0x3d5ea78f	0.054359015
81	0x3b9985a7	0.004685122
82	0x3cee3596	0.029078286
83	0x3cc66030	0.024215788
84	0x3d6beb63	0.05759753
85	0x3c74a7fa	0.014932627
86	0x3d15aa00	0.036539078
87	0x3c470621	0.012147457
88	0x3ca4b3c3	0.020105248
89	0x3ad890ad	0.0016522609
90	0xbcdcf654	-0.026972927
91	0xbcf1d840	-0.029522061
92	0x3c59fcdf	0.013304918
93	0x3d16730a	0.036730804
94	0xbcbd0cff	-0.023077486
95	0x3cc498ca	0.023998637
96	0xbc9be1e3	-0.01902861
97	0x3c914d94	0.017737187
98	0x3d37e2c2	0.044893987
99	0xbbce2bbc	-0.0062918346
100	0xbbae2732	-0.005314731
101	0x3c6d8d23	0.014498982
102	0x3c49438c	0.012284171
103	0xbc9f53e4	-0.019449182
104	0x3c010671	0.007875071
105	0x3d03537e	0.032062046
106	0xbd02e3c9	-0.031955514
107	0xba67d915	-0.00088442984
108	0xbb02f8f7	-0.001998482
109	0xbce75518	-0.028238818
110	0xbb518fca	-0.0031976574
111	0xbc8c9cff	-0.017164705
112	0xbd5e997f	-0.054345604
113	0x3c5c861f	0.013459711
114	0x3bfcac29	0.007710953
115	0x3cce1667	0.025157167
116	0xbd10ef82	-0.035384662
117	0xbb97de42	-0.0046346495
118	0xbc4668e0	-0.012109965
119	0x3cb5b924	0.022183008
120	0x3a2c651b	0.0006576345
121	0x3c9ac2e7	0.018891765
122	0xbccd1c51	-0.025037916
123	0x3c3b7bdb	0.011443104
124	0xbc1d65e3	-0.009606811
125	0x3c2df5af	0.010617658
126	0xbcfe1cec	-0.03101965
127	0x3c808811	0.015689882
128	0x3c335088	0.010944493
129	0x3b41c969	0.0029569513
130	0x3cb19da9	0.021681624
131	0xbb82f9aa	-0.0039970474
132	0xbc1ba853	-0.009500581
133	0x3cc4310c	0.023949169
134	0x3c7b804d	0.0153504135
135	0x3cfade5e	0.030623611
136	0xbce5e133	-0.028061485
137	0x3c9aae14	0.018881835
138	0x3bd4f6f6	0.0064991666
139	0x3d289da5	0.041165967
140	0x3d4ff786	0.050773166
141	0xbc9e85aa	-0.019350845
142	0x3cd978df	0.026546894
143	0x3b27c193	0.0025597557
144	0x3cb7dd86	0.022444498
145	0xbba94d6f	-0.0051667015
146	0xbd00cdf0	-0.031446397
147	0x3c7c1b09	0.015387305
148	0xbb5738d2	-0.0032840264
149	0x3be41968	0.0069610365
150	0xba579adc	-0.0008224675
151	0x3cbaa45e	0.022783455
152	0x3b995a82	0.004679979
153	0xbbc88d19	-0.006120336
154	0xbcf6ac6b	-0.030111512
155	0xbd4da8c2	-0.050209768
156	0xbcc89b2b	-0.024488052
157	0xbc9b7055	-0.018974463
158	0x3b716849	0.003683584
159	0xb99be87e	-0.00029737124
160	0x3d55e92d	0.052224327
161	0x3bff9e86	0.00780088
162	0xbcac1546	-0.021006238
163	0xbd49bfd4	-0.049255207
164	0xbcf918a0	-0.03040725
165	0xbc29bc72	-0.01035987
166	0x3c961484	0.01832033
167	0xbc26cf2d	-0.0101812305
168	0x3ce019ef	0.027356116
169	0x3c6dbf40	0.01451093
170	0xbcdf7dd2	-0.027281675
171	0x3c9c93af	0.01911339
172	0xbb1e735e	-0.002417765
173	0x3d47adb3	0.048749637
174	0x3c313347	0.010815448
175	0xbca815ca	-0.020518202
176	0x3cb5aa40	0.022175908
177	0xbcafd990	-0.021466047
178	0xbb7ae3f0	-0.0038282834
179	0xbc12eb4a	-0.00896723
180	0xbbc90263	-0.0061343177
181	0xbc7684d4	-0.015046317
182	0xbcf1c223	-0.029511517
183	0x3b85b2b4	0.004080141
184	0x3cd8cfdb	0.0264663
185	0xbc9f719a	-0.01946335
186	0x3cc80cf7	0.024420245
187	0x3d0f0a8e	0.034922175
188	0xbc048469	-0.00808821
189	0x3c5ad34e	0.013356043
190	0x3b8f2ec8	0.0043695904
191	0xbd5e3de2	-0.054258235
192	0x3b5e2268	0.003389502
193	0x3ba5234f	0.0050396095
194	0x3ba2c6cb	0.0049675456
195	0x3d56a0e7	0.052399542
196	0x3b941a47	0.004519734
197	0xbd0ac109	-0.0338755
198	0x3c88f6d6	0.016719263
199	0x3ca35e29	0.01994236
200	0xbbf96a1c	-0.007611526
201	0x3c016bcb	0.007899235
202	0x3d5511be	0.052018873
203	0x3ca95527	0.020670487
204	0x3af1d8a3	0.0018451404
205	0xb896a98f	-7.18414e-05
206	0x3c91777d	0.017757172
207	0x3c2858a5	0.010275041
208	0x3b576b7a	0.0032870458
209	0xbcafdc92	-0.02146748
210	0x3c79fb4a	0.015257666
211	0xb8619ba2	-5.3789125e-05
212	0x39f6a1b8	0.00047041266
213	0xbd228837	-0.039680686
214	0xbd44946a	-0.0479931
215	0x3bf3a35d	0.007435246
216	0x3c2d6065	0.010582064
217	0x3bcdb46d	0.006277612
218	0xbd0933be	-0.03349661
219	0xbd34b11e	-0.044114225
220	0x3d07bddf	0.03314006
221	0x3c2fa329	0.010720053
222	0xbd22efe5	-0.039779563
223	0x3bb2251b	0.005436552
224	0xbd0da321	-0.0345794
225	0xbd0bd92a	-0.03414265
226	0x3c89f73c	0.016841523
227	0x3b877417	0.004133712
228	0x3ca7dd4a	0.020491261
229	0xbc45e2b8	-0.01207798
230	0xbd0368f6	-0.03208252
231	0x3d09dfe8	0.0336608
232	0xbcb2543d	-0.021768684
233	0xbce7c951	-0.028294237
234	0xbb4d00ad	-0.003128092
235	0xbc9b92b9	-0.018990861
236	0x3c6fcaef	0.0146357855
237	0x3c6fb282	0.014629962
238	0xbc94734b	-0.018121382
239	0xbba02a38	-0.0048878454
240	0x3d39f479	0.045399163
241	0xbceb165a	-0.028697181
242	0x3bb7d3ff	0.0056099887
243	0x3c7d0c66	0.015444851
244	0x3cfd4ca5	0.030920336
245	0x3c3572bd	0.011074719
246	0xbc8e3bb1	-0.017362447
247	0x3c885f6f	0.016647069
248	0xba30f3de	-0.0006750206
249	0x3b1687b3	0.0022969067
250	0x3c1f07fc	0.0097064935
251	0x3c8fee87	0.017569793
252	0x3d1646bf	0.036688562
253	0xbc0a8116	-0.008453628
254	0x3945705e	0.00018829244
255	0xbcb762f9	-0.022386061

chords_tempNet.convT_out.bias f4 [32]
0	0x3e5447b9	0.20730485
1	0xbdfd879d	-0.12379382
2	0xbc9e8cca	-0.019354243
3	0xbe029991	-0.12753893
4	0xbe0e5a83	-0.13901715
5	0xba959b9b	-0.0011414172
6	0xbcde2080	-0.027115107
7	0x3e31a5d0	0.17348409
8	0x3cc84040	0.0244447
9	0xbdbe958c	-0.093058676
10	0xbe1a8b9b	-0.15092318
11	0xbd9cc856	-0.076553985
12	0xbd1dbae2	-0.038508303
13	0xbdbb8f32	-0.09158172
14	0x3e0d11ab	0.13776271
15	0x3e3179ef	0.1733167
16	0x3c8e2206	0.017350208
17	0x3db96c05	0.09053806
18	0x3b57e7b7	0.003294451
19	0xbd867b30	-0.06566465
20	0xbda5e35f	-0.08100008
21	0xbe078b88	-0.1323682
22	0xbe440c44	-0.19145304
23	0x3c1a8094	0.0094300695
24	0xbdedac28	-0.11605102
25	0xbab3a6e7	-0.0013706357
26	0x3deda536	0.11603777
27	0x3db4e812	0.088333264
28	0xbd56c98a	-0.052438296
29	0xbe084ea0	-0.13311243
30	0xbc99d684	-0.018779047
31	0x3d920114	0.07129112

chords_tempNet.batchnorm_1.weight f4 [1024]
0	0xbca87105	-0.020561704
1	0xbd86975f	-0.065718405
2	0xbdd9d2e1	-0.10635925
3	0x35b651fc	1.3583917e-06
4	0x3d195893	0.037437987
5	0xbd36201a	-0.04446421
6	0x3d217c65	0.039425272
7	0xbd039e2f	-0.032133278
8	0xbd5b53e1	-0.05354679
9	0x3d1f92e9	0.038958464
10	0xbdacbcd5	-0.08434454
11	0xbd18ed2d	-0.037335563
12	0x3892f5f7	7.007637e-05
13	0xbd86e06a	-0.06585772
14	0x3d05b7f5	0.03264614
15	0xbcf9a54d	-0.03047433
16	0x3d8b081c	0.06788656
17	0xbd605c67	-0.05477562
18	0xba4dbd64	-0.0007848351
19	0xbc50129f	-0.012699752
20	0xbda944d2	-0.082650796
21	0xbcf4b067	-0.029869271
22	0xbda50d2a	-0.080591515
23	0x35745585	9.102153e-07
24	0xbdad03b3	-0.08447971
25	0xba83e181	-0.0010061712
26	0x3d6038fa	0.054741837
27	0xbd845fd8	-0.06463593
28	0x3d2f2dbb	0.04276822
29	0xbd298fac	-0.04139678
30	0xbd929b29	-0.07158501
31	0xbd45d9cc	-0.04830341
32	0xbd90e2e3	-0.07074525
33	0xbdba53ec	-0.09098038
34	0xbd91d55d	-0.07120774
35	0xbd5ac079	-0.053406212
36	0x3ccdbb69	0.025113778
37	0xbd139408	-0.036029845
38	0x3d64562f	0.055746254
39	0xbccd3fab	-0.025054773
40	0x3cb7f43a	0.022455323
41	0xbd8273aa	-0.063697174
42	0xbd8c1837	-0.06840556
43	0xbd01b51e	-0.031666867
44	0xb8d42153	-0.00010115155
45	0x39110e1a	0.00013833531
46	0x3b2397ca	0.00249623
47	0xbdba29d6	-0.09090011
48	0x3d4ea33b	0.050448637
49	0xbd81d0c6	-0.063386485
50	0xbd9465aa	-0.072459534
51	0xbd33b083	-0.043869507
52	0xbd2b86fa	-0.04187677
53	0x3d4dd82a	0.05025498
54	0x3dd5f3e9	0.10446913
55	0xbce7e98c	-0.028309606
56	0x3d1921ad	0.03738563
57	0x3d0e6697	0.034765806
58	0x3b34a18d	0.0027562112
59	0xbd1abfd2	-0.03778059
60	0xba577ae7	-0.0008219913
61	0x3d924ace	0.07143174
62	0xbd1ef8b1	-0.03881139
63	0x3d4be442	0.04977823
64	0x39c30e6f	0.00037204052
65	0x3d804647	0.06263404
66	0x3c47abd0	0.012186959
67	0x3d84beab	0.064816795
68	0xb8d5f0ca	-0.00010201482
69	0xbd565b87	-0.05233338
70	0xbc47ae71	-0.012187586
71	0x3906b765	0.00012847556
72	0x3d699ad1	0.05703241
73	0xbc171f55	-0.009223779
74	0xbd4c72a8	-0.049914032
75	0x3d8341a3	0.064090036
76	0xbd6e26a8	-0.058142334
77	0xba7f01b9	-0.0009727735
78	0xba5d2961	-0.0008436647
79	0xbd2d7ef8	-0.042357415
80	0xbcdd72f6	-0.027032357
81	0x3d6bec99	0.057598684
82	0x3d797c3c	0.060909495
83	0xb911a17b	-0.00013888434
84	0xbd9984f7	-0.07496064
85	0xbd5d9cb2	-0.054104514
86	0xbd688f7f	-0.056777474
87	0x3d8ba038	0.06817669
88	0xbce2f66a	-0.02770539
89	0x3c814b10	0.015782863
90	0xbd36b58f	-0.04460674
91	0xbd509643	-0.05092455
92	0x3cc791a1	0.024361433
93	0xbd29f073	-0.041489076
94	0xbd0db565	-0.03459682
95	0x3d43cfdb	0.04780565
96	0xbb8e9cea	-0.0043522017
97	0xbda1020b	-0.07861718
98	0xbaa80d61	-0.001282137
99	0xbd23f7f1	-0.040031377
100	0xb9278ed6	-0.00015979572
101	0x3c993eaa	0.018706638
102	0x3c98f616	0.01867203
103	0x3d008abd	0.03138231
104	0xbd5149d1	-0.051095787
105	0x3d3a47dc	0.045478687
106	0x3d7c65c8	0.061620504
107	0x3d3814dd	0.04494177
108	0x3d727f87	0.05920365
109	0x3cf82176	0.030289393
110	0xbd5f24da	-0.054478504
111	0x3cf9780a	0.030452747
112	0xbd5ae870	-0.053444326
113	0x3b2c933b	0.0026332873
114	0xbd8dc1ad	-0.06921706
115	0xb941ca15	-0.00018481196
116	0xbd7349e6	-0.059396647
117	0x3db319ca	0.08745153
118	0x3dce5af4	0.10075942
119	0x3a562674	0.0008169182
120	0xbd67bf1b	-0.056578737
121	0xbd5ab13c	-0.05339168
122	0x3c5da91d	0.013529089
123	0xbd339788	-0.043845683
124	0x3d925c70	0.07146537
125	0xbd8086c4	-0.062757045
126	0x3d51cbbf	0.051219698
127	0xba90614f	-0.0011015328
128	0x3d68eab2	0.056864448
129	0xbdc06dff	-0.0939598
130	0xbd2d3d48	-0.04229477
131	0xbd7c8b2a	-0.061656155
132	0x3d5abd65	0.053403277
133	0x3d128f67	0.03578129
134	0xb7d17bbf	-2.4972365e-05
135	0xbdb25b63	-0.08708837
136	0x3d34cc68	0.04414025
137	0x3d5080ce	0.050904088
138	0x3d5cce43	0.053907644
139	0x3dafef2a	0.08590539
140	0x3c9f8df5	0.01947687
141	0xbd32fc31	-0.04369754
142	0x3d176002	0.036956795
143	0x3d95504c	0.07290706
144	0xbd742136	-0.059601985
145	0xbd3118ba	-0.04323647
146	0x3d978788	0.073988974
147	0x3d58d99a	0.052941896
148	0xbd30a5df	-0.043126937
149	0x3d1a5815	0.037681658
150	0xbc9f480a	-0.01944353
151	0xbce80563	-0.028322881
152	0x3c69c5ea	0.014268378
153	0x3d580c1c	0.052745923
154	0x399c1d54	0.0002977649
155	0xbd830e76	-0.063992426
156	0x3d415395	0.04719885
157	0x3d891080	0.066926
158	0x3d84b19e	0.0647919
159	0xbd4f2962	-0.050576575
160	0x3d3c30c2	0.045944937
161	0x3d4dba4b	0.05022649
162	0x3d677243	0.056505453
163	0x3cc17580	0.023615599
164	0xbd937282	-0.07199575
165	0xbd31570e	-0.043295912
166	0x3cb983a9	0.022645788
167	0x3c1436a4	0.00904623
168	0xbc9f5e9e	-0.019454297
169	0xb9037eac	-0.00012540322
170	0x3d56597a	0.052331425
171	0x3d8601b3	0.06543293
172	0xb8954da1	-7.119333e-05
173	0xbd90da25	-0.07072858
174	0xbdc7ef97	-0.09762495
175	0xbd16687f	-0.03672075
176	0x3d53aa2f	0.05167597
177	0x3b35e9d8	0.002775779
178	0x3c8e994a	0.017407078
179	0xbcf57f44	-0.029967912
180	0xbd9fdd66	-0.078059
181	0xbd953164	-0.07284811
182	0xbd0f0ec3	-0.034926187
183	0xbce3574b	-0.027751585
184	0xbd054248	-0.032533914
185	0x3cf3e6bd	0.02977311
186	0x3d03f291	0.03221375
187	0xbd51530d	-0.051104594
188	0x3cacefd5	0.021110455
189	0xbc79fba4	-0.01525775
190	0x3d032a33	0.032022666
191	0xbd1987c5	-0.037482996
192	0xbd8bc83a	-0.068252996
193	0xb95b48e4	-0.00020912621
194	0x3da1f1ce	0.07907449
195	0xbd32a714	-0.04361637
196	0x3d57253f	0.052525755
197	0xbd0bb17f	-0.03410482
198	0x3c96d20a	0.018410701
199	0xbcd1bfb7	-0.025604112
200	0xbd31d7af	-0.043418583
201	0x3d5b3555	0.05351766
202	0xbd49be9c	-0.049254045
203	0xb98f049c	-0.0002727852
204	0xbc8f06d7	-0.017459316
205	0x3d4b403e	0.049621813
206	0x3d8b04d8	0.06788033
207	0xbd03e741	-0.032202963
208	0x3986f402	0.00025740272
209	0x3d0e592b	0.034753006
210	0x3d557494	0.05211313
211	0xbd56b114	-0.05241497
212	0x3d280193	0.041017126
213	0x3d875d11	0.06609548
214	0xbd3d435b	-0.046206813
215	0xbd3e9fe2	-0.046539195
216	0x3d6d2c8f	0.057903823
217	0x3d3a59f1	0.04549593
218	0xbd3420e3	-0.043976676
219	0xbd91ea93	-0.071248196
220	0x3d132f34	0.03593369
221	0x3b085425	0.0020802107
222	0x3d268ae9	0.04065982
223	0xbd33c37a	-0.043887593
224	0xbd56621c	-0.05233966
225	0xbaeb5103	-0.001795322
226	0x3dbef774	0.09324542
227	0xbd35b6bc	-0.044363722
228	0xbd70a52c	-0.05875127
229	0xbdaa9632	-0.08329429
230	0x3d5bd5f7	0.05367085
231	0x3d1618ad	0.036644626
232	0xbd8ac653	-0.067761086
233	0xbd02e04a	-0.03195218
234	0x3d0bb7bc	0.03411077
235	0xbd360d8e	-0.04444652
236	0x3d7c0eca	0.06153754
237	0xbd39bd30	-0.04534644
238	0x3d578caa	0.052624382
239	0xbd7f0d85	-0.062268753
240	0x3d3b68f5	0.04575439
241	0x39bce061	0.0003602533
242	0xba946ba8	-0.0011323588
243	0xbd94793e	-0.072496876
244	0xbd64c5f7	-0.055852856
245	0xb904ca84	-0.00012663944
246	0x3d208a1c	0.03919421
247	0xbcba8ce9	-0.02277227
248	0xb90aa74a	-0.00013223026
249	0xbd2cdbad	-0.042201687
250	0x3d357c27	0.044307854
251	0x3d0b097b	0.03394459
252	0xbd4285c2	-0.047490843
253	0xbd612a51	-0.054971997
254	0xbd78d1a1	-0.060746793
255	0x3da3df6a	0.08001597

chords_tempNet.batchnorm_1.bias f4 [1024]
0	0x3d167b74	0.036738828
1	0x3d5112bd	0.05104326
2	0x3d419772	0.04726357
3	0xba08736b	-0.0005205187
4	0x3c801ff7	0.015640242
5	0x3caea3dd	0.02131837
6	0x3b33c2fc	0.0027429452
7	0x3c589c1a	0.013220811
8	0x3d00b061	0.031418208
9	0x3cc1400e	0.023590114
10	0x3d333eda	0.04376111
11	0x3ce81fef	0.02833554
12	0xba716f5f	-0.0009210016
13	0x3d3c91e0	0.046037555
14	0x3bcb5176	0.0062047793
15	0x3ca03ad4	0.019559301
16	0x3d18b976	0.037286244
17	0x3cf29282	0.029610876
18	0xbb743eb2	-0.0037268815
19	0x3c81be21	0.01583773
20	0x3d092f0c	0.033492133
21	0xbaaa8c1e	-0.0013011729
22	0x3d34c42a	0.04413239
23	0xb93594c0	-0.00017316919
24	0x3d15d46f	0.036579546
25	0xbbad8c44	-0.005296262
26	0x3d0a7e83	0.033812057
27	0x3d204f33	0.03913803
28	0x3c936525	0.017992565
29	0x3cdf3b77	0.027250035
30	0x3d12779f	0.03575861
31	0x3ccfbebc	0.025359504
32	0x3d38518f	0.044999655
33	0x3d5422c0	0.051790953
34	0x3d1b7c47	0.037960317
35	0x3d03889c	0.032112703
36	0x3ba2cc00	0.0049681664
37	0x3c8f0283	0.017457252
38	0x3c8eba01	0.017422678
39	0x3bbc8e4a	0.005754267
40	0x3c9a94a5	0.018869707
41	0x3ce8788b	0.028377792
42	0x3d1f98ed	0.0389642
43	0x3ceffc12	0.029295001
44	0xba489804	-0.00076520466
45	0xba457629	-0.0007532561
46	0xbc057c0e	-0.008147253
47	0x3d3487a5	0.044074673
48	0x3d01adef	0.031660017
49	0x3cf6ce25	0.030127594
50	0x3d501835	0.050804336
51	0x3c7ac5c4	0.01530594
52	0x3c6eab68	0.014567234
53	0x3d2aa48d	0.041660834
54	0x3d435451	0.047687832
55	0x3d3706f8	0.04468438
56	0x3ca88d18	0.020575091
57	0x3ca419e9	0.020031886
58	0xbc547a9f	-0.012968688
59	0x3cd18911	0.025578054
60	0xbbc07449	-0.0058732373
61	0x3d1ae276	0.037813626
62	0x3c7e19bb	0.015509064
63	0x3cc00016	0.023437541
64	0xbb00d2cc	-0.0019656895
65	0x3d51875e	0.051154487
66	0x3b0649e7	0.0020490827
67	0x3cf09d22	0.029371802
68	0xbaa83f85	-0.0012836313
69	0x3cc5591e	0.024090346
70	0x3be70a25	0.00705077
71	0xba2a9af8	-0.00065080775
72	0x3cb6fffb	0.022338858
73	0x3d4336fc	0.04765986
74	0x3ca98480	0.020693064
75	0x3d21b88b	0.039482635
76	0x3d2dc20e	0.042421393
77	0xbb9d80b9	-0.0048066047
78	0xbb9574bb	-0.0045610345
79	0x3c96bab4	0.018399574
80	0x3d0b31bb	0.033982974
81	0x3d455234	0.048174098
82	0x3cbb8767	0.022891713
83	0xbab1ff14	-0.0013580048
84	0x3d13e856	0.036110245
85	0x3b118826	0.0022206395
86	0x3d182415	0.037143786
87	0x3d20e31d	0.039279092
88	0x3bf906d8	0.007599693
89	0x3c988687	0.018618835
90	0x3d379dbb	0.044828158
91	0x3cdb067b	0.026736489
92	0x3b78d486	0.003796847
93	0x3cb7031a	0.022340346
94	0x3cb0fc5a	0.021604706
95	0x3cd8dce7	0.026472522
96	0xbb9d46b5	-0.0047996887
97	0x3cf5fb26	0.030026983
98	0xbc0ebfcf	-0.008712723
99	0x3cd31e99	0.025771426
100	0xbb155bbd	-0.0022790276
101	0xbb5208ff	-0.003204882
102	0x3c3758d1	0.011190609
103	0x3c4d74da	0.012540067
104	0x3ca52689	0.020159977
105	0x3cf7fbc1	0.030271413
106	0x3cee0d02	0.029058937
107	0x3cd570c6	0.026054751
108	0x3d37ed7c	0.044904217
109	0x3d49e822	0.049293645
110	0x3d06a21a	0.032869436
111	0x3bd97a66	0.0066369055
112	0x3cfa4470	0.030550212
113	0xbc04159c	-0.008061793
114	0x3d43194e	0.047631554
115	0xba75d6f4	-0.0009378039
116	0x3d0aa685	0.03385021
117	0x3d256d92	0.040387698
118	0x3d332e10	0.0437451
119	0xbba1b82f	-0.0049352865
120	0x3cc037c9	0.0234641
121	0x3d137fdf	0.03601062
122	0x3beb4ed0	0.007181026
123	0x3cc1f000	0.023674011
124	0x3d3d6d70	0.046246946
125	0x3d13c576	0.036076985
126	0x3cfb4b9b	0.0306757
127	0xbbbd88f6	-0.0057841493
128	0x3ca872ed	0.020562613
129	0x3d5aa49d	0.053379644
130	0x3c0e8b4d	0.008700204
131	0x3ce31508	0.02771999
132	0x3cf6ce0b	0.030127546
133	0x3cde61c2	0.027146224
134	0xba5cc402	-0.00084215414
135	0x3d2db2fc	0.04240702
136	0x3cb486b1	0.022036882
137	0x3d3c157c	0.045918927
138	0x3cb69891	0.022289546
139	0x3d3d7847	0.046257284
140	0x3ba9a2df	0.0051768865
141	0x3d03b807	0.032157924
142	0x3cc11c19	0.023572968
143	0x3cbcd81c	0.023052268
144	0x3cb03bc6	0.021512877
145	0x3c6cc2f1	0.0144507745
146	0x3ce05559	0.027384447
147	0x3cac92a0	0.02106601
148	0x3cd7bc5e	0.026334938
149	0x3cde05c7	0.027102364
150	0x3b638a47	0.003471987
151	0x3c876f22	0.016532484
152	0x38aec399	8.3333995e-05
153	0x3cd982c6	0.026551615
154	0xbb2ca0ae	-0.002634089
155	0x3d0b5856	0.03401979
156	0x3caefeaa	0.021361668
157	0x3d1393e0	0.036029696
158	0x3d026cf0	0.031842172
159	0x3d13e3e8	0.03610602
160	0x3cebf408	0.028802887
161	0x3cca0bc6	0.024663817
162	0x3cdb49fb	0.026768675
163	0x3bb2c403	0.0054554953
164	0x3c6db56a	0.0145085845
165	0x3ca97e0f	0.020689992
166	0x3c5bc21b	0.013412978
167	0xba3b54e9	-0.00071461365
168	0x3c778a32	0.015108632
169	0xbacfb3b0	-0.0015846398
170	0x3cb5414a	0.022125859
171	0x3cc38d6c	0.023871146
172	0xb9c207da	-0.00037008413
173	0x3d09b838	0.03362295
174	0x3d1e8c1f	0.03870785
175	0x3c555190	0.013019934
176	0x3d0fcf7c	0.035109982
177	0xbbf632ff	-0.0075134034
178	0x3d0d304a	0.03446988
179	0x3cb1ae18	0.02168946
180	0x3cf95a84	0.030438669
181	0x3d2855be	0.041097395
182	0x3c0805ae	0.008302135
183	0x3c0c8467	0.008576489
184	0x3cf88bcf	0.030340103
185	0x3cf1f168	0.029534057
186	0x3c8dade1	0.017294826
187	0x3d24c17a	0.040223576
188	0x3c07fff1	0.008300767
189	0x3a3a978a	0.0007117918
190	0x3c3a396e	0.011366231
191	0x3ca7874a	0.020450253
192	0x3d0a1642	0.033712633
193	0xba74c20e	-0.0009336778
194	0x3d15a37c	0.036532864
195	0x3c9fe01a	0.01951604
196	0x3ca01301	0.019540312
197	0x3bc625f8	0.0060470067
198	0x3d0a8b31	0.03382415
199	0x3cb1a616	0.021685641
200	0x3cc75b39	0.02433549
201	0x3cec3d16	0.028837722
202	0x3d0395a7	0.03212514
203	0xbb45448c	-0.0030100672
204	0x3c061453	0.008183557
205	0x3c9c927d	0.01911282
206	0x3d07bdbc	0.03313993
207	0x3c940d02	0.018072609
208	0xbac17b41	-0.0014761464
209	0x3c4cdbe4	0.012503598
210	0x3d294bba	0.041331984
211	0x3cc407cb	0.023929497
212	0x3cc7e947	0.024403227
213	0x3d094eee	0.03352254
214	0x3d16ceb1	0.03681821
215	0x3d02ba32	0.03191585
216	0x3cf34a10	0.029698402
217	0x3c2af372	0.010434018
218	0x3c733b8d	0.014845741
219	0x3d0b465c	0.034002647
220	0x3cf3519d	0.029702002
221	0xbbedf468	-0.0072618015
222	0x3c6348ab	0.013872306
223	0x3ce11fc9	0.027480977
224	0x3c1320af	0.00897996
225	0xbbe08eb0	-0.006852947
226	0x3d18ecef	0.037335332
227	0x3cca1f01	0.024672987
228	0x3cca34cd	0.02468338
229	0x3d2bafa0	0.041915536
230	0x3d1e17dd	0.038596977
231	0x3ce69acd	0.028149987
232	0x3c3f10b2	0.011661695
233	0x3cb02dfe	0.021506306
234	0x3c487ca6	0.01223675
235	0x3c65497c	0.013994571
236	0x3d0c6cab	0.03428332
237	0x3d068e16	0.032850347
238	0x3c923689	0.01784827
239	0x3cf3c022	0.029754702
240	0x3c8c601e	0.017135676
241	0xbb3969a5	-0.0028291729
242	0xbbcc611a	-0.0062371613
243	0x3ce8f62d	0.028437698
244	0x3c6ea330	0.014565274
245	0xbb26b8a5	-0.0025439647
246	0x3cc2224a	0.02369799
247	0x3a054452	0.0005083728
248	0xba512bfa	-0.00079792703
249	0x3cd76f8b	0.026298305
250	0x3cd8ac2d	0.026449287
251	0x3bf8aaee	0.007588736
252	0x3cd4a4ad	0.02595743
253	0x3d042341	0.032260183
254	0x3cd3b45b	0.025842836
255	0x3d369ab9	0.04458115

chords_tempNet.batchnorm_1.running_mean f4 [1024]
0	0x3d253466	0.040333174
1	0x3cc937cf	0.024562744
2	0xbc0a23bd	-0.008431372
3	0xbcd12df9	-0.025534617
4	0x3c6ac3a9	0.014328876
5	0x3cb2d7e3	0.021831458
6	0xbd0b0d5b	-0.033948284
7	0x3c09e0de	0.008415429
8	0xbc543a83	-0.012953403
9	0x3dae2383	0.08502867
10	0x3c4a492a	0.012346545
11	0xbceee60f	-0.029162435
12	0x3c6b16c0	0.014348686
13	0xbd814f5c	-0.06313965
14	0xbd25b0db	-0.040451866
15	0x3bb15f09	0.0054129404
16	0xbce2e435	-0.027696708
17	0xbc7d1982	-0.015447976
18	0x3d5c6c7a	0.05381439
19	0xbd7f5ece	-0.062346272
20	0x3d377e3f	0.044798132
21	0x3ce5d451	0.028055342
22	0xbacc1407	-0.0015569933
23	0x399b2115	0.00029588552
24	0xbbfc1d59	-0.007693928
25	0xbd4c710f	-0.04991251
26	0x3c799a66	0.015234565
27	0x3d62d110	0.05537516
28	0xbc8c20c5	-0.01710547
29	0xbbad9b5b	-0.005298061
30	0x3d9de9aa	0.077105835
31	0x3b9e5edf	0.004833087
32	0xbcaccc04	-0.021093376
33	0xbb165f78	-0.0022945087
34	0x3cc56873	0.024097657
35	0xbc763f78	-0.015029781
36	0x3ad09c5c	0.0015915739
37	0xbbdeef12	-0.0068034017
38	0xbd28e7a6	-0.041236542
39	0x3d5c34c6	0.053761266
40	0x3ce5faa1	0.02807361
41	0xbc36ebfb	-0.011164661
42	0x3b902a83	0.004399599
43	0xbb643a0e	-0.0034824642
44	0x3d571b29	0.052516136
45	0x3d10e7ae	0.035377197
46	0x3cfd1395	0.030893127
47	0xbd00d99b	-0.031457525
48	0xbd3ef6a6	-0.04662194
49	0x3ca0bbf0	0.019620866
50	0x3c5afef0	0.013366446
51	0x3d23c061	0.03997839
52	0xbd2bda52	-0.041956253
53	0x3c6393aa	0.013890186
54	0xbcfb3d1c	-0.030668788
55	0xbd0b200d	-0.033966113
56	0xbca98fcd	-0.020698452
57	0xbc338f93	-0.010959524
58	0xbd3c2195	-0.045930464
59	0x3ae9bc2a	0.0017832567
60	0xbcde76a7	-0.027156187
61	0x3c98ff93	0.018676555
62	0x3c250d0a	0.01007391
63	0x3d67ff05	0.05663969
64	0xbbfd9745	-0.00773898
65	0x3cd156bd	0.025554055
66	0x3d081807	0.03322604
67	0xbca205ee	-0.019778218
68	0xbd67f774	-0.056632474
69	0x3c3d10c4	0.011539642
70	0xbcae8e8f	-0.021308212
71	0xbc1b588f	-0.009481563
72	0xbd2a41e5	-0.04156675
73	0xbce4922c	-0.027901731
74	0xbcc8b705	-0.024501333
75	0x3d19dfb5	0.03756686
76	0x3bcdc562	0.0062796334
77	0xbccce38c	-0.025010847
78	0xbcbafaaa	-0.022824604
79	0x3c3d59e2	0.011557074
80	0x3bbb10cb	0.005708789
81	0xbcb1c849	-0.021701949
82	0xbddc623e	-0.10760926
83	0x3d2254ff	0.03963184
84	0xbd0e5e62	-0.03475798
85	0xbb783bd2	-0.0037877453
86	0xbd1dadc9	-0.038495813
87	0x3c46bd76	0.012130132
88	0xbd071d22	-0.032986768
89	0x3b118bf0	0.0022208653
90	0xbd6f4928	-0.058419377
91	0xbc2c1ecc	-0.010505389
92	0x3b56ca2b	0.003277431
93	0x3b45fb71	0.0030209685
94	0x3d05b391	0.03264195
95	0xbd465064	-0.04841651
96	0xbd6b1bc1	-0.057399515
97	0x3d3efac1	0.046625856
98	0xbd36db26	-0.04464259
99	0xbd0c21ed	-0.03421204
100	0x3bd29368	0.0064262636
101	0xbbdfcfcc	-0.0068301912
102	0x3ce5b894	0.028042115
103	0xbcfa69a0	-0.030567944
104	0x3d07fbbb	0.033199053
105	0x3d69a1f5	0.05703922
106	0x3d99041a	0.074714854
107	0xbccb4399	-0.024812507
108	0x3b956276	0.0045588566
109	0xbc2ea5dd	-0.010659662
110	0x3b4841ba	0.0030556754
111	0xbd75f2c2	-0.060045965
112	0x3c1ed762	0.009694906
113	0xbc85d833	-0.016338443
114	0x3dab27e1	0.08357216
115	0x3c41c3ec	0.011826497
116	0xbc8bff25	-0.017089436
117	0x3c63ac52	0.013896065
118	0x3bddb03c	0.0067653935
119	0xbb7dba4f	-0.0038715785
120	0xbd13b2e7	-0.036059286
121	0xbc0bb56e	-0.008527143
122	0x3c7c4409	0.01539708
123	0x3cdfe258	0.027329609
124	0xbce5136b	-0.02796336
125	0xbd685729	-0.056723747
126	0x3ceed159	0.02915256
127	0x3ceb9988	0.028759733
128	0xbcd9b712	-0.026576553
129	0x3d4d7355	0.050158817
130	0x3cfca3bb	0.030839792
131	0x3ce77144	0.028252251
132	0xbc1a2a83	-0.00940955
133	0xbc124614	-0.008927841
134	0x3cb1a9ed	0.021687472
135	0xbb2fcda1	-0.0026825445
136	0x3cc3edfc	0.02391719
137	0x3bf7bc53	0.007560292
138	0x3ccf0709	0.02527191
139	0xbce5c563	-0.028048223
140	0x3bd70660	0.0065620393
141	0x3d407638	0.046987742
142	0x3d865eef	0.06561076
143	0x3d1aa1c7	0.03775194
144	0xbc05b662	-0.008161159
145	0xbbc11640	-0.005892545
146	0x3db2beba	0.087277845
147	0x3c24fd05	0.01007009
148	0x3cf3bfea	0.029754598
149	0x3c8536f6	0.016261559
150	0xbcfdc353	-0.030976927
151	0x3c17eb90	0.009272471
152	0x3cb549c7	0.022129906
153	0xbd6852dd	-0.05671965
154	0x3d574496	0.052555643
155	0xb9aa18bd	-0.00032443358
156	0x3c81af84	0.015830763
157	0xbd707a14	-0.058710173
158	0x3a694efc	0.0008900014
159	0x3c8a4725	0.016879627
160	0x3d2e8a4a	0.04261235
161	0x3bcea1ea	0.0063059228
162	0x3cb90743	0.02258647
163	0x3d97fda5	0.07421426
164	0x3c4e3f6f	0.012588366
165	0x3cca93bc	0.024728648
166	0x3d50fbe1	0.05102146
167	0x3c52c929	0.012865343
168	0x3c14f2f0	0.009091124
169	0x3c8018fc	0.015636913
170	0x3d5d6ac3	0.054056894
171	0xbd23026f	-0.039797243
172	0x3cbc989c	0.023021989
173	0xbba61b8a	-0.005069201
174	0x3b6eb972	0.0036426452
175	0xbc2a6d0a	-0.0104019735
176	0xbcff7333	-0.031182861
177	0xbcab685b	-0.020923784
178	0x3c565572	0.013081895
179	0x3c4dfae1	0.012572021
180	0x3cea0ffb	0.028572073
181	0x3c47063d	0.012147483
182	0x3b56a6c8	0.0032753218
183	0xbd8d2bf9	-0.06893153
184	0xbd3bde2d	-0.04586618
185	0x3d908ceb	0.07058128
186	0x3d42df38	0.04757616
187	0x382d1f0f	4.127534e-05
188	0x3c3563da	0.01107117
189	0x38b51503	8.634666e-05
190	0x3cc2676c	0.023730956
191	0xbd1172a6	-0.035509728
192	0x3bfe27e9	0.0077562225
193	0xbd5c8118	-0.05383405
194	0x3d3c014b	0.04589967
195	0x3d184945	0.03717925
196	0xba610d10	-0.00085850153
197	0x3cc58f45	0.024116168
198	0xbd4a1813	-0.049339365
199	0x3d609a35	0.054834563
200	0x3bf2b7b1	0.0074071516
201	0x3d26d4b1	0.040730182
202	0xbb58e007	-0.0033092515
203	0xbd0fecf3	-0.03513808
204	0x3d719a5c	0.0589851
205	0x3d5fa197	0.054597463
206	0xbcbfd3f5	-0.023416499
207	0xbce54f1b	-0.027991822
208	0x3d441335	0.04786988
209	0xbcc55566	-0.024088573
210	0x3d403158	0.046922058
211	0x3d30c1a0	0.043153405
212	0xbd43cab1	-0.047800723
213	0x3c4ee2d1	0.012627319
214	0xbd03ff71	-0.03222603
215	0xbd1dbd34	-0.038510516
216	0xbc855f28	-0.016280726
217	0x3dcf75dc	0.10129902
218	0x3bcb22b9	0.0061992076
219	0x3d5dc727	0.054145005
220	0xbc094961	-0.008379311
221	0xbc3cb650	-0.011518076
222	0x3d49dd79	0.04928348
223	0xbd2dd5c5	-0.042440195
224	0x3d029422	0.03187955
225	0xbd750722	-0.059821256
226	0xbbfef5c4	-0.0077807624
227	0x3b50c762	0.0031857123
228	0xbbdf7188	-0.006818954
229	0xbd05f85a	-0.03270755
230	0xbcb8f223	-0.022576397
231	0x3c7e5444	0.01552302
232	0x3d5d18cb	0.053978723
233	0xbc5ff09f	-0.013668208
234	0xbc076823	-0.008264574
235	0xbc29bce2	-0.010359975
236	0x3bcfe275	0.0063441345
237	0xbcae1b34	-0.021253206
238	0x3c9383d9	0.018007206
239	0xbc38134d	-0.01123507
240	0x3dc00190	0.09375298
241	0x3d09da88	0.033655673
242	0xbc75de29	-0.01500658
243	0xbc9091d8	-0.017647669
244	0x3baf68ed	0.0053530843
245	0x3d1966b9	0.03745148
246	0x3cd68b12	0.02618936
247	0xbd2c3bd4	-0.042049244
248	0xbca5cb8e	-0.020238664
249	0xbaf55e0c	-0.0018720045
250	0xbc989cf3	-0.018629527
251	0x3aac89d4	0.0013163635
252	0xbc952120	-0.018204272
253	0x3d26e438	0.04074499
254	0x3d458b6e	0.048228674
255	0xbc2be42c	-0.010491412

chords_tempNet.batchnorm_1.running_var f4 [1024]
0	0x3c5ecf2c	0.013599198
1	0x3d03aac2	0.03214527
2	0x3c070ea4	0.008243237
3	0x3c841428	0.016122892
4	0x3bdb1ae4	0.006686555
5	0x3c71ecc7	0.014765925
6	0x3ba70997	0.0050975787
7	0x3cae789b	0.021297744
8	0x3c2c76fa	0.010526413
9	0x3ca8e201	0.02061558
10	0x3c99582e	0.018718805
11	0x3c328655	0.010896285
12	0x3b911cda	0.004428488
13	0x3c847c17	0.016172452
14	0x3cac5a8d	0.021039272
15	0x3ccdf07a	0.025139082
16	0x3c36eb06	0.011164432
17	0x3c021731	0.0079401
18	0x3cfe4f69	0.031043725
19	0x3c42dedb	0.011893953
20	0x3cc6bd4d	0.024260188
21	0x3c921dba	0.01783644
22	0x3c636667	0.013879395
23	0x3c6c43d9	0.014420473
24	0x3c30a279	0.010780924
25	0x3be954b7	0.0071206945
26	0x3bf14cc0	0.0073638856
27	0x3c592f02	0.013255836
28	0x3bb9b310	0.005667098
29	0x3c359a27	0.011084116
30	0x3bd428b9	0.006474581
31	0x3c6558a9	0.013998189
32	0x3c1e6e43	0.009669843
33	0x3c420d9b	0.011844064
34	0x3bc9c2f8	0.0061572753
35	0x3c75a3fc	0.01499271
36	0x3cd80eb9	0.026374208
37	0x3ca1fc33	0.019773578
38	0x3c807da9	0.01568492
39	0x3bc5f2b0	0.0060408935
40	0x3c40d853	0.011770326
41	0x3bda4bf9	0.0066618887
42	0x3c055aa2	0.008139284
43	0x3c38e431	0.011284874
44	0x3c7a83b7	0.015290192
45	0x3bf648c1	0.007515997
46	0x3c35d44e	0.011097981
47	0x3cc23a1b	0.023709347
48	0x3c30d71d	0.0107934745
49	0x3b97d893	0.004633972
50	0x3c71e446	0.014763897
51	0x3c8eac1a	0.017416049
52	0x3c01d633	0.007924604
53	0x3c090d70	0.00836502
54	0x3ca5c20c	0.02023413
55	0x3c6a46f4	0.014299143
56	0x3c9ad719	0.018901395
57	0x3cc4bc1e	0.024015483
58	0x3c5ea844	0.013589922
59	0x3beaf4c5	0.007170292
60	0x3c39d8bc	0.011343177
61	0x3be624d9	0.0070234356
62	0x3cabb4af	0.02096018
63	0x3c9a2fd5	0.018821636
64	0x3cbcdee4	0.023055501
65	0x3c4d81fa	0.012543196
66	0x3c5c864d	0.013459754
67	0x3c9af691	0.0189164
68	0x3c39783f	0.011320173
69	0x3c40aab2	0.011759447
70	0x3c0e1cb5	0.0086738365
71	0x3c3b1a5d	0.01141986
72	0x3c99daad	0.01878103
73	0x3c3e3e02	0.0116114635
74	0x3c9cd8db	0.019146373
75	0x3ca26e70	0.019828051
76	0x3c8061db	0.015671661
77	0x3c1d814f	0.009613349
78	0x3c248568	0.010041572
79	0x3c882ac9	0.016621964
80	0x3bc3a626	0.005970734
81	0x3c139eff	0.009010076
82	0x3c316533	0.01082735
83	0x3c1c20ee	0.009529335
84	0x3c447d51	0.011992768
85	0x3cad6931	0.021168323
86	0x3c8cb6f5	0.017177084
87	0x3c152169	0.009102204
88	0x3d03cce9	0.03217784
89	0x3c8735a2	0.016505066
90	0x3c3498e6	0.011022782
91	0x3c33da7c	0.010977384
92	0x3c545e09	0.012961873
93	0x3c612cca	0.013743589
94	0x3ca37427	0.019952847
95	0x3c99aa4a	0.018757958
96	0x3cb8688d	0.022510791
97	0x3bacbe94	0.005271742
98	0x3c0a35da	0.008435691
99	0x3c34118e	0.0109905135
100	0x3c22971c	0.009923723
101	0x3c410472	0.011780845
102	0x3c904769	0.017612176
103	0x3ce129b1	0.0274857
104	0x3c017c93	0.007903236
105	0x3c50231a	0.012703681
106	0x3cc0b8e6	0.023525666
107	0x3bc1ea38	0.0059178136
108	0x3bd95652	0.0066326046
109	0x3c6f1f81	0.014594913
110	0x3c522c70	0.012827978
111	0x3c959ef7	0.018264277
112	0x3c62e7d7	0.01384922
113	0x3d0834f7	0.033253636
114	0x3ca720d1	0.02040139
115	0x3c404da8	0.011737265
116	0x3c580df2	0.013186919
117	0x3cc5e12e	0.024155226
118	0x3c9f1692	0.019419942
119	0x3c42e421	0.0118952105
120	0x3bea9603	0.007158996
121	0x3cb829f0	0.022480935
122	0x3ba953ae	0.005167446
123	0x3c139bea	0.009009341
124	0x3c3bdbf7	0.011466018
125	0x3c9b4636	0.018954378
126	0x3c80e2b9	0.01573311
127	0x3c5b276d	0.013376099
128	0x3be75068	0.0070591457
129	0x3ca091a6	0.0196007
130	0x3cde6d37	0.027151687
131	0x3c843765	0.016139695
132	0x3c99ae0e	0.018759754
133	0x3ce2b5ca	0.027674574
134	0x3c36cd73	0.011157381
135	0x3c7cb787	0.015424616
136	0x3c53642e	0.012902303
137	0x3c8743f7	0.0165119
138	0x3be00196	0.0068361266
139	0x3bfc39d3	0.007697323
140	0x3c5451bc	0.01295894
141	0x3bc3f217	0.005979787
142	0x3bdcb968	0.0067359693
143	0x3cb4dbe8	0.022077516
144	0x3d26ce77	0.040724244
145	0x3c9dd2a6	0.019265484
146	0x3c724bb5	0.014788558
147	0x3c3b4c3d	0.011431751
148	0x3c2459ad	0.010031146
149	0x3c2a638b	0.010399709
150	0x3c901bcb	0.017591378
151	0x3c3d767a	0.011563892
152	0x3cb2f230	0.021844
153	0x3c9739ea	0.018460233
154	0x3c610497	0.013734004
155	0x3c5643fb	0.013077731
156	0x3ba1d4f4	0.004938716
157	0x3cc74a4f	0.024327425
158	0x3cd79303	0.026315218
159	0x3c2b21f3	0.010445106
160	0x3c83c9b8	0.016087398
161	0x3cb0fa25	0.021603653
162	0x3cb18ee3	0.021674579
163	0x3c4a4408	0.0123453215
164	0x3c065be1	0.008200617
165	0x3bed0e79	0.0072343913
166	0x3c91c9d4	0.017796434
167	0x3c1f0fa6	0.009708321
168	0x3c078c4c	0.0082731955
169	0x3c843984	0.016140707
170	0x3bd21523	0.006411211
171	0x3c8e830f	0.017396478
172	0x3c670b1d	0.014101771
173	0x3ba877aa	0.005141218
174	0x3c3e25c1	0.011605681
175	0x3c46cada	0.0121333245
176	0x3c833845	0.016018042
177	0x3c52647f	0.012841343
178	0x3cb54b21	0.02213055
179	0x3c159b07	0.0091312
180	0x3c4503b7	0.0120248115
181	0x3c2987b7	0.010347298
182	0x3c74eede	0.0149495285
183	0x3c7c330c	0.01539303
184	0x3c26c3dc	0.010178532
185	0x3c1ae5c5	0.009454195
186	0x3c4c0860	0.012453169
187	0x3cb7756b	0.022394856
188	0x3bf01333	0.0073265075
189	0x3cae4651	0.021273764
190	0x3bc19d31	0.0059086313
191	0x3c74581d	0.014913586
192	0x3c1ab600	0.009442806
193	0x3c1f6f9b	0.009731199
194	0x3c814caa	0.015783627
195	0x3c3d2048	0.011543341
196	0x3c1e8ca6	0.009677088
197	0x3c34707e	0.011013148
198	0x3b94cf2e	0.0045412993
199	0x3c5f23d5	0.013619383
200	0x3c1e9e18	0.009681247
201	0x3bb57783	0.0055379285
202	0x3c5780db	0.01315328
203	0x3c1b80f7	0.009491197
204	0x3c676051	0.014122085
205	0x3caae3e2	0.020860616
206	0x3c1ca81e	0.009561567
207	0x3c796021	0.015220673
208	0x3c201d73	0.009772646
209	0x3c88088d	0.01660564
210	0x3bb76a7b	0.0055974103
211	0x3be9b938	0.0071326755
212	0x3c15e51f	0.009148865
213	0x3c1237b0	0.00892441
214	0x3c24dbdb	0.010062183
215	0x3c3ed2b2	0.011646913
216	0x3bc36368	0.005962778
217	0x3bca0dd5	0.0061661997
218	0x3cd13a69	0.025540547
219	0x3bd79f33	0.0065802573
220	0x3ccdd16b	0.025124272
221	0x3c7d536a	0.015461782
222	0x3c6d430f	0.01448132
223	0x3c2474c8	0.010037608
224	0x3b798812	0.003807549
225	0x3c8f92ef	0.017526118
226	0x3c02999c	0.007971194
227	0x3b9dde15	0.004817734
228	0x3cb3836a	0.021913249
229	0x3c9adc59	0.018903898
230	0x3c0ad5a4	0.008473787
231	0x3c163a4f	0.009169175
232	0x3c90d964	0.017681785
233	0x3c463808	0.01209832
234	0x3c96767d	0.018367046
235	0x3c8b4b71	0.017003747
236	0x3c836d50	0.016043335
237	0x3c22798c	0.009916674
238	0x3c1c7fd0	0.009551957
239	0x3c7a31f5	0.0152707
240	0x3c388311	0.011261717
241	0x3b8b1bc9	0.0042452556
242	0x3c0b0f81	0.008487583
243	0x3c3713de	0.01117417
244	0x3ca6f060	0.020378292
245	0x3c265901	0.010153056
246	0x3c5401fe	0.012939928
247	0x3c09d467	0.008412457
248	0x3c4dfb7e	0.012572167
249	0x3c2cadae	0.010539455
250	0x3c26a91d	0.010172156
251	0x3c7f3064	0.015575502
252	0x3c927554	0.017878212
253	0x3c86df46	0.016463887
254	0x3c24e99e	0.010065464
255	0x3ce6b202	0.028161053

chords_tempNet.batchnorm_2.weight f4 [32]
0	0x3e0de329	0.13856186
1	0xbc17b94f	-0.00926049
2	0xbd8c3cd5	-0.0684754
3	0xbd9f5a58	-0.077809036
4	0x3cf5536b	0.029947003
5	0xbd37d768	-0.04488316
6	0x3d06057f	0.032720085
7	0x3d21be81	0.03948832
8	0x3cd42b89	0.025899665
9	0x3cee7b75	0.029111603
10	0xbdab5242	-0.08365299
11	0xbd2a3341	-0.041552786
12	0x3d808624	0.06275585
13	0x3cb0acb9	0.021566736
14	0x3c1b0f2e	0.009464068
15	0x3d8c6502	0.06855203
16	0x3dcae60e	0.09907161
17	0x3cb8a657	0.022540255
18	0xbd077e4b	-0.033079427
19	0xbd8ada77	-0.0677995
20	0x3d8c695c	0.06856033
21	0xbc984b80	-0.018590689
22	0xbd6a7507	-0.057240512
23	0x3ca2c1d5	0.019867817
24	0x3d30ef29	0.04319683
25	0xbd5092fc	-0.050921425
26	0xbd32d708	-0.0436621
27	0xbd81ea4e	-0.06343518
28	0x3d7df4ba	0.062000968
29	0x3ca1b55d	0.019739801
30	0xbccb6379	-0.024827706
31	0xbdb882a3	-0.09009292
