run/weights/weights-g-0.pth (torch, 418811 bytes, 12 tensors)

chords_tempNet.convT_in.weight f4 [32, 1024, 2, 1]
-0.012401485 -0.021934148 0.018744681 0.019281287 -0.027214492 -0.0022723312 0.01547278 -0.0034222258
0.02072038 -0.017859783 0.0026379186 -0.03083934 -0.0004957957 0.0058419127 -0.03106695 0.012224282
0.014717846 -0.013886718 -0.02366221 0.017064042 -0.030507844 0.020967469 0.037771035 -0.008671258
-0.005594146 0.031939123 0.027538525 -0.008028637 -0.04609262 -0.017153608 0.0018752333 -0.0045877188
-0.02078352 -0.015737483 0.04023719 -0.0022448516 -0.018229082 -0.012765242 0.0011987014 -0.022853319
0.04851746 0.003755683 0.012052041 0.011876778 0.011566414 -0.010294592 0.012905667 -0.011928926
0.025343772 -0.007874094 0.014389183 -0.010304405 -0.017051917 -0.03310157 0.03515905 -0.025384063
-0.041092396 0.018671395 0.014989692 0.022450851 0.050500493 -0.027690796 -0.0032029657 -0.043674305
-0.06129117 0.026835686 -0.0013765804 0.03188102 0.023761163 0.021460574 -0.013086741 -5.117299e-05
-0.019228762 0.0022977474 0.029427338 -0.001129016 -0.05215348 0.008663526 0.014244596 -0.013356091
-0.0019488662 0.0046691424 0.034966074 -0.017339606 -0.024785528 0.021595255 -0.017517226 0.014971408
0.031050397 -0.006494164 -0.009220093 -0.016842693 -0.020202598 0.005991488 0.017009731 -0.0145432195
-0.025396658 0.02034153 -0.018920563 0.01371544 -0.028450068 0.04575656 -0.026667371 -0.0022378173
0.00500203 -0.008747217 -0.021339284 0.005878194 0.063972585 -0.035766393 -0.019060561 0.031953383
0.07738029 -0.013591307 -0.03266309 0.014299231 0.02462318 -0.00922024 -0.0096920375 0.015156266
-0.03630588 0.0037823683 -0.0031624953 0.022308735 0.028057268 0.0027759592 -0.02105209 0.022717725
0.0125918295 0.005414681 0.015294718 0.026779855 0.035653993 0.016931262 -0.048698056 0.01038742
0.018285746 -0.012853265 0.02605794 -0.0031938073 -0.014501971 -0.0070928833 -0.010779314 -0.009574345
-0.0017093231 0.01979373 0.005398648 4.9064252e-05 0.03330446 -0.04084539 -0.02578174 -0.050667267
-0.030732727 -0.015435568 0.0024712363 0.024225248 -0.032245293 0.022397919 -0.002427188 0.0157153
-0.029609684 -0.03450204 -0.02506615 0.011944826 -0.013419345 0.016754894 -0.015189738 -0.0026603453
0.08159054 -0.020478636 0.011872633 0.042821918 -0.012265468 0.03429425 -0.023906475 0.02765498
-0.021614663 -0.006103251 0.02152952 0.02824065 -0.06425561 0.016461909 0.018442124 0.003624501
0.0064257933 0.01304446 -0.03304736 0.025108099 -0.009452181 0.019301344 -0.023715436 0.0424415
-0.009458383 0.029784225 0.04081544 -0.0153194545 -0.0021209954 0.007245212 0.01904376 -0.018816395
-0.00638687 -0.014756001 -0.007331156 0.004993332 -0.017066663 -0.011558643 -0.035524294 -0.0012508283
-0.022473248 -0.006927353 -0.037013687 -0.03108392 -0.013894925 -0.010443014 -0.02339466 0.016039696
0.044358242 0.03138127 -0.010594434 0.010108693 0.009982723 -0.04982342 0.01471503 -0.014896326
-0.026729608 -0.026839634 0.036401793 0.017789861 -0.03465365 0.003971366 -0.018754855 0.013014182
0.0057715615 0.002727614 -0.013598575 0.013462142 0.0069196853 0.029379047 0.030812666 0.013351234
0.03671353 -0.0072037936 0.029010976 -0.010644205 0.01611653 0.012088965 0.01123974 -0.00967682
-0.05662089 0.005596357 0.054431085 0.017098088 -0.005731536 0.0009575153 0.015767286 -0.001298821
00000000: 992f 4bbc 3eaf b3bc 728e 993c caf3 9d3c
00000010: edf0 debc 64eb 14bb 8b81 7d3c 6c47 60bb
00000020: c9bd a93c ae4e 92bc eee0 2c3b c9a2 fcbc
00000030: 49f8 01ba 846d bf3b 1e80 febc 5b48 483c
00000040: 1f23 713c 1e85 63bc 40d7 c1bc e4c9 8b3c
00000050: 96eb f9bc f8c3 ab3c cdb5 1a3d e411 0ebc
00000060: 194f b7bb 99d2 023d 7998 e13c 8b8a 03bc
00000070: 9dcb 3cbd b985 8cbc 63ca f53a 9354 96bb
00000080: 3342 aabc e5eb 80bc c0cf 243d 5c1e 13bb
00000090: 2855 95bc 4e25 51bc bf1d 9d3a e236 bbbc
000000a0: 3eba 463d e821 763b ec75 453c d196 423c
000000b0: 0e81 3d3c a6aa 28bc 4a72 533c 8b71 43bc
000000c0: be9d cf3c 5802 01bc 9cc0 6b3c cfd3 28bc
000000d0: 76b0 8bbc 8395 07bd f002 103d 3df2 cfbc
000000e0: 8050 28bd c1f4 983c 5397 753c d9ea b73c
000000f0: 9bd9 4e3d cfd7 e2bc d9e8 51bb d4e3 32bd
00000100: 730c 7bbd 83d6 db3c 606e b4ba ac95 023d
00000110: c5a6 c23c 16ce af3c c569 56bc 94a2 56b8
00000120: a385 9dbc ce95 163b 9a11 f13c 7efb 93ba
00000130: e39e 55bd 76f1 0d3c 2a62 693c 82d3 5abc
00000140: 1971 ffba 9bff 983b 9638 0f3d ca0b 8ebc
00000150: 050b cbbc 88e8 b03c 4980 8fbc a34a 753c
00000160: 675d fe3c ffcc d4bb df0f 17bc b0f9 89bc
00000170: eb7f a5bc 3f54 c43b fe57 8b3c af46 6ebc
00000180: a70c d0bc 48a3 a63c 4cff 9abc bab6 603c
00000190: 1e10 e9bc 3b6b 3b3d 8875 dabc 58a8 12bb
000001a0: 12e8 a33b 7d50 0fbc b9cf aebc dd9d c03b
000001b0: 0f04 833d c87f 12bd e524 9cbc 8de1 023d
000001c0: 8f79 9e3d 13ae 5ebc bbc9 05bd 5247 6a3c
000001d0: 8db6 c93c 7d10 17bc 5acb 1ebc fd51 783c
000001e0: 79b5 14bd 9ce1 773b de41 4fbb cfc0 b63c
000001f0: 5bd8 e53c deec 353b 6f75 acbc 861a ba3c
00000200: f64d 4e3c a36d b13b b296 7a3c 6d61 db3c
00000210: ec09 123d 6eb3 8a3c 9d77 47bd ff2f 2a3c
00000220: fdcb 953c 8096 52bc 7677 d53c 324f 51bb
00000230: ad99 6dbc 6b6b e8bb b89b 30bc b7dd 1cbc
00000240: 5e0b e0ba 7626 a23c 24e7 b03b 57ca 4d38
00000250: 426a 083d 7f4d 27bd 3a34 d3bc 7b88 4fbd
00000260: 33c3 fbbc 77e5 7cbc 77f4 213b 0774 c63c
00000270: a413 04bd d77b b73c 7511 1fbb 5fbd 803c
00000280: 0290 f2bc 0352 0dbd 8757 cdbc 3bb4 433c
00000290: d0dc 5bbc 8f41 893c 61de 78bc 3059 2ebb
000002a0: f118 a73d d0c2 a7bc 6f85 423c 0966 2f3d
000002b0: 1af5 48bc 2178 0c3d 83d7 c3bc b28c e23c
000002c0: 3c11 b1bc c8fd c7bb ad5e b03c f058 e73c
000002d0: 7298 83bd 20db 863c f013 973c 0989 6d3b
000002e0: 768f d23b 6eb8 553c ab5c 07bd 80af cd3c
000002f0: 52dd 1abc da1d 9e3c e046 c2bc 23d7 2d3d
00000300: 55f7 1abc 0cfe f33c 172e 273d 73fe 7abc
00000310: 6600 0bbb 3e69 ed3b a901 9c3c d724 9abc
00000320: f348 d1bb 27c3 71bc 323a f0bb 1b9f a33b
00000330: 63cf 8bbc 7660 3dbc ec81 11bd d5f2 a3ba
00000340: d119 b8bc d9fe e2bb aa9b 17bd b4a3 febc
00000350: 8aa7 63bc 2d19 2bbc 28a6 bfbc ae65 833c
00000360: fdb0 353d a689 003d 4794 2dbc ee9e 253c
00000370: 938e 233c a413 4cbd 4f17 713c b80f 74bc
00000380: 0df8 dabc cbde dbbc 0c1a 153d 0bbc 913c
00000390: fcf0 0dbd 3c22 823b c8a3 99bc 7039 553c
000003a0: 5e1f bd3b c5c1 323b 8fcc 5ebc 5190 5c3c
000003b0: 87be e23b 54ac f03c d86a fc3c 22bf 5a3c
000003c0: ed60 163d cd0d ecbb 6da8 ed3c 0865 2ebc
000003d0: d006 843c cb10 463c e326 383c 868b 1ebc
000003e0: 4eeb 67bd a561 b73b 21f3 5e3d 4a11 8c3c
000003f0: 9ccf bbbb c401 7b3a 652a 813c 333d aaba

chords_tempNet.convT_in.bias f4 [1024]
-0.02493471 -0.0021526287 -0.074098215 0.01446795 0.046931922 0.0125498995 0.018828265 -0.038575932
-0.010164339 -0.0016061054 -0.08350806 -0.004641397 -0.0033944878 -0.02617352 -0.025532877 -0.075162746
-0.004092637 -0.02026981 -0.008120921 -0.03529271 -0.0055377563 0.018777972 -0.030502463 -0.0048388583
-0.020696262 0.0029410429 -0.006185858 0.013150693 0.009840209 -0.0019147324 -0.0029924596 0.0023730237
-0.0936111 -0.0834997 -0.004354012 -0.055916306 0.0064922213 0.0198193 -0.01958919 -0.0041664294
0.0077862456 -0.016613107 -0.09118579 -0.0369539 0.005677001 0.008486794 0.00026492798 -0.027959494
-0.013948028 -0.043329507 -0.058141172 -0.042561114 -0.019912275 0.08366674 0.0804639 -0.04988202
0.04943552 0.044675164 0.008532645 -0.05411655 0.019480536 0.03092232 0.015651373 0.04243138
-0.01163645 0.09430941 0.02617293 0.005457084 -0.0072094016 -0.0022599874 0.0043206094 -0.01572985
-0.024516487 -0.029375073 0.004846214 0.06510086 -0.09490571 -0.010257032 0.014866527 -0.048676483
-0.04587959 0.06497513 -0.021375682 -0.007082723 -0.0031836915 -0.03311927 -0.08610513 0.028117942
-0.047953732 -0.002987094 -0.09428956 0.007899398 0.017897822 -0.03470765 -0.03708861 -0.02497648
0.017570196 -0.022864087 0.021033745 0.00701506 0.00880017 0.022858461 0.033219744 -0.02772261
0.009034014 -0.0013664794 0.017068459 -0.014594616 0.055719323 0.083246544 -0.058128346 0.0070887054
-0.054698277 0.009321104 -0.059257165 0.014854335 -0.009915212 -0.003172731 0.012145136 0.012450363
0.004738829 -0.020046333 0.010801334 0.0024548448 0.019855581 -0.01830567 0.0063825776 0.019085212
0.0013960053 -0.07267188 -0.0008119162 -0.05943688 0.017881183 0.0030748197 -0.0126607865 -0.006108841
-0.0029851752 0.09318721 0.06298196 0.088626765 0.045895703 -0.043434303 -0.0026282652 0.012228039
-0.0081171645 -0.051603846 0.025827479 0.056456994 -0.036038052 0.012747742 -0.039509743 -0.00800686
0.020972757 -0.006642838 0.011909556 -0.023238838 -0.0072075753 -0.014714394 -0.009216758 -0.022362523
0.065383956 -0.0037648827 -0.015583861 0.017600281 -0.049684107 0.02285331 0.047590125 0.010974845
-0.05157944 0.0018644442 8.931058e-05 0.05114909 -0.00035441606 -0.073750675 0.0014916902 0.00760514
0.06019573 0.015287247 0.046366133 0.008203994 0.0047436985 -0.00247807 -0.025596594 -0.00223432
-0.06867591 0.062761165 -0.010116942 -0.00068073586 0.0365397 0.0029107477 0.006994278 0.0011001009
-0.015692502 -0.021424567 0.014368733 -0.028875627 -0.0046046604 -0.039027832 -0.008772498 -0.04747339
0.022215774 0.024605634 -0.048908897 -0.0007956658 0.01516446 0.0075551136 0.0040040556 -0.030281719
0.00849198 -0.0071964245 0.090673834 0.016026031 -0.022584157 0.0056714546 -0.070714645 -0.024991194
-0.0081575755 0.038748328 -0.0044245315 0.014605607 0.024622481 -0.020251783 0.012570802 -0.07595644
0.015358297 -0.013585717 0.010316392 -0.04943688 -0.013184798 -0.021923104 0.064038545 0.042984676
-0.036104873 -0.0068009323 -0.0017501406 -0.038265884 0.012697262 -0.08584062 0.053006828 -0.02147847
0.05960865 0.021398507 0.004798287 -0.0053284387 -0.06245668 0.013760187 0.0485798 -0.017423775
0.019393269 -0.057521433 -0.02347632 -0.0046624737 -0.013439459 0.012780133 -0.0016022583 0.028190771
00000000: e043 ccbc 1e13 0dbb cec0 97bd fb0a 6d3c
00000010: b03b 403d 189e 4d3c bc3d 9a3c cc01 1ebd
00000020: 5488 26bc f483 d2ba 4606 abbd dc16 98bb
00000030: 0e76 5ebb da69 d6bc 532a d1bc edee 99bd
00000040: 871b 86bb df0c a6bc 9d0d 05bc 178f 10bd
00000050: 1176 b5bb 43d4 993c 4de0 f9bc 498f 9ebb
00000060: 358b a9bc 83be 403b bdb2 cabb 0176 573c
00000070: d438 213c c2f7 faba 241d 44bb bb84 1b3b
00000080: 2db7 bfbd e401 abbd 1aac 8ebb 7f08 65bd
00000090: b3bc d43b 165c a23c 8279 a0bc 8b86 88bb
000000a0: c323 ff3b 3618 88bc 9ebf babd f95c 17bd
000000b0: 2306 ba3b 320c 0b3c 08e6 8a39 4f0b e5bc
000000c0: 4586 64bc 487a 31bd 7025 6ebd 9054 2ebd
000000d0: 111f a3bc 7859 ab3d 42ca a43d 1751 4cbd
000000e0: e67c 4a3d 4efd 363d 82cc 0b3c 51a9 5dbd
000000f0: a595 9f3c ce50 fd3c 4f37 803c 87cc 2d3d
00000100: cfa6 3ebc 4b25 c13d 9d68 d63c 57d1 b23b
00000110: d83c ecbb 4c1c 14bb e693 8d3b e3db 80bc
00000120: cdd6 c8bc fea3 f0bc fdcc 9e3b 9a53 853d
00000130: ed5d c2bd 1c0d 28bc bc92 733c fe60 47bd
00000140: 3dec 3bbd ae11 853d 0e1c afbc 3016 e8bb
00000150: 7ba5 50bb 12a8 07bd e357 b0bd 9957 e63c
00000160: 226b 44bd 1fc3 43bb e31a c1bd 7a6c 013c
00000170: 749e 923c 9c29 0ebd 3aea 17bd 7a9b ccbc
00000180: 5fef 8f3c 774d bbbc f64e ac3c 97de e53b
00000190: 972e 103c ab41 bb3c 6d11 083d 871a e3bc
000001a0: 6703 143c 711b b3ba 27d3 8b3c 421e 6fbc
000001b0: f239 643d 2a7d aa3d fd17 6ebd 5f48 e83b
000001c0: 4d0b 60bd 8bb7 183c a4b7 72bd 995f 733c
000001d0: 6a73 22bc 98ed 4fbb 64fc 463c 9bfc 4b3c
000001e0: 2e48 9b3b 3538 a4bc 14f8 303c 76e1 203b
000001f0: 2ca8 a23c c6f5 95bc f124 d13b 9758 9c3c
00000200: 2afa b63a ffd4 94bd c6d6 54ba 1674 73bd
00000210: 8f7b 923c ea82 493b 306f 4fbc ac2c c8bb
00000220: eea2 43bb f0d8 be3d b0fc 803d f381 b53d
00000230: 22fd 3b3d 2be8 31bd f93e 2cbb 1d58 483c
00000240: dbfd 04bc 8e5e 53bd 2694 d33c 733f 673d
00000250: a39c 13bd e8db 503c f8d4 21bd 342f 03bc
00000260: 0fcf ab3c 2aac d9bb 4c20 433c 605f bebc
00000270: 862d ecbb a414 71bc e301 17bc 9c31 b7bc
00000280: 06e8 853d 40bc 76bb 7353 7fbc 772e 903c
00000290: 9081 4bbd dd36 bb3c dded 423d d6cf 333c
000002a0: f644 53bd 5e60 f43a 414c bb38 b581 513d
000002b0: ebd0 b9b9 980a 97bd d184 c33a 8a34 f93b
000002c0: cc8f 763d 5c77 7a3c 6aea 3d3d 0b6a 063c
000002d0: 0771 9b3b 1e67 22bb f3af d1bc ab6d 12bb
000002e0: f5a5 8cbd ed88 803d 88c1 25bc 6973 32ba
000002f0: a7aa 153d 3ec2 3e3b 4230 e53b 4331 903a
00000300: 908d 80bc 9382 afbc d66a 6b3c 948c ecbc
00000310: b1e2 96bb a6db 1fbd 86ba 0fbc 7573 42bd
00000320: dbfd b53c c191 c93c b254 48bd 3a94 50ba
00000330: 5b74 783c e390 f73b 7434 833b 5e11 f8bc
00000340: f221 0b3c fccf ebbb 34b3 b93d 0649 833c
00000350: 6902 b9bc 9cd7 b93b d7d2 90bd 55ba ccbc
00000360: 5aa7 05bc 91b6 1e3d a9fb 90bb 5b4c 6f3c
00000370: 16b5 c93c 11e7 a5bc c4f5 4d3c 0d8f 9bbd
00000380: 5ea1 7b3c a196 5ebc 1606 293c 537e 4abd
00000390: 0d05 58bc 1598 b3bc a426 833d b310 303d
000003a0: b4e2 13bd 5bda debb f964 e5ba b0bc 1cbd
000003b0: 2d08 503c 35cd afbd b01d 593d 9ef3 afbc
000003c0: 3328 743d ec4b af3c f33a 9d3b 2f9a aebb
000003d0: 93d2 7fbd 6872 613c 9dfb 463d 4ebc 8ebc
000003e0: a2de 9e3c 989b 6bbd 6951 c0bc aac7 98bb
000003f0: 2d31 5cbc c363 513c de02 d2ba 55f0 e63c

chords_tempNet.convT_out.weight f4 [1024, 32, 1, 1]
0.0036376112 0.002875223 -0.008010166 -0.039093863 -0.0088141 0.013491463 0.0065718126 0.07242887
0.0028984225 -0.011048305 -0.014394815 -0.01723956 0.017030487 -0.0012891139 -0.022764318 -0.015565871
0.05866918 0.024806285 -0.04068154 0.02563982 -0.008028672 -0.032861784 0.0035141972 0.011152305
0.0521508 -0.009667143 0.007508928 -0.0031716824 -0.0329334 0.014205193 -0.0059982887 -0.031803064
0.11142204 -0.001655761 -0.048448443 0.026121393 0.08446348 -0.011727462 0.011667976 -0.009141453
-0.033714827 0.008985273 0.008278328 -0.033121955 0.026254587 0.027746912 0.028860223 -0.0055557387
-0.027892608 -0.0055791615 -0.03416175 -0.07398548 0.00037783277 0.013503686 0.0030595162 -0.013583966
0.02289861 0.0043168585 -0.0013227926 0.0035769236 0.019097982 -0.0004553804 0.003869158 -0.030513965
-0.04699722 -0.016765185 -0.0028419404 -0.012868857 -0.007173052 -0.024111843 0.022933166 0.027698582
0.0123102935 0.017736234 0.019927228 0.020263338 0.0034756241 0.011639001 -0.015017518 0.0165528
0.080199525 0.00013792234 0.024698336 0.020033391 0.060252305 0.012444637 0.035194613 0.015303705
0.013727225 0.0043076435 -0.027307779 -0.053628173 0.009320149 0.050029285 -0.012714079 0.014967448
-0.01902861 0.017737187 0.044893987 -0.0062918346 -0.005314731 0.014498982 0.012284171 -0.019449182
0.007875071 0.032062046 -0.031955514 -0.00088442984 -0.001998482 -0.028238818 -0.0031976574 -0.017164705
-0.054345604 0.013459711 0.007710953 0.025157167 -0.035384662 -0.0046346495 -0.012109965 0.022183008
0.0006576345 0.018891765 -0.025037916 0.011443104 -0.009606811 0.010617658 -0.03101965 0.015689882
-0.014210902 -0.0005656676 0.026701814 1.83243e-05 -0.020845458 0.02730482 0.007224068 0.037487473
-0.026374936 0.021275008 0.010350932 0.052906577 0.0467536 -0.0241372 0.034747716 -0.005131212
0.03934879 -0.0028608756 -0.030851062 0.0151563715 0.0008004745 0.007599384 -0.0026264065 0.020353217
0.0041593756 -0.005244775 -0.030806048 -0.06587881 -0.020561496 -0.010433787 0.003112723 -0.0073850267
0.059192285 0.009058351 -0.028566727 -0.055930275 -0.021762418 -0.011191488 0.018973887 -0.011523577
0.030681973 0.015075416 -0.030788226 0.024033828 -0.0069079944 0.057245538 0.015037766 -0.014544926
0.027017213 -0.014175463 0.0041598133 -0.006635311 -0.007974407 -0.021052232 -0.021266676 -0.001552219
0.039303053 -0.02453857 0.021779904 0.038636375 -0.008107717 0.00839788 0.0054035136 -0.0587871
-0.02100923 -0.00258521 0.012679349 0.04710684 -0.003983046 -0.028496986 0.015710734 0.023773994
-0.011876278 0.012625304 0.050432198 0.03351861 0.004686319 -0.006714557 0.031785037 0.008782633
0.014182041 -0.01492342 0.019131307 0.0057447623 0.0039860564 -0.0433352 -0.041955624 0.0077581042
0.0139563 0.007987268 -0.029363718 -0.04626754 0.03476792 0.0110408375 -0.03964938 0.006764474
-0.06252495 -0.0401678 0.026439004 0.0073608514 0.006639436 -0.0046476773 -0.037670888 0.03200662
-0.02408765 -0.02596847 -0.00078744255 -0.0030296778 0.008273692 0.0028328707 -0.007209643 -0.009099713
0.06972424 -0.029010551 0.00016938214 0.01928657 0.033572067 0.0066872523 -0.01619148 0.019430889
-0.0028130377 0.0010179764 0.006595727 -0.0046379846 0.037264317 -0.002632338 0.004061239 -0.020114474
00000000: fd64 6e3b 3d6e 3c3b 123d 03bc e320 20bd
00000010: 0469 10bc 4c0b 5d3c 5c58 d73b 9655 943d
00000020: 76f3 3d3b f303 35bc 3bd8 6bbc fa39 8dbc
00000030: 8583 8b3c 7cf7 a8ba 3c7c babc ff07 7fbc
00000040: 184f 703d 8d36 cb3c b0a1 26bd 9a0a d23c
00000050: b18a 03bc 149a 06bd 724e 663b 28b8 363c
00000060: 149c 553d f062 1ebc 740d f63b 00dc 4fbb
00000070: 2ce5 06bd e6bc 683c 4b8d c4bb ee43 02bd
00000080: 3d31 e43d 1f06 d9ba e071 46bd 88fc d53c
00000090: 30fb ac3d 8a24 40bc 0a2b 3f3c 08c6 15bc
000000a0: 8f18 0abd f736 133c d3a1 073c e3aa 07bd
000000b0: dc13 d73c 7e4d e33c 466c ec3c ea0c b6bb
000000c0: 0a7f e4bc 66d1 b6bb 31ed 0bbd b385 97bd
000000d0: db17 c639 903e 5d3c 2a82 483b 488f 5ebc
000000e0: de95 bb3c 6f74 8d3b 8e61 adba d26a 6a3b
000000f0: 5f73 9c3c 1fc0 eeb9 b391 7d3b 6cf8 f9bc
00000100: 2880 40bd 2457 89bc d93f 3abb e6d7 52bc
00000110: ec0b ebbb 3386 c5bc 56de bb3c 23e8 e23c
00000120: 1db1 493c 944b 913c 6d3e a33c 4dff a53c
00000130: 4cc7 633b 82b1 3e3c 090c 76bc bd99 873c
00000140: a63f a43d 3f9f 1039 2a54 ca3c 111d a43c
00000150: 1fcb 763d 97e4 4b3c 3a28 103d 64bc 7a3c
00000160: 28e8 603c 2227 8d3b 90b4 dfbc 37a9 5bbd
00000170: 8ab3 183c 82eb 4c3d b64e 50bc 073a 753c
00000180: e3e1 9bbc 944d 913c c2e2 373d bc2b cebb
00000190: 3227 aebb 238d 6d3c 8c43 493c e453 9fbc
000001a0: 7106 013c 7e53 033d c9e3 02bd 15d9 67ba
000001b0: f7f8 02bb 1855 e7bc ca8f 51bb ff9c 8cbc
000001c0: 7f99 5ebd 1f86 5c3c 29ac fc3b 6716 ce3c
000001d0: 82ef 10bd 42de 97bb e068 46bc 24b9 b53c
000001e0: 1b65 2c3a e7c2 9a3c 511c cdbc db7b 3b3c
000001f0: e365 1dbc aff5 2d3c ec1c febc 1188 803c
00000200: d8d4 68bc 4f49 14ba c3bd da3c 22b7 9937
00000210: 18c4 aabc 5cae df3c e0b7 ec3b 778c 193d
00000220: 4010 d8bc ed48 ae3c f596 293c 91b4 583d
00000230: b480 3f3d 61bb c5bc 9f53 0e3d ba23 a8bb
00000240: 322c 213d 877d 3bbb 5ebb fcbc 6e52 783c
00000250: efd6 513a 4104 f93b ca1f 2cbb cabb a63c
00000260: 5f4b 883b 5ddc abbb f75c fcbc 78eb 86bd
00000270: 9570 a8bc 79f2 2abc d3fe 4b3b 18fe f1bb
00000280: 9c73 723d 7a69 143c c504 eabc 2517 65bd
00000290: 1947 b2bc 815c 37bc 206f 9b3c 63cd 3cbc
000002a0: c358 fb3c e1fe 763c 9737 fcbc 97e2 c43c
000002b0: 755c e2bb 4c7a 6a3d f660 763c d74d 6ebc
000002c0: 3453 dd3c 3340 68bc 0b4f 883b 066d d9bb
000002d0: 16a7 02bc bb75 acbc 7437 aebc d473 cbba
000002e0: 3dfc 203d 1c05 c9bc c56b b23c 2d41 1e3d
000002f0: 3bd6 04bc 4397 093c f50f b13b beca 70bd
00000300: 8c1b acbc a06c 29bb 0bbd 4f3c 1af3 403d
00000310: 3684 82bb 8372 e9bc ccb3 803c aec1 c23c
00000320: b894 42bc 5dda 4e3c fe91 4e3d cf4a 093d
00000330: b18f 993b c905 dcbb 0731 023d 08e5 0f3c
00000340: cb5b 683c 5c81 74bc 42b9 9c3c 8f3e bc3b
00000350: 779d 823b 4080 31bd a9d9 2bbd b237 fe3b
00000360: f7a8 643c 08dd 023c 2e8c f0bc 0883 3dbd
00000370: ce68 0e3d a1e4 343c 6367 22bd 85a8 dd3b
00000380: 150d 80bd fe86 24bd 9c96 d83c 4c33 f13b
00000390: a08f d93b 8b4b 98bb ca4c 1abd 6019 033d
000003a0: 7753 c5bc d4bb d4bc 606c 4eba 8f8d 46bb
000003b0: 618e 073c afa7 393b de3e ecbb f616 15bc
000003c0: 95cb 8e3d 89a7 edbc 2c9c 3139 defe 9d3c
000003d0: dd82 093d bd20 db3b ffa3 84bc 872d 9f3c
000003e0: f15a 38bb 9f6d 853a f820 d83b 3cfa 97bb
000003f0: 78a2 183d 4e83 2cbb 2414 853b 1cc7 a4bc

chords_tempNet.convT_out.bias f4 [32]
0.17805162 -0.14453773 -0.008384436 -0.1359996 -0.14887145 0.006345751 -0.033889744 0.1937607
0.025064372 -0.09033976 -0.149702 -0.057463087 -0.02318338 -0.09839914 0.16139053 0.17509934
0.039360244 0.10363078 0.00061345706 -0.06592611 -0.077144854 -0.13527353 -0.19180298 0.012840859
-0.10953833 -0.015135245 0.10871139 0.066956624 -0.057228696 -0.12640777 -0.019469816 0.06004482
00000000: 2a53 363e b301 14be e05e 09bc 7b43 0bbe
00000010: c271 18be 05f0 cf3b f9cf 0abd 3469 463e
00000020: cc53 cd3c 0d04 b9bd 7b4b 19be 6a5e 6bbd
00000030: 12eb bdbc 7d85 c9bd 8f43 253e 3e4d 333e
00000040: 3538 213d 603c d43d 68d0 203a 4504 87bd
00000050: 1ffe 9dbd 2585 0abe 0068 44be 7762 523c
00000060: a255 e0bd d2f9 77bc 14a4 de3d 8e20 893d
00000070: a368 6abd 0a71 01be 2a7f 9fbc 8ff1 753d

chords_tempNet.batchnorm_1.weight f4 [1024]
-0.017533101 -0.08878563 -0.13325018 1.3583917e-06 0.053372573 -0.05830084 0.050390314 -0.057070646
-0.07389402 0.062405955 -0.112491116 -0.060274754 7.007637e-05 -0.08951502 0.039542913 -0.056646325
0.08898141 -0.07742136 -0.0007848351 -0.029079663 -0.0991172 -0.029236866 -0.098661244 9.102153e-07
-0.10241173 -0.0010061712 0.07701607 -0.08498576 0.049643297 -0.040521286 -0.08201576 -0.040476553
-0.098018326 -0.11892688 -0.09209384 -0.079386145 0.041420303 -0.05874443 0.07313128 -0.02460436
0.040057655 -0.08251088 -0.09628432 -0.056628894 -0.00010115155 0.00013833531 0.0020719687 -0.11212693
0.07080877 -0.09090161 -0.09952726 -0.07080132 -0.040725533 0.07660915 0.13157155 -0.0461911
0.06337299 0.057015672 0.002422497 -0.06353975 -0.0008219913 0.09408379 -0.052804127 0.07037032
0.00037204052 0.088736266 0.027982019 0.081383936 -0.00010201482 -0.071870275 -0.003026632 0.00012847556
0.070001 -0.007831815 -0.07370035 0.08882198 -0.086031064 -0.0009727734 -0.0008436647 -0.06793219
-0.048016377 0.08492376 0.0678121 -0.00013888434 -0.09796347 -0.06853099 -0.08192203 0.08880978
-0.043294292 0.01705391 -0.06998441 -0.07625567 0.04766249 -0.06749394 -0.061459225 0.06650908
-0.0027203546 -0.093364194 -0.001282137 -0.060304675 -0.00015979572 0.043369688 0.027287614 0.048680652
-0.061499298 0.07002562 0.08869193 0.06400733 0.08586347 0.05501833 -0.080244966 0.022944381
-0.078971274 0.0022989812 -0.09675349 -0.00018481196 -0.08299724 0.11187196 0.12325762 0.0008169182
-0.078628935 -0.075086355 0.013974784 -0.059461858 0.08811461 -0.0884821 0.07063183 -0.0011015328
0.06889488 -0.122362204 -0.049603503 -0.08888365 0.05677135 0.047191616 -2.4972365e-05 -0.1100436
0.0691333 0.07737888 0.08111118 0.11396444 0.044329885 -0.07157265 0.057845745 0.09445896
-0.07539099 -0.06706423 0.09941765 0.07491274 -0.06979646 0.05379927 -0.041372284 -0.030138612
0.012667649 0.050431 0.0002977649 -0.07693581 0.056837585 0.08490985 0.086764604 -0.06333149
0.07006482 0.06896811 0.06894078 0.04154588 -0.09848983 -0.056336768 0.041767728 0.02587693
-0.042755716 -0.00012540322 0.07745197 0.09369466 -7.119333e-05 -0.09771536 -0.1209263 -0.055374794
0.078270346 0.008716544 0.03665758 -0.039557274 -0.09758736 -0.095589176 -0.06080048 -0.036913287
-0.056856062 0.05258165 0.053992793 -0.06907336 0.046883587 -0.023817493 0.053003885 -0.059169114
-0.08991462 0.00012518428 0.10041445 -0.070156135 0.07190896 -0.05440432 0.024739495 -0.047673758
-0.060948186 0.076366894 -0.07528351 -0.0002727852 -0.014025155 0.06786197 0.089600876 -0.054751948
0.00025740272 0.04852712 0.07994891 -0.07091688 0.050256673 0.08480671 -0.07033079 -0.06823189
0.07969411 0.05630772 -0.056070715 -0.08677515 0.038634513 0.0017459055 0.052424423 -0.06844423
-0.051653903 -0.001795322 0.112432845 -0.071195796 -0.072318316 -0.10728847 0.080702744 0.06060893
-0.09492204 -0.041987177 0.051490285 -0.06948384 0.08486935 -0.07174399 0.079472244 -0.07578006
0.0670081 0.0003602533 -0.0011323588 -0.09302005 -0.08289206 -0.00012663944 0.06072651 -0.041376334
-0.00013223026 -0.06908285 0.061818745 0.0219324 -0.06432232 -0.07679514 -0.07153437 0.09916879
00000000: 94a1 8fbc 3ed5 b5bd bc72 08be fc51 b635
00000010: 339d 5a3d ddcc 6ebd 1366 4e3d e9c2 69bd
00000020: bf55 97bd 639d 7f3d be61 e6bd a9e2 76bd
00000030: f7f5 9238 a753 b7bd c0f7 213d fa05 68bd
00000040: e33b b63d 178f 9ebd 64bd 4dba 7938 eebc
00000050: f5fd cabd 2782 efbc e80e cabd 8555 7435
00000060: 3ebd d1bd 81e1 83ba 9aba 9d3d 040d aebd
00000070: c556 4b3d a6f9 25bd e1f7 a7bd beca 25bd
00000080: d5bd c8bd f08f f3bd b29b bcbd 3495 a2bd
00000090: 56a8 293d 009e 70bd dac5 953d 158f c9bc
000000a0: 7f13 243d 77fb a8bd b730 c5bd b3f3 67bd
000000b0: 5321 d4b8 1a0e 1139 dec9 073b cea2 e5bd
000000c0: 3004 913d a02a babd f3d4 cbbd 4800 91bd
000000d0: d1cf 26bd 42e5 9c3d b1ba 063e e132 3dbd
000000e0: b3c9 813d 4489 693d c1c2 1e3b 2121 82bd
000000f0: e77a 57ba 01af c03d 2449 58bd 501e 903d
00000100: 6f0e c339 5cbb b53d 8c3a e53c 9fac a63d
00000110: caf0 d5b8 b930 93bd 755a 46bb 65b7 0639
00000120: af5c 8f3d 0351 00bc 36f0 96bd 4ce8 b53d
00000130: 0e31 b0bd b801 7fba 6129 5dba 0820 8bbd
00000140: d2ac 44bd 82ec ad3d 12e1 8a3d 7ba1 11b9
00000150: 12a1 c8bd fa59 8cbd bdc6 a7bd e7e1 b53d
00000160: 5b55 31bd a4b4 8b3c fd53 8fbd ef2b 9cbd
00000170: be39 433d 433a 8abd abbc 7bbd ea35 883d
00000180: fa47 32bb ba35 bfbd 610d a8ba 0902 77bd
00000190: d68e 27b9 6aa4 313d 468a df3c 5d65 473d
000001a0: b0e6 7bbd 9869 8f3d 1da4 b53d 4616 833d
000001b0: 30d9 af3d e75a 613d 7957 a4bd dbf5 bb3c
000001c0: b1bb a1bd 81aa 163b b226 c6bd 15ca 41b9
000001d0: 75fa a9bd 201d e53d 7e6e fc3d 7426 563a
000001e0: 3508 a1bd e0c6 99bd 7ef6 643c 478e 73bd
000001f0: 6f75 b43d 1a36 b5bd 6ca7 903d 4f61 90ba
00000200: c218 8d3d 0999 fabd 0b2d 4bbd a208 b6bd
00000210: 1389 683d ff4b 413d bf7b d1b7 8a5e e1bd
00000220: c295 8d3d d178 9e3d 9e1d a63d 3066 e93d
00000230: 4193 353d ae94 92bd a9ef 6c3d b373 c13d
00000240: 9766 9abd f958 89bd 7b9b cb3d da6b 993d
00000250: 72f1 8ebd a05c 5c3d fc75 29bd 40e5 f6bc
00000260: f98b 4f3c bc90 4e3d 541d 9c39 8690 9dbd
00000270: 87ce 683d 37e5 ad3d a4b1 b13d f1b3 81bd
00000280: 257e 8f3d 273f 8d3d d330 8d3d 032c 2a3d
00000290: 09b5 c9bd 62c1 66bd a314 2b3d dbfb d33c
000002a0: 9e20 2fbd ac7e 03b9 239f 9e3d fce2 bf3d
000002b0: a14d 95b8 fe1e c8bd 35a8 f7bd aed0 62bd
000002c0: 344c a03d d6cf 0e3c 4226 163d cf06 22bd
000002d0: e2db c7bd 42c4 c3bd ed09 79bd 6332 17bd
000002e0: e7e1 68bd db5f 573d 8c27 5d3d 5576 8dbd
000002f0: 0109 403d e71c c3bc 9a1a 593d 505b 72bd
00000300: 2825 b8bd e643 0339 17a6 cd3d 05ae 8fbd
00000310: 0145 933d 10d7 5ebd 7baa ca3c 8f45 43bd
00000320: cea4 79bd 3f66 9c3d 3e2e 9abd 9c04 8fb9
00000330: c4c9 65bc 37fb 8a3d aa80 b73d 9443 60bd
00000340: 02f4 8639 60c4 463d 41bc a33d df3c 91bd
00000350: f1d9 4d3d 24af ad3d 9709 90bd 29bd 8bbd
00000360: aa36 a33d eca2 663d 68aa 65bd 2bb7 b1bd
00000370: 393f 1e3d ded6 e43a feba 563d 7d2c 8cbd
00000380: 0b93 53bd 0351 ebba 3143 e63d 1acf 91bd
00000390: a01b 94bd 0fba dbbd 7b47 a53d 1241 783d
000003a0: 7d66 c2bd bffa 2bbd 7ae7 523d 8b4d 8ebd
000003b0: fbcf ad3d 83ee 92bd 58c2 a23d 9332 9bbd
000003c0: 8b3b 893d 61e0 bc39 a86b 94ba 4c81 bebd
000003d0: 50c3 a9bd 84ca 04b9 5cbc 783d 3b7a 29bd
000003e0: 4aa7 0ab9 4f7b 8dbd a735 7d3d 94ab b33c
000003f0: 6cbb 83bd c546 9dbd 9d80 92bd 0219 cb3d

chords_tempNet.batchnorm_1.bias f4 [1024]
0.028761983 0.022191854 0.07423118 -0.0005205187 0.03417454 -0.0044222143 0.017910544 0.04140976
0.004588933 0.007416752 0.073172964 0.002120321 -0.0009210016 0.01892405 -0.015814165 0.048392754
0.009484385 0.0021640197 -0.0037268815 0.026178716 0.0051869596 -0.004994743 0.015696893 -0.00017316919
0.011123375 -0.005296262 0.006497327 0.010202609 -0.008859202 0.025916602 0.0075744963 0.013188205
0.073538326 0.08011988 0.00940095 0.06050016 -0.011454505 -0.007234935 -0.0097380085 -0.015441612
-0.001338034 0.0020348928 0.06794264 0.0577241 -0.00076520466 -0.0007532561 -0.00858761 0.016012738
0.0030072227 0.058710966 0.08000724 0.043541413 0.0035099087 0.06975797 0.07639874 0.06629743
0.049049444 0.048398603 -0.01330255 0.0544116 -0.0058732373 0.010211162 -0.008347876 0.049299944
-0.0019656895 0.07999242 0.028353466 0.0008770191 -0.0012836313 -0.0029483002 -0.003244388 -0.00065080775
-0.002690684 0.026261773 -0.003504175 0.06817041 0.07217797 -0.0048066047 -0.0045610345 0.046794236
0.061023206 0.077606425 -0.005166002 -0.0013580048 0.010272857 0.021340102 0.06589905 0.011294226
0.034508586 0.007751681 0.07341579 -0.0014126983 0.030748934 0.05044995 0.05063731 -0.0018990869
-0.0066177645 0.00083951466 -0.008712723 0.003101864 -0.0022790276 0.023869164 0.020871753 -0.011364383
-0.0048091835 0.007337903 0.0027093808 -0.00071312615 0.07342073 0.07826797 0.061438214 -0.011370094
0.059126094 -0.008396088 0.07715136 -0.0009378039 0.0063547683 0.012271951 0.015788218 -0.0049352865
0.0035593624 0.007991976 0.009763931 -0.0040869853 0.017596912 0.0090936795 0.0053703752 -0.0057841493
-0.004697512 0.082765475 -0.015733404 0.056685224 0.003971021 0.0116364155 -0.00084215414 0.014039302
-0.0044141775 0.07528595 0.050967917 0.075203046 0.032571603 0.06130582 0.0102771595 -0.0003758706
-0.004832284 0.036718864 0.0058012824 0.047096442 0.054017086 0.0014200851 0.030280793 -0.007643931
-0.002360677 -0.00029063612 -0.002634089 0.008206587 0.003541158 0.007554052 0.005866541 0.007736849
0.056959826 -0.0011778346 0.0040989667 -0.0021805952 0.042305265 -0.0052060517 0.041426823 0.022724098
0.0429949 -0.0015846398 0.0033755025 0.052975632 -0.00037008413 0.061862145 0.010374142 -0.010538411
0.06407403 -0.0004294869 0.06303418 -0.0031801958 0.0026625015 0.013723242 0.036032576 -0.0028104228
0.058195204 0.057247203 0.00064168253 0.012133125 0.0368063 0.011215695 -0.008146578 -0.0020159457
0.0055253212 -0.0012679845 0.011982477 0.0483032 -0.0045883292 0.031652138 0.008540129 0.047525514
-0.00085539045 0.004741508 0.060359772 -0.0030100672 -3.434067e-05 -0.00040416355 0.004448056 0.04548659
-0.0014761464 -0.012822957 0.06918799 -0.0038939242 -0.0026662406 0.0070630573 0.065560594 0.0057134037
0.0021550597 0.025650393 -0.01091619 0.0058095586 0.030256525 -0.0075960904 -0.0043912474 0.055557113
-0.01080218 -0.006852947 0.009657343 0.052820288 -0.0013809442 0.014633739 0.06760405 0.054404315
0.039417066 -0.0011333643 -0.012124886 0.041078266 0.006611076 0.06194206 0.04589513 0.002340077
0.04293066 -0.0028291729 -0.0062371613 0.002372041 0.043252926 -0.0025439647 0.05247059 -0.00052335527
-0.00079792703 0.055316165 0.00073290267 -0.0050123343 0.00066684047 0.0038480533 -0.0017037052 0.015807908
00000000: 409e eb3c b1cb b53c 8406 983d 6b73 08ba
00000010: 9afa 0b3d 39e8 90bb 22b9 923c 489d 293d
00000020: c35e 963b 3a08 f33b b5db 953d 15f5 0a3b
00000030: 5f6f 71ba 9c06 9b3c b58c 81bc 7b37 463d
00000040: 6564 1b3c 3ad2 0d3b b23e 74bb bf74 d63c
00000050: 5ff7 a93b f1aa a3bb c596 803c c094 35b9
00000060: d13e 363c 448c adbb 87e7 d43b d828 273c
00000070: 3026 11bc 0e4f d43c 7b33 f83b 5713 583c
00000080: 439b 963d e415 a43d 7106 1a3c 04cf 773d
00000090: adab 3bbc 0913 edbb 2b8c 1fbc d1fe 7cbc
000000a0: f960 afba d65b 053b 8325 8b3d 1b70 6c3d
000000b0: 0498 48ba 2976 45ba 0cb3 0cbc 252d 833c
000000c0: d314 453b e97a 703d d6da a33d 7b58 323d
000000d0: 7f06 663b 44dd 8e3d f176 9c3d f2c6 873d
000000e0: 12e8 483d 9d3d 463d f0f2 59bc b3de 5e3d
000000f0: 4974 c0bb b84c 273c 88c5 08bc bdee 493d
00000100: ccd2 00bb 11d3 a33d 8745 e83c c1e7 653a
00000110: 853f a8ba 4538 41bb cc9f 54bb f89a 2aba
00000120: 3056 30bb ee22 d73c 4da6 65bb ee9c 8b3d
00000130: 0bd2 933d b980 9dbb bb74 95bb 50ab 3f3d
00000140: 78f3 793d 1ef0 9e3d 9147 a9bb 14ff b1ba
00000150: 7c4f 283c 70d1 ae3c 15f6 863d 6b0b 393c
00000160: e058 0d3d d001 fe3b 055b 963d 4a2a b9ba
00000170: 30e5 fb3c 9ba4 4e3d 1169 4f3d c8ea f8ba
00000180: d5d9 d8bb e012 5c3a cfbf 0ebc a448 4b3b
00000190: bd5b 15bb 4489 c33c 3dfb aa3c ad31 3abc
000001a0: 5b96 9dbb cb72 f03b de8f 313b 16f1 3aba
000001b0: 9c5d 963d f54a a03d a3a6 7b3d a149 3abc
000001c0: 342e 723d bf8f 09bc 8801 9e3d f4d6 75ba
000001d0: a93b d03b 4b10 493c 4b56 813c 2fb8 a1bb
000001e0: 3144 693b c7f0 023c e5f8 1f3c 1eec 85bb
000001f0: 6627 903c a8fd 143c f9f9 af3b f688 bdbb
00000200: 96ed 99bb f280 a93d 57e3 80bc c42e 683d
00000210: 571f 823b aaa6 3e3c 02c4 5cba 1a05 663c
00000220: cea4 90bb 852f 9a3d bcc3 503d 0e04 9a3d
00000230: cd69 053d d01b 7b3d 8861 283c 7f10 c5b9
00000240: 2358 9ebb 8566 163d af18 be3b 33e8 403d
00000250: 0541 5d3d 2622 ba3a 6d0f f83c f179 fabb
00000260: 97b5 1abb 8560 98b9 aea0 2cbb ec74 063c
00000270: c612 683b fb87 f73b 1d3c c03b 6585 fd3b
00000280: b54e 693d 9261 9aba a050 863b 51e8 0ebb
00000290: 4948 2d3d 8797 aabb 2caf 293d e327 ba3c
000002a0: 6c1b 303d b0b3 cfba 8937 5d3b fafc 583d
000002b0: da07 c2b9 2963 7d3d 4ef8 293c 4da9 2cbc
000002c0: 3f39 833d c22c e1b9 1018 813d d56a 50bb
000002d0: 5d7d 2e3b 73d7 603c e596 133d 122f 38bb
000002e0: 185e 6e3d 0b7c 6a3d 9636 283a 04ca 463c
000002f0: 34c2 163d 09c2 373c 3a79 05bc f51d 04bb
00000300: c10d b53b 8032 a6ba 2752 443c 94d9 453d
00000310: b259 96bb aca5 013d e6eb 0b3c 1daa 423d
00000320: 483c 60ba a75e 9b3b cf3b 773d 8c44 45bb
00000330: 0309 10b8 eae5 d3b9 00c1 913b 2650 3a3d
00000340: 417b c1ba 6117 52bc 6fb2 8d3d 3531 7fbb
00000350: 18bc 2ebb 3871 e73b a244 863d 8137 bb3b
00000360: e73b 0d3b c620 d23c d2d9 32bc 1c5e be3b
00000370: 88dc f73c a0e8 f8bb 74e4 8fbb db8f 633d
00000380: a0fb 30bc b08e e0bb d539 1e3c 165a 583d
00000390: cc00 b5ba 5ac2 6f3c fe73 8a3d 0fd7 5e3d
000003a0: ca73 213d 658d 94ba 75a7 46bc af41 283d
000003b0: baa1 d83b f5b6 7d3d 88fc 3b3d fa5b 193b
000003c0: 0fd8 2f3d a569 39bb 1a61 ccbb 3f74 1b3b
000003d0: fb29 313d a5b8 26bb 67eb 563d c731 09ba
000003e0: fa2b 51ba 3493 623d 4420 403a 823e a4bb
000003f0: e8ce 2e3a 9f2f 7c3b dc4e dfba 967f 813c

chords_tempNet.batchnorm_1.running_mean f4 [1024]
0.040333174 0.024562744 -0.008431372 -0.025534617 0.014328876 0.021831458 -0.033948284 0.008415429
-0.012953403 0.08502867 0.012346545 -0.029162435 0.014348686 -0.06313965 -0.040451866 0.0054129404
-0.027696708 -0.015447976 0.05381439 -0.062346272 0.044798132 0.028055342 -0.0015569933 0.00029588552
-0.007693928 -0.04991251 0.015234565 0.05537516 -0.01710547 -0.005298061 0.077105835 0.004833087
-0.021093376 -0.0022945087 0.024097657 -0.015029781 0.0015915739 -0.0068034017 -0.041236542 0.053761266
0.02807361 -0.011164661 0.004399599 -0.0034824642 0.052516136 0.035377197 0.030893127 -0.031457525
-0.04662194 0.019620866 0.013366446 0.03997839 -0.041956253 0.013890186 -0.030668788 -0.033966113
-0.020698452 -0.010959524 -0.045930464 0.0017832567 -0.027156187 0.018676555 0.01007391 0.05663969
-0.00773898 0.025554055 0.03322604 -0.019778218 -0.056632474 0.011539642 -0.021308212 -0.009481563
-0.04156675 -0.027901731 -0.024501333 0.03756686 0.0062796334 -0.025010847 -0.022824604 0.011557074
0.005708789 -0.021701949 -0.10760926 0.03963184 -0.03475798 -0.0037877453 -0.038495813 0.012130132
-0.032986768 0.0022208653 -0.058419377 -0.010505389 0.003277431 0.0030209685 0.03264195 -0.04841651
-0.057399515 0.046625856 -0.04464259 -0.03421204 0.0064262636 -0.0068301912 0.028042115 -0.030567944
0.033199053 0.05703922 0.074714854 -0.024812507 0.0045588566 -0.010659662 0.0030556754 -0.060045965
0.009694906 -0.016338443 0.08357216 0.011826497 -0.017089436 0.013896065 0.0067653935 -0.0038715785
-0.036059286 -0.008527143 0.01539708 0.027329609 -0.02796336 -0.056723747 0.02915256 0.028759733
-0.026576553 0.050158817 0.030839792 0.028252251 -0.00940955 -0.008927841 0.021687472 -0.0026825445
0.02391719 0.007560292 0.02527191 -0.028048223 0.0065620393 0.046987742 0.06561076 0.03775194
-0.008161159 -0.005892545 0.087277845 0.01007009 0.029754598 0.016261559 -0.030976927 0.009272471
0.022129906 -0.05671965 0.052555643 -0.00032443358 0.015830763 -0.058710173 0.0008900014 0.016879627
0.04261235 0.0063059228 0.02258647 0.07421426 0.012588366 0.024728648 0.05102146 0.012865343
0.009091124 0.015636913 0.054056894 -0.039797243 0.023021989 -0.005069201 0.0036426452 -0.0104019735
-0.031182861 -0.020923784 0.013081895 0.012572021 0.028572073 0.012147483 0.0032753218 -0.06893153
-0.04586618 0.07058128 0.04757616 4.127534e-05 0.01107117 8.634666e-05 0.023730956 -0.035509728
0.0077562225 -0.05383405 0.04589967 0.03717925 -0.00085850153 0.024116168 -0.049339365 0.054834563
0.0074071516 0.040730182 -0.0033092515 -0.03513808 0.0589851 0.054597463 -0.023416499 -0.027991822
0.04786988 -0.024088573 0.046922058 0.043153405 -0.047800723 0.012627319 -0.03222603 -0.038510516
-0.016280726 0.10129902 0.0061992076 0.054145005 -0.008379311 -0.011518076 0.04928348 -0.042440195
0.03187955 -0.059821256 -0.0077807624 0.0031857123 -0.006818954 -0.03270755 -0.022576397 0.01552302
0.053978723 -0.013668208 -0.008264574 -0.010359975 0.0063441345 -0.021253206 0.018007206 -0.01123507
0.09375298 0.033655673 -0.01500658 -0.017647669 0.0053530843 0.03745148 0.02618936 -0.042049244
-0.020238664 -0.0018720045 -0.018629527 0.0013163635 -0.018204272 0.04074499 0.048228674 -0.010491412
00000000: 6634 253d cf37 c93c bd23 0abc f92d d1bc
00000010: a9c3 6a3c e3d7 b23c 5b0d 0bbd dee0 093c
00000020: 833a 54bc 8323 ae3d 2a49 4a3c 0fe6 eebc
00000030: c016 6b3c 5c4f 81bd dbb0 25bd 095f b13b
00000040: 35e4 e2bc 8219 7dbc 7a6c 5c3d ce5e 7fbd
00000050: 3f7e 373d 51d4 e53c 0714 ccba 1521 9b39
00000060: 591d fcbb 0f71 4cbd 669a 793c 10d1 623d
00000070: c520 8cbc 5b9b adbb aae9 9d3d df5e 9e3b
00000080: 04cc acbc 785f 16bb 7368 c53c 783f 76bc
00000090: 5c9c d03a 12ef debb a6e7 28bd c634 5c3d
000000a0: a1fa e53c fbeb 36bc 832a 903b 0e3a 64bb
000000b0: 291b 573d aee7 103d 9513 fd3c 9bd9 00bd
000000c0: a6f6 3ebd f0bb a03c f0fe 5a3c 61c0 233d
000000d0: 52da 2bbd aa93 633c 1c3d fbbc 0d20 0bbd
000000e0: cd8f a9bc 938f 33bc 9521 3cbd 2abc e93a
000000f0: a776 debc 93ff 983c 0a0d 253c 05ff 673d
00000100: 4597 fdbb bd56 d13c 0718 083d ee05 a2bc
00000110: 74f7 67bd c410 3d3c 8f8e aebc 8f58 1bbc
00000120: e541 2abd 2c92 e4bc 05b7 c8bc b5df 193d
00000130: 62c5 cd3b 8ce3 ccbc aafa babc e259 3d3c
00000140: cb10 bb3b 49c8 b1bc 3e62 dcbd ff54 223d
00000150: 625e 0ebd d23b 78bb c9ad 1dbd 76bd 463c
00000160: 221d 07bd f08b 113b 2849 6fbd cc1e 2cbc
00000170: 2bca 563b 71fb 453b 91b3 053d 6450 46bd
00000180: c11b 6bbd c1fa 3e3d 26db 36bd ed21 0cbd
00000190: 6893 d23b cccf dfbb 94b8 e53c a069 fabc
000001a0: bbfb 073d f5a1 693d 1a04 993d 9943 cbbc
000001b0: 7662 953b dda5 2ebc ba41 483b c2f2 75bd
000001c0: 62d7 1e3c 33d8 85bc e127 ab3d ecc3 413c
000001d0: 25ff 8bbc 52ac 633c 3cb0 dd3b 4fba 7dbb
000001e0: e7b2 13bd 6eb5 0bbc 0944 7c3c 58e2 df3c
000001f0: 6b13 e5bc 2957 68bd 59d1 ee3c 8899 eb3c
00000200: 12b7 d9bc 5573 4d3d bba3 fc3c 4471 e73c
00000210: 832a 1abc 1446 12bc eda9 b13c a1cd 2fbb
00000220: fced c33c 53bc f73b 0907 cf3c 63c5 e5bc
00000230: 6006 d73b 3876 403d ef5e 863d c7a1 1a3d
00000240: 62b6 05bc 4016 c1bb babe b23d 05fd 243c
00000250: eabf f33c f636 853c 53c3 fdbc 90eb 173c
00000260: c749 b53c dd52 68bd 9644 573d bd18 aab9
00000270: 84af 813c 147a 70bd fc4e 693a 2547 8a3c
00000280: 4a8a 2e3d eaa1 ce3b 4307 b93c a5fd 973d
00000290: 6f3f 4e3c bc93 ca3c e1fb 503d 29c9 523c
000002a0: f0f2 143c fc18 803c c36a 5d3d 6f02 23bd
000002b0: 9c98 bc3c 8a1b a6bb 72b9 6e3b 0a6d 2abc
000002c0: 3373 ffbc 5b68 abbc 7255 563c e1fa 4d3c
000002d0: fb0f ea3c 3d06 473c c8a6 563b f92b 8dbd
000002e0: 2dde 3bbd eb8c 903d 38df 423d 0f1f 2d38
000002f0: da63 353c 0315 b538 6c67 c23c a672 11bd
00000300: e927 fe3b 1881 5cbd 4b01 3c3d 4549 183d
00000310: 100d 61ba 458f c53c 1318 4abd 359a 603d
00000320: b1b7 f23b b1d4 263d 07e0 58bb f3ec 0fbd
00000330: 5c9a 713d 97a1 5f3d f5d3 bfbc 1b4f e5bc
00000340: 3513 443d 6655 c5bc 5831 403d a0c1 303d
00000350: b1ca 43bd d1e2 4e3c 71ff 03bd 34bd 1dbd
00000360: 285f 85bc dc75 cf3d b922 cb3b 27c7 5d3d
00000370: 6149 09bc 50b6 3cbc 79dd 493d c5d5 2dbd
00000380: 2294 023d 2207 75bd c4f5 febb 62c7 503b
00000390: 8871 dfbb 5af8 05bd 23f2 b8bc 4454 7e3c
000003a0: cb18 5d3d 9ff0 5fbc 2368 07bc e2bc 29bc
000003b0: 75e2 cf3b 341b aebc d983 933c 4d13 38bc
000003c0: 9001 c03d 88da 093d 29de 75bc d891 90bc
000003d0: ed68 af3b b966 193d 128b d63c d43b 2cbd
000003e0: 8ecb a5bc 0c5e f5ba f39c 98bc d489 ac3a
000003f0: 2021 95bc 38e4 263d 6e8b 453d 2ce4 2bbc

chords_tempNet.batchnorm_1.running_var f4 [1024]
0.013599198 0.03214527 0.008243237 0.016122892 0.006686555 0.014765925 0.0050975787 0.021297744
0.010526413 0.02061558 0.018718805 0.010896285 0.004428488 0.016172452 0.021039272 0.025139082
0.011164432 0.0079401 0.031043725 0.011893953 0.024260188 0.01783644 0.013879395 0.014420473
0.010780924 0.0071206945 0.0073638856 0.013255836 0.005667098 0.011084116 0.006474581 0.013998189
0.009669843 0.011844064 0.0061572753 0.01499271 0.026374208 0.019773578 0.01568492 0.0060408935
0.011770326 0.0066618887 0.008139284 0.011284874 0.015290192 0.007515997 0.011097981 0.023709347
0.0107934745 0.004633972 0.014763897 0.017416049 0.007924604 0.00836502 0.02023413 0.014299143
0.018901395 0.024015483 0.013589922 0.007170292 0.011343177 0.0070234356 0.02096018 0.018821636
0.023055501 0.012543196 0.013459754 0.0189164 0.011320173 0.011759447 0.0086738365 0.01141986
0.01878103 0.0116114635 0.019146373 0.019828051 0.015671661 0.009613349 0.010041572 0.016621964
0.005970734 0.009010076 0.01082735 0.009529335 0.011992768 0.021168323 0.017177084 0.009102204
0.03217784 0.016505066 0.011022782 0.010977384 0.012961873 0.013743589 0.019952847 0.018757958
0.022510791 0.005271742 0.008435691 0.0109905135 0.009923723 0.011780845 0.017612176 0.0274857
0.007903236 0.012703681 0.023525666 0.0059178136 0.0066326046 0.014594913 0.012827978 0.018264277
0.01384922 0.033253636 0.02040139 0.011737265 0.013186919 0.024155226 0.019419942 0.0118952105
0.007158996 0.022480935 0.005167446 0.009009341 0.011466018 0.018954378 0.01573311 0.013376099
0.0070591457 0.0196007 0.027151687 0.016139695 0.018759754 0.027674574 0.011157381 0.015424616
0.012902303 0.0165119 0.0068361266 0.007697323 0.01295894 0.005979787 0.0067359693 0.022077516
0.040724244 0.019265484 0.014788558 0.011431751 0.010031146 0.010399709 0.017591378 0.011563892
0.021844 0.018460233 0.013734004 0.013077731 0.004938716 0.024327425 0.026315218 0.010445106
0.016087398 0.021603653 0.021674579 0.0123453215 0.008200617 0.0072343913 0.017796434 0.009708321
0.0082731955 0.016140707 0.006411211 0.017396478 0.014101771 0.005141218 0.011605681 0.0121333245
0.016018042 0.012841343 0.02213055 0.0091312 0.0120248115 0.010347298 0.0149495285 0.01539303
0.010178532 0.009454195 0.012453169 0.022394856 0.0073265075 0.021273764 0.0059086313 0.014913586
0.009442806 0.009731199 0.015783627 0.011543341 0.009677088 0.011013148 0.0045412993 0.013619383
0.009681247 0.0055379285 0.01315328 0.009491197 0.014122085 0.020860616 0.009561567 0.015220673
0.009772646 0.01660564 0.0055974103 0.0071326755 0.009148865 0.00892441 0.010062183 0.011646913
0.005962778 0.0061661997 0.025540547 0.0065802573 0.025124272 0.015461782 0.01448132 0.010037608
0.003807549 0.017526118 0.007971194 0.004817734 0.021913249 0.018903898 0.008473787 0.009169175
0.017681785 0.01209832 0.018367046 0.017003747 0.016043335 0.009916674 0.009551957 0.0152707
0.011261717 0.0042452556 0.008487583 0.01117417 0.020378292 0.010153056 0.012939928 0.008412457
0.012572167 0.010539455 0.010172156 0.015575502 0.017878212 0.016463887 0.010065464 0.028161053
00000000: 2ccf 5e3c c2aa 033d a40e 073c 2814 843c
00000010: e41a db3b c7ec 713c 9709 a73b 9b78 ae3c
00000020: fa76 2c3c 01e2 a83c 2e58 993c 5586 323c
00000030: da1c 913b 177c 843c 8d5a ac3c 7af0 cd3c
00000040: 06eb 363c 3117 023c 694f fe3c dbde 423c
00000050: 4dbd c63c ba1d 923c 6766 633c d943 6c3c
00000060: 79a2 303c b754 e93b c04c f13b 022f 593c
00000070: 10b3 b93b 279a 353c b928 d43b a958 653c
00000080: 436e 1e3c 9b0d 423c f8c2 c93b fca3 753c
00000090: b90e d83c 33fc a13c a97d 803c b0f2 c53b
000000a0: 53d8 403c f94b da3b a25a 053c 31e4 383c
000000b0: b783 7a3c c148 f63b 4ed4 353c 1b3a c23c
000000c0: 1dd7 303c 93d8 973b 46e4 713c 1aac 8e3c
000000d0: 33d6 013c 700d 093c 0cc2 a53c f446 6a3c
000000e0: 19d7 9a3c 1ebc c43c 44a8 5e3c c5f4 ea3b
000000f0: bcd8 393c d924 e63b afb4 ab3c d52f 9a3c
00000100: e4de bc3c fa81 4d3c 4d86 5c3c 91f6 9a3c
00000110: 3f78 393c b2aa 403c b51c 0e3c 5d1a 3b3c
00000120: adda 993c 023e 3e3c dbd8 9c3c 706e a23c
00000130: db61 803c 4f81 1d3c 6885 243c c92a 883c
00000140: 26a6 c33b ff9e 133c 3365 313c ee20 1c3c
00000150: 517d 443c 3169 ad3c f5b6 8c3c 6921 153c
00000160: e9cc 033d a235 873c e698 343c 7cda 333c
00000170: 095e 543c ca2c 613c 2774 a33c 4aaa 993c
00000180: 8d68 b83c 94be ac3b da35 0a3c 8e11 343c
00000190: 1c97 223c 7204 413c 6947 903c b129 e13c
000001a0: 937c 013c 1a23 503c e6b8 c03c 38ea c13b
000001b0: 5256 d93b 811f 6f3c 702c 523c f79e 953c
000001c0: d7e7 623c f734 083d d120 a73c a84d 403c
000001d0: f20d 583c 2ee1 c53c 9216 9f3c 21e4 423c
000001e0: 0396 ea3b f029 b83c ae53 a93b ea9b 133c
000001f0: f7db 3b3c 3646 9b3c b9e2 803c 6d27 5b3c
00000200: 6850 e73b a691 a03c 376d de3c 6537 843c
00000210: 0eae 993c cab5 e23c 73cd 363c 87b7 7c3c
00000220: 2e64 533c f743 873c 9601 e03b d339 fc3b
00000230: bc51 543c 17f2 c33b 68b9 dc3b e8db b43c
00000240: 77ce 263d a6d2 9d3c b54b 723c 3d4c 3b3c
00000250: ad59 243c 8b63 2a3c cb1b 903c 7a76 3d3c
00000260: 30f2 b23c ea39 973c 9704 613c fb43 563c
00000270: f4d4 a13b 4f4a c73c 0393 d73c f321 2b3c
00000280: b8c9 833c 25fa b03c e38e b13c 0844 4a3c
00000290: e15b 063c 790e ed3b d4c9 913c a60f 1f3c
000002a0: 4c8c 073c 8439 843c 2315 d23b 0f83 8e3c
000002b0: 1d0b 673c aa77 a83b c125 3e3c daca 463c
000002c0: 4538 833c 7f64 523c 214b b53c 079b 153c
000002d0: b703 453c b787 293c deee 743c 0c33 7c3c
000002e0: dcc3 263c c5e5 1a3c 6008 4c3c 6b75 b73c
000002f0: 3313 f03b 5146 ae3c 319d c13b 1d58 743c
00000300: 00b6 1a3c 9b6f 1f3c aa4c 813c 4820 3d3c
00000310: a68c 1e3c 7e70 343c 2ecf 943b d523 5f3c
00000320: 189e 1e3c 8377 b53b db80 573c f780 1b3c
00000330: 5160 673c e2e3 aa3c 1ea8 1c3c 2160 793c
00000340: 731d 203c 8d08 883c 7b6a b73b 38b9 e93b
00000350: 1fe5 153c b037 123c dbdb 243c b2d2 3e3c
00000360: 6863 c33b d50d ca3b 693a d13c 339f d73b
00000370: 6bd1 cd3c 6a53 7d3c 0f43 6d3c c874 243c
00000380: 1288 793b ef92 8f3c 9c99 023c 15de 9d3b
00000390: 6a83 b33c 59dc 9a3c a4d5 0a3c 4f3a 163c
000003a0: 64d9 903c 0838 463c 7d76 963c 714b 8b3c
000003b0: 506d 833c 8c79 223c d07f 1c3c f531 7a3c
000003c0: 1183 383c c91b 8b3b 810f 0b3c de13 373c
000003d0: 60f0 a63c 0159 263c fe01 543c 67d4 093c
000003e0: 7efb 4d3c aead 2c3c 1da9 263c 6430 7f3c
000003f0: 5475 923c 46df 863c 9ee9 243c 02b2 e63c

chords_tempNet.batchnorm_2.weight f4 [32]
0.16863649 -0.018038062 -0.08345838 -0.05770165 0.050416183 -0.04879503 0.02554068 0.031574525
0.025264235 0.038337894 -0.08623379 -0.06190193 0.04905664 0.039612416 0.02248507 0.04623726
0.12795064 0.026035534 -0.041823313 -0.068332896 0.07058574 -0.024833195 -0.046375625 0.01503478
0.061286923 -0.066490054 -0.040971626 -0.0913143 0.05360898 0.038126104 -0.017712368 -0.09430828
00000000: 0baf 2c3e 8fc4 93bc 3aec aabd 9158 6cbd
00000010: 3381 4e3d 4cdd 47bd b03a d13c 4a54 013d
00000020: f1f6 ce3c 3208 1d3d 579b b0bd e18c 7dbd
00000030: 9eef 483d a140 223d 9c32 b83c 4863 3d3d
00000040: 7e05 033e 7948 d53c ec4e 2bbd 1ef2 8bbd
00000050: 428f 903d fc6e cbbc 5ef4 3dbd 7054 763c
00000060: ff07 7b3d f02b 88bd ddd1 27bd fe02 bbbd
00000070: 1795 5b3d 1e2a 1c3d 8719 91bc b324 c1bd

chords_tempNet.batchnorm_2.bias f4 [32]
0.02551173 0.018625613 0.010849054 0.037271477 -0.0015725867 -0.00037331253 0.010567048 0.042673416
0.01132676 0.009329136 0.02267576 0.0017760386 0.050373342 0.005433769 0.036773045 0.037122272
0.085642025 0.01907175 0.022908695 0.03608659 0.025011512 0.0030062883 0.02876499 0.009813937
0.024846828 0.025876535 0.02440353 0.040511113 0.0120970225 0.016651094 0.0102634765 0.05035732
00000000: fafd d03c be94 983c 3bc0 313c faa9 183d
00000010: 411f ceba 29b9 c3b9 6921 2d3c 52ca 2e3d
00000020: e093 393c 3cd9 183c 84c2 b93c f7c9 e83a
00000030: 4754 4e3d c20d b23b 559f 163d 860d 183d
00000040: 1665 af3d 5c3c 9c3c 04ab bb3c 88cf 133d
00000050: f1e4 cc3c 2605 453b 8ea4 eb3c a3ca 203c
00000060: 938b cb3c 07fb d33c e9e9 c73c fbee 253d
00000070: 9732 463c e067 883c 2428 283c 7a43 4e3d

chords_tempNet.batchnorm_2.running_mean f4 [32]
0.16687071 -0.12713423 -0.012119553 -0.11460234 -0.13846956 -0.015372498 -0.036190167 0.15466875
0.012450964 -0.09627066 -0.1404598 -0.052472692 -0.058258526 -0.100172944 0.123658895 0.15480167
-0.024726015 0.0950094 0.02033797 -0.039380156 -0.09020073 -0.14481105 -0.17740217 0.003122901
-0.14171156 0.0015243214 0.120209076 0.107011154 -0.06456302 -0.121417396 -0.0100292135 0.099080354
00000000: 28e0 2a3e 7a2f 02be 1791 46bc a2b4 eabd
00000010: f7ca 0dbe eedc 7bbc 243c 14bd 7c61 1e3e
00000020: 21ff 4b3c 8d29 c5bd b2d4 0fbe 9bed 56bd
00000030: 7ea0 6ebd 7927 cdbd e040 fd3d 5484 1e3e
00000040: 368e cabc 4a94 c23d d19b a63c 164d 21bd
00000050: 29bb b8bd 5949 14be eaa8 35be 96a9 4c3b
00000060: d61c 11be bdcb c73a 2d30 f63d aa28 db3d
00000070: 9e39 84bd afa9 f8bd 9251 24bc a4ea ca3d

chords_tempNet.batchnorm_2.running_var f4 [32]
0.00012961806 0.00010888965 0.0002445107 0.0001671293 5.4510143e-05 0.0001373697 5.889966e-05 4.136364e-05
0.00016293848 0.00018842629 0.00044740748 5.612031e-05 0.00020590065 5.9046226e-05 0.00012747454 0.000107788816
0.00019655252 0.00010428943 0.00017732226 0.00011327351 0.00019861726 7.3146e-05 9.292779e-05 6.939046e-05
0.00018838693 0.00049733656 0.00024842896 5.844623e-05 0.0002046588 7.055253e-05 0.0002024763 0.0002140077
00000000: 15ea 0739 b05b e438 ac31 8039 6e3f 2f39
00000010: d2a1 6438 e60a 1039 070b 7738 df7d 2d38
00000020: 77da 2a39 4c94 4539 0492 ea39 b962 6b38
00000030: 09e7 5739 67a8 7738 b0aa 0539 ae0c e238
00000040: aa19 4e39 f6b5 da38 95ef 3939 418d ed38
00000050: ea43 5039 f665 9938 3ae2 c238 b885 9138
00000060: bb89 4539 b15f 023a 923f 8239 2924 7538
00000070: ae99 5639 9af5 9338 d14f 5439 4167 6039
